checkpoints/checkpoint_1000.pth (torch, 375776 bytes, 6 tensors)

W f4 [10000, 2]
000000 e4 59 69 bb 0d 77 a5 ba b1 bd a0 3e 73 89 9f 3e
       -0.0035606558 -0.0012623981 0.31394723 0.31159553
000010 06 bb 85 3b 3e b4 68 bc 0e e5 ec b9 66 bb 8c bb
       0.004081133 -0.014203129 -0.00045184087 -0.0042948006
000020 ed d8 ed 3c 82 8d cd bb ed f6 95 b9 57 d5 8d b9
       0.029034102 -0.0062729726 -0.0002860347 -0.00027052566
000030 78 d1 2c 3d 21 83 ea 3e fe 74 b6 3b d4 e8 da 3b
       0.042191952 0.45803168 0.005568146 0.0066805873
000040 e1 d6 f3 38 5a 6e c5 38 f1 6d 48 bd 51 c3 c6 3c
       0.00011627167 9.4142466e-05 -0.048932973 0.024263056
000050 f7 e0 62 37 a6 a1 a9 37 15 58 9c bb 38 54 82 3d
       1.3523028e-05 2.0221643e-05 -0.0047712424 0.0636372
000060 e8 e1 27 bc 7b 29 22 3c 5f 9a 25 38 1e 8b 5f 37
       -0.010246731 0.009897585 3.9482835e-05 1.33242265e-05
000070 54 e0 e6 3b f6 7a ee 3a 11 da 1f 3b d8 c3 c2 3b
       0.007045785 0.0018194604 0.0024391452 0.0059437566
000080 a1 11 09 bc 0e 59 b5 ba 5f d2 04 3f fb 59 98 be
       -0.008366019 -0.0013835744 0.518835 -0.2975615
000090 d9 10 07 bd 61 04 b1 bc dc 55 9c 3b ac a9 46 bc
       -0.03297505 -0.021608533 0.0047709774 -0.012125414
0000a0 11 fa c1 bb f5 47 38 ba 25 51 c7 bc e7 41 93 bc
       -0.005919703 -0.00070297654 -0.024330685 -0.01797576
0000b0 fd cb 69 3b 5b d4 74 3a 5c fc 0e bc 83 65 b7 ba
       0.0035674565 0.0009339505 -0.008727159 -0.0013992045
0000c0 d6 c3 1d bb 1d 05 30 3b 68 3c ce bb c3 1b cf bb
       -0.0024073026 0.0026858517 -0.006293822 -0.006320448
0000d0 cc a6 c4 3b e4 55 b4 3a 01 b5 53 ba 34 e3 9f bb
       0.006001329 0.0013758508 -0.0008075983 -0.0048793796
0000e0 e2 32 9e bb 82 7a 18 bc 7f ab 1c 3d ca 93 3b 3e
       -0.004827843 -0.009306552 0.03824949 0.18318096
0000f0 8d fa e5 bd 39 da 9a 3b 81 5c 17 bb e8 ac d8 3b
       -0.112294294 0.004725721 -0.0023095908 0.006612409
000100 42 01 1a 3b 19 89 5e 3c 1c 83 88 bf e5 71 01 3e
       0.0023499285 0.013582491 -1.0665011 0.12641104
000110 4c 29 38 3d 01 9b b8 bd 56 c3 67 38 60 65 af 38
       0.04496126 -0.0901394 5.5256613e-05 8.363533e-05
000120 7c e7 01 ba 49 04 36 bb f1 e8 01 38 49 65 af 37
       -0.00049554533 -0.002777355 3.097294e-05 2.090879e-05
000130 7a 62 44 3e d2 b8 35 3e 4a df 51 bc 90 a8 95 3b
       0.19178191 0.17746285 -0.012809584 0.0045672134
000140 5a e6 36 ba e4 1b a1 39 bd bf e7 39 67 8b 2c 37
       -0.0006977074 0.00030729093 0.0004420261 1.0284456e-05
000150 ec 27 00 3c 90 63 28 bb 33 80 8c 3d fe 64 9f 3d
       0.007822018 -0.002569411 0.068603896 0.077829346
000160 3a 3c 03 be 4c d7 fa bd 3a 77 30 3d 2d 21 42 3f
       -0.12815943 -0.12248096 0.043082453 0.7583187
000170 29 45 62 3c 28 6a c9 be 09 43 c4 b8 5e 1d f8 bb
       0.013810434 -0.39338803 -9.3584946e-05 -0.00757186
000180 44 d6 ca bc 16 84 b0 3c d3 6d aa 39 2d 6f 91 b8
       -0.024760373 0.021547358 0.00032506752 -6.934847e-05
000190 29 2f d0 39 df b4 1c 39 09 ae 98 38 14 0d 7f 38
       0.0003970799 0.00014944699 7.2803414e-05 6.0808918e-05
0001a0 11 9b d8 38 2c 93 a8 38 ef 1d f1 35 d0 6f 47 36
       0.00010328566 8.038277e-05 1.7964611e-06 2.9718394e-06
0001b0 41 71 10 39 8d 5d f2 38 84 59 7f 38 d0 6b 1a 35
       0.000137751 0.000115568844 6.0880106e-05 5.752636e-07
0001c0 13 3d b7 3b 62 49 8a bb 5f eb 67 ba da fc 83 3b
       0.0055919974 -0.0042201737 -0.0008847024 0.004027945
0001d0 3a 03 0d bc e0 57 d0 bb 16 a2 35 3c 9c 2f 2d bc
       -0.008606726 -0.0063581318 0.011086008 -0.010570433
0001e0 df 8f 04 3c b1 f6 43 bc 74 eb ed bc a3 bb 38 3c
       0.008090942 -0.011960671 -0.029042937 0.011275205
0001f0 46 8a b1 bd 43 7f bc bd b3 1f 30 bf cc 58 79 bb
       -0.08668952 -0.09203961 -0.6879837 -0.0038047312
000200 0f e5 da 3b 87 b8 83 ba cb a3 97 3b 22 7a 40 3b
       0.006680138 -0.00100495 0.00462768 0.0029369672
000210 0d 2f 26 39 bb 0a b3 b7 2b 19 99 b9 3d 54 ef b6
       0.00015848521 -2.134346e-05 -0.00029201186 -7.1325617e-06
000220 53 3c 47 3a e6 c5 e1 3b ec df 8e bc 57 1c d6 ba
       0.00076002366 0.0068900464 -0.017440759 -0.001633535
000230 0f 1d e5 bb 1b 3e bf 3b 78 2b 15 3b a8 28 13 bb
       -0.0069919894 0.005836261 0.0022761505 -0.0022454653
000240 81 18 c5 38 9f 9e 88 38 23 3a 7e bb 36 1e 6e ba
       9.398256e-05 6.514531e-05 -0.0038791976 -0.0009083481
000250 f4 e4 75 3a c8 ee 87 3a b9 ac f1 3d 8b 19 a3 3d
       0.0009380125 0.0010370845 0.11800522 0.07963856
000260 f2 39 c5 3a 33 03 70 bb 01 b4 77 bb 43 60 25 3a
       0.0015047176 -0.0036623 -0.00377965 0.00063085946
000270 a7 7a 9d 38 f8 7d 86 38 15 eb da 38 3d f0 a3 38
       7.509189e-05 6.4130814e-05 0.000104388375 7.8171935e-05
000280 96 20 d3 39 b0 5d a4 ba 49 d7 34 ba 62 cc 74 bb
       0.00040269335 -0.0012540128 -0.0006898535 -0.0037353267
000290 47 35 15 bc a1 74 ec 3b 5e 75 9c 3b 59 d7 c2 ba
       -0.009106941 0.0072160517 0.0047747334 -0.0014865204
0002a0 1f 8f de 3c e6 9b dc 3b 61 43 04 39 e2 37 72 38
       0.027167855 0.0067324517 0.00012613602 5.774934e-05
0002b0 b8 94 ba 39 8c 61 a9 38 7f c0 30 39 bf c0 10 39
       0.0003558749 8.0767175e-05 0.00016856378 0.00013804714
0002c0 f7 c6 c0 3b 6d 39 6f 3b ec 97 e8 38 f1 06 aa 38
       0.0058830935 0.0036502734 0.0001109092 8.1075246e-05
0002d0 18 70 6e ba 51 ad f9 bb 82 02 1a 3b 4b 82 e0 bb
       -0.0009095683 -0.007619538 0.002350003 -0.0068514696
0002e0 06 ad 4c 3a 26 bc 06 b9 8d a1 44 3d 00 7f 5d 3d
       0.0007807765 -0.00012849327 0.04800563 0.054076195
0002f0 8b e8 0c 3e 8a b5 68 3d 2b 00 9c 38 4e 46 6a 38
       0.13760583 0.056813754 7.438691e-05 5.5855424e-05
000300 d3 f7 39 3b 54 87 49 3c 4b c8 e7 b8 7e cb 16 39
       0.0028376475 0.012300331 -0.00011052246 0.00014380921
000310 bf 9c cc bb 09 e8 19 3c 79 12 c2 bb 0b fb 2e bb
       -0.0062442715 0.0093937 -0.0059226123 -0.0026699926
000320 ce af 34 bb 49 08 01 3c c8 45 2a be 38 5d a7 be
       -0.0027570608 0.0078755105 -0.16628182 -0.32688308
000330 db 5c f5 b8 42 24 11 3b e2 64 4d 38 7c a0 17 38
       -0.00011699806 0.0022146855 4.8969763e-05 3.6150668e-05
000340 d5 27 ed 38 3a 9c b9 38 6e ce 9c 3b fc b7 69 ba
       0.0001130846 8.850587e-05 0.0047853505 -0.00089156604
000350 e1 18 09 bb 4c 72 1c bc 25 1b a7 37 ab 72 0a 38
       -0.002091937 -0.009548735 1.9920592e-05 3.3008557e-05
000360 55 6a 0d ba e3 f0 95 ba 2e 9b 51 39 53 53 2c 39
       -0.0005394568 -0.0011439588 0.00019989602 0.00016434239
000370 72 5d c4 39 50 82 71 37 eb 44 ee 3b 4b 28 1c 3c
       0.00037453655 1.439506e-05 0.0072713993 0.009531091
000380 99 58 a1 38 2e e3 b6 38 82 f5 3e b7 7c 47 56 39
       7.693581e-05 8.720752e-05 -1.1382044e-05 0.0002043526
000390 9b be 5f be 17 dc f0 bd 2f 5b 08 3b ff c4 cf 3b
       -0.21850054 -0.11760729 0.0020806303 0.0063406224
0003a0 dd 89 ef 3a 8a 3a e9 bb 19 7b 95 3b 4b 51 21 ba
       0.0018275339 -0.007117574 0.0045617935 -0.0006153776
0003b0 ba d3 82 ba 2a b0 ef 3a 81 96 f6 3a 50 ec 8b bb
       -0.0009981312 0.0018286754 0.0018813164 -0.004270114
0003c0 8b 26 c0 3b 42 58 06 3b ff 23 8c 39 a0 e3 61 39
       0.0058639697 0.0020499383 0.000267297 0.00021542469
0003d0 2c 24 29 3f 28 fd 5c be 0a 89 cc bb f0 3c d2 ba
       0.6607082 -0.21580946 -0.0062419223 -0.0016039889
0003e0 d5 2a 31 38 17 21 88 38 5d 86 2d 39 5b f3 42 36
       4.223998e-05 6.491149e-05 0.0001654862 2.9049904e-06
0003f0 13 da 2a bc 24 7c ab 3b 58 c1 b1 bb de 3b 14 bc
       -0.0104279695 0.0052333046 -0.0054246597 -0.009047477

b f4 [10000]
000000 d5 a0 b5 bb 79 0d 21 bf 02 fc b3 bc 56 4b 03 38
       -0.0055428543 -0.6291118 -0.021970753 3.1302996e-05
000010 ed 7c 34 bd 49 74 c7 39 46 cd 31 bf 27 88 5a bc
       -0.04406445 0.00038042877 -0.6945385 -0.013338125
000020 b0 b9 e4 39 7e d1 a6 bd e6 08 49 39 dc 92 c4 bd
       0.00043625897 -0.08145426 0.00019172169 -0.09598324
000030 57 de ad bc 73 56 df 38 d1 80 33 bc a0 a2 23 bc
       -0.021224184 0.00010649571 -0.010956005 -0.009987503
000040 14 e4 4b bc a9 8a 61 bf 1e a4 6c bd cb 56 9e bc
       -0.012444515 -0.88102204 -0.0577737 -0.019328495
000050 3a f7 a4 bc 19 13 36 bd b7 fe b5 bb 84 ad 54 bc
       -0.020137418 -0.044451807 -0.005554046 -0.0129808225
000060 b8 60 b0 bb bf ae 58 bc 33 21 18 bc 55 80 ee bb
       -0.0053826235 -0.013225256 -0.009285259 -0.007278482
000070 f4 84 7f bc 3b 59 90 be 74 62 2a be 92 74 2a bc
       -0.015595663 -0.28193077 -0.1663912 -0.010403769
000080 1b 86 aa bc e4 32 ca bf 5c f1 09 be f1 f4 5a 39
       -0.0208159 -1.579678 -0.13470978 0.00020881348
000090 ee 24 88 bb 3e 90 0b 39 68 fd ce be 39 cc a4 bc
       -0.004154793 0.00013309807 -0.4042771 -0.020116912
0000a0 08 4c 28 3a c8 4b f9 39 49 ea 49 bc b8 30 09 be
       0.0006420021 0.00047549442 -0.012323924 -0.13397491
0000b0 9e 28 80 be 3c 8a 92 bf a1 e7 0e bf 0a d4 36 bc
       -0.25030988 -1.1448436 -0.5582219 -0.0111589525
0000c0 f2 6b 47 bd 89 83 12 3a c7 7f 41 39 dc ff be 39
       -0.04868693 0.0005589058 0.00018453515 0.00036430254
0000d0 10 ce ce 39 3f 88 1c 37 48 93 3d 3a ac ec 4e 39
       0.0003944491 9.330047e-06 0.00072317244 0.00019733858
0000e0 57 04 2b bc 07 6e 44 39 7c dc 80 bc 0f 8f ba bc
       -0.010438046 0.00018733005 -0.015730135 -0.022773294
0000f0 b6 39 af bc cb 3f 3c bd 17 a9 3f be 07 ba 7a bf
       -0.021389823 -0.045959275 -0.18716846 -0.97940105
000100 b7 60 26 bc 7b a8 09 bc c4 53 14 3a a6 db 12 3a
       -0.010154895 -0.008401985 0.0005658234 0.0005602188
000110 95 b1 2b bc ac 4e d4 bc cd cc 5d bc 75 8c 9b bb
       -0.010479351 -0.02591642 -0.013537598 -0.0047469684
000120 ac b6 ee 39 77 3e c0 bb ee 3b 0d bb 31 2e 5f be
       0.00045531 -0.0058668214 -0.0021550613 -0.21794964
000130 f6 37 c0 bb e6 5b 9b 39 dd 7f 92 39 04 00 ec 39
       -0.005866046 0.00029632373 0.00027942556 0.0004501344
000140 0f 5a 00 bb 42 1b 1b 3a 05 e8 8d bc 43 26 f5 bb
       -0.001958493 0.00059168425 -0.01732255 -0.007481368
000150 97 40 2c bd 5d cb 0e 3a f2 39 f3 39 3b 79 57 3a
       -0.042053785 0.00054471736 0.00046391744 0.0008219664
000160 ca f8 2d bc fd 52 07 3a 8f 41 38 bc 7b 5d 30 bc
       -0.010618398 0.00051622075 -0.011246099 -0.010764475
000170 32 b4 57 3a af ce e3 bd d0 8a 69 be 8d 5a af 39
       0.00082284503 -0.11123406 -0.22806859 0.00033446067
000180 3a b6 9c bc 2d 6c fe 38 40 46 89 bc db 9b 1c bc
       -0.019129861 0.00012131813 -0.01675713 -0.009558643
000190 45 ce 4a bc 04 81 0b bf 27 3d 86 39 19 64 68 39
       -0.01237828 -0.5449374 0.00025604034 0.00022162533
0001a0 38 d7 04 3a 80 6e c3 39 18 39 6c bc 8f 57 0e 3a
       0.00050674705 0.00037275627 -0.014417909 0.00054299174
0001b0 33 2f f6 ba d2 7b e0 39 f1 43 43 3a 13 5b 96 bc
       -0.0018782377 0.00042816863 0.0007448784 -0.018353974
0001c0 40 43 f7 39 be f9 1f 3a a3 10 bb be 28 9d 28 bc
       0.00047161616 0.0006102583 -0.3653613 -0.010291375
0001d0 f5 a4 32 bc 60 30 28 3a c3 47 4c bb 57 fa e1 bb
       -0.010903587 0.00064159 -0.0031170703 -0.006896298
0001e0 81 46 1b bc 84 7a 5c 3a b3 16 85 bf 73 87 1b bc
       -0.009477259 0.000841059 -1.0397552 -0.009492743
0001f0 66 5e 9d 39 7e e9 a1 39 f3 9a 8e bc 44 6b 80 bc
       0.00030015706 0.00030882278 -0.01740787 -0.015676148
000200 05 c5 1e be 58 28 b9 bc 5d 2e 2e bc 40 c8 08 bc
       -0.15504844 -0.022602245 -0.010631171 -0.008348525
000210 19 0a 53 39 ae e7 f8 bf b3 c5 2a bc 72 a7 4c bc
       0.0002012629 -1.9445703 -0.010423112 -0.012491094
000220 81 98 4f bf d5 9b 1b bb 4b b3 0f be e2 47 ca bb
       -0.8109208 -0.0023744006 -0.14033239 -0.00617312
000230 ab 48 75 39 bc d9 fa be 28 48 a6 39 b6 97 51 bc
       0.00023392092 -0.48994243 0.00031715748 -0.012792518
000240 f5 30 03 be 09 d8 a6 bc 2b 93 c6 ba 4d c5 26 bd
       -0.12811644 -0.020366685 -0.0015150061 -0.040715504
000250 af 9d 33 bc 71 b8 e0 bd 39 eb 97 bb 22 0b 06 3a
       -0.010962888 -0.109726794 -0.004636195 0.0005113353
000260 7d e6 a0 ba bb 4f 3a bb 37 2a b0 39 6b 41 1e 3a
       -0.0012275722 -0.002842887 0.00033600788 0.000603697
000270 36 77 a3 39 24 c8 33 bc e5 e1 7c bb 16 db 9b be
       0.00031178602 -0.01097301 -0.0038586792 -0.30440587
000280 97 44 db 39 9c 74 72 bc c5 4b 53 39 b5 0f 3c 3a
       0.00041822038 -0.01479831 0.00020150754 0.00071739714
000290 9d 91 3a bc f2 65 53 39 23 48 4f bf 3e f5 c9 b9
       -0.011387256 0.00020160506 -0.80969447 -0.00038520427
0002a0 de b7 ee bb 19 77 21 bd f7 16 ba 39 52 71 26 bc
       -0.0072851023 -0.03942022 0.00035493795 -0.010158854
0002b0 c1 e4 cb bb 44 5e 2a bb 82 79 4c bd fc f5 77 39
       -0.006222338 -0.0025996128 -0.049920566 0.00023647392
0002c0 7b 34 52 bc bc 21 15 bf 4e ac c2 39 62 8d 39 3a
       -0.012829895 -0.582546 0.0003713094 0.00070782576
0002d0 a7 a0 76 bc a8 fb 25 bc e6 b5 06 bd 8c 6c fe bb
       -0.015052951 -0.0101308 -0.032888316 -0.0077644046
0002e0 94 59 22 3a 32 25 b8 bd 4f 9a 08 be 12 88 0f bc
       0.0006193158 -0.089914694 -0.13340114 -0.008760469
0002f0 23 50 4e bd db c7 8b bb 53 7c 22 3a af 4e e6 bc
       -0.050369393 -0.004265768 0.00061983353 -0.028113691
000300 c2 e1 3c 39 a7 4f 3d be 23 d1 9c bc b3 e0 07 3a
       0.00018013178 -0.18487416 -0.019142693 0.0005183324
000310 6f 66 bf bd 3f 88 00 3a 0f 89 22 bc 71 29 cd be
       -0.093457095 0.0004903115 -0.009920373 -0.4007068
000320 c1 fe d1 38 c7 9c 52 bf e2 11 e9 bd 5c e8 d6 bc
       0.00010013348 -0.82270473 -0.11380364 -0.026233844
000330 ee 38 68 bc 27 f4 d3 bb 72 00 db be 9e f3 89 39
       -0.014173729 -0.006468314 -0.42773777 0.00026312185
000340 b9 78 be 39 e3 7e 0a bf 4c f6 8d bf ac 1e 03 3a
       0.0003632957 -0.54099864 -1.1090789 0.0005001824
000350 34 00 92 bb 99 df d0 be 64 fe c4 bb 31 91 27 3a
       -0.0044555906 -0.4079559 -0.006011771 0.00063921796
000360 7d 31 40 bc e3 18 1d bc 2a 2c cb 39 72 d7 93 bd
       -0.011730549 -0.009588453 0.00038752082 -0.07218827
000370 fa e4 f8 bb 14 66 e7 39 cc 1d 4e bd 21 87 80 bf
       -0.0075956555 0.00044135808 -0.050321385 -1.0041238
000380 c2 1e c6 bc e9 09 39 3a 3e 59 e5 bb 60 9b 86 bc
       -0.024184588 0.00070586667 -0.006999164 -0.01643151
000390 4e 50 27 3a 2f 72 d6 38 7e 12 67 bc 28 bc 65 bc
       0.0006382511 0.000102255835 -0.01410353 -0.014021911
0003a0 a9 0d 49 bc f2 af 17 bc 29 2d 4e bb 96 84 b6 ba
       -0.012271323 -0.009258257 -0.0031460023 -0.0013925012
0003b0 08 3a a9 3a 57 38 66 be 13 54 22 bc cd 67 b2 bc
       0.0012910971 -0.2248243 -0.00990774 -0.021778012
0003c0 f5 9a 65 be 83 06 45 bf b5 8e 3e bc 9c 33 1f 3a
       -0.22422393 -0.7696306 -0.011630704 0.0006073059
0003d0 e4 4e 66 bf 0c 01 6f bf 85 b3 71 3a 01 7d 35 39
       -0.8996413 -0.9336097 0.0009220171 0.00017308073
0003e0 02 87 5a 3a c0 ad 5c bc 3b de 31 bc 0d 22 4f bc
       0.0008336158 -0.01346916 -0.0108562065 -0.012642396
0003f0 b6 76 4d bd 7b ad cd 39 87 7f f9 bb 67 90 17 bc
       -0.05016204 0.000392299 -0.0076140794 -0.009250737

exp_avg f4 [10000, 2]
000000 06 57 a5 aa 9c 63 aa a9 32 26 21 af f0 d7 45 af
       -2.9370272e-13 -7.566796e-14 -1.4656434e-10 -1.7993762e-10
000010 ce 4b ca 2a f4 6d a1 ab d3 5c b1 ab 4a bb a2 2c
       3.5935008e-13 -1.1470256e-12 -1.260237e-12 4.62511e-12
000020 fd fd 5d ac 42 1d 8b ac 06 2f 8f a9 17 2d 85 a9
       -3.154698e-12 -3.953866e-12 -6.358633e-14 -5.914208e-14
000030 90 36 6e ae 54 15 2b ae 77 16 28 2b 2a 51 18 2b
       -5.4163396e-11 -3.889984e-11 5.9716766e-13 5.4113886e-13
000040 e1 b9 9d 28 a6 ba 04 29 67 53 2e ac f3 c0 11 aa
       1.7511114e-14 2.947178e-14 -2.4773185e-12 -1.294553e-13
000050 fa 29 1b 27 91 5b 06 28 1e f5 40 ac 00 e1 f1 ac
       2.1533327e-15 7.4583496e-15 -2.7420908e-12 -6.874612e-12
000060 12 ac 2b 2b 37 6c f4 aa 57 08 4e 27 3c 2e 77 27
       6.09902e-13 -4.3418196e-13 2.8592764e-15 3.43032e-15
000070 98 44 1b 2b 93 96 96 2a 28 23 83 2a 9f 5c 03 2b
       5.5162255e-13 2.6749834e-13 2.329467e-13 4.6669087e-13
000080 ee 44 2f ab de 4a 22 a8 cb 95 2d af 79 6a d6 2d
       -6.226815e-13 -9.009041e-15 -1.5787475e-10 2.4376267e-11
000090 9b fc 53 2c 5c 3e 35 ac 28 6b c5 2a 8c 89 9d ab
       3.0125128e-12 -2.5756263e-12 3.5068584e-13 -1.1193698e-12
0000a0 38 0f 48 2d 72 1e 36 ad 42 33 0f 2c ff 1f 1a ab
       1.1372063e-11 -1.03522625e-11 2.0349976e-12 -5.4756194e-13
0000b0 15 2e 63 2b be c7 e1 ab 9e 1c 32 ab af ec 24 a8
       8.071055e-13 -1.6042651e-12 -6.327802e-13 -9.155151e-15
0000c0 e5 c7 65 aa 1e 2e 78 2a 71 59 20 ab db f1 1a ab
       -2.0408638e-13 2.2042825e-13 -5.6967544e-13 -5.504743e-13
0000d0 4b d0 2e 2b e6 5f 02 29 92 50 df a9 4d 82 eb aa
       6.210628e-13 2.8948977e-14 -9.917166e-14 -4.18348e-13
0000e0 53 b1 e5 aa 9d 5c 50 ab bc b5 c4 2b 67 d5 42 ad
       -4.0801615e-13 -7.402497e-13 1.3977079e-12 -1.1075008e-11
0000f0 26 0b 30 2e 83 84 b1 ab 80 d5 98 aa 18 72 19 2b
       4.002767e-11 -1.2613386e-12 -2.714877e-13 5.4514856e-13
000100 92 ec 28 2a 76 0b ab 2b d9 0d 9a 2f 4d a9 8e af
       1.5003474e-13 1.2153462e-12 2.8022276e-10 -2.5949945e-10
000110 f5 3a 90 ad d8 ae 6f 2d 12 2e 1d 28 8a e6 9d 28
       -1.6397087e-11 1.36244e-11 8.725241e-15 1.7530482e-14
000120 6e e7 b2 a9 58 ac bc aa 71 6f 55 27 28 e8 04 28
       -7.9449346e-14 -3.3515096e-13 2.96201e-15 7.377813e-15
000130 ae 9b be ad 63 bd a5 ad ce 2d ac ab 6a 79 bb 2a
       -2.1669635e-11 -1.8842433e-11 -1.2234048e-12 3.330212e-13
000140 91 3f 61 2b 47 5a 87 aa 9f 92 9d 29 49 fd cf a8
       8.0024274e-13 -2.404346e-13 6.997635e-14 -2.3091462e-14
000150 9d e5 2d 2b 06 66 79 aa 74 5e 53 ae 38 df 5c ae
       6.17806e-13 -2.2151039e-13 -4.8059737e-11 -5.0220467e-11
000160 0a da 29 2e 02 bf d3 2d 5d 4b 80 ae c4 1f 12 af
       3.861981e-11 2.4072747e-11 -5.834153e-11 -1.3289908e-10
000170 05 6e 16 ae b8 0e a1 2e 73 7a 9b 28 aa 62 37 ab
       -3.420377e-11 7.324047e-11 1.726156e-14 -6.5151584e-13
000180 ac ae 87 aa 6f 5e 73 ac d9 ae 74 a7 0d 44 8b a8
       -2.410202e-13 -3.4584798e-12 -3.3956587e-15 -1.5461612e-14
000190 03 0c 99 29 e2 ff 4d 28 5f 6d d2 27 f2 e4 b5 28
       6.7966486e-14 1.1435272e-14 5.840529e-15 2.0194326e-14
0001a0 72 43 95 28 7a f5 9e 28 5c da 04 26 1c 64 43 26
       1.6571573e-14 1.7647982e-14 4.609263e-16 6.778989e-16
0001b0 46 03 4f 28 5c d8 38 29 79 4e 2d 28 a6 0c 29 26
       1.1491518e-14 4.104387e-14 9.620445e-15 5.8650795e-16
0001c0 b5 7e 00 2b 2d 43 d2 aa 79 d4 1f aa f7 fc 9f 2b
       4.5650576e-13 -3.7350106e-13 -1.4195753e-13 1.1367841e-12
0001d0 e4 3c 5f ab ad b6 57 ab 24 21 a8 29 02 6c e8 ab
       -7.931002e-13 -7.663686e-13 7.466448e-14 -1.651457e-12
0001e0 53 c1 24 2b 9e fd 78 ab 81 ff f8 2b c9 a9 0b 2c
       5.8532796e-13 -8.8459264e-13 1.7692376e-12 1.9847338e-12
0001f0 f7 65 77 2b 8f 7e f2 2d ce 4e 5f 2f c5 78 8d ae
       8.789353e-13 2.7568418e-11 2.0309729e-10 -6.4333906e-11
000200 1f 3c 1f 2b 1a 83 ed 28 ed 31 0c 2b 07 4a a0 2a
       5.657158e-13 2.6369142e-14 4.980728e-13 2.8473076e-13
000210 08 a6 1d 29 24 31 8f 28 c4 0c d6 a8 86 31 6e 29
       3.5005012e-14 1.58975e-14 -2.3764309e-14 5.288957e-14
000220 7d 0f a9 29 d4 2e 2b 2b 34 a9 b5 ab fe 35 a8 a8
       7.5077944e-14 6.081639e-13 -1.2907787e-12 -1.8675162e-14
000230 03 02 4b ab e9 b7 00 2b 32 68 5e 2a b6 f7 35 aa
       -7.212288e-13 4.572996e-13 1.9753711e-13 -1.6161971e-13
000240 a9 88 9c 28 81 d9 9d 28 e9 f1 dd aa 04 b9 e4 a9
       1.7378746e-14 1.7524829e-14 -3.9425345e-13 -1.0157329e-13
000250 d9 51 e4 29 d5 e5 ce 29 00 05 d7 ac 69 8a 05 ae
       1.0139432e-13 9.188107e-14 -6.1112226e-12 -3.0363632e-11
000260 02 4d 08 2a 47 88 d9 aa e1 c8 95 a9 70 a3 ce 29
       1.2105944e-13 -3.8641505e-13 -6.651776e-14 9.1765896e-14
000270 48 85 d3 27 e4 5a 8b 28 63 b3 9b 28 ff ca db 28
       5.870877e-15 1.5471518e-14 1.7286253e-14 2.440192e-14
000280 48 16 54 29 15 3e 29 aa 71 19 45 2b 6d 76 8a 2c
       4.7092782e-14 -1.5031754e-13 7.0023767e-13 3.935344e-12
000290 e4 36 90 ab 50 e1 36 2b da c7 d9 2a f1 2a 1c aa
       -1.0247051e-12 6.4972073e-13 3.8685618e-13 -1.3870482e-13
0002a0 79 c6 75 ab 99 68 30 ac cb 11 54 28 a1 17 b7 28
       -8.731692e-13 -2.5069168e-12 1.1772222e-14 2.0327329e-14
0002b0 94 0d 04 2a 52 eb cd a7 37 0c 08 29 d1 51 20 29
       1.1728666e-13 -5.7154065e-15 3.020866e-14 3.55981e-14
0002c0 30 c4 00 2b f1 38 93 2a 09 55 9c 28 97 50 f6 28
       4.5747e-13 2.6151957e-13 1.7356357e-14 2.7346437e-14
0002d0 81 7f 3b aa 8d bc 45 ab 2c 16 d4 aa e2 4d 93 aa
       -1.6653173e-13 -7.0250126e-13 -3.767415e-13 -2.6166488e-13
0002e0 04 66 3f a9 33 83 ad a8 9f 53 47 ad bb 62 cf 2b
       -4.2499004e-14 -1.9263757e-14 -1.1330408e-11 1.4735638e-12
0002f0 98 7c b4 2c 06 77 c8 ae 4d ff d9 27 2f 42 b6 28
       5.1297404e-12 -9.11609e-11 6.0506397e-15 2.0234762e-14
000300 8c de 09 2b f5 1a 8a 2b c1 60 63 26 cf 2a 56 a8
       4.8981023e-13 9.812972e-13 7.888757e-16 -1.1888669e-14
000310 19 fa 0b ab 82 89 8c 2b 44 80 0c ab 16 8e 8f aa
       -4.97298e-13 9.985764e-13 -4.9915996e-13 -2.5500495e-13
000320 04 bf b4 2b 70 9a 56 ac 34 05 81 ae 41 a3 79 2e
       1.2842787e-12 -3.049696e-12 -5.867165e-11 5.6761044e-11
000330 dc 86 c3 29 5b 14 02 ab 3e f1 1b 28 50 a7 1d 28
       8.683134e-14 -4.6213527e-13 8.6565395e-15 8.751531e-15
000340 da 7a 9b 28 7c 50 03 29 70 e2 cd aa ea c5 f4 aa
       1.7261735e-14 2.9157652e-14 -3.6572438e-13 -4.3480437e-13
000350 7b 98 4e aa 7e e0 59 ab da ff f8 28 a3 98 f6 28
       -1.8349378e-13 -7.740543e-13 2.7644489e-14 2.7377682e-14
000360 f3 a5 5f a9 f1 e0 ca a9 1f 4f 50 28 39 0c f4 28
       -4.9659885e-14 -9.009623e-14 1.1563476e-14 2.7094743e-14
000370 9e 3e c7 28 17 33 a5 28 7b 78 0e 2b e8 b6 8e 2b
       2.2120594e-14 1.8340837e-14 5.0615734e-13 1.0140474e-12
000380 30 24 cd 27 ec 59 03 29 16 27 f8 a7 a1 b7 7f 29
       5.6938165e-15 2.9165838e-14 -6.8876205e-15 5.6780647e-14
000390 21 9d d1 2d 1d 59 53 ae 1f a4 8a 2a df e0 0a 2b
       2.3830328e-11 -4.8054994e-11 2.4627606e-13 4.933952e-13
0003a0 a5 7d bd aa 0f bb 64 2b 03 0f 5a aa d4 c6 d3 aa
       -3.3660328e-13 8.126147e-13 -1.9367498e-13 -3.7619094e-13
0003b0 f2 70 b7 a9 e4 2c 38 2a e9 37 03 2a c2 6b d1 aa
       -8.1464254e-14 1.6358057e-13 1.1654535e-13 -3.720063e-13
0003c0 d6 33 08 2b ed 18 84 2a 94 fc d5 28 14 43 20 29
       4.8388843e-13 2.3465206e-13 2.3757289e-14 3.5585318e-14
0003d0 ca a1 ef ad 01 bc 46 ae 5a bd 1e ab 57 96 23 aa
       -2.7243003e-11 -4.518697e-11 -5.6395654e-13 -1.4529468e-13
0003e0 b0 e2 1f 28 b6 8e dc 28 d8 7b 57 28 e0 99 b2 27
       8.875428e-15 2.4486798e-14 1.1961752e-14 4.9571756e-15
0003f0 42 70 93 ab 60 4e 2f 2b 70 93 68 2b f9 8d 8d aa
       -1.0476136e-12 6.2281257e-13 8.262757e-13 -2.5145145e-13

exp_avg_sq f4 [10000, 2]
000000 89 56 c2 15 f3 90 ce 13 45 91 bf 1e 7e d7 12 1f
       7.8492504e-26 5.214464e-27 2.0282994e-20 3.1094954e-20
000010 b3 f6 11 16 b4 11 ba 17 b8 19 b9 17 64 bc c5 18
       1.1790851e-25 1.2024437e-24 1.1961837e-24 5.1113532e-24
000020 a8 78 3d 19 c4 2c 98 19 ac c6 3d 15 f8 ad d5 14
       9.795437e-24 1.5734512e-23 3.832497e-26 2.1576122e-26
000030 5b d5 5c 1d bb f4 db 1c 1d 6d d5 16 57 38 af 16
       2.922706e-21 1.4555466e-21 3.4480866e-25 2.830833e-25
000040 c4 f1 e7 11 e7 b8 a9 12 a8 e1 fb 18 f3 e8 69 16
       3.6594373e-28 1.0710981e-27 6.5109834e-24 1.8895096e-25
000050 bf 96 2a 0e 39 df ca 10 38 d1 09 19 86 0b 86 1a
       2.10267e-30 8.001888e-29 7.124985e-24 5.543972e-23
000060 b3 30 a1 16 39 ec 06 16 f3 34 80 10 fa 60 4e 0f
       2.6041686e-25 1.0898973e-25 5.056868e-29 1.0175261e-29
000070 2d da ad 16 ae 81 a3 15 31 4c 8e 15 d1 c0 8e 16
       2.8087346e-25 6.6039774e-26 5.747355e-26 2.3063022e-25
000080 21 64 df 16 10 09 c3 10 cd a6 d9 1e 9a d5 10 1c
       3.6090783e-25 7.69279e-29 2.3044756e-20 4.7921677e-22
000090 c8 6d 22 19 84 bc 07 19 c7 2a 0b 16 04 65 b1 17
       8.397374e-24 7.017407e-24 1.1241829e-25 1.1463857e-24
0000a0 c6 65 1c 1b 82 82 01 1b e3 7a a1 18 c3 a2 d7 16
       1.2936902e-22 1.0712799e-22 4.174161e-24 3.483784e-25
0000b0 01 2d 4d 17 5f 8c 46 18 d0 bc e9 16 a5 23 cc 10
       6.6295875e-25 2.566177e-24 3.7762338e-25 8.051873e-29
0000c0 9b f1 61 15 73 bc 83 15 5a c7 da 16 d0 51 cc 16
       4.562898e-26 5.32078e-26 3.5345608e-25 3.3009608e-25
0000d0 4f 43 d6 16 59 83 6d 12 5c 58 71 14 d9 08 86 16
       3.4616042e-25 7.494591e-28 1.21848164e-26 2.1654451e-25
0000e0 12 73 89 16 1a 2b 62 17 94 f3 bc 17 b2 9a 42 1b
       2.2206163e-25 7.307894e-25 1.2210703e-24 1.6097289e-22
0000f0 c9 b7 fc 1c 5d a8 f8 17 ff 3f b2 15 e9 9c b3 16
       1.6723468e-21 1.6069125e-24 7.1994595e-26 2.9018034e-25
000100 08 03 d0 14 b1 45 d5 17 ae 4b 88 1f f7 30 a0 1f
       2.1003828e-26 1.3782395e-24 5.772344e-20 6.784364e-20
000110 ec 05 a0 1b 9a 57 07 1b ea aa cd 10 4d 0d 60 12
       2.6473607e-22 1.1195244e-22 8.112158e-29 7.069833e-28
000120 6b 8b c0 13 8c ed d5 15 29 45 24 10 fe 9e 9d 10
       4.860509e-27 8.64048e-26 3.2396576e-29 6.217055e-29
000130 91 95 0e 1c 52 c1 d7 1b e5 21 e8 17 d0 72 09 16
       4.717717e-22 3.5693697e-22 1.5001205e-24 1.1103e-25
000140 58 a3 96 16 6e 66 ee 14 b0 a5 20 13 21 3d f5 11
       2.4336891e-25 2.407226e-26 2.027653e-27 3.8691858e-28
000150 d2 be e0 16 d1 48 67 15 cc 34 29 1d 78 e2 3d 1d
       3.6309576e-25 4.670752e-26 2.239426e-21 2.5131023e-21
000160 11 e6 15 1d 8e c1 91 1c 63 36 5d 1d dd 12 a0 1e
       1.9838927e-21 9.645328e-22 2.9277224e-21 1.694846e-20
000170 e9 fb b1 1c 7f d2 09 1e 3a 35 a5 11 5b ff e7 16
       1.1777995e-21 7.296249e-21 2.6065213e-28 3.7481215e-25
000180 56 95 80 16 6b 11 4e 19 c6 e3 2c 12 88 16 29 12
       2.077376e-25 1.0653468e-23 5.4554383e-28 5.335477e-28
000190 a5 b3 68 14 4b 9b 96 12 73 9b 63 11 e8 47 f5 11
       1.1748435e-26 9.504614e-28 1.7955044e-28 3.86985e-28
0001a0 fe a0 94 11 5a 9e 4e 12 4a 9f 83 0c d8 21 47 0d
       2.3449502e-28 6.519732e-28 2.0279614e-31 6.1362347e-31
0001b0 03 04 a7 11 5c 21 23 13 e4 61 2f 11 03 c2 55 0d
       2.6350427e-28 2.058994e-27 1.3835231e-28 6.5869226e-31
0001c0 e8 35 85 16 9d 6b 32 16 76 6b 52 15 26 c1 b4 17
       2.1521329e-25 1.4412682e-25 4.2493934e-26 1.1680985e-24
0001d0 50 53 35 17 43 57 29 17 f6 54 b7 13 70 c7 4e 18
       5.858941e-25 5.4716985e-25 4.6279473e-27 2.6725566e-24
0001e0 bc 23 e0 16 8a 0e 80 17 80 af 9b 18 97 77 9f 18
       3.6211703e-25 8.275476e-25 4.024377e-24 4.122129e-24
0001f0 0d 4e cf 16 02 00 5c 1c 76 79 12 1f 4c 39 9d 1d
       3.349191e-25 7.2791904e-22 3.1017173e-20 4.1616798e-21
000200 f6 79 b6 16 f1 44 4a 12 64 a2 88 16 17 8a b2 15
       2.9480654e-25 6.382494e-28 2.2074468e-25 7.2111495e-26
000210 3a 2b e4 12 9a dd 79 11 af d5 4a 12 63 1f 63 13
       1.4399479e-27 1.9710923e-28 6.4003347e-28 2.8666903e-27
000220 bc 3c c5 13 b1 39 ca 16 e2 2f fa 17 5d a8 da 11
       4.978968e-27 3.2671269e-25 1.6167959e-24 3.4498097e-28
000230 9b b5 1b 17 43 44 7a 16 82 c8 41 15 ee c5 01 15
       5.031242e-25 2.0216379e-25 3.9134212e-26 2.620748e-26
000240 b8 54 b7 11 c8 66 42 12 01 46 1b 16 64 05 25 14
       2.892452e-28 6.1342294e-28 1.254289e-25 8.331434e-27
000250 b6 a7 31 14 cc da 11 14 24 05 0c 1a 4d f3 a7 1c
       8.9692915e-27 7.363779e-27 2.8955474e-23 1.1114025e-21
000260 ba 4f 67 14 63 69 13 16 f0 36 a0 18 a6 4f 1e 16
       1.1678243e-26 1.190782e-25 4.1414503e-24 1.2788271e-25
000270 69 aa 53 11 5e 1a c3 11 aa 1e e6 11 0b 4e 78 12
       1.6697477e-28 3.0781825e-28 3.63065e-28 7.8351197e-28
000280 d3 85 0a 13 62 88 b0 14 46 f7 f9 16 d4 1c 5e 19
       1.748403e-27 1.7825252e-26 4.038417e-25 1.1482953e-23
000290 71 7d 89 17 1a ff dc 16 e3 3e 71 16 bd 40 f8 14
       8.885083e-25 3.5703909e-25 1.9487669e-25 2.5067135e-26
0002a0 22 a7 59 17 b3 26 fd 18 e1 34 39 12 a3 7c 02 12
       7.0327433e-25 6.5438043e-24 5.8440885e-28 4.1174394e-28
0002b0 5a 32 89 14 a2 b5 7a 0f 88 f5 a9 12 21 8e 3a 13
       1.3853325e-26 1.2360933e-29 1.0725928e-27 2.3546576e-27
0002c0 93 be 84 16 98 6e ad 15 c7 15 ff 11 09 4e 86 12
       2.144602e-25 7.004863e-26 4.0245327e-28 8.475826e-28
0002d0 a2 ca f1 14 f7 44 06 17 b7 46 37 16 e0 05 90 15
       2.4414706e-26 4.338478e-25 1.4804936e-25 5.8170406e-26
0002e0 62 5b b3 15 66 a5 eb 13 47 26 11 1b 0f ff 3d 18
       7.24417e-26 5.9485436e-27 1.2006487e-22 2.455645e-24
0002f0 e0 16 77 1a d0 ad 22 1e 2a 18 7e 11 c2 a1 00 12
       5.109688e-23 8.612152e-21 2.0044513e-28 4.058906e-28
000300 f6 52 8b 16 9c c5 8b 17 f8 43 28 11 7a bc d5 10
       2.2509017e-25 9.032548e-25 1.3273808e-28 8.430408e-29
000310 d2 77 88 16 e4 84 89 17 a6 00 8f 16 2d 59 95 15
       2.2047602e-25 8.886964e-25 2.3103305e-25 6.0321315e-26
000320 a9 bb f9 17 d7 ab 25 19 47 91 7b 1d e2 83 7b 1d
       1.613862e-24 8.565003e-24 3.329468e-21 3.3287755e-21
000330 93 a7 57 15 b9 20 39 17 1b fe c9 10 13 93 56 11
       4.3551097e-26 5.9818026e-25 7.967203e-29 1.6926944e-28
000340 73 82 f4 11 cf ee 90 12 3c 80 53 17 1a f0 7c 16
       3.8576808e-28 9.1465485e-28 6.833963e-25 2.043216e-25
000350 6f 1f 58 15 4a 0d 70 17 bd a5 83 12 f5 d4 9e 12
       4.364565e-26 7.7564956e-25 8.30812e-28 1.00237e-27
000360 c6 e7 80 13 b6 1b 54 14 48 8a c3 11 e0 69 ac 12
       3.254029e-27 1.070873e-26 3.0850798e-28 1.0880826e-27
000370 98 d4 88 12 d9 20 1b 12 80 ed 91 16 f9 66 92 17
       8.635215e-28 4.8949864e-28 2.3575897e-25 9.461023e-25
000380 0e 79 2e 11 02 9f a5 12 41 d3 8a 10 4b f4 56 13
       1.3763483e-28 1.0452162e-27 5.475689e-29 2.7131043e-27
000390 2d 69 0b 1c 4a 0a 33 1d ff 7d 9c 15 3d fe 9c 16
       4.612718e-22 2.3695772e-21 6.3206685e-26 2.5363606e-25
0003a0 dd ab 09 16 24 9d 47 17 ba 6c 16 18 ee 32 7a 16
       1.1121002e-25 6.4498707e-25 1.9441938e-24 2.021091e-25
0003b0 97 06 d9 13 3c af da 14 68 d7 a7 14 c4 f0 55 16
       5.4785e-27 2.2081492e-26 1.6947653e-26 1.7281975e-25
0003c0 4c fa 8b 16 3f a6 83 15 0c 35 42 13 bb 16 20 13
       2.261462e-25 5.317277e-26 2.4512397e-27 2.0206046e-27
0003d0 7b 5d 4d 1c 90 e3 1d 1d 98 9f b4 16 5e f9 bf 14
       6.794963e-22 2.0896424e-21 2.9181286e-25 1.938443e-26
0003e0 0c 22 01 11 cc 11 6e 12 e5 27 86 12 54 7b a0 0f
       1.0186797e-28 7.5121495e-28 8.466424e-28 1.5824722e-29
0003f0 16 df 8e 17 c0 e6 c9 16 8f cc 62 17 51 de 52 15
       9.23285e-25 3.2618925e-25 7.328273e-25 4.258454e-26

exp_avg f4 [10000]
000000 e0 c8 67 2a 28 56 e2 2f 06 76 63 2b 78 af 4d 2b
       2.0586614e-13 4.1170378e-10 8.081039e-13 7.307414e-13
000010 90 3d 06 2d 2a 41 a0 a9 5c f3 17 2f 87 6e 12 2b
       7.630688e-12 -7.1167315e-14 1.3819829e-10 5.2023007e-13
000020 12 ea dd a8 b4 0a bf 2c 1c b6 62 a8 9f c2 c3 2d
       -2.463744e-14 5.429735e-12 -1.2585009e-14 2.2255362e-11
000030 aa 23 5c 2c b1 d9 ee a7 1e ac e0 2a c8 58 bc 2a
       3.1283678e-12 -6.629429e-15 3.9909823e-13 3.3457113e-13
000040 db 2d ec 2a 49 07 b0 2f 73 fe 18 2d 0d fa 5d 2b
       4.195384e-13 3.201939e-10 8.696699e-12 7.886199e-13
000050 1a 02 16 02 4d 12 ee 2c d6 ba 1c 2b 71 02 f0 2a
       1.1020863e-37 6.7663986e-12 5.568162e-13 4.2634258e-13
000060 8f 93 62 2a 0e 54 16 2b d2 56 e4 2a 20 0b a4 2a
       2.0124027e-13 5.3407354e-13 4.056118e-13 2.9139972e-13
000070 66 dc 1f 2b 5f 77 80 2e d1 46 af 2e f3 ef e4 2a
       5.679401e-13 5.841971e-11 7.970658e-11 4.0667434e-13
000080 4a f0 63 2b e0 fa 14 30 88 a2 5b 2e b3 32 55 a8
       8.098007e-13 5.41986e-10 4.993919e-11 -1.1834869e-14
000090 8a 6b 83 2a 2c 9a 5d a8 a8 c5 cb 2e b7 80 70 2b
       2.3344895e-13 -1.2301395e-14 9.266482e-11 8.5443756e-13
0000a0 36 03 19 29 df 87 d8 a8 40 b3 f6 2a 60 45 02 2f
       3.397561e-14 -2.4039742e-14 4.3822758e-13 1.1848078e-10
0000b0 e8 52 02 2f 9f 23 b4 2f 97 5c 5c 2f 7d bd f8 2a
       1.1852885e-10 3.276712e-10 2.0041778e-10 4.4185134e-13
0000c0 85 ae 20 2d 34 47 5f a9 f0 74 1f a9 07 15 d5 a8
       9.133698e-12 -4.9577706e-14 -3.540652e-14 -2.365687e-14
0000d0 1b 58 de a8 6e ca 77 a6 9a 83 66 a9 8c a3 82 a8
       -2.468516e-14 -8.5969683e-16 -5.1184405e-14 -1.4503826e-14
0000e0 72 a5 de 2a bd 1b 6f aa 60 49 51 2b cf ef 93 2b
       3.9549923e-13 -2.1237088e-13 7.4353544e-13 1.0511538e-12
0000f0 38 84 49 2b bf 4c dc 2c cb d8 59 2e 80 06 ba 2f
       7.1593035e-13 6.2612966e-12 4.953264e-11 3.3837821e-10
000100 88 fd cf 2a f8 6a d2 2a 5e 44 6d a9 81 56 19 aa
       3.694651e-13 3.7377718e-13 -5.268387e-14 -1.3619142e-13
000110 6a 1f e4 2a c7 ca 74 2b 48 4f 20 2b 59 af 40 2a
       4.0522734e-13 8.6967624e-13 5.6953444e-13 1.7113862e-13
000120 04 32 d9 a8 96 91 9b 2a 51 e7 c6 29 22 a0 98 2e
       -2.411353e-14 2.7634552e-13 8.8330934e-14 6.940605e-11
000130 93 41 99 2a cc 53 1c aa fd 68 e6 a8 66 d8 e5 a8
       2.722376e-13 -1.3884656e-13 -2.5580661e-14 -2.5517955e-14
000140 4a 78 ee 29 c8 a9 29 2b a8 c3 63 2b 64 7a 9a 2a
       1.059019e-13 6.027648e-13 8.091813e-13 2.744082e-13
000150 e6 47 f5 2c 84 cf 94 a9 a6 ae 04 a9 14 89 51 a9
       6.971301e-12 -6.6085185e-14 -2.946137e-14 -4.652622e-14
000160 be 43 c1 2a 3e 44 5a a9 ae bb 09 2b 51 e6 9b 2b
       3.4330693e-13 -4.8464915e-14 4.8932635e-13 1.1077338e-12
000170 cd 98 6f a9 56 98 d4 2d 9a 51 af 2e f4 2a e8 a8
       -5.3201194e-14 2.416926e-11 7.972574e-11 -2.5775802e-14
000180 03 04 46 2b 31 71 c6 a7 98 ad 51 2b e3 2a d6 2a
       7.03493e-13 -5.507876e-15 7.4492626e-13 3.8043795e-13
000190 bb 66 d4 2c 13 e1 fe 2e b6 ff d0 28 16 8a 5a a8
       6.0368078e-12 1.1590564e-10 2.3203536e-14 -1.2131374e-14
0001a0 2d f7 67 a9 6a b6 98 a9 0b c3 17 2b 67 d3 87 a9
       -5.1506695e-14 -6.7818e-14 5.3916653e-13 -6.031877e-14
0001b0 77 a7 9b 29 5c 20 f5 a8 08 e4 83 a9 d3 9f 4c 2b
       6.912433e-14 -2.7214498e-14 -5.857126e-14 7.269716e-13
0001c0 d8 8f f8 a8 3f d9 5b a9 c9 96 0a 2e c8 1f c7 2a
       -2.7595913e-14 -4.88162e-14 3.151149e-11 3.5371554e-13
0001d0 a3 26 26 2c 6d c1 a4 a9 85 64 09 2a 9f 8a 93 2a
       2.3611467e-12 -7.316617e-14 1.2202919e-13 2.6208633e-13
0001e0 ad 15 c5 2a 15 90 60 a9 94 e9 2c 2f 2d 88 de 2a
       3.500927e-13 -4.9862963e-14 1.5726292e-10 3.9529613e-13
0001f0 d0 81 e2 a8 3e b7 d9 a8 7f 4a 65 2b 06 80 51 2c
       -2.5147338e-14 -2.4171308e-14 8.146053e-13 2.9771754e-12
000200 7f df 51 2d 17 12 6e 2b 39 6e cf 2a b4 80 fb 2a
       1.1929901e-11 8.457969e-13 3.684707e-13 4.4675862e-13
000210 83 a0 54 a8 6a 72 31 30 da 8b 00 2b a7 23 05 2b
       -1.18031695e-14 6.4554817e-10 4.566882e-13 4.730057e-13
000220 bf 18 8a 2f b3 80 c5 29 1d 33 c8 2d 27 d2 9c 2a
       2.5119637e-10 8.770883e-14 2.2760066e-11 2.785699e-13
000230 8c de 7d a8 41 d1 3a 2f bb 12 de a8 01 be 07 2b
       -1.4092578e-14 1.6990943e-10 -2.4655074e-14 4.822532e-13
000240 56 00 1c 02 d4 5c 59 2b f8 2f 92 29 1e 1d 7c 2d
       1.1461166e-37 7.722271e-13 6.492024e-14 1.4331007e-11
000250 97 8f 1e 2b 85 d6 b8 2d 6b 81 65 2a 2e 38 82 a9
       5.6332147e-13 2.1013644e-11 2.0384187e-13 -5.7829054e-14
000260 f6 0c 6c 29 d4 fd 6b ab 0c b9 a6 a9 35 be 54 a9
       5.241377e-14 -8.384103e-13 -7.4039814e-14 -4.7238435e-14
000270 4c 04 21 2b 79 66 f5 2a 12 c2 0f 2a 2c 95 fb 2e
       5.7204653e-13 4.3591847e-13 1.2768283e-13 1.1440657e-10
000280 f4 80 9e a9 d1 fa 12 2b ec 8e 5a a8 ef d4 65 a9
       -7.038979e-14 5.22177e-13 -1.2132422e-14 -5.1032905e-14
000290 da 7e ee 2a 25 13 65 a8 93 8c a0 2f 0e b0 42 ab
       4.2365314e-13 -1.2716205e-14 2.9203714e-10 -6.916697e-13
0002a0 61 da a3 2a d6 3a b4 2c cf df e8 a8 f5 19 18 02
       2.9106147e-13 5.12244e-12 -2.5854236e-14 1.1174646e-37
0002b0 07 48 9e 2a 88 c6 e9 29 24 db d5 2d fb a2 70 a8
       2.8116417e-13 1.0381718e-13 2.4312614e-11 -1.3358017e-14
0002c0 5d 3a 02 2b 4f 86 7d 2f b1 fa df a8 54 96 54 a9
       4.6266273e-13 2.3057932e-10 -2.4866694e-14 -4.7203845e-14
0002d0 f7 ea 08 2b 9a 77 f3 2a 8c 2d 0e 2c f6 00 9f 2a
       4.8642985e-13 4.3248461e-13 2.0204697e-12 2.824474e-13
0002e0 55 00 ac a9 9d 7c 41 2d 24 b9 e6 2e 89 de e4 2a
       -7.638392e-14 1.09984495e-11 1.04920767e-10 4.065535e-13
0002f0 01 23 0b 2d e2 96 74 2a 57 4d 61 a9 dc 99 76 2c
       7.909008e-12 2.1723901e-13 -5.0027118e-14 3.5044112e-12
000300 dc 9b 5c a8 f1 e2 1f 2e f9 90 6e 2b 0a e8 58 a9
       -1.224625e-14 3.635398e-11 8.4755776e-13 -4.8162896e-14
000310 a4 d9 65 2d 37 32 61 a9 7d 58 02 2b 21 cf 0f 2f
       1.3065469e-11 -5.000359e-14 4.630808e-13 1.3079361e-10
000320 e2 df d1 a7 60 ec 0f 2f ac 05 92 2d 72 e0 8a 2b
       -5.8251887e-15 1.3089752e-10 1.6600797e-11 9.867786e-13
000330 e0 fa 01 2b 5b ab 82 2a 22 66 16 2f aa c8 a2 a9
       4.6178165e-13 2.321154e-13 1.3678705e-10 -7.229055e-14
000340 59 1b fc a8 59 00 2c 2f c5 9d e5 2f c8 b5 5a a9
       -2.798948e-14 1.5643432e-10 4.176696e-10 -4.8563394e-14
000350 8c 4c 70 2a a2 0c 9a 2e 52 c7 96 2a 4a 19 53 a9
       2.134284e-13 7.005353e-11 2.678366e-13 -4.6873346e-14
000360 d0 b4 00 2b 50 46 d7 2a 6f 33 09 a9 af da 15 02
       4.5725663e-13 3.824046e-13 -3.0464722e-14 1.100955e-37
000370 2b 4a 99 2a 8b 4d f3 a8 6e 90 c4 2c eb 9e d5 2f
       2.7229724e-13 -2.7012048e-14 5.58669e-12 3.8857392e-10
000380 ae 5b 81 2b 41 bf 76 a9 44 54 87 2a 54 d1 8e 2b
       9.191448e-13 -5.478886e-14 2.4039288e-13 1.0147807e-12
000390 de 92 18 aa eb 23 f2 a7 a2 79 19 2b ef 51 0d 2b
       -1.3551267e-13 -6.7207435e-15 5.452532e-13 5.020697e-13
0003a0 37 ef 0c 2b ba 39 17 2b d0 71 12 2a 9a 31 77 29
       5.006997e-13 5.372609e-13 1.3006892e-13 5.488804e-14
0003b0 60 00 da a9 89 35 a2 2e 41 c4 ed 2a ea c8 4d 2b
       -9.68121e-14 7.376417e-11 4.2235836e-13 7.3109455e-13
0003c0 5c 5f ca 2d 5d 4f 94 2f f0 4d d6 2a 3d 1e 7b a9
       2.300709e-11 2.6977434e-10 3.8068116e-13 -5.5759423e-14
0003d0 82 9e a1 2f 07 ef ac 2f 74 f4 58 a9 81 09 83 a8
       2.9398356e-10 3.1456457e-10 -4.8173664e-14 -1.4548043e-14
0003e0 3e 1f 6e a9 a0 c4 03 2b 46 6e ee 2a 72 c2 15 2b
       -5.2873714e-14 4.681342e-13 4.235381e-13 5.320528e-13
0003f0 da 7d 22 2d 7d 29 9b a9 00 d1 8b 2a 2e 5d 03 2b
       9.2365785e-12 -6.89058e-14 2.4836383e-13 4.666986e-13

exp_avg_sq f4 [10000]
000000 cb 09 3f 15 27 ab 4b 20 00 c3 38 17 88 1d d7 16
       3.8579868e-26 1.7251398e-19 5.969973e-25 3.475376e-25
000010 08 b1 8d 1a c3 0a 63 13 51 0d b6 1e 17 01 a2 16
       5.860224e-23 2.8656734e-27 1.9275507e-20 2.61732e-25
000020 58 87 ce 12 b4 4c 0f 1a d3 2f ba 11 53 69 11 1c
       1.3033793e-27 2.9633667e-23 2.93751e-28 4.8112604e-22
000030 c4 c3 49 19 94 2b c6 10 3c 10 36 16 45 c9 12 16
       1.0430991e-23 7.816437e-29 1.4706966e-25 1.1857296e-25
000040 14 e3 4a 16 b4 1c f8 1f d8 5e bb 1a fc 24 30 17
       1.6389083e-25 1.0507957e-19 7.7494616e-23 5.691535e-25
000050 00 00 00 00 71 1c 5e 1a 89 76 c3 16 04 49 54 16
       0.0 4.59315e-23 3.1578755e-25 1.7148263e-25
000060 35 b5 5b 15 6b 5d c0 16 9b d6 36 16 3a 1c 02 16
       4.4369645e-26 3.1078228e-25 1.476956e-25 1.0510223e-25
000070 d7 2e 05 17 1d 21 79 1d ef bf ec 1d d5 fd 47 16
       4.303374e-25 3.2971995e-21 6.2667135e-21 1.6155187e-25
000080 5f 6f 3d 17 15 1d be 20 db 4a 13 1d 99 16 c1 11
       6.1209764e-25 3.2206497e-19 1.9493987e-21 3.0463958e-28
000090 da a5 4f 15 88 ef 0a 11 18 37 22 1e 56 83 62 17
       4.193415e-26 1.0960092e-28 8.587602e-21 7.319031e-25
0000a0 5a 63 e0 13 93 fc da 12 74 41 62 16 07 3e 89 1e
       5.6643518e-27 1.3819999e-27 1.8276788e-25 1.4531093e-20
0000b0 2a 1c 64 1e 1a 7c ff 1f aa 8f 35 1f a5 7a 55 16
       1.2076044e-20 1.0820201e-19 3.8447077e-20 1.7244703e-25
0000c0 3e fd d1 1a 0c 2c 0f 13 62 4e 8a 12 14 01 23 12
       8.684951e-23 1.8070854e-27 8.728347e-28 5.143506e-28
0000d0 10 72 ae 12 3b 56 0a 0d b1 48 2f 13 ca 56 b6 11
       1.1009062e-27 4.262833e-31 2.2123945e-27 2.8768025e-28
0000e0 4e 11 48 16 b7 9f 02 15 b6 6e 1f 17 2a 53 a5 17
       1.6161332e-25 2.6379284e-26 5.151541e-25 1.0683869e-24
0000f0 9d ca 27 17 30 c0 35 1a 70 be 3d 1d 10 87 18 20
       5.4216344e-25 3.758517e-23 2.5112396e-21 1.2919589e-19
000100 cc b6 1b 16 d7 ea 19 16 f6 e5 0a 13 f0 a8 26 14
       1.2578481e-25 1.2433344e-25 1.7531428e-27 8.414175e-27
000110 09 9f 33 16 38 3a 63 17 c0 39 c2 16 cb 84 11 15
       1.4509687e-25 7.342114e-25 3.1378836e-25 2.9387272e-26
000120 08 fa d0 12 8b a0 98 15 e2 d9 06 14 81 5e b7 1d
       1.3188283e-27 6.1645603e-26 6.808241e-27 4.853741e-21
000130 b3 5e 92 15 d5 03 80 16 be 14 07 12 ba d1 d4 12
       5.911834e-26 2.0681934e-25 4.2624056e-28 1.3430783e-27
000140 f8 46 2f 14 f8 1c ee 16 f6 7e 2b 17 d8 db f2 15
       8.849238e-27 3.8469256e-25 5.5413327e-25 9.8089874e-26
000150 0c 06 6e 1a 98 57 0a 13 db e9 dc 12 26 a8 bd 13
       4.922213e-23 1.7461236e-27 1.3941602e-27 4.7876115e-27
000160 f7 8a 15 16 d8 20 05 13 d3 57 82 16 5d bd b8 17
       1.2079974e-25 1.6803153e-27 2.1058058e-25 1.1938523e-24
000170 4e 4a 1d 14 7b 5d 2e 1c 9c 1b f4 1d 58 b6 22 12
       7.9411284e-27 5.769259e-22 6.461481e-21 5.1342943e-28
000180 f5 b7 0f 17 5c f7 07 11 09 1b 19 17 68 34 26 16
       4.643798e-25 1.0725846e-28 4.947109e-25 1.342591e-25
000190 a1 38 35 1a 34 75 80 1e a6 99 9c 14 52 d4 cd 11
       3.7475667e-23 1.3601001e-20 1.5812578e-26 3.247415e-28
0001a0 b0 f7 0d 13 4a 8b ec 14 91 06 e9 16 ad de 0f 13
       1.7918821e-27 2.388485e-26 3.7647324e-25 1.8158925e-27
0001b0 14 cf f9 13 12 22 c3 12 95 cf a8 13 ea 86 16 17
       6.306063e-27 1.2314629e-27 4.2613854e-27 4.86379e-25
0001c0 e9 00 d5 12 21 f2 17 13 52 46 9e 1c f8 6d 21 16
       1.3442414e-27 1.9178258e-27 1.047374e-21 1.3040176e-25
0001d0 a1 2e d9 18 67 db 30 15 46 7c 73 14 d7 6e d4 15
       5.614027e-24 3.5715995e-26 1.22928734e-26 8.580099e-26
0001e0 f2 95 12 16 67 f1 bd 13 e2 d3 ec 1e bb 8c 31 16
       1.18411e-25 4.794835e-27 2.5075105e-20 1.4342353e-25
0001f0 76 26 08 12 42 b3 1b 12 39 ca 2c 17 d6 fa 26 19
       4.296144e-28 4.913033e-28 5.583144e-25 8.632655e-24
000200 99 ae 40 1b 93 f5 42 17 1a 02 4c 16 86 35 42 16
       1.5938283e-22 6.299474e-25 1.6479652e-25 1.5688084e-25
000210 c6 eb a5 11 2a a6 03 21 c4 88 65 16 ff 30 86 16
       2.6177716e-28 4.4604443e-19 1.8541628e-25 2.1679788e-25
000220 fc c6 b5 1f 61 bf 2a 14 e8 22 1e 1c f9 33 9c 15
       7.6985674e-20 8.6205495e-27 5.232293e-22 6.3089897e-26
000230 d7 c6 f8 11 de be 1b 1f 74 dc 24 12 9e 22 99 16
       3.9250045e-28 3.2980408e-20 5.2021005e-28 2.474033e-25
000240 57 1c 10 0f d9 e7 2e 17 aa 50 83 13 0b 33 7a 1b
       7.105206e-30 5.6515065e-25 3.314859e-27 2.0696008e-22
000250 e6 9a c6 16 b7 33 0d 1c fd f7 2f 15 51 5f 12 13
       3.208638e-25 4.6719826e-22 3.5536597e-26 1.8474785e-27
000260 0d 99 3d 13 54 58 0f 19 41 a9 d5 12 bc 57 0a 13
       2.3930614e-27 7.4107644e-24 1.3483914e-27 1.7461305e-27
000270 a4 88 55 16 6b 78 52 16 c8 88 c6 14 a4 32 75 1e
       1.7249119e-25 1.7001662e-25 2.0046841e-26 1.2980664e-20
000280 11 6d 89 13 b4 fb ba 16 f9 f9 ac 11 b4 9b 1c 13
       3.469121e-27 3.0208768e-25 2.7290873e-28 1.9766736e-27
000290 f0 4b 41 16 5b 9a ac 11 f5 5c e0 1f 5f 32 10 17
       1.5614377e-25 2.7231944e-28 9.5021475e-20 4.6592487e-25
0002a0 cd 18 e5 15 1f 40 03 1a 32 23 4d 12 00 00 00 00
       9.253149e-26 2.7141962e-23 6.4729976e-28 0.0
0002b0 26 1e a0 15 ac 72 48 14 57 61 38 1c 47 a3 d8 11
       6.467105e-26 1.0120035e-26 6.10063e-22 3.4179419e-28
0002c0 41 5a 80 16 8d c4 7b 1f 56 1a a8 12 89 b8 90 14
       2.0736474e-25 5.33139e-20 1.0608783e-27 1.461307e-26
0002d0 65 bf c5 16 66 0a 51 16 20 2e 8d 18 3e 1e ea 15
       3.1947853e-25 1.6886167e-25 3.649422e-24 9.455956e-26
0002e0 04 6a 1d 15 57 8b 14 1b d9 64 46 1e b6 cc 2a 16
       3.178953e-26 1.2287296e-22 1.05028875e-20 1.3797086e-25
0002f0 c5 25 94 1a 92 0b 40 15 56 4d 1c 13 28 f6 6a 19
       6.1272385e-23 3.878322e-26 1.9728098e-27 1.2147227e-23
000300 ba 17 2d 11 1d 4b d0 1c fd a7 3f 17 d5 c7 08 13
       1.3654605e-28 1.3783702e-21 6.192746e-25 1.7264138e-27
000310 10 2e 52 1b 61 45 09 13 40 5d 6c 16 ef e6 a2 1e
       1.7385676e-22 1.7326037e-27 1.9093353e-25 1.7247929e-20
000320 68 ef a2 10 15 73 a1 1e 2e 7b a5 1b b5 87 dc 17
       6.42666e-29 1.7094135e-20 2.7376563e-22 1.4251424e-24
000330 d9 2d 8b 16 3f cd 7b 15 29 d3 b7 1e 4b fb 3f 13
       2.2485595e-25 5.0850957e-26 1.9463212e-20 2.4231486e-27
000340 f8 5e 23 12 c7 d1 e9 1e 4b 7c 4a 20 0c c6 0c 13
       5.155079e-28 2.4756596e-20 1.715119e-19 1.7768129e-27
000350 37 0c 38 15 de 0a c5 1d c4 84 8a 15 8f 9e 19 13
       3.716814e-26 5.2156702e-21 5.5947223e-26 1.938949e-27
000360 3a 0f 6f 16 a6 c5 27 16 07 eb ad 12 f6 b0 10 04
       1.9311071e-25 1.355252e-25 1.0975774e-27 1.7008375e-36
000370 54 33 c2 15 9c b2 cc 12 a8 21 21 1a 94 e3 2f 20
       7.843696e-26 1.2918241e-27 3.3321207e-23 1.4898376e-19
000380 64 ed 80 17 70 e5 33 13 5c 7e a1 15 64 41 67 17
       8.331732e-25 2.2706098e-27 6.522674e-26 7.472266e-25
000390 e6 41 14 14 3d d5 be 10 85 b2 e6 16 b2 97 ba 16
       7.485087e-27 7.527033e-29 3.7271166e-25 3.0145654e-25
0003a0 d9 79 8c 16 0b 91 75 16 ab 8c 86 14 47 a4 71 13
       2.2695117e-25 1.983671e-25 1.3586026e-26 3.0499471e-27
0003b0 96 5f 1e 14 75 d3 ce 1d f8 f6 50 16 62 99 31 17
       7.9958125e-27 5.4746387e-21 1.6880036e-25 5.738538e-25
0003c0 94 43 1b 1c 98 d4 b7 1f 39 99 1c 16 23 b1 0f 13
       5.137254e-22 7.785522e-20 1.2649928e-25 1.8136473e-27
0003d0 b0 ed da 1f c5 4a f0 1f a4 2b d1 13 bc cb 22 11
       9.271981e-20 1.0176765e-19 5.280205e-27 1.2842327e-28
0003e0 5a f6 c0 13 75 88 94 16 4c 12 5d 16 0f 22 8a 16
       4.8710535e-27 2.3996806e-25 1.7858011e-25 2.2316596e-25
0003f0 ed 98 ce 1a 17 89 65 13 71 68 b6 15 c6 53 55 16
       8.544667e-23 2.8971454e-27 7.3673994e-26 1.7232437e-25
