checkpoints/checkpoint_15.pth (torch, 363784 bytes, 6 tensors)

W f4 [10000, 2]
0	0xbb227a0c	-0.0024791984
1	0x3751a5e4	1.2495995e-05
2	0xba53a6c9	-0.0008073864
3	0x3932c2bc	0.00017047947
4	0xb91b5ab5	-0.00014815743
5	0xbab0706a	-0.0013461236
6	0xbbbbdffa	-0.005733487
7	0x38b6aaa2	8.710219e-05
8	0xbb9f0496	-0.0048528416
9	0x384bbcb6	4.8574722e-05
10	0x3b2faede	0.002680711
11	0xbb4ec421	-0.0031550007
12	0x3b39ca86	0.0028349473
13	0x3b05b99f	0.0020404828
14	0xba4be20d	-0.00077775196
15	0x3a68f8bf	0.0008887164
16	0xbb69d849	-0.0035681895
17	0x37a7ca18	2.0002059e-05
18	0xbb3248d4	-0.0027204053
19	0x37661be7	1.3715565e-05
20	0xba3fdea9	-0.0007319251
21	0x38ca0a48	9.6340256e-05
22	0x3ba241a6	0.0049516736
23	0x3b076264	0.002065801
24	0x3a393e87	0.0007066507
25	0xbb38f947	-0.0028224753
26	0xbb1e51d7	-0.0024157667
27	0xbb07adac	-0.0020702882
28	0xb9c2e060	-0.00037169736
29	0xbb69f93b	-0.0035701531
30	0x3b16e485	0.0023024392
31	0xbad0040b	-0.0015870346
32	0xba850b1f	-0.0010150409
33	0x3bd13973	0.0063850223
34	0xb984717c	-0.00025261554
35	0xb98b1b0a	-0.00026532292
36	0x3b25eeaf	0.0025319268
37	0x38d676f7	0.00010226474
38	0x3ad8d2db	0.0016542332
39	0x3bab1d85	0.005222025
40	0xba27c6c9	-0.0006400166
41	0x3b945841	0.0045271222
42	0x3b042e40	0.0020169169
43	0x3b65d477	0.0035069266
44	0x3c0fd2b4	0.008778263
45	0x3b85ff21	0.0040892516
46	0xbb544a82	-0.0032393043
47	0x3788c9df	1.6306467e-05
48	0xba20ebc3	-0.0006138647
49	0xbbbd3797	-0.005774449
50	0xb9cad94e	-0.00038690347
51	0x3adcf1f6	0.0016856778
52	0xba3058dc	-0.0006727108
53	0xbbebb924	-0.0071937013
54	0x3b405c4c	0.0029351888
55	0xbb39ecfd	-0.0028370016
56	0x3b4fa30e	0.0031682882
57	0x3aa7777f	0.0012776701
58	0x3afd8b30	0.0019343849
59	0xb948aca8	-0.00019137806
60	0xbb213336	-0.0024597174
61	0xbb9992b6	-0.0046866788
62	0xbb7e7142	-0.003882483
63	0x3a8a30cb	0.0010543106
64	0x3a73c811	0.00092995266
65	0xbb757952	-0.0037456346
66	0x3b683151	0.0035429785
67	0xba15d802	-0.00057160866
68	0xbb3c4ee4	-0.0028733546
69	0xbbab3a4c	-0.0052254554
70	0xb7a54b0f	-1.9704485e-05
71	0xbb0921ea	-0.0020924755
72	0xbb2ba6c1	-0.0026191922
73	0xb978b2d9	-0.00023717749
74	0x3bb5bb79	0.00554603
75	0xbb0665fb	-0.0020507562
76	0xb9b2c191	-0.00034095024
77	0x3b3b8eae	0.002861898
78	0xb8d8a540	-0.00010330463
79	0x3a83afe1	0.0010046923
80	0x3addde9d	0.0016927306
81	0x3bc0c835	0.0058832415
82	0xba994b38	-0.001169539
83	0x3ab1fb25	0.0013578875
84	0x3a93c50d	0.0011273936
85	0x39ee188b	0.00045413183
86	0xba046060	-0.00050497614
87	0x3b7d0ad3	0.0038611188
88	0x3b02c12b	0.0019951563
89	0xbb5f98ff	-0.0034118292
90	0xbb457716	-0.0030130795
91	0x377ddec6	1.5131844e-05
92	0xbabe80c7	-0.0014534228
93	0x3add3f1d	0.0016879771
94	0xba092306	-0.0005231354
95	0xbb9ff0b0	-0.004880987
96	0x3b9ea5ea	0.004841556
97	0x3a3fb106	0.00073124503
98	0xbb656870	-0.0035004877
99	0x37940154	1.7643593e-05
100	0xba7d7548	-0.00096686604
101	0x36a33ce8	4.864869e-06
102	0xbb70ba64	-0.0036732191
103	0xba3b95bd	-0.00071557966
104	0x3a8aa631	0.0010578093
105	0x3a995853	0.0011699296
106	0xbac694bf	-0.0015150531
107	0xb99ac855	-0.00029522428
108	0x3b0b0315	0.0021211554
109	0x3acda2a9	0.0015688735
110	0x3aed115b	0.0018086837
111	0x3a9ed238	0.0012117093
112	0x3b9b13cb	0.004732584
113	0x3ab1a7a7	0.0013553993
114	0x3b29ea7c	0.0025927117
115	0xba2b3a5e	-0.000653183
116	0xbb04a000	-0.002023697
117	0x3b0b1f17	0.0021228248
118	0xba40870b	-0.0007344342
119	0x3ba395a5	0.0049922043
120	0x3abc5fcf	0.0014371815
121	0xbb00f7b1	-0.0019678886
122	0xb9433eca	-0.0001862004
123	0x3b3f0668	0.0029148106
124	0xba4ac034	-0.0007734329
125	0x3ba85d77	0.005138095
126	0xbb9a4249	-0.004707609
127	0x3b4709d5	0.003037085
128	0x3886ef9b	6.434248e-05
129	0x3b1f4e8b	0.002430829
130	0xb97f65bb	-0.00024356593
131	0xbb4f92cc	-0.003167319
132	0x3acf23c1	0.0015803502
133	0xbb427613	-0.0029672428
134	0x3b16161e	0.0022901366
135	0x3b9aad1b	0.004720343
136	0x3ab9c236	0.0014172259
137	0xbbffd713	-0.0078076213
138	0xba6977b4	-0.0008906082
139	0x3b7e265f	0.0038780195
140	0xbbc23301	-0.0059264903
141	0x38cc6216	9.745748e-05
142	0x3b42b9c7	0.0029712783
143	0x3aa2cd84	0.0012420868
144	0xbb28849e	-0.0025713812
145	0xbb22e382	-0.0024854844
146	0xb95389b8	-0.00020173832
147	0xbb1c8ee8	-0.002388889
148	0x3b0b7e39	0.0021284951
149	0xbae2f769	-0.0017316166
150	0x3b185b54	0.0023247795
151	0xba836e33	-0.0010027349
152	0xbb917d56	-0.00443999
153	0x3816c1a3	3.5943125e-05
154	0xba29b4a2	-0.0006473755
155	0x3b0d66e4	0.002157622
156	0x3bb7e541	0.005612046
157	0xba9e3773	-0.0012070969
158	0x3b72f947	0.003707485
159	0x3b1a9099	0.0023584722
160	0xbb1de10c	-0.0024090437
161	0xbb27402d	-0.002552043
162	0x3b3c1e3f	0.0028704552
163	0x3a0bab63	0.0005327968
164	0xbb878223	-0.0041353866
165	0x37be6d6d	2.270072e-05
166	0x39ce23f1	0.0003931816
167	0xb8bf22ae	-9.114049e-05
168	0x3b4cf313	0.0031272813
169	0xba07d233	-0.00051811634
170	0x3bd4e016	0.0064964397
171	0x3b39d5c7	0.002835618
172	0x3b8fc76b	0.004387786
173	0xb8474971	-4.7513695e-05
174	0x3a8d6d76	0.0010790068
175	0xba430137	-0.00074388407
176	0xb8668431	-5.4959386e-05
177	0x3a10eba1	0.00055282755
178	0xbb6d6a1f	-0.0036226583
179	0x37b1eb79	2.1209695e-05
180	0x3a809d59	0.0009812518
181	0x3b0dffb7	0.002166731
182	0xb8e4ace7	-0.00010904093
183	0xbaeea556	-0.0018207233
184	0xbb2801eb	-0.0025635909
185	0x3819ec32	3.6698017e-05
186	0xbb2510fc	-0.0025187125
187	0xbb2d353e	-0.002642944
188	0x3a2a2c19	0.00064915564
189	0x39a0d020	0.00030672643
190	0xb9cfdfc1	-0.00039648826
191	0x3b53e9e3	0.0032335452
192	0x3a8b07ef	0.0010607223
193	0x3b5459b1	0.0032402093
194	0xb8c359de	-9.315064e-05
195	0xbb1b9d3a	-0.0023744837
196	0x3b51c8ab	0.0032010477
197	0x3b7f7da6	0.0038984804
198	0xbb3110ab	-0.0027017992
199	0x3b7a12e9	0.0038158244
200	0x3bc93c89	0.0061412496
201	0x3abc2049	0.0014352883
202	0xba205401	-0.0006116033
203	0xbba0b8fe	-0.0049048653
204	0xba34a3b6	-0.000689085
205	0x3b120034	0.0022277953
206	0x39d95af4	0.0004145723
207	0xbaa8e18a	-0.0012884599
208	0xba034c91	-0.00050086627
209	0x3b7eef84	0.0038900087
210	0xba0f1222	-0.0005457719
211	0xbaeabe42	-0.0017909484
212	0xbad620c3	-0.0016336668
213	0xbae0aa46	-0.0017140589
214	0xbb50b882	-0.0031848256
215	0x37869f14	1.6048121e-05
216	0x3b246d6c	0.0025089635
217	0x39e79f6f	0.0004417854
218	0xbaf024db	-0.0018321531
219	0x3b0b7c44	0.0021283785
220	0xb9ec5fb9	-0.00045084747
221	0xbbab9871	-0.0052366783
222	0xb923f4cf	-0.0001563609
223	0xbb601fee	-0.003419872
224	0xbaadbf17	-0.0013255802
225	0x3bee2da9	0.0072686267
226	0xbb505936	-0.0031791455
227	0x3b02a62c	0.0019935472
228	0x3b32b233	0.002726686
229	0x3a64a6bf	0.0008722357
230	0xba5e367d	-0.00084767473
231	0xbc15174c	-0.009099793
232	0xba23891d	-0.0006238388
233	0x3652e9d6	3.142855e-06
234	0xb98670c7	-0.00025642497
235	0xbb86471d	-0.004097833
236	0x3bb272bb	0.005445806
237	0x3bbd2ee2	0.005773411
238	0x3b647bda	0.003486386
239	0xba19aeb6	-0.0005862521
240	0x3b897072	0.0041943127
241	0x3a9d70f7	0.0012011816
242	0xb9cea637	-0.00039415222
243	0x3b34344d	0.0027496994
244	0x3adef763	0.0017010983
245	0x3a08096d	0.0005189393
246	0x3b4f4fd2	0.003163327
247	0x3ab6415c	0.0013904977
248	0xbb2f618f	-0.002676103
249	0x37621654	1.3475848e-05
250	0x39a297a4	0.0003101203
251	0xbb9dbbd3	-0.00481365
252	0xb983cdca	-0.00025139592
253	0xbb613ce8	-0.0034368578
254	0x3ad38420	0.0016137399
255	0x39836fd9	0.000250696

b f4 [10000]
0	0xbc0a4a10	-0.008440509
1	0xbb3b5e1e	-0.0028590034
2	0xbb95edc9	-0.0045754653
3	0xbc9f9de7	-0.019484473
4	0xbc8736fc	-0.01650571
5	0xbc612934	-0.013742734
6	0xbc3ee8c2	-0.0116521735
7	0xbb837616	-0.0040118797
8	0xbc46feec	-0.012145739
9	0xbc17babd	-0.0092608305
10	0xbb26e978	-0.0025468748
11	0xbc956d57	-0.018240614
12	0xbc1a4423	-0.009415659
13	0xbc300314	-0.010742921
14	0xbc46bb13	-0.012129563
15	0xbc1cd9ba	-0.009573394
16	0xbcb729b2	-0.022358749
17	0xbaa073bf	-0.0012241526
18	0xbc081fd2	-0.008308368
19	0xbc9b45bd	-0.018954152
20	0xbc819392	-0.015817437
21	0xbc5f87bc	-0.013643201
22	0xbd06c89a	-0.032906152
23	0xbc34af1c	-0.011028077
24	0xbca0bcc8	-0.019621268
25	0xbbc301eb	-0.0059511564
26	0xbcc818ab	-0.024425825
27	0xbc626cf6	-0.013819924
28	0xbc3e4484	-0.011613015
29	0xbbd2e568	-0.0064360388
30	0xbc9296d2	-0.017894182
31	0xbc643edb	-0.013931002
32	0xbc4c8fe7	-0.012485481
33	0xbc425350	-0.011860684
34	0xbca529d9	-0.020161556
35	0xbbe7513f	-0.007059246
36	0xbc14a5ff	-0.00907278
37	0xbca013dc	-0.01954072
38	0xbc236c0b	-0.00997449
39	0xbb6515ac	-0.0034955544
40	0xbcad8c4d	-0.021185065
41	0xbbc7cc58	-0.0060973577
42	0xbb875e93	-0.004131147
43	0xbc5cce2e	-0.013476891
44	0xbc5387d0	-0.012910798
45	0xbc280cb0	-0.010256931
46	0xbbf85824	-0.0075788666
47	0xbc87e049	-0.01658644
48	0xbc84287a	-0.016132582
49	0xbc43415a	-0.0119174365
50	0xbb57bb72	-0.0032918123
51	0xbc546fa1	-0.0129660675
52	0xbbafbea6	-0.0053633032
53	0xbbaf3d27	-0.005347866
54	0xbc108c68	-0.008822538
55	0xbbeea960	-0.0072833747
56	0xbc8814ab	-0.016611418
57	0xbc0f77e9	-0.008756616
58	0xbc23f60f	-0.010007395
59	0xbc8f0467	-0.017458154
60	0xbc01b43a	-0.0079165045
61	0xbc2560aa	-0.010093847
62	0xbc934052	-0.017975006
63	0xbc9ebd62	-0.019377414
64	0xbc087e87	-0.008330948
65	0xbc2ff1aa	-0.01073877
66	0xbc348faf	-0.011020585
67	0xbc92eb17	-0.017934365
68	0xbcd4e2c8	-0.025987044
69	0xbc605595	-0.013692279
70	0xbca4f352	-0.020135555
71	0xbc336445	-0.010949199
72	0xbc44df5b	-0.012016143
73	0xbc04c6b6	-0.008104017
74	0xbc199c58	-0.009375654
75	0xbc0adc4c	-0.008475374
76	0xbc778a6f	-0.015108689
77	0xbbfb9cc8	-0.007678602
78	0xbc9ab753	-0.018886244
79	0xbc71c70e	-0.014756931
80	0xbc3ffc65	-0.01171789
81	0xbc1ed6eb	-0.009694795
82	0xbc66a9e9	-0.014078596
83	0xbaadb875	-0.0013253825
84	0xbc2b9ad5	-0.010473927
85	0xbcc56dda	-0.024100233
86	0xbc6d1d69	-0.014472344
87	0xbb9306e7	-0.004486907
88	0xbafbf762	-0.0019223506
89	0xbc4a0874	-0.012331117
90	0xbc05b6a1	-0.008161218
91	0xbbca0649	-0.0061653
92	0xbc0ec461	-0.008713813
93	0xbc47e1b9	-0.012199813
94	0xbb1fdfcd	-0.002439487
95	0xbc38b96f	-0.01127468
96	0xbc413e7c	-0.011794683
97	0xbc038537	-0.008027366
98	0xbc8c46ac	-0.017123543
99	0xbc840d7f	-0.016119717
100	0xbcad1a14	-0.0211306
101	0xbc88be05	-0.01669217
102	0xbc0209f1	-0.0079369405
103	0xbb90e090	-0.004421301
104	0xbc5e6e1a	-0.013576055
105	0xbbcb5c7f	-0.0062060948
106	0xbc019e60	-0.007911295
107	0xbc31a969	-0.010843613
108	0xbc0a5485	-0.008443003
109	0xbc1c8e08	-0.009555347
110	0xbc918af0	-0.017766446
111	0xbc3d8a6e	-0.011568649
112	0xbcd10fbd	-0.0255202
113	0xbc547bc6	-0.012968963
114	0xbc1ec8b8	-0.00969141
115	0xbcfd0a22	-0.03088862
116	0xbb0b30dc	-0.002123884
117	0xbc6369cf	-0.013880207
118	0xbcdd10ea	-0.026985604
119	0xbc3f5c64	-0.0116797425
120	0xbc71387e	-0.014722941
121	0xbc1d775e	-0.009610979
122	0xbbc50cab	-0.006013473
123	0xbc4074f2	-0.011746632
124	0xbc154324	-0.009110246
125	0xbc844f26	-0.016151022
126	0xbc3edfd1	-0.011650042
127	0xbbb083d7	-0.0053868103
128	0xbc182524	-0.009286199
129	0xbbbdf2ce	-0.005796767
130	0xbc50ee6a	-0.012752155
131	0xbbb1a60b	-0.005421405
132	0xbc3a5301	-0.011372329
133	0xbba9a24f	-0.0051768194
134	0xbc955b3f	-0.018231986
135	0xbc26d2c6	-0.010182088
136	0xbcba309c	-0.022728257
137	0xbc2622ff	-0.01014018
138	0xbc1ffbe8	-0.009764649
139	0xbc1dbe94	-0.009627957
140	0xbb5dc1b0	-0.003383737
141	0xbbb239fb	-0.0054390407
142	0xbc790f54	-0.015201408
143	0xbbb4d7ae	-0.005518875
144	0xbc2db3cb	-0.010601948
145	0xbc5d26c7	-0.013498015
146	0xbba357ac	-0.0049848165
147	0xbbeb503c	-0.0071811955
148	0xbbe75fd2	-0.007060983
149	0xbb6e5aa2	-0.003636994
150	0xbba6f01c	-0.0050945412
151	0xbc892d6b	-0.01674529
152	0xbc359730	-0.011083409
153	0xbc45ce5f	-0.0120731285
154	0xbb8ea04c	-0.004352605
155	0xbbd03fe9	-0.006355275
156	0xbc8b162d	-0.016978348
157	0xbcdd3582	-0.027003054
158	0xbc4f7830	-0.012662932
159	0xbc3796dd	-0.011205402
160	0xbc3e0a38	-0.011599116
161	0xbc613747	-0.013746089
162	0xbc2ee174	-0.010673869
163	0xbcc5d761	-0.024150552
164	0xbcb9659a	-0.022631455
165	0xbc70ab97	-0.014689348
166	0xbc02b90e	-0.007978691
167	0xbb969b2a	-0.0045961337
168	0xbc44a1fe	-0.012001513
169	0xbc9458b8	-0.01810871
170	0xbcc25aa3	-0.02372486
171	0xbb93f1fd	-0.0045149312
172	0xbc1b2dbe	-0.009471355
173	0xbceee8a7	-0.029163672
174	0xbab665e1	-0.001391586
175	0xbc2863ee	-0.010277731
176	0xbc89ca99	-0.016820239
177	0xbb8f297b	-0.0043689585
178	0xbc14d27b	-0.009083386
179	0xbc605e02	-0.013694288
180	0xbc1b5e02	-0.009482862
181	0xbc5b3cbf	-0.013381182
182	0xbc3de0a8	-0.011589207
183	0xbbf8ac58	-0.0075889044
184	0xbb59c210	-0.0033227243
185	0xbc638306	-0.013886219
186	0xbc29d112	-0.010364788
187	0xbc8e4706	-0.017367851
188	0xbfea9ab5	-1.8328463
189	0xbc398b06	-0.01132465
190	0xbc7e89a8	-0.0155357495
191	0xbc44e1f6	-0.012016764
192	0xbc0f949e	-0.00876346
193	0xbc3e1538	-0.011601739
194	0xbbe1c625	-0.0068900757
195	0xbccda077	-0.02510093
196	0xbc7a1c03	-0.015265468
197	0xbb6ed40a	-0.0036442303
198	0xbc04ec08	-0.008112915
199	0xbb92c74d	-0.004479325
200	0xbbfdaceb	-0.0077415607
201	0xbc5add6f	-0.013358458
202	0xbc4ef65e	-0.012631981
203	0xbc609d79	-0.013709419
204	0xbc87f1e6	-0.016594838
205	0xbc6fca6b	-0.014635663
206	0xbc6421c0	-0.013924062
207	0xbbea7906	-0.0071555404
208	0xbb535dec	-0.0032252027
209	0xbc71302e	-0.01472096
210	0xbba62d1f	-0.005071297
211	0xbc460213	-0.0120854555
212	0xbc758ed1	-0.014987663
213	0xbc799489	-0.015233167
214	0xbc237034	-0.009975482
215	0xbc36653a	-0.011132533
216	0xbc828c6a	-0.015936095
217	0xba942335	-0.0011301996
218	0xbb64090d	-0.0034795434
219	0xbb04ccc2	-0.0020263647
220	0xbc0deb6b	-0.008662085
221	0xbc08a49d	-0.008340028
222	0xbbbb5375	-0.005716736
223	0xbc97eb0f	-0.018544702
224	0xbc3fddb7	-0.011710576
225	0xbc1b460b	-0.009477149
226	0xbca0d849	-0.019634383
227	0xbc0429b6	-0.008066585
228	0xbc28d291	-0.010304109
229	0xbcf77a74	-0.030209757
230	0xbb8e1ad6	-0.004336695
231	0xbc889151	-0.016670855
232	0xbb1ec242	-0.0024224673
233	0xbbeed203	-0.007288219
234	0xbc4912bb	-0.012272532
235	0xbc5e81e7	-0.013580776
236	0xbaab3994	-0.0013063424
237	0xbc0f5750	-0.008748844
238	0xbcd8a61f	-0.0264464
239	0xbc162971	-0.009165154
240	0xba87b7d3	-0.0010354467
241	0xbc886832	-0.016651247
242	0xbc89f511	-0.01684049
243	0xbc8e1698	-0.017344758
244	0xbc63797a	-0.013883943
245	0xbc279302	-0.0102279205
246	0xbc57bcb0	-0.013167545
247	0xbc8ca1dc	-0.017167024
248	0xbbf80b4f	-0.0075697075
249	0xbc0dfc3f	-0.008666097
250	0xbc9ec25c	-0.019379787
251	0xbc41537d	-0.01179969
252	0xbc8abb2a	-0.01693495
253	0xbb600339	-0.0034181608
254	0xbc4442fa	-0.011978859
255	0xbc9d4d66	-0.019201946

exp_avg f4 [10000, 2]
0	0x8214d972	-1.0935726e-37
1	0x82117817	-1.0687382e-37
2	0x82166bcb	-1.1051195e-37
3	0x0216836f	1.1057979e-37
4	0x821099e1	-1.062361e-37
5	0x8210fe2e	-1.0652395e-37
6	0x82149c2c	-1.0918142e-37
7	0x8211465b	-1.0673109e-37
8	0x82172d3e	-1.1106712e-37
9	0x8213bd69	-1.0854212e-37
10	0x0217c4f6	1.1150253e-37
11	0x821460fd	-1.0901157e-37
12	0x021d4fd9	1.1557453e-37
13	0x0216fd88	1.1093019e-37
14	0x821735d0	-1.1109171e-37
15	0x02197921	1.1275427e-37
16	0x8214c03d	-1.0928492e-37
17	0x821162bc	-1.0681253e-37
18	0x8218bb61	-1.1220971e-37
19	0x821540ac	-1.0965351e-37
20	0x82108430	-1.0617385e-37
21	0x0210a06d	1.0625489e-37
22	0x0217063e	1.1095519e-37
23	0x0215bbcf	1.100069e-37
24	0x02121813	1.0733295e-37
25	0x821c9126	-1.1502725e-37
26	0x821fbb7f	-1.1735284e-37
27	0x8217554b	-1.1118206e-37
28	0x821601c5	-1.1020767e-37
29	0x82166ff8	-1.1052393e-37
30	0x0213b14f	1.0850739e-37
31	0x82103f3a	-1.0597594e-37
32	0x821e1db8	-1.1616536e-37
33	0x0212f6c8	1.0797209e-37
34	0x8218daa0	-1.1229939e-37
35	0x82115284	-1.0676598e-37
36	0x2a52eacc	1.8733208e-13
37	0xa8a81ce2	-1.8664273e-14
38	0x021ba6a5	1.1435426e-37
39	0x0211df03	1.0716919e-37
40	0x821848d5	-1.1188098e-37
41	0x021d3202	1.154889e-37
42	0x021aefc2	1.138294e-37
43	0x021eac4e	1.1657456e-37
44	0x021a0b11	1.1317309e-37
45	0x021a58b0	1.1339585e-37
46	0x821803fa	-1.1168338e-37
47	0x82148728	-1.0912111e-37
48	0x821fe080	-1.1745903e-37
49	0x82104c4a	-1.0601343e-37
50	0x82107f64	-1.0616008e-37
51	0x0212c230	1.0782115e-37
52	0x821d8b90	-1.1574591e-37
53	0x82124b9f	-1.0748088e-37
54	0x021c3690	1.1476729e-37
55	0x8218a9eb	-1.121596e-37
56	0x021cb7e4	1.1513844e-37
57	0x021b6e8a	1.1419325e-37
58	0x29d0a6fd	9.2660234e-14
59	0xa8264ebd	-9.231925e-15
60	0x82186756	-1.1196852e-37
61	0x821563c4	-1.0975422e-37
62	0x821f5478	-1.1705716e-37
63	0x021fbb76	1.1735274e-37
64	0x02123ce1	1.0743857e-37
65	0x821cbda3	-1.1515493e-37
66	0x2a4bb3f4	1.8092456e-13
67	0xa8a25cd7	-1.8025876e-14
68	0x82164f0c	-1.1042945e-37
69	0x8212b788	-1.0779057e-37
70	0x82149468	-1.0915913e-37
71	0x821ef898	-1.167935e-37
72	0x82168389	-1.1058008e-37
73	0x8215429e	-1.0965909e-37
74	0x021b5808	1.1412865e-37
75	0x82179797	-1.1137232e-37
76	0x8218c7eb	-1.122457e-37
77	0x021edc51	1.1671234e-37
78	0x821ad499	-1.1375146e-37
79	0x0210dfc4	1.0643667e-37
80	0x02114c03	1.0674732e-37
81	0x02174a09	1.1114975e-37
82	0x8214f5be	-1.0943847e-37
83	0x021730ea	1.1107766e-37
84	0x021b3cda	1.1405065e-37
85	0x0219f1ab	1.131002e-37
86	0x821ef371	-1.1677871e-37
87	0x0214bf97	1.0928306e-37
88	0x021438dc	1.0889641e-37
89	0x821ed5a2	-1.1669316e-37
90	0x8212842b	-1.0764316e-37
91	0x821f1058	-1.1686166e-37
92	0x82145471	-1.0897556e-37
93	0x02168edf	1.1061262e-37
94	0x821a8133	-1.1351211e-37
95	0x821aeb14	-1.1381597e-37
96	0x02116fc4	1.0684993e-37
97	0x021beea1	1.1456085e-37
98	0x821e664b	-1.1637363e-37
99	0x821acdce	-1.1373196e-37
100	0x821f6059	-1.1709126e-37
101	0x821bc626	-1.1444467e-37
102	0x821c402c	-1.1479486e-37
103	0x821c8838	-1.1500163e-37
104	0x021db23b	1.1585688e-37
105	0x0219559f	1.1265237e-37
106	0x821f9955	-1.1725479e-37
107	0x821fe537	-1.1747257e-37
108	0x02151d40	1.0955185e-37
109	0x021f0383	1.1682483e-37
110	0x021a3530	1.1329397e-37
111	0x0211995c	1.069693e-37
112	0x02170e4c	1.1097831e-37
113	0x02140c85	1.0876916e-37
114	0x2a495641	1.7882312e-13
115	0xa8a07a10	-1.7816505e-14
116	0x821ed0d3	-1.1667936e-37
117	0x0210107f	1.0584183e-37
118	0x8219ff79	-1.1313982e-37
119	0x021ef09c	1.1677058e-37
120	0x02104919	1.0600427e-37
121	0x821cbe2f	-1.151565e-37
122	0x821ae7e1	-1.1380679e-37
123	0x0210e4da	1.0645126e-37
124	0x821b7caa	-1.1423378e-37
125	0x021075a3	1.0613209e-37
126	0x82121613	-1.0732721e-37
127	0x02133ddc	1.0817607e-37
128	0x82103460	-1.059448e-37
129	0x02170c7d	1.1097312e-37
130	0x8212ffc9	-1.0799793e-37
131	0x821788e1	-1.113301e-37
132	0x021f2eb4	1.1694878e-37
133	0x821986c5	-1.1279342e-37
134	0x021e394c	1.162445e-37
135	0x02122baa	1.0738917e-37
136	0x8211ee52	-1.0721312e-37
137	0x82164794	-1.1040801e-37
138	0x82195e64	-1.1267754e-37
139	0x021bc829	1.1445045e-37
140	0x821df054	-1.1603509e-37
141	0x8219adc7	-1.1290536e-37
142	0x021db2a7	1.1585809e-37
143	0x021d1c7d	1.1542714e-37
144	0x8218cfe2	-1.1226856e-37
145	0x821111eb	-1.065806e-37
146	0x8210a7bb	-1.0627585e-37
147	0x821526cd	-1.0957926e-37
148	0x0213c4a2	1.0856285e-37
149	0x82105d8b	-1.0606295e-37
150	0x02106c8c	1.0610601e-37
151	0x821c96cd	-1.1504348e-37
152	0x821a23e0	-1.1324429e-37
153	0x8216a6b4	-1.1068101e-37
154	0x82151366	-1.0952358e-37
155	0x021577d7	1.0981183e-37
156	0x2ad87d16	3.8456104e-13
157	0xa92c8db5	-3.8314583e-14
158	0x021f861b	1.1719961e-37
159	0x02145e78	1.0900434e-37
160	0x821c5fa0	-1.1488513e-37
161	0x8214ab70	-1.0922523e-37
162	0x021b7c49	1.142327e-37
163	0x02169cd7	1.106527e-37
164	0x821f94db	-1.1724195e-37
165	0x821bef45	-1.1456269e-37
166	0x02166093	1.1047975e-37
167	0x82182415	-1.1177551e-37
168	0x021737db	1.1109758e-37
169	0x8218fdeb	-1.1240067e-37
170	0x021b9469	1.1430193e-37
171	0x021aff05	1.138732e-37
172	0x041e236f	1.8589081e-36
173	0x827c1935	-1.852127e-37
174	0x021d7662	1.1568513e-37
175	0x8219cdf5	-1.1299771e-37
176	0x821485eb	-1.0911755e-37
177	0x021a61a4	1.1342155e-37
178	0x82158404	-1.0984678e-37
179	0x82121c03	-1.0734425e-37
180	0x0210d5a0	1.0640757e-37
181	0x02151df8	1.0955392e-37
182	0x82156f10	-1.0978665e-37
183	0x821a0d8b	-1.131802e-37
184	0x821139ac	-1.0669469e-37
185	0x821db67b	-1.1586908e-37
186	0x8218ee72	-1.1235627e-37
187	0x821165be	-1.0682116e-37
188	0x02159392	1.0989142e-37
189	0x0215dd8b	1.1010371e-37
190	0x8213d9c8	-1.0862355e-37
191	0x0219bbe2	1.1294584e-37
192	0x021680fe	1.1057278e-37
193	0x021cb8f3	1.1514148e-37
194	0x82185814	-1.1192474e-37
195	0x8212e13e	-1.0791027e-37
196	0x021ef0ee	1.167715e-37
197	0x021b01d4	1.1388126e-37
198	0x8211c867	-1.071043e-37
199	0x0214215d	1.0882898e-37
200	0x0213748c	1.0833302e-37
201	0x0210111f	1.0584363e-37
202	0x821a775d	-1.1348389e-37
203	0x821af33c	-1.1383938e-37
204	0x8218a53d	-1.1214617e-37
205	0x02191433	1.1246462e-37
206	0x0214ec30	1.0941105e-37
207	0x821f9e77	-1.1726952e-37
208	0x821729d7	-1.1105735e-37
209	0x021d3011	1.1548333e-37
210	0x82169142	-1.1061946e-37
211	0x82150977	-1.0949507e-37
212	0x8217c97b	-1.115155e-37
213	0x82104f51	-1.0602212e-37
214	0x821b7ac9	-1.1422839e-37
215	0x8217f431	-1.1163807e-37
216	0x021da450	1.1581694e-37
217	0x02188237	1.1204566e-37
218	0x8214ea9f	-1.0940656e-37
219	0x021726ce	1.1104864e-37
220	0x8212d291	-1.0786816e-37
221	0x8217628d	-1.1122011e-37
222	0x82122580	-1.0737148e-37
223	0x821c9b34	-1.1505611e-37
224	0x8216beba	-1.1074995e-37
225	0x021a565a	1.1338915e-37
226	0x82150fb0	-1.0951293e-37
227	0x02163d74	1.1037896e-37
228	0x0213bc29	1.0853854e-37
229	0x02118cee	1.0693362e-37
230	0x821a4962	-1.1335193e-37
231	0x821f3db5	-1.1699184e-37
232	0x821567c6	-1.0976573e-37
233	0x821204b7	-1.0727739e-37
234	0x821ff2e2	-1.1751179e-37
235	0x821463f8	-1.0902012e-37
236	0x021beb36	1.1455104e-37
237	0x0217155e	1.109986e-37
238	0x021b6dda	1.1419127e-37
239	0x821d452e	-1.1554392e-37
240	0x02108fbb	1.0620698e-37
241	0x021dcab1	1.1592708e-37
242	0x82153450	-1.0961804e-37
243	0x0219fc09	1.1312995e-37
244	0x02125ec9	1.0753588e-37
245	0x021fb99f	1.1734746e-37
246	0x0210f4d3	1.064971e-37
247	0x02106976	1.0609715e-37
248	0x82127f08	-1.0762842e-37
249	0x821f1096	-1.1686235e-37
250	0x8217de2d	-1.1157489e-37
251	0x8216df3c	-1.1084325e-37
252	0x82108326	-1.0617087e-37
253	0x8214f7fd	-1.0944492e-37
254	0x02146fd4	1.0905416e-37
255	0x021ef72a	1.1678939e-37

exp_avg_sq f4 [10000, 2]
0	0x046d6762	2.7906687e-36
1	0x01fe6044	9.3443e-38
2	0x02b59d3c	2.6685808e-37
3	0x009c1b9a	1.4336239e-38
4	0x0083be34	1.2098682e-38
5	0x042c77e9	2.0273563e-36
6	0x0598ebb5	1.4380596e-35
7	0x0323396f	4.7967325e-37
8	0x0555150e	1.0019079e-35
9	0x02e12982	3.3084603e-37
10	0x05a2813f	1.5281884e-35
11	0x0524f32d	7.755907e-36
12	0x05041efc	6.212301e-36
13	0x047e8dd3	2.9922679e-36
14	0x02ad2373	2.5440412e-37
15	0x034cce92	6.0187343e-37
16	0x04eb8517	5.537046e-36
17	0x027a6155	1.8395032e-37
18	0x048dc278	3.3327532e-36
19	0x0217d835	1.1155776e-37
20	0x028a1d66	2.0294151e-37
21	0x00000000	0.0
22	0x0607fe32	2.557743e-35
23	0x04b4ae04	4.2477605e-36
24	0x033b22f5	5.499449e-37
25	0x04a30d74	3.833347e-36
26	0x04ecfadc	5.571371e-36
27	0x049192ea	3.4224255e-36
28	0x01de5565	8.1672456e-38
29	0x058ecb67	1.3428334e-35
30	0x05a431a6	1.5440724e-35
31	0x052794d3	7.879637e-36
32	0x02cd66a9	3.0180967e-37
33	0x05e40690	2.1443428e-35
34	0x01b04655	6.475311e-38
35	0x0150ae5b	3.832866e-38
36	0x14922ab7	1.475908e-26
37	0x1139ba76	1.4651384e-28
38	0x03ce9db9	1.2143803e-36
39	0x0590df3a	1.3623695e-35
40	0x02454d94	1.4495538e-37
41	0x0557dc24	1.0149685e-35
42	0x03432d61	5.735744e-37
43	0x05132f5d	6.920606e-36
44	0x070eb4d5	1.0736034e-34
45	0x05bf422a	1.7985859e-35
46	0x04caa259	4.7639065e-36
47	0x0258800d	1.5905923e-37
48	0x02961dbf	2.2057592e-37
49	0x064144fe	3.6349953e-35
50	0x00faac26	2.3020629e-38
51	0x040f51ff	1.684722e-36
52	0x02e158e8	3.3111808e-37
53	0x068fa6b7	5.4035587e-35
54	0x05da5493	2.0531689e-35
55	0x055df0dc	1.0435609e-35
56	0x0550edd9	9.823799e-36
57	0x040a18ff	1.62333e-36
58	0x137a3c56	3.1584184e-27
59	0x101efb94	3.1353814e-29
60	0x0503d82a	6.1992935e-36
61	0x05f1c7a2	2.2736865e-35
62	0x0501aa00	6.096775e-36
63	0x02dea01f	3.2711873e-37
64	0x038d3747	8.299926e-37
65	0x050ed1ce	6.715343e-36
66	0x146afd90	1.1863987e-26
67	0x11154c3f	1.1777523e-28
68	0x052f868b	8.253172e-36
69	0x06219deb	3.0396754e-35
70	0x0111b69f	2.6763318e-38
71	0x04a8d5b7	3.9692876e-36
72	0x0435c30d	2.136601e-36
73	0x01c0d666	7.083731e-38
74	0x060c1f85	2.635423e-35
75	0x058e1e98	1.3364854e-35
76	0x01a2f37f	5.98588e-38
77	0x04b06253	4.1467698e-36
78	0x00000000	0.0
79	0x03258a9f	4.864827e-37
80	0x040b2529	1.6356435e-36
81	0x05c17e99	1.8196137e-35
82	0x033cad5b	5.5447237e-37
83	0x040007f8	1.5049987e-36
84	0x03c6b7a8	1.16795595e-36
85	0x0283f220	1.9387693e-37
86	0x020de05c	1.0423432e-37
87	0x051c3962	7.345624e-36
88	0x047eea85	2.9965243e-36
89	0x05962f0a	1.4123212e-35
90	0x04b20f20	4.186149e-36
91	0x023e22c4	1.3968973e-37
92	0x0395a552	8.795389e-37
93	0x044d84e6	2.4158658e-36
94	0x0253cb40	1.5560162e-37
95	0x06080ad4	2.5586712e-35
96	0x05abd985	1.6160667e-35
97	0x04865317	3.1579555e-36
98	0x04f65e1e	5.7920755e-36
99	0x0283ac49	1.9347607e-37
100	0x0311be32	4.2830004e-37
101	0x009b76e3	1.427715e-38
102	0x04baf012	4.394886e-36
103	0x0240c899	1.4163501e-37
104	0x03c50a54	1.1580991e-36
105	0x03d840c4	1.2710208e-36
106	0x0383828e	7.729462e-37
107	0x01076704	2.4869494e-38
108	0x0494cace	3.498088e-36
109	0x0429c246	1.995506e-36
110	0x04536938	2.4851245e-36
111	0x0361b32f	6.632725e-37
112	0x05aa460d	1.6012456e-35
113	0x0471f8db	2.8443683e-36
114	0x1489bba2	1.3907473e-26
115	0x112f02cf	1.3805931e-28
116	0x0432b86f	2.1008487e-36
117	0x03c13f5e	1.1358069e-36
118	0x02785d38	1.8246915e-37
119	0x058a2be1	1.2993576e-35
120	0x048e3c72	3.343955e-36
121	0x04104078	1.6956721e-36
122	0x019a2595	5.6624593e-38
123	0x04a6e58f	3.923723e-36
124	0x028ce1cc	2.0700752e-37
125	0x059ab213	1.4547505e-35
126	0x051c2467	7.341771e-36
127	0x04a91ce5	3.9758244e-36
128	0x0141373e	3.5488136e-38
129	0x0445b9cf	2.3242558e-36
130	0x01aa9976	6.2668343e-38
131	0x054ce61a	9.634297e-36
132	0x042f7d98	2.0628821e-36
133	0x0550a9e5	9.811318e-36
134	0x03ba9af1	1.096767e-36
135	0x0587014c	1.2695815e-35
136	0x031535c9	4.3848907e-37
137	0x064c7a8a	3.8458163e-35
138	0x0231d8d7	1.3066136e-37
139	0x054cbfde	9.627274e-36
140	0x05a18198	1.5187972e-35
141	0x03297254	4.979588e-37
142	0x0540932e	9.054829e-36
143	0x03ffe0dc	1.5039178e-36
144	0x05064c2b	6.3146396e-36
145	0x04a0d09d	3.78074e-36
146	0x01455f65	3.6251628e-38
147	0x04f2a41c	5.7044637e-36
148	0x05852a22	1.2522737e-35
149	0x0507a5de	6.3781345e-36
150	0x050df94a	6.675575e-36
151	0x04902359	3.38867e-36
152	0x053dd6c0	8.9261806e-36
153	0x02c8681c	2.9447115e-37
154	0x01a5b67d	6.0873285e-38
155	0x048f8caf	3.3748336e-36
156	0x1589549b	5.5467343e-26
157	0x122e8009	5.5062535e-28
158	0x060920e4	2.5791e-35
159	0x04bfa444	4.505474e-36
160	0x04fe1b23	5.9740034e-36
161	0x049599b7	3.5170896e-36
162	0x04f611ad	5.7850555e-36
163	0x03b6711a	1.0722965e-36
164	0x0522a017	7.646607e-36
165	0x02ae5d86	2.5620682e-37
166	0x0fb9ea1b	1.8332583e-29
167	0x0c6c41c1	1.8200566e-31
168	0x12c7029b	1.2559308e-27
169	0x0f7ce63b	1.24689e-29
170	0x0681a683	4.8769074e-35
171	0x052bd7a5	8.079989e-36
172	0x14a2b2cc	1.6428343e-26
173	0x114ebd49	1.6308863e-28
174	0x0491d4e0	3.428483e-36
175	0x0414db00	1.7497876e-36
176	0x00000000	0.0
177	0x0254e23e	1.5640228e-37
178	0x04f4999a	5.7505185e-36
179	0x028227a6	1.912454e-37
180	0x028bccf0	2.0541843e-37
181	0x044f2bb2	2.4352797e-36
182	0x00e30959	2.0850011e-38
183	0x04877b8d	3.185181e-36
184	0x0479d058	2.9365476e-36
185	0x0203fa6f	9.696231e-38
186	0x050df372	6.674502e-36
187	0x04a7da48	3.946197e-36
188	0x033d4fa5	5.5633536e-37
189	0x01fcf68c	9.292396e-38
190	0x01c448b0	7.210333e-38
191	0x04d55825	5.0157007e-36
192	0x0311aed0	4.2812345e-37
193	0x04cb7168	4.7829218e-36
194	0x01419167	3.5552823e-38
195	0x04e6a582	5.4224735e-36
196	0x05650c5f	1.07698005e-35
197	0x05823f50	1.2248399e-35
198	0x047bbc33	2.9591325e-36
199	0x053d3cff	8.8979405e-36
200	0x06038b3c	2.4740655e-35
201	0x04c3d94e	4.6043843e-36
202	0x02614c15	1.6552224e-37
203	0x061775b7	2.8486427e-35
204	0x01e440d5	8.3847e-38
205	0x049d9773	3.7049607e-36
206	0x029b13e7	2.2786626e-37
207	0x03bd9319	1.1142194e-36
208	0x020e862c	1.0471018e-37
209	0x051be8c9	7.330821e-36
210	0x02836cfc	1.9311274e-37
211	0x0439a5b3	2.182273e-36
212	0x046fb437	2.8177066e-36
213	0x040e4060	1.672158e-36
214	0x04c4cb4d	4.626608e-36
215	0x0252344b	1.5443371e-37
216	0x04b08290	4.1497304e-36
217	0x03877cb2	7.9632155e-37
218	0x03ec1a8e	1.387693e-36
219	0x04a1b726	3.8019113e-36
220	0x026f7f18	1.7595421e-37
221	0x0611d4aa	2.742771e-35
222	0x01c99168	7.4044387e-38
223	0x056f5f51	1.1255233e-35
224	0x02fdbb1e	3.7282409e-37
225	0x060e277a	2.6736234e-35
226	0x0494124e	3.4811443e-36
227	0x04205437	1.884658e-36
228	0x05078324	6.371756e-36
229	0x03b8475a	1.08309295e-36
230	0x03346c52	5.302159e-37
231	0x06e4f1ba	8.6119253e-35
232	0x026c614a	1.7366462e-37
233	0x00000000	0.0
234	0x020d17a4	1.0365828e-37
235	0x05a9118e	1.5899132e-35
236	0x06110a3e	2.7278994e-35
237	0x061f846b	3.0001862e-35
238	0x11f6b4b5	3.8923326e-28
239	0x0e9ccec4	3.8656077e-30
240	0x0585e6ad	1.2591997e-35
241	0x043d5035	2.2253672e-36
242	0x018f2e1b	5.259606e-38
243	0x049c8d4a	3.6805177e-36
244	0x0445344a	2.3181249e-36
245	0x03074ea4	3.976321e-37
246	0x057dc72c	1.1932585e-35
247	0x04284c3e	1.9783314e-36
248	0x04881cbd	3.199984e-36
249	0x0210c3ba	1.063562e-37
250	0x02434ba2	1.4348043e-37
251	0x05bcaacf	1.774218e-35
252	0x01c7baac	7.3368916e-38
253	0x0571d941	1.1371669e-35
254	0x041b4595	1.8252113e-36
255	0x02f01619	3.5277514e-37

exp_avg f4 [10000]
0	0x021aaa16	1.1362945e-37
1	0x021dadd4	1.1584425e-37
2	0x02185ab2	1.1193225e-37
3	0x021a6a4b	1.1344638e-37
4	0x021d1524	1.1540605e-37
5	0x021c2075	1.1470385e-37
6	0x021d2c93	1.154733e-37
7	0x021324e0	1.0810437e-37
8	0x021a8fd9	1.1355415e-37
9	0x021eb2dc	1.1659337e-37
10	0x02177dee	1.1129868e-37
11	0x0219e7dc	1.1307205e-37
12	0x0215a599	1.0994315e-37
13	0x0219b088	1.1291327e-37
14	0x021e132d	1.161351e-37
15	0x0217dede	1.1157688e-37
16	0x021762d7	1.1122094e-37
17	0x021347d7	1.0820471e-37
18	0x298008c1	5.6858604e-14
19	0x021be146	1.1452252e-37
20	0x0211bc28	1.0706916e-37
21	0x0218dff5	1.1231469e-37
22	0x021d40ce	1.1553136e-37
23	0x021df460	1.160467e-37
24	0x02179faf	1.1139555e-37
25	0x02173cb3	1.1111148e-37
26	0x0219af75	1.1291018e-37
27	0x02109a2e	1.0623697e-37
28	0x021fb7b8	1.17342e-37
29	0x28fd5192	2.8124018e-14
30	0x02102572	1.0590195e-37
31	0x021654bd	1.1044578e-37
32	0x0215cfd4	1.1006435e-37
33	0x29774f50	5.491381e-14
34	0x021d73d2	1.1567777e-37
35	0x021646db	1.1040594e-37
36	0x021c68a9	1.1491106e-37
37	0x021fb358	1.1732944e-37
38	0x02134295	1.0818962e-37
39	0x02153789	1.0962729e-37
40	0x021180ce	1.0689883e-37
41	0x0210f480	1.0649617e-37
42	0x021e348a	1.1623085e-37
43	0x021934fb	1.1255869e-37
44	0x0217d0ea	1.1153683e-37
45	0x02183d95	1.118487e-37
46	0x02105861	1.0604813e-37
47	0x02128154	1.0763501e-37
48	0x0213cb7f	1.0858255e-37
49	0x02142104	1.0882798e-37
50	0x02150ac4	1.0949881e-37
51	0x02122b57	1.0738824e-37
52	0x021e9b8b	1.1652645e-37
53	0x02154d2c	1.0968938e-37
54	0x0214fa7d	1.0945209e-37
55	0x021ef406	1.1678038e-37
56	0x0219b523	1.1292648e-37
57	0x29746ff4	5.4275987e-14
58	0x0212ce0c	1.0785519e-37
59	0x02135a5c	1.0825786e-37
60	0x02146e81	1.0905036e-37
61	0x02153d5e	1.0964403e-37
62	0x0214cef8	1.093272e-37
63	0x02160ae9	1.1023391e-37
64	0x021b9189	1.1429368e-37
65	0x021f30fc	1.1695533e-37
66	0x0212bdea	1.0780889e-37
67	0x021c6d53	1.1492444e-37
68	0x021ddf35	1.1598596e-37
69	0x02107b4e	1.0614836e-37
70	0x0213b35f	1.0851331e-37
71	0x0210bf2e	1.0634315e-37
72	0x0213267c	1.0810899e-37
73	0x021cafee	1.1511559e-37
74	0x0217f6ef	1.1164594e-37
75	0x02147918	1.0908075e-37
76	0x02102542	1.0590142e-37
77	0x021a18e0	1.1321272e-37
78	0x2a036a8f	1.1672107e-13
79	0x021379b0	1.0834777e-37
80	0x0216ac0a	1.1069632e-37
81	0x021e0cc4	1.161167e-37
82	0x02153c0a	1.0964022e-37
83	0x02117224	1.0685674e-37
84	0x02124268	1.0745444e-37
85	0x021eab0d	1.1657096e-37
86	0x033ffdca	5.642119e-37
87	0x0211baea	1.0706559e-37
88	0x021f02d2	1.1682285e-37
89	0x021b5b5e	1.1413823e-37
90	0x021f85ef	1.1719912e-37
91	0x0211a71e	1.0700878e-37
92	0x0216e606	1.1086273e-37
93	0x02135b06	1.0825977e-37
94	0x0218b12a	1.121804e-37
95	0x021e578d	1.1633133e-37
96	0x0216ba6e	1.1073762e-37
97	0x021a45ac	1.1334128e-37
98	0x02101e01	1.058806e-37
99	0x021dbdb2	1.1588978e-37
100	0x0215ff34	1.1020031e-37
101	0x021288ce	1.0765647e-37
102	0x021dd182	1.1594664e-37
103	0x02189023	1.1208562e-37
104	0x0211b59a	1.0705035e-37
105	0x021f79e4	1.1716456e-37
106	0x021240cf	1.0744985e-37
107	0x021165f3	1.0682176e-37
108	0x02103412	1.0594393e-37
109	0x0210ea49	1.0646686e-37
110	0x021f088d	1.1683929e-37
111	0x02140a12	1.0876213e-37
112	0x021f02fc	1.1682332e-37
113	0x0219191a	1.1247869e-37
114	0x02166bfb	1.1051248e-37
115	0x02168e4a	1.1061094e-37
116	0x021b3df1	1.1405378e-37
117	0x021be36a	1.1452866e-37
118	0x021c85b4	1.1499441e-37
119	0x021655b5	1.1044856e-37
120	0x02132348	1.080998e-37
121	0x021e9f19	1.1653666e-37
122	0x0214f92b	1.094483e-37
123	0x0213d581	1.0861127e-37
124	0x02183829	1.1183314e-37
125	0x021e7710	1.1642176e-37
126	0x021c7ede	1.1497479e-37
127	0x0216d54c	1.1081473e-37
128	0x02159dcc	1.0992077e-37
129	0x021d3fe9	1.155288e-37
130	0x021517bb	1.0953601e-37
131	0x021be9ed	1.1454735e-37
132	0x021bec70	1.1455456e-37
133	0x0213d2a9	1.0860311e-37
134	0x021fc894	1.1739038e-37
135	0x02101a84	1.0587059e-37
136	0x021dc6ba	1.159157e-37
137	0x0212ba77	1.0779899e-37
138	0x0217d726	1.1155473e-37
139	0x02128367	1.0764097e-37
140	0x021ed5c5	1.1669356e-37
141	0x021ecb7b	1.1666403e-37
142	0x021459f3	1.0899137e-37
143	0x02146dee	1.0904871e-37
144	0x02108901	1.0618767e-37
145	0x0216f048	1.1089217e-37
146	0x02128482	1.0764414e-37
147	0x0211d0a2	1.0712792e-37
148	0x02109b91	1.0624095e-37
149	0x02136e71	1.083155e-37
150	0x02128f46	1.0767503e-37
151	0x0214fa94	1.0945235e-37
152	0x02124e78	1.0748905e-37
153	0x021eba01	1.1661387e-37
154	0x02121aa6	1.0734034e-37
155	0x021dade9	1.1584448e-37
156	0x021966ed	1.1270203e-37
157	0x0215ab31	1.0995921e-37
158	0x02124b2c	1.0747959e-37
159	0x0211a2c0	1.0699625e-37
160	0x0210d5f1	1.0640847e-37
161	0x021025bf	1.0590282e-37
162	0x021e92b1	1.1650105e-37
163	0x021951c0	1.1264126e-37
164	0x021b6e1b	1.14192e-37
165	0x02150256	1.0947462e-37
166	0x02116c0d	1.0683927e-37
167	0x0210dde1	1.0643125e-37
168	0x021f3acf	1.1698352e-37
169	0x021e161b	1.1614351e-37
170	0x021510c1	1.0951599e-37
171	0x02112527	1.066358e-37
172	0x021f3b52	1.1698499e-37
173	0x0216b156	1.1071152e-37
174	0x0210d92d	1.0641776e-37
175	0x021a3ec0	1.1332141e-37
176	0x02166342	1.1048745e-37
177	0x021b3526	1.1402854e-37
178	0x0219edc6	1.1308902e-37
179	0x0212bc9a	1.0780512e-37
180	0x02177598	1.1127476e-37
181	0x021ba3fe	1.1434665e-37
182	0x0214fb40	1.0945428e-37
183	0x02134d0c	1.0821966e-37
184	0x02175f6a	1.112111e-37
185	0x02160795	1.1022435e-37
186	0x021d0bd4	1.1537933e-37
187	0x021dff9c	1.1607895e-37
188	0x2e3cfb28	4.2969323e-11
189	0x0210cd39	1.0638345e-37
190	0x02197e65	1.1276938e-37
191	0x02193fa6	1.1258931e-37
192	0x0210c66a	1.0636391e-37
193	0x0218b4fe	1.1219139e-37
194	0x02196d0a	1.1271957e-37
195	0x02151e9a	1.0955573e-37
196	0x021ab9d8	1.1367468e-37
197	0x02104c9b	1.0601434e-37
198	0x0219d6f9	1.1302359e-37
199	0x0216db84	1.1083257e-37
200	0x021f4d8c	1.170373e-37
201	0x02119a71	1.069724e-37
202	0x021bf20b	1.1457064e-37
203	0x02199ad7	1.1285102e-37
204	0x021f6b14	1.1712205e-37
205	0x03178d82	4.4537355e-37
206	0x0217598b	1.1119426e-37
207	0x021de781	1.1600977e-37
208	0x021b6279	1.1415862e-37
209	0x0212560b	1.0751079e-37
210	0x02165256	1.1043889e-37
211	0x02199dc7	1.1285945e-37
212	0x02119390	1.0695266e-37
213	0x0215e54a	1.1012594e-37
214	0x02165497	1.1044536e-37
215	0x021e124c	1.1613258e-37
216	0x02103efd	1.0597526e-37
217	0x0217c485	1.1150126e-37
218	0x021c007a	1.1461207e-37
219	0x02143c35	1.0890601e-37
220	0x02179036	1.1135114e-37
221	0x02154124	1.0965486e-37
222	0x0210162f	1.0585816e-37
223	0x021003f1	1.058058e-37
224	0x0219323c	1.1255081e-37
225	0x0219df1f	1.1304697e-37
226	0x0211e574	1.0718767e-37
227	0x0217368f	1.1109385e-37
228	0x021ce80a	1.1527662e-37
229	0x0217aa8d	1.1142674e-37
230	0x02163edc	1.1038299e-37
231	0x021aa932	1.136269e-37
232	0x021199be	1.0697039e-37
233	0x02197117	1.127312e-37
234	0x0215af27	1.0997057e-37
235	0x021ccefe	1.1520474e-37
236	0x021d80f4	1.1571546e-37
237	0x0212b18f	1.0777343e-37
238	0x021d69bd	1.1564884e-37
239	0x0214571d	1.0898323e-37
240	0x0212848e	1.0764427e-37
241	0x0218d71f	1.1228933e-37
242	0x021ac83e	1.13716e-37
243	0x29f9d2bb	1.1094377e-13
244	0x02182d4d	1.1180197e-37
245	0x02125880	1.0751784e-37
246	0x02113a75	1.0669694e-37
247	0x021e81f7	1.1645305e-37
248	0x021567f3	1.0976623e-37
249	0x02154a2e	1.096808e-37
250	0x02176267	1.1121968e-37
251	0x021656a8	1.1045129e-37
252	0x021b02e6	1.1388433e-37
253	0x021d7f89	1.1571139e-37
254	0x021bd8fd	1.1449874e-37
255	0x0210de44	1.0643236e-37

exp_avg_sq f4 [10000]
0	0x02aceab4	2.5407842e-37
1	0x0105328e	2.4464513e-38
2	0x0282c420	1.9214353e-37
3	0x03e23b16	1.3296652e-36
4	0x039cf2f5	9.224636e-37
5	0x0434b8cb	2.1243751e-36
6	0x038fcb89	8.451514e-37
7	0x01cba87b	7.481218e-38
8	0x032bc408	5.0477416e-37
9	0x02cef6a9	3.0410556e-37
10	0x00ca3de5	1.8572974e-38
11	0x046b9227	2.7691227e-36
12	0x030af37f	4.0834075e-37
13	0x038e4ad0	8.363186e-37
14	0x03d85da3	1.2716837e-36
15	0x0443c40a	2.3012157e-36
16	0x042248ff	1.9076527e-36
17	0x00000000	0.0
18	0x12d771c4	1.3596453e-27
19	0x03dc1608	1.2935496e-36
20	0x03994a37	9.009571e-37
21	0x035acbbf	6.429833e-37
22	0x05792125	1.17140114e-35
23	0x031409db	4.3504605e-37
24	0x04927c48	3.443857e-36
25	0x024c5c4c	1.5014041e-37
26	0x04d99461	5.115272e-36
27	0x0478d591	2.9250325e-36
28	0x03b47a2f	1.0607501e-36
29	0x11b86b4c	2.9096208e-28
30	0x04661693	2.7046736e-36
31	0x0340c958	5.665486e-37
32	0x036cd7ae	6.9601755e-37
33	0x12ad2f23	1.0929455e-27
34	0x049a0317	3.6208064e-36
35	0x02fdaba1	3.727352e-37
36	0x028344f5	1.92883e-37
37	0x049a7087	3.6308566e-36
38	0x02f9b07f	3.6688565e-37
39	0x016a30a7	4.3013919e-38
40	0x0413b28e	1.7361755e-36
41	0x0275ae44	1.8049769e-37
42	0x022b80ed	1.2600096e-37
43	0x035db760	6.5156567e-37
44	0x0410d9d7	1.7027146e-36
45	0x03020cc1	3.8218207e-37
46	0x02c4c6e6	2.8913774e-37
47	0x044e3e94	2.4243918e-36
48	0x041265ba	1.7208928e-36
49	0x0333a619	5.2794043e-37
50	0x0153d694	3.8908532e-38
51	0x03066b02	3.95019e-37
52	0x0298a2e4	2.2427887e-37
53	0x01bc65e7	6.9206516e-38
54	0x03299aa4	4.9842155e-37
55	0x02c5fd98	2.9092104e-37
56	0x04125fe2	1.7206245e-36
57	0x12cb0353	1.2811921e-27
58	0x02c02038	2.8230357e-37
59	0x03c45c91	1.1541097e-36
60	0x031aa1ac	4.5442123e-37
61	0x02ebe85d	3.4663517e-37
62	0x03dc0bd3	1.2933153e-36
63	0x03ac4a6a	1.0126336e-36
64	0x028a981b	2.0364582e-37
65	0x039ac829	9.097261e-37
66	0x03c7c4a6	1.1741317e-36
67	0x03caf1e4	1.1928028e-36
68	0x04937ac8	3.467229e-36
69	0x0392598d	8.601669e-37
70	0x03ef3963	1.4060333e-36
71	0x03a6b8c9	9.799028e-37
72	0x039e4f52	9.304616e-37
73	0x03378198	5.3927633e-37
74	0x041ba0fe	1.8294086e-36
75	0x039f7c39	9.3737e-37
76	0x038b4d14	8.187382e-37
77	0x02cdf1d3	3.0260843e-37
78	0x13ca6b79	5.1097945e-27
79	0x0471bd80	2.8416428e-36
80	0x0393bd6a	8.683371e-37
81	0x03521f9d	6.1749744e-37
82	0x036dbc5a	6.9864257e-37
83	0x0e09050a	1.688898e-30
84	0x1112abfe	1.1570368e-28
85	0x04e13f56	5.295541e-36
86	0x12efd04a	1.5134368e-27
87	0x032e057d	5.1140304e-37
88	0x0096bceb	1.3843095e-38
89	0x03326bfc	5.243346e-37
90	0x029adbe4	2.2754477e-37
91	0x02cc6e68	3.0038476e-37
92	0x02b63cd6	2.6777415e-37
93	0x03a589d1	9.7294695e-37
94	0x01a4f864	6.060051e-38
95	0x03172672	4.4419045e-37
96	0x031a5d54	4.536367e-37
97	0x032dc278	5.106337e-37
98	0x0434a1d9	2.1233215e-36
99	0x03b1c637	1.0448633e-36
100	0x0461981d	2.651847e-36
101	0x04660db4	2.7042662e-36
102	0x02e32900	3.3378185e-37
103	0x022ffc20	1.2929326e-37
104	0x035d3b26	6.501396e-37
105	0x0295ac8a	2.1992615e-37
106	0x030bfd4b	4.1139195e-37
107	0x030f5fc8	4.2133875e-37
108	0x03169d39	4.426152e-37
109	0x031b2e4f	4.5603566e-37
110	0x045c7bca	2.5917717e-36
111	0x03b469cf	1.0603742e-36
112	0x044a7dee	2.380281e-36
113	0x032072be	4.715149e-37
114	0x03692a06	6.8520786e-37
115	0x052d634a	8.1526574e-36
116	0x00abe859	1.578722e-38
117	0x03ff398a	1.5000763e-36
118	0x04e083c7	5.2783165e-36
119	0x1035d5b9	3.5860602e-29
120	0x03e62a48	1.3527892e-36
121	0x02de271c	3.2642416e-37
122	0x02a97ff4	2.490576e-37
123	0x03dc72ea	1.2956821e-36
124	0x02c64d4d	2.9137854e-37
125	0x040c5f08	1.6500557e-36
126	0x03b6aee6	1.0737153e-36
127	0x028435e3	1.9426586e-37
128	0x030617d2	3.9406405e-37
129	0x0274630e	1.7954716e-37
130	0x0324238c	4.8236074e-37
131	0x0f94ada0	1.4660805e-29
132	0x03836ad3	7.724014e-37
133	0x1009ed41	2.720126e-29
134	0x039bdd0e	9.160833e-37
135	0x02d8b896	3.1844295e-37
136	0x04b2d1eb	4.2040378e-36
137	0x02f0409f	3.5301921e-37
138	0x03042093	3.8828707e-37
139	0x02fc5df9	3.708201e-37
140	0x013a886e	3.4260688e-38
141	0x100b0f27	2.742459e-29
142	0x03fb9a3f	1.4787867e-36
143	0x0216f7c9	1.109137e-37
144	0x039b8e1c	9.142708e-37
145	0x03c8aa38	1.1794024e-36
146	0x023cf4fd	1.3882367e-37
147	0x02d854f7	3.1787115e-37
148	0x02453b8a	1.4490361e-37
149	0x01803098	4.70895e-38
150	0x025bdd72	1.6153131e-37
151	0x03bcda5b	1.1099779e-36
152	0x0314c44a	4.371862e-37
153	0x03a0ad90	9.443803e-37
154	0x01e96205	8.5731334e-38
155	0x0345f605	5.8175513e-37
156	0x0486de77	3.170755e-36
157	0x04c4cd4c	4.6267914e-36
158	0x03ac00fb	1.01094765e-36
159	0x031789f0	4.4533256e-37
160	0x039000e0	8.46376e-37
161	0x0367a420	6.8073205e-37
162	0x037462b4	7.181846e-37
163	0x0428f1e7	1.9859381e-36
164	0x04c0faba	4.536924e-36
165	0x0391e09a	8.5739e-37
166	0x02852f33	1.9569685e-37
167	0x01b091e0	6.486151e-38
168	0x039bd47a	9.158863e-37
169	0x0479b39c	2.9352282e-36
170	0x04c4e703	4.629153e-36
171	0x025a8225	1.605346e-37
172	0x03b1797f	1.0431019e-36
173	0x0516c0a4	7.0883486e-36
174	0x00000000	0.0
175	0x037f0630	7.494487e-37
176	0x039c33a8	9.180716e-37
177	0x024f792a	1.524273e-37
178	0x02c52e33	2.8973065e-37
179	0x035ad9ec	6.4314604e-37
180	0x02d36bae	3.1065469e-37
181	0x0f4f7e23	1.0230181e-29
182	0x03c3f2d6	1.1516822e-36
183	0x031425f9	4.353688e-37
184	0x011269c6	2.6891854e-38
185	0x03e8a0ba	1.36726355e-36
186	0x046853e0	2.7309982e-36
187	0x048a20bf	3.2473717e-36
188	0x1d053040	1.7627348e-21
189	0x02fa026e	3.6735593e-37
190	0x0435a309	2.135131e-36
191	0x030e461c	4.181053e-37
192	0x031db7e0	4.634923e-37
193	0x0325d6ac	4.8735573e-37
194	0x02f29d59	3.5649017e-37
195	0x045394d2	2.4871266e-36
196	0x039d4b69	9.244944e-37
197	0x017aebfb	4.6087056e-38
198	0x032e7c29	5.1276533e-37
199	0x02274b3c	1.2290813e-37
200	0x025cdac7	1.6225833e-37
201	0x0356cba1	6.3122702e-37
202	0x038d8d7d	8.319719e-37
203	0x04622dc0	2.658718e-36
204	0x043f955f	2.252053e-36
205	0x12e4896b	1.4422699e-27
206	0x0366a3ef	6.777911e-37
207	0x02a817d0	2.469905e-37
208	0x02019570	9.52031e-38
209	0x0379ad68	7.3373584e-37
210	0x02474f0e	1.4642899e-37
211	0x03730500	7.141702e-37
212	0x03ef76a4	1.4074396e-36
213	0x039327a2	8.648983e-37
214	0x02be3108	2.7946133e-37
215	0x03a0515e	9.422636e-37
216	0x03ad7a9d	1.0196177e-36
217	0x00000000	0.0
218	0x01d693a0	7.8823016e-38
219	0x010bf4d6	2.570593e-38
220	0x031b0a49	4.5562213e-37
221	0x0309ff27	4.055358e-37
222	0x01edf4e8	8.7411474e-38
223	0x03db6311	1.2894408e-36
224	0x032d6902	5.0960674e-37
225	0x02b2d8cc	2.6279185e-37
226	0x03d1ce90	1.233134e-36
227	0x02a52363	2.4264882e-37
228	0x038e7ad0	8.374206e-37
229	0x04877999	3.1850017e-36
230	0x01b86330	6.773325e-38
231	0x04545063	2.4957392e-36
232	0x00fd2493	2.3247501e-38
233	0x024483ae	1.4437596e-37
234	0x039d7830	9.255224e-37
235	0x0319f230	4.5240677e-37
236	0x00000000	0.0
237	0x029c0926	2.292739e-37
238	0x049ce8fe	3.6889393e-36
239	0x02bf6582	2.812319e-37
240	0x00000000	0.0
241	0x039d7bbf	9.256041e-37
242	0x03a464d0	9.662199e-37
243	0x13d17c19	5.2881387e-27
244	0x035dbf1b	6.516544e-37
245	0x02cbd78a	2.9951883e-37
246	0x03ea67de	1.3777131e-36
247	0x0402a4ba	1.5357065e-36
248	0x02d80a82	3.1744379e-37
249	0x02c6e5be	2.922535e-37
250	0x04120f57	1.7169261e-36
251	0x032bec64	5.0523747e-37
252	0x0370d820	7.077776e-37
253	0x0164e6fb	4.2042707e-38
254	0x03cfdd1d	1.2217132e-36
255	0x04282856	1.9766826e-36
