checkpoints/checkpoint_50.pth (torch, 364232 bytes, 6 tensors)

W f4 [10000, 2]
0	0x3a8dad44	0.0010809083
1	0x38bd8763	9.03744e-05
2	0xba31103e	-0.00067544344
3	0x3b705b0f	0.003667537
4	0x3b1d7e0e	0.0024031433
5	0x39537880	0.00020167418
6	0x3b173087	0.0023069696
7	0x3b07d3ed	0.0020725683
8	0xbb3a180d	-0.0028395683
9	0x3ad92df2	0.0016569479
10	0x3a8a2d13	0.0010541998
11	0x3bc59dae	0.00603076
12	0xba173f57	-0.0005769631
13	0x35852f9c	9.923128e-07
14	0x3b63f177	0.0034781375
15	0x3a2810b8	0.00064111827
16	0x3b59cf71	0.0033235217
17	0xbb301c0d	-0.0026872188
18	0x3a9e9a25	0.0012100382
19	0xbb0900e7	-0.002090508
20	0xbb1cf35d	-0.0023948767
21	0x3b88eaa1	0.0041783606
22	0x3b5c8817	0.0033650452
23	0x3a2a9fce	0.0006508798
24	0xba799955	-0.00095214444
25	0xbb273ff7	-0.0025520304
26	0x3b84f0b1	0.004057013
27	0x3a949e70	0.0011338722
28	0x3b9127e3	0.0044298037
29	0xbabff63d	-0.0014645528
30	0xbf946845	-1.159432
31	0xbf945102	-1.1587222
32	0xbb1c8954	-0.0023885565
33	0xba81ca0b	-0.0009902132
34	0xbb356014	-0.0027675675
35	0xbad12fb1	-0.0015959648
36	0xba5af8c9	-0.0008353112
37	0x3b949f22	0.0045355717
38	0xba7fcf07	-0.00097583275
39	0x3bada79d	0.005299522
40	0x3b68a3f2	0.003549811
41	0x3b19d8c9	0.0023475161
42	0xb75e1dd6	-1.3239178e-05
43	0xbb1bd9f7	-0.002378104
44	0xbb381e0f	-0.0028094088
45	0xb9921255	-0.00027860948
46	0x3a5badd9	0.00083800923
47	0xbb1a393b	-0.0023532647
48	0x3a9e862e	0.0012094432
49	0xbb20086f	-0.002441909
50	0xbb72ec6c	-0.0037067188
51	0x3b63b0f4	0.0034742923
52	0xbb5da8f2	-0.0033822623
53	0xbb0a02c5	-0.002105878
54	0x3b05bd9d	0.0020407208
55	0x3a155fd1	0.00056981767
56	0x3a913501	0.0011078418
57	0x3b4195bc	0.0029538712
58	0xbb80b0e9	-0.0039273393
59	0xbadab7a1	-0.0016686806
60	0x3aca95fc	0.0015456076
61	0x3b60582a	0.0034232237
62	0xba28cb76	-0.00064390094
63	0x3b5462fd	0.0032407634
64	0x3ae9eca2	0.0017847011
65	0x3b3135e8	0.0027040187
66	0xb7cbe796	-2.4307326e-05
67	0x39d17e2b	0.0003995759
68	0x3bd856ab	0.0066021285
69	0x3a1159b2	0.00055446767
70	0xb7d80cd1	-2.5755175e-05
71	0xbb99e520	-0.0046965033
72	0xb9a291f0	-0.0003100778
73	0xba4d25da	-0.000782577
74	0x39d2da31	0.00040216887
75	0x3ad96989	0.0016587238
76	0x38e1828b	0.000107531516
77	0x39d7135c	0.0004102242
78	0xbb67ce3a	-0.0035370723
79	0x3bbfad27	0.005849499
80	0xbb55d138	-0.0032625925
81	0x3a5f8fc9	0.00085282006
82	0xb9f803e8	-0.00047305156
83	0xba5e97da	-0.00084912556
84	0x3aa4a37d	0.001256093
85	0xbbc22bb5	-0.0059256204
86	0xbb88f1ac	-0.0041792
87	0xbac7efb3	-0.0015253931
88	0xba681b1c	-0.0008854137
89	0xbb1b7c5b	-0.0023725245
90	0x3a5f8c3e	0.00085276726
91	0xbb61d663	-0.003446006
92	0xbb2a09ae	-0.002594571
93	0xba9c1541	-0.001190819
94	0xba8de8d0	-0.001082683
95	0xbb3e2d9c	-0.0029018885
96	0xbb3a0989	-0.002838703
97	0x36d145de	6.236819e-06
98	0xb9573ffb	-0.00020527832
99	0xbb9e434e	-0.0048298007
100	0xbb3ab000	-0.0028486252
101	0xbb43e9c9	-0.0029893985
102	0x3b45f2ad	0.003020446
103	0x3aaecc6b	0.0013336068
104	0x3b56baaf	0.003276508
105	0x3b3a7d85	0.0028456163
106	0x3911c9ea	0.00013903496
107	0x38a2c6a4	7.761762e-05
108	0xbb2f908d	-0.002678904
109	0xbb1933c3	-0.00233768
110	0xbab447d1	-0.0013754313
111	0x3bf4b950	0.00746838
112	0xba8879a4	-0.0010412228
113	0x3b9d8892	0.00480754
114	0xbafd5043	-0.0019326288
115	0x3b4fbb64	0.0031697387
116	0x3aeec345	0.0018216154
117	0xbb81a54a	-0.0039564716
118	0xbb023bd3	-0.0019872084
119	0xbadb1467	-0.0016714454
120	0x3a8ab230	0.0010581668
121	0xbad4708b	-0.0016207857
122	0xbb0a080d	-0.0021061928
123	0xbb246777	-0.0025086084
124	0x3a08af5c	0.0005214119
125	0x3b3482df	0.0027543826
126	0xbbb1d33b	-0.005426792
127	0xbaffa0bd	-0.001950286
128	0xbae7723f	-0.0017657949
129	0x3ab7ed40	0.0014032498
130	0x3bc8b6f7	0.0061253267
131	0x3ae0ada4	0.0017141593
132	0x3bab1d48	0.0052219965
133	0xbb45d1fe	-0.003018498
134	0x396107be	0.00021460556
135	0xba46443a	-0.0007563267
136	0x3abefad7	0.0014570606
137	0xbae2605f	-0.0017271152
138	0x3b878f28	0.0041369386
139	0xbab353ad	-0.0013681554
140	0x3affbb6c	0.0019510812
141	0x3a1670ee	0.0005738874
142	0x3adaef7a	0.001670345
143	0xba5127ed	-0.00079786667
144	0xbb20d0ab	-0.0024538438
145	0xba5be585	-0.0008388388
146	0xbb3b4877	-0.0028577128
147	0xba9c0e2b	-0.0011906078
148	0xb982c2f7	-0.00024940792
149	0x3b7aa8a9	0.0038247502
150	0xbb593801	-0.0033144953
151	0xba2d83e4	-0.00066190795
152	0xb9427ce7	-0.00018547811
153	0xbae9e202	-0.0017843845
154	0x3b317f50	0.002708394
155	0x3aa6d297	0.0012727556
156	0x3b20b207	0.0024520175
157	0xbb4835a6	-0.0030549555
158	0xba850521	-0.0010148623
159	0x3bb49190	0.0055105165
160	0x3b9d5283	0.004801096
161	0x39d3a534	0.00040368142
162	0xbb52119d	-0.0032053955
163	0xba096e37	-0.00052425585
164	0x3ab31634	0.0013663233
165	0x3b0e35a4	0.0021699453
166	0x3b3dff04	0.0028991112
167	0xba7b9cc4	-0.000959825
168	0xbb5465d9	-0.0032409339
169	0xbaefa4c2	-0.0018283355
170	0x3ad34175	0.001611753
171	0xbb21c929	-0.0024686551
172	0xba9ad6fd	-0.0011813339
173	0x3a34b2d9	0.00068931055
174	0xbb50e025	-0.0031871882
175	0xbaa236e3	-0.0012375977
176	0x396502df	0.00021840211
177	0x3924c942	0.00015715233
178	0x3b85e2c9	0.004085873
179	0x3a8471ec	0.0010104752
180	0xbb414b1a	-0.0029494227
181	0x3ae193b6	0.0017210159
182	0x3f2e1487	0.6800007
183	0x3f4cd031	0.80005175
184	0xb9f89baa	-0.00047418225
185	0x3b250835	0.0025181894
186	0x3a1e6b92	0.0006043251
187	0xbb0e2766	-0.0021690964
188	0xbb302b9f	-0.002688147
189	0x3a8d3469	0.0010773066
190	0xbb61c96a	-0.0034452328
191	0x3aaff950	0.0013425741
192	0xbb6f26e4	-0.0036491686
193	0xbb2ed772	-0.0026678708
194	0xbb5a1f7e	-0.003328293
195	0xb7b54a8d	-2.1611597e-05
196	0x3ad3d877	0.0016162534
197	0x394043e6	0.00018335841
198	0xb6dcea72	-6.583804e-06
199	0xba9a38c1	-0.0011766182
200	0x3af620c5	0.0018778077
201	0xbaddcc38	-0.0016921824
202	0x3b52bd4c	0.0032156287
203	0xbb251229	-0.0025187826
204	0xba45f274	-0.0007551082
205	0xbaf8f455	-0.0018993715
206	0xb9a8580b	-0.00032109054
207	0x3ae4892a	0.0017435898
208	0x3a8c3302	0.0010696354
209	0xbb339ed0	-0.0027407892
210	0x399f6faa	0.0003041004
211	0x3b2d96ee	0.0026487666
212	0x3ab78fb2	0.0014004617
213	0xbae9eb60	-0.0017846636
214	0xba8e65a0	-0.0010864027
215	0xba314ce3	-0.0006763471
216	0x3a1959f9	0.0005849894
217	0x3b016aa9	0.0019747412
218	0x3b07d687	0.0020727233
219	0x392ce1f7	0.00016487377
220	0xba8f4531	-0.0010930655
221	0x3aea6e6c	0.0017885691
222	0xbb8968a1	-0.004193381
223	0xbb094fe7	-0.0020952167
224	0xbaf2ad1a	-0.0018514723
225	0xbba2987b	-0.0049620247
226	0xbbde7ba9	-0.006789644
227	0xbbbc3029	-0.005743046
228	0xbb70d90f	-0.003675047
229	0xbabb0b40	-0.001427032
230	0xba03a991	-0.0005022521
231	0x39a312c4	0.00031103764
232	0x3a89f293	0.0010524563
233	0x3b66e999	0.003523445
234	0x3b177033	0.0023107647
235	0x394b2bdc	0.00019375928
236	0xbb9234bc	-0.004461853
237	0xbb0b9630	-0.0021299236
238	0x3a4686f9	0.0007573213
239	0x3b42b3f5	0.0029709314
240	0x3b75cb93	0.0037505373
241	0x3a88aa67	0.001042676
242	0x3afab37d	0.0019126978
243	0x3a08ed52	0.0005223352
244	0x3a27f010	0.00064063165
245	0x3adc2dc8	0.0016798312
246	0xba6c7208	-0.00090196775
247	0x3ba0784f	0.0048971544
248	0x3a49b347	0.0007694256
249	0xb908d89e	-0.00013050667
250	0x3aba68d1	0.0014221912
251	0xbad62c7d	-0.0016340163
252	0xbb36f4b1	-0.0027916844
253	0xba8e1566	-0.0010840117
254	0xbafc0c54	-0.0019229748
255	0x3b83c2c9	0.004021023

b f4 [10000]
0	0xbb89698b	-0.00419349
1	0xbc6d7315	-0.01449277
2	0xbc18bf30	-0.009322926
3	0xbc478525	-0.01217774
4	0xbc566c65	-0.013087367
5	0xbcc49718	-0.023997828
6	0xbb1047cd	-0.0022015453
7	0xbc605b73	-0.013693678
8	0xbc86aad6	-0.016438883
9	0xbc17aace	-0.009257032
10	0xbc9c1c9a	-0.019056607
11	0xbc59753e	-0.013272582
12	0xbc286df5	-0.010280122
13	0xbc85584c	-0.016277455
14	0xbc944c7f	-0.018102882
15	0xc0b95549	-5.791661
16	0xbc1fa0e1	-0.009742946
17	0xbc450582	-0.012025239
18	0xbc92d319	-0.017922925
19	0xbcab8db4	-0.020941593
20	0xbc89b84a	-0.016811509
21	0xbc173605	-0.009229188
22	0xbc30aca6	-0.01078335
23	0xbc1b81ec	-0.009491425
24	0xbc2b3c8c	-0.010451447
25	0xbca4c6d3	-0.020114338
26	0xbc771d96	-0.015082737
27	0xbc062414	-0.008187313
28	0xbc4d0ba9	-0.012514987
29	0xbc83b266	-0.016076278
30	0xbc739d58	-0.014869057
31	0xbc52a91c	-0.012857702
32	0xbc505101	-0.012714625
33	0x3b456e91	0.0030125717
34	0xbcd1d198	-0.025612637
35	0xbc955046	-0.018226754
36	0xbb50cb09	-0.00318593
37	0xbbdc3830	-0.0067205653
38	0xbadb546d	-0.0016733535
39	0xbcdddd58	-0.027083084
40	0xbc572903	-0.013132337
41	0xbb73b291	-0.0037185291
42	0xbcbfb5f9	-0.023402201
43	0xbc89475f	-0.016757665
44	0xbc1c9580	-0.009557128
45	0xbc5fa46f	-0.013650044
46	0xbc300858	-0.010744177
47	0xbc3f8593	-0.011689561
48	0xbc317681	-0.010831476
49	0xbc9935dd	-0.018702442
50	0xbc80d5cf	-0.015726952
51	0xbc54a52b	-0.012978832
52	0xbc8b489a	-0.017002393
53	0x3bd7ed1e	0.006589546
54	0xbc5f04c8	-0.01361198
55	0xbcf1c3ce	-0.029512312
56	0xbc9d05ce	-0.019167807
57	0xbc7105d5	-0.014710863
58	0xbc88b7ee	-0.016689267
59	0xbc22e1da	-0.0099415425
60	0xbbf2262d	-0.007389805
61	0xbc4ad495	-0.012379785
62	0xbc33a060	-0.010963529
63	0xbcb1e93b	-0.021717658
64	0xbc137507	-0.009000069
65	0xbcc95716	-0.024577659
66	0xbcbcbb76	-0.023038607
67	0xbb44efd3	-0.0030050173
68	0xbc0cf2d4	-0.008602817
69	0xbc8a7fbe	-0.016906615
70	0xbc009ffb	-0.007850642
71	0xbbea40f1	-0.007148855
72	0xbc1fe882	-0.009760024
73	0xbc3f1e0c	-0.011664879
74	0xbc78283e	-0.015146313
75	0xbc51a8a3	-0.012796554
76	0xbbe1cd41	-0.0068909233
77	0xbc413170	-0.011791572
78	0xbc736276	-0.014855018
79	0xbcb262a4	-0.021775551
80	0xbc989453	-0.018625414
81	0xbc4a5509	-0.0123493755
82	0xbc246038	-0.010032706
83	0xbc422392	-0.011849301
84	0xbc6510b6	-0.013981035
85	0xbc386985	-0.011255627
86	0xbbb268de	-0.00544463
87	0xbc531609	-0.012883672
88	0x3bf62c68	0.007512618
89	0xbc857186	-0.016289484
90	0xbc5eb7af	-0.013593598
91	0xc07a83ae	-3.914287
92	0xbc233910	-0.009962335
93	0xbc0d23c8	-0.008614488
94	0xbc39b372	-0.011334287
95	0xbc6d24d4	-0.014474113
96	0xbc8d5f6f	-0.01725742
97	0xbc502d05	-0.012706046
98	0xbbcd8cbf	-0.0062728818
99	0xbb95a125	-0.004566329
100	0xbc1f6b4c	-0.009730171
101	0xbc809ab5	-0.01569877
102	0xbbfd8a96	-0.007737468
103	0xbbe1c591	-0.006890007
104	0xbc37d5d3	-0.011220413
105	0xbc2c7b0d	-0.0105273845
106	0xbc0caabd	-0.008585629
107	0xbb9ebe69	-0.004844476
108	0xbc058478	-0.008149259
109	0xbc03cdc4	-0.008044664
110	0xbc081792	-0.008306401
111	0xbc90347d	-0.017603153
112	0xbca3becc	-0.01998844
113	0xbd0b7517	-0.034047212
114	0xbc736585	-0.014855747
115	0xbb1a6d0d	-0.0023563534
116	0xbc6e6da3	-0.014552507
117	0xbc12e04e	-0.008964611
118	0xbc984cbe	-0.018591281
119	0xbc461041	-0.012088836
120	0xbc7678ce	-0.0150434505
121	0xbbfb25e2	-0.007664428
122	0xbbe9b31f	-0.0071319486
123	0xbc9e87c1	-0.019351842
124	0xbb48a955	-0.0030618508
125	0xbc076b48	-0.008265324
126	0xbc38e44c	-0.011284899
127	0xbc8f5e30	-0.017500967
128	0xbc062826	-0.008188283
129	0xbbb53f17	-0.0055312025
130	0xbcbd2820	-0.023090422
131	0xbca66195	-0.020310203
132	0xbc7e2991	-0.01551284
133	0xbcb5a358	-0.022172615
134	0xbc17194a	-0.009222338
135	0xbba59e24	-0.005054252
136	0xbc419adb	-0.011816706
137	0xbc7e9c6b	-0.015540223
138	0xbcc813da	-0.024423528
139	0xbc66cc4c	-0.014086794
140	0xbc8b5a7f	-0.017010925
141	0xbcb7d1bd	-0.022438878
142	0xbbfeb5f2	-0.0077731544
143	0xbc44ef7f	-0.012019991
144	0xbc2c58d6	-0.010519227
145	0xbc8bb3d4	-0.017053522
146	0xbc5f3b6d	-0.013625008
147	0xbbd19e8e	-0.006397075
148	0xbcb3b83a	-0.021938432
149	0xbc5ea2a8	-0.013588585
150	0xbf155123	-0.5832693
151	0xbc81f0e1	-0.01586193
152	0xbc83a2d6	-0.016068857
153	0xbc62e35e	-0.013848154
154	0xbc5681a6	-0.013092434
155	0xbbfeaed7	-0.0077723074
156	0xbc1a358e	-0.0094121825
157	0xc108a68a	-8.540659
158	0xbcbde14e	-0.023178723
159	0xbc1823b6	-0.009285858
160	0xbb15c723	-0.002285429
161	0xbb925885	-0.0044661188
162	0xbbcf5ad7	-0.0063279676
163	0xbae24c9a	-0.0017265261
164	0xbaef02a9	-0.0018235046
165	0xbbcd0950	-0.0062572137
166	0xbc243e56	-0.010024628
167	0xbc0c5e63	-0.008567425
168	0xbc83c956	-0.016087215
169	0xbcc765ab	-0.024340471
170	0xbc838569	-0.016054826
171	0xbccd0e49	-0.025031226
172	0xbbe4ad3c	-0.006978659
173	0xbb2e847f	-0.0026629267
174	0xbc4ee88e	-0.012628688
175	0xbc1bdcd9	-0.009513103
176	0xbc99ef91	-0.018790992
177	0xbbadce34	-0.0053041223
178	0xbcb3601d	-0.021896416
179	0xbbdf22fe	-0.0068095913
180	0xbc087562	-0.0083287675
181	0xbff551e6	-1.9165618
182	0xbccba400	-0.024858475
183	0xbc27c610	-0.010240093
184	0xbb63f5d8	-0.0034783985
185	0xbbe1fbbf	-0.0068964656
186	0xbbebeaf2	-0.0071996385
187	0xbcbb8db3	-0.022894716
188	0xbcd9f3a2	-0.026605431
189	0xbfcc61ec	-1.5967383
190	0xbcb57a44	-0.022153027
191	0xbc157108	-0.009121187
192	0xbc65554c	-0.013997387
193	0xc099b666	-4.8035154
194	0xbc57b45a	-0.013165558
195	0xbc06a583	-0.008218172
196	0xbcd1ff9b	-0.025634577
197	0xbc14992b	-0.009069721
198	0xbc3e5c3f	-0.011618673
199	0xbbbc2735	-0.0057419785
200	0xbbf42208	-0.007450346
201	0xbc97db96	-0.018537324
202	0xbc0a603c	-0.008445796
203	0xbbb12817	-0.0054063904
204	0xbcb65af2	-0.022260163
205	0xbbe75a4e	-0.0070603257
206	0xbbeab85a	-0.0071630897
207	0xbb3b1a13	-0.0028549477
208	0xbc09fdb7	-0.008422307
209	0xbc4fe718	-0.012689374
210	0xbbfb933f	-0.007677465
211	0xbc5d44df	-0.01350519
212	0xbc46dfcc	-0.012138318
213	0xbb8590c6	-0.004076096
214	0xbcb15fe6	-0.021652173
215	0xbc3db88d	-0.011579645
216	0xbc6d9938	-0.014501862
217	0xbc5b1a4b	-0.013372968
218	0xbcc06724	-0.023486681
219	0xbc704bd8	-0.01466652
220	0xbc0c2b5e	-0.008555261
221	0xbc151040	-0.009098113
222	0xbc519e57	-0.012794099
223	0xbbbe6c81	-0.0058112745
224	0xbbfb0082	-0.0076599726
225	0xbc5cff66	-0.013488626
226	0xbbb2119c	-0.005434228
227	0xbc036897	-0.008020542
228	0xbc36ac33	-0.011149454
229	0xbb786f24	-0.0037908042
230	0xbc8b1200	-0.016976357
231	0xbbaa9dde	-0.0052068075
232	0xbc11da22	-0.008902105
233	0xbbdc0bde	-0.006715282
234	0xbf34d627	-0.7063927
235	0xbc2864e7	-0.010277963
236	0xbc521e46	-0.012824601
237	0xbb1ef3f0	-0.0024254285
238	0xbc7497f7	-0.014928809
239	0xc0d12a1e	-6.5363913
240	0xbc7a6beb	-0.015284519
241	0xbc213291	-0.009838716
242	0xbb2f48d9	-0.0026746301
243	0xbc41d275	-0.011829962
244	0xbcc67a9d	-0.024228388
245	0xbb0f3cbb	-0.0021856267
246	0xbc0b022e	-0.008484406
247	0xbc45bc9d	-0.012068895
248	0xbbc172a9	-0.005903561
249	0xbc08efa7	-0.008357919
250	0xbc0a6741	-0.008447469
251	0xbc6155ad	-0.013753337
252	0xbc3af9c7	-0.011412091
253	0xbbf38e86	-0.0074327616
254	0xbc622d05	-0.013804679
255	0xbc7e4d17	-0.015521309

exp_avg f4 [10000, 2]
0	0x2a5ca350	1.9596586e-13
1	0xa8b1cac7	-1.9738888e-14
2	0xa9805d58	-5.7005344e-14
3	0x2a5c6fa8	1.9578664e-13
4	0x2b1d6a6d	5.59253e-13
5	0xa97db1a2	-5.6331357e-14
6	0x29123271	3.2462263e-14
7	0x2928e8df	3.7505477e-14
8	0xaa118f76	-1.292836e-13
9	0x29ce5529	9.1630107e-14
10	0x28047204	7.352195e-15
11	0x2acd99f8	3.6522152e-13
12	0xaa1a1f83	-1.368888e-13
13	0xa8106243	-8.014913e-15
14	0x2a586956	1.92212e-13
15	0x2934331e	4.0012366e-14
16	0x2b34fb97	6.4297997e-13
17	0xab1f30c1	-5.6555807e-13
18	0x2aa5c37c	2.9445532e-13
19	0xab1f0d74	-5.650682e-13
20	0xaa8c4346	-2.4915676e-13
21	0x2ad2fbee	3.7478305e-13
22	0x2a608a70	1.9943227e-13
23	0x293af805	4.151542e-14
24	0x8211bafd	-1.070658e-37
25	0x821b145d	-1.1393445e-37
26	0x2addda37	3.9408903e-13
27	0x29b8baee	8.2036686e-14
28	0x2ad681f8	3.810422e-13
29	0xaa1a6151	-1.3711711e-13
30	0x308b1e22	1.0122145e-09
31	0xb10633c4	-1.9528992e-09
32	0xaa5621b4	-1.9018711e-13
33	0xa9aae677	-7.589496e-14
34	0xab2d4b44	-6.15664e-13
35	0xab1413ad	-5.260747e-13
36	0xa9f2c4f1	-1.0781123e-13
37	0x2ad07322	3.7028112e-13
38	0xa9f8820c	-1.1035972e-13
39	0x2ad5608b	3.790339e-13
40	0x2b1db1de	5.6024445e-13
41	0x2ab86ab3	3.2759003e-13
42	0x021e224d	1.161785e-37
43	0x8211a6f0	-1.0700826e-37
44	0xaa55171c	-1.8926218e-13
45	0xa8479fe8	-1.1081393e-14
46	0x29de14ac	9.8623665e-14
47	0xaa5516ee	-1.8926156e-13
48	0x2a9bf1b8	2.7701257e-13
49	0xab15a175	-5.31595e-13
50	0xab1f6a4e	-5.6635675e-13
51	0x2ae1f8d5	4.014069e-13
52	0xab3251a3	-6.3351597e-13
53	0xab185ed9	-5.4132875e-13
54	0x2a5166d4	1.8598605e-13
55	0x292e5cdd	3.8716307e-14
56	0x299da2e0	7.000455e-14
57	0x2a519108	1.8613247e-13
58	0xaad948ea	-3.8597538e-13
59	0xaa2d6ab1	-1.5402503e-13
60	0x29a0953a	7.131314e-14
61	0x2a557be6	1.8961186e-13
62	0xa9796733	-5.5378618e-14
63	0x2a56254d	1.901996e-13
64	0x2a36aac0	1.6224088e-13
65	0x2a530ba9	1.874461e-13
66	0xa9ee7e03	-1.0591183e-13
67	0x2b0aa507	4.925647e-13
68	0x2b9e5cff	1.1252387e-12
69	0xa9ff3893	-1.1334089e-13
70	0x021745b5	1.1113733e-37
71	0x821af0a6	-1.1383196e-37
72	0x821a22f0	-1.132416e-37
73	0x821269f6	-1.0756795e-37
74	0x29219d1c	3.5885452e-14
75	0x29d6dab4	9.541448e-14
76	0x281ee2ef	8.81997e-15
77	0x28d33a87	2.3451088e-14
78	0xaa8d0d9e	-2.505608e-13
79	0x2ad42c4c	3.7689502e-13
80	0xa8c9d845	-2.2409275e-14
81	0x28171ccb	8.388427e-15
82	0xa8f97684	-2.7695951e-14
83	0xa9535f13	-4.6933875e-14
84	0x2a205599	1.4240552e-13
85	0xabe9e458	-1.6619024e-12
86	0xaad3a91a	-3.7598467e-13
87	0xaa28ed9a	-1.5003832e-13
88	0x8211be42	-1.0707519e-37
89	0x821af985	-1.1385742e-37
90	0x29d141d7	9.292886e-14
91	0xab98a13f	-1.0845004e-12
92	0xaa5e3018	-1.9734247e-13
93	0xa9b15472	-7.875028e-14
94	0x821c43fe	-1.1480583e-37
95	0x8215825f	-1.0984206e-37
96	0xab1f4714	-5.658679e-13
97	0xa9153668	-3.3131836e-14
98	0x0217e410	1.1159179e-37
99	0x82152b60	-1.0959239e-37
100	0xaa55ab69	-1.897767e-13
101	0xaa3693b5	-1.6216093e-13
102	0x2a4dfd39	1.8295512e-13
103	0x29f0e512	1.06978784e-13
104	0x2a554942	1.8943617e-13
105	0x2a766bf0	2.1886637e-13
106	0x2a934c3f	2.6165352e-13
107	0x2bb58a05	1.2899132e-12
108	0xaa52c4cf	-1.8720029e-13
109	0xaa34192e	-1.5995948e-13
110	0xa9f82fde	-1.1021716e-13
111	0x2ad519f8	3.785442e-13
112	0xa9f98515	-1.10809074e-13
113	0x2ad63ef7	3.8057727e-13
114	0xaa0c3b09	-1.245498e-13
115	0x2a52ef88	1.8734851e-13
116	0x2a5ece32	1.9789099e-13
117	0xaad5c8f6	-3.7975845e-13
118	0xaa53a0b0	-1.8796314e-13
119	0xaa34d50f	-1.6061131e-13
120	0x2a89c732	2.4474308e-13
121	0xab043336	-4.696689e-13
122	0x821fe644	-1.1747558e-37
123	0x821d2949	-1.1546387e-37
124	0x27870e70	3.748568e-15
125	0x2a51a78f	1.8621063e-13
126	0xab67809b	-8.224616e-13
127	0xaab8c39a	-3.2820692e-13
128	0xaa9f90c9	-2.8344539e-13
129	0x2a622f61	2.008927e-13
130	0x2ad90c6b	3.855556e-13
131	0x29b4baea	8.02603e-14
132	0x0215767c	1.0980794e-37
133	0x821acd74	-1.1373095e-37
134	0x28f5cebe	2.7290124e-14
135	0xaab349f8	-3.1848114e-13
136	0x29d922e3	9.642788e-14
137	0xa9befd9e	-8.4816906e-14
138	0x2ad82eee	3.8401872e-13
139	0xaa1b960b	-1.3818822e-13
140	0x2ae47f1f	4.0589144e-13
141	0x29be4334	8.449353e-14
142	0x29d1e983	9.321972e-14
143	0xa91712a0	-3.354489e-14
144	0xaaec61f8	-4.199e-13
145	0xaa3ca8b9	-1.6756292e-13
146	0xaa566f61	-1.904566e-13
147	0xa9ab2478	-7.600252e-14
148	0x278692fe	3.735184e-15
149	0x2a50e7ef	1.8554579e-13
150	0x8212ee68	-1.0794805e-37
151	0x821947de	-1.126129e-37
152	0x02183ff3	1.1185549e-37
153	0x821337cf	-1.0815871e-37
154	0x2a4b07ac	1.8032684e-13
155	0x29ed6f27	1.0544196e-13
156	0x0218b736	1.1219775e-37
157	0x821563ab	-1.0975394e-37
158	0xa9fafe57	-1.1146351e-13
159	0x2ad782e3	3.8282493e-13
160	0x2b9a3920	1.0958214e-12
161	0xa9f88c76	-1.10377785e-13
162	0xaa530078	-1.8740727e-13
163	0xa845ab10	-1.097279e-14
164	0x2a389d5d	1.6397079e-13
165	0x2a554bbc	1.8944476e-13
166	0x2a531563	1.8747985e-13
167	0xa997ea74	-6.746418e-14
168	0xab7f713f	-9.075136e-13
169	0xab5a456b	-7.7545495e-13
170	0x2b0488e5	4.70858e-13
171	0xab7e5686	-9.0359003e-13
172	0xa9892eca	-6.092139e-14
173	0x29427518	4.3178216e-14
174	0xaa5e64a5	-1.9752479e-13
175	0xa9b17e74	-7.882315e-14
176	0x2aa0e583	2.8580965e-13
177	0x2bce5f34	1.4663605e-12
178	0x2ad5d9a2	3.7987414e-13
179	0x29b2111f	7.907758e-14
180	0xaa11b367	-1.294083e-13
181	0x29ce881c	9.171849e-14
182	0xaec98108	-9.163342e-11
183	0xafc22788	-3.5316483e-10
184	0xa978a04c	-5.5206097e-14
185	0x2a557a87	1.896071e-13
186	0x29b45a5b	8.00928e-14
187	0xab838c0a	-9.346978e-13
188	0xaa54fe30	-1.8917572e-13
189	0x299f7574	7.081393e-14
190	0xaa4eb70d	-1.8359984e-13
191	0x299ac240	6.872671e-14
192	0xab5a7c2f	-7.76215e-13
193	0xab3ab120	-6.6326285e-13
194	0xab1eaca2	-5.637245e-13
195	0xa914a5bf	-3.3006363e-14
196	0x29c9aea0	8.956486e-14
197	0x28a7ef59	1.8644525e-14
198	0x021e701a	1.1640178e-37
199	0x8211ea4c	-1.0720157e-37
200	0x2a9f4c2c	2.8296929e-13
201	0xaa8c1dcc	-2.4889671e-13
202	0x2b3567ba	6.4448067e-13
203	0xab1f8fde	-5.6687803e-13
204	0x8214246a	-1.0883773e-37
205	0x821cc7a7	-1.1518367e-37
206	0xa8fc5465	-2.801422e-14
207	0x29d8a895	9.621571e-14
208	0x29da1390	9.684538e-14
209	0xaa513f5b	-1.858491e-13
210	0x278b4d8e	3.8664335e-15
211	0x2a583f18	1.9206544e-13
212	0x021531fa	1.0961134e-37
213	0x8212da7f	-1.0789091e-37
214	0xaa9bcacf	-2.7674258e-13
215	0xaa851f2d	-2.3647179e-13
216	0x299fadb0	7.0911484e-14
217	0x2a544814	1.885439e-13
218	0x2a814ae9	2.2966983e-13
219	0xa8d05ee1	-2.3133786e-14
220	0xaa547ae1	-1.8872015e-13
221	0x2a9fce8b	2.8387392e-13
222	0xaad1c87a	-3.7264967e-13
223	0xaa276dfc	-1.4870738e-13
224	0x8214b70c	-1.0925855e-37
225	0x821e271a	-1.1619228e-37
226	0xab9e1538	-1.1232465e-12
227	0xab871441	-9.597949e-13
228	0xab012f46	-4.589561e-13
229	0xaa4e34ef	-1.831484e-13
230	0xa9137c21	-3.274822e-14
231	0x28d10f86	2.3210393e-14
232	0x299e9619	7.042647e-14
233	0x2a52d461	1.872543e-13
234	0x2b14b1e2	5.2827024e-13
235	0xa96fa3a7	-5.3210606e-14
236	0xaad77688	-3.827392e-13
237	0xaa2bf676	-1.5273359e-13
238	0x299e15b3	7.020374e-14
239	0x2a5229ad	1.8666206e-13
240	0x2a8877a1	2.4241462e-13
241	0x296343c2	5.0462896e-14
242	0x2a08da7d	1.215503e-13
243	0x28e3e863	2.5302844e-14
244	0x291d533b	3.4933194e-14
245	0x29d12727	9.288256e-14
246	0xa9fcddf0	-1.1229548e-13
247	0x2ad91eb1	3.856824e-13
248	0x295213e9	4.6646636e-14
249	0xa7a94854	-4.698534e-15
250	0x29d9b7ea	9.66864e-14
251	0xa9bf80b2	-8.504429e-14
252	0xaa5ff064	-1.9889781e-13
253	0xa9b2ba3d	-7.937095e-14
254	0xaa8fd1e2	-2.5547538e-13
255	0x2ad855ac	3.8428755e-13

exp_avg_sq f4 [10000, 2]
0	0x15460d80	3.999643e-26
1	0x1201d1cb	4.0963813e-28
2	0x145c49fd	1.1121753e-26
3	0x1623b5cc	1.32244e-25
4	0x166b0e70	1.8987704e-25
5	0x131a1516	1.9447929e-27
6	0x14f76af0	2.4982806e-26
7	0x15250885	3.3328205e-26
8	0x14d383e1	2.1357572e-26
9	0x145418f4	1.0708186e-26
10	0x112446e9	1.295917e-28
11	0x16c80d14	3.2319996e-25
12	0x146d960b	1.1995033e-26
13	0x10567300	4.229265e-29
14	0x15e2b1af	9.156101e-26
15	0x139c68c1	3.948323e-27
16	0x16de5955	3.592241e-25
17	0x16ac96b9	2.7883218e-25
18	0x15d15aed	8.4557883e-26
19	0x16c207c0	3.1347281e-25
20	0x157de12d	5.1270575e-26
21	0x160f6286	1.1582537e-25
22	0x15e77950	9.3491554e-26
23	0x139fb8ca	4.031946e-27
24	0x0c95bdab	2.3071237e-31
25	0x0d82b23a	8.054775e-31
26	0x1689371d	2.2168325e-25
27	0x143d515c	9.558107e-27
28	0x169fd6f4	2.582349e-25
29	0x15264e50	3.358521e-26
30	0x21c79981	1.3525397e-18
31	0x2284d2a3	3.600169e-18
32	0x159c0bb0	6.302634e-26
33	0x14487b31	1.0121715e-26
34	0x173292f4	5.7700383e-25
35	0x1702fd89	4.232527e-25
36	0x149459ae	1.4979553e-26
37	0x165d5f5f	1.7882332e-25
38	0x14ee626b	2.4070678e-26
39	0x16b18d26	2.868497e-25
40	0x1655c131	1.7266963e-25
41	0x1591fefa	5.8967316e-26
42	0x0c3b3eb8	1.442483e-31
43	0x108c540d	5.5349764e-29
44	0x15b8a131	7.4571323e-26
45	0x11a7ccd3	2.6474187e-28
46	0x13c94409	5.080662e-27
47	0x14baa35f	1.8845639e-26
48	0x15909c8d	5.840813e-26
49	0x1686040b	2.165142e-25
50	0x16ab713b	2.7697998e-25
51	0x162bf19f	1.3889512e-25
52	0x172ede73	5.6503203e-25
53	0x17005e72	4.1478237e-25
54	0x158a61a3	5.58918e-26
55	0x133eed8e	2.4098495e-27
56	0x13f99225	6.3000547e-27
57	0x155c7ef9	4.452881e-26
58	0x1655f211	1.7282386e-25
59	0x15096299	2.774471e-26
60	0x140cfcd5	7.118056e-27
61	0x15791c44	5.0307447e-26
62	0x142a7ba6	8.607192e-27
63	0x15faf2fb	1.0135755e-25
64	0x15734e4d	4.9135228e-26
65	0x15a247e5	6.554471e-26
66	0x149d85c0	1.5905704e-26
67	0x1699a48b	2.4822324e-25
68	0x17a966e6	1.0947344e-24
69	0x145e6871	1.1228733e-26
70	0x0d208bcb	4.9472076e-31
71	0x117b729c	1.9835725e-28
72	0x0bd95b4b	8.372272e-32
73	0x0cb7decf	2.8329712e-31
74	0x131438ce	1.8708233e-27
75	0x1482f38b	1.3222706e-26
76	0x110d85b6	1.1164142e-28
77	0x127a1078	7.890639e-28
78	0x163cb719	1.5244294e-25
79	0x16d53399	3.4444569e-25
80	0x143b722d	9.4636045e-27
81	0x12d17451	1.3218429e-27
82	0x1290315d	9.099847e-28
83	0x13518aef	2.6448008e-27
84	0x148c2454	1.4150716e-26
85	0x181cce83	2.026679e-24
86	0x171b2a6d	5.013675e-25
87	0x15c6dbf3	8.031858e-26
88	0x0c2dee7a	1.3399199e-31
89	0x0d1b0aae	4.777592e-31
90	0x14284aa6	8.496554e-27
91	0x17bb62c5	1.2109525e-24
92	0x155d9c9b	4.4754135e-26
93	0x140e5dc0	7.187657e-27
94	0x0ca7fab0	2.58813e-31
95	0x0d9355c6	9.080224e-31
96	0x169a8bde	2.496831e-25
97	0x128bfb89	8.834141e-28
98	0x0b83400b	5.0555726e-32
99	0x102a18f0	3.35458e-29
100	0x144464b5	9.915332e-27
101	0x140fd849	7.26231e-27
102	0x14daff15	2.2112987e-26
103	0x141587c0	7.5493496e-27
104	0x1594f9ca	6.017082e-26
105	0x15c6c68c	8.0284815e-26
106	0x158f8f30	5.798315e-26
107	0x17fcb57c	1.6330931e-24
108	0x15b4e78c	7.306674e-26
109	0x1584da52	5.3658824e-26
110	0x156554db	4.631312e-26
111	0x172aabd2	5.514683e-25
112	0x149c79ef	1.5800069e-26
113	0x16664a28	1.8602652e-25
114	0x15054407	2.69128e-26
115	0x15967c72	6.078086e-26
116	0x1600c33b	1.0401362e-25
117	0x16eeb3a6	3.8564348e-25
118	0x1524448b	3.3173607e-26
119	0x14f1b137	2.440468e-26
120	0x15bee2e1	7.709834e-26
121	0x16b0f19d	2.8586813e-25
122	0x0ebc40af	4.6407866e-30
123	0x0e997fc4	3.7840446e-30
124	0x10120f52	2.8805225e-29
125	0x15b1df54	7.184208e-26
126	0x17776550	7.993788e-25
127	0x161e8df8	1.2807936e-25
128	0x154c41c5	4.1249355e-26
129	0x14ccea34	2.0691113e-26
130	0x1732140d	5.754021e-25
131	0x14f5d890	2.4824097e-26
132	0x13186a11	1.9237392e-27
133	0x11a151f8	2.5451838e-28
134	0x123c1919	5.9353275e-28
135	0x15d167ff	8.4578505e-26
136	0x13bbeeb2	4.744081e-27
137	0x1391ce78	3.680674e-27
138	0x16851fbf	2.1507343e-25
139	0x150a8aab	2.7978268e-26
140	0x16043392	1.0679148e-25
141	0x13b6c029	4.6132744e-27
142	0x141166c9	7.3409e-27
143	0x12977c4f	9.560084e-28
144	0x166d1ffe	1.9154802e-25
145	0x1517ead2	3.0679448e-26
146	0x16194f32	1.2384231e-25
147	0x14c492f5	1.9848907e-26
148	0x101c9a5e	3.0884495e-29
149	0x15bec95c	7.705808e-26
150	0x1292ebcf	9.272027e-28
151	0x0e9e7188	3.9059334e-30
152	0x07349173	1.3584439e-34
153	0x0cfcd708	3.8956165e-31
154	0x157e7cc9	5.139333e-26
155	0x14add1a4	1.7551225e-26
156	0x134b9a4c	2.5698276e-27
157	0x131e8597	2.0008269e-27
158	0x14f50a0b	2.474264e-26
159	0x16b66a13	2.9470628e-25
160	0x176ad33f	7.587611e-25
161	0x1419ef2a	7.771693e-27
162	0x14cd9082	2.0756708e-26
163	0x10bbfe2f	7.4150126e-29
164	0x14f42132	2.4650797e-26
165	0x1522cd9b	3.2877834e-26
166	0x165bed58	1.7765572e-25
167	0x14e4a977	2.3088959e-26
168	0x1767e50c	7.4929223e-25
169	0x172a20f7	5.497157e-25
170	0x16627d08	1.8295588e-25
171	0x1751dba9	6.780879e-25
172	0x1323b99e	2.0665009e-27
173	0x12a42b2d	1.0360499e-27
174	0x1677dbde	2.0021879e-25
175	0x151eea79	3.2092812e-26
176	0x15ae1ae2	7.0320454e-26
177	0x18252ea3	2.1349296e-24
178	0x166be66d	1.9055858e-25
179	0x1422bbbe	8.2159355e-27
180	0x1469aa28	1.1797051e-26
181	0x13ea437a	5.913644e-27
182	0x1d52361e	2.7821247e-21
183	0x2001e732	1.1003221e-19
184	0x13d25afb	5.3101166e-27
185	0x159ad2ff	6.2533e-26
186	0x13bdf482	4.795141e-27
187	0x175399fd	6.837214e-25
188	0x1548f3cf	4.058201e-26
189	0x13e01c78	5.6573622e-27
190	0x15b1ef4c	7.1867275e-26
191	0x14469337	1.00254784e-26
192	0x171fbf54	5.161716e-25
193	0x16ea48bf	3.7850648e-25
194	0x16c744ae	3.2193527e-25
195	0x12b41983	1.1365886e-27
196	0x14457638	9.969273e-27
197	0x12083397	4.2977623e-28
198	0x0b20fa90	3.100338e-32
199	0x0f7bf0bc	1.2421619e-29
200	0x159d76ce	6.3599236e-26
201	0x15746954	4.9358497e-26
202	0x16f10db1	3.894429e-25
203	0x16bb1f7f	3.0231356e-25
204	0x0d0c234e	4.3183327e-31
205	0x0dee2af6	1.4678225e-30
206	0x134a581e	2.553943e-27
207	0x1516b5ca	3.0435665e-26
208	0x1478c695	1.2559964e-26
209	0x156721be	4.6676696e-26
210	0x0fafd564	1.7338527e-29
211	0x1556a668	4.3348227e-26
212	0x10017c97	2.5536745e-29
213	0x0fd1b2ad	2.0677815e-29
214	0x159ed6ec	6.415478e-26
215	0x15691dfa	4.7077623e-26
216	0x137e9f3a	3.2137812e-27
217	0x14e0f742	2.2715746e-26
218	0x162cf3ec	1.3971018e-25
219	0x12e2dc99	1.4316987e-27
220	0x14a295b6	1.641687e-26
221	0x1537c22e	3.7109736e-26
222	0x15b45ebc	7.2850886e-26
223	0x14674893	1.1676832e-26
224	0x0d590692	6.6876196e-31
225	0x0e3f7a5f	2.3601487e-30
226	0x17717d4d	7.802945e-25
227	0x17311dc1	5.722934e-25
228	0x169dd494	2.5498874e-25
229	0x154a7019	4.0882005e-26
230	0x124b05ed	6.406281e-28
231	0x11cbac81	3.2134066e-28
232	0x141eb3db	8.012432e-27
233	0x158c3560	5.662976e-26
234	0x165dec77	1.7926853e-25
235	0x13116b4d	1.8354476e-27
236	0x16012aa5	1.0433993e-25
237	0x14a5eab8	1.6753323e-26
238	0x13ff0b27	6.4382047e-27
239	0x15615473	4.5505007e-26
240	0x167ca22d	2.0407572e-25
241	0x142e5e63	8.8033695e-27
242	0x1581d973	5.244576e-26
243	0x1333404d	2.262468e-27
244	0x131a3f6e	1.9468806e-27
245	0x148845cf	1.3760025e-26
246	0x14b2c322	1.8050373e-26
247	0x16853501	2.152076e-25
248	0x1308ad17	1.7250953e-27
249	0x0fb3cc76	1.7729518e-29
250	0x13ed991c	5.997819e-27
251	0x13b87861	4.6566833e-27
252	0x163981ad	1.49851e-25
253	0x14edeb92	2.40238e-26
254	0x1598ee60	6.17684e-26
255	0x162cbe27	1.3954051e-25

exp_avg f4 [10000]
0	0x296191b1	5.0086403e-14
1	0x296b195a	5.220247e-14
2	0x2a20ef15	1.4293803e-13
3	0x2861c5b2	1.2532877e-14
4	0x2932933b	3.9651642e-14
5	0x29cf66c0	9.210471e-14
6	0x29218c6e	3.5870985e-14
7	0x29644e9e	5.069436e-14
8	0x2a7a730c	2.2244375e-13
9	0x2a3b0290	1.6609825e-13
10	0x29ff8cc6	1.1348695e-13
11	0x296ce21e	5.2598652e-14
12	0x021414d7	1.0879303e-37
13	0x29ea0c10	1.039378e-13
14	0x29eaf0c6	1.0433455e-13
15	0xb0ecd051	-1.7230467e-09
16	0x2974b8f0	5.433929e-14
17	0x2a6e242c	2.1151196e-13
18	0x29de50b6	9.8727816e-14
19	0x29e3920b	1.01061595e-13
20	0x2a38b1a5	1.6404116e-13
21	0x0213974d	1.0843276e-37
22	0x295f5b51	4.959515e-14
23	0x297a8ba1	5.563226e-14
24	0x2a2fee9b	1.5625905e-13
25	0x2a43928a	1.737032e-13
26	0x2a750be7	2.1764501e-13
27	0x295ce978	4.9052315e-14
28	0x2961c2e9	5.0129094e-14
29	0x29f85375	1.102789e-13
30	0x2965fb45	5.1066156e-14
31	0x296463e2	5.0712804e-14
32	0x298d0be4	6.2637206e-14
33	0xa9b36ef5	-7.968445e-14
34	0x2aa1e712	2.8759682e-13
35	0x021d00ad	1.1534732e-37
36	0x021b9189	1.1429368e-37
37	0x28e7752f	2.5696972e-14
38	0x27e38d48	6.3158334e-15
39	0x2a007eb6	1.1412645e-13
40	0x27dc3629	6.1120987e-15
41	0x288044bd	1.4240665e-14
42	0x2af131ff	4.2844892e-13
43	0x29f1e5fa	1.07424445e-13
44	0x02140032	1.0873379e-37
45	0x2a9d6551	2.7959105e-13
46	0x297dedf3	5.6383673e-14
47	0x021ea70a	1.1655945e-37
48	0x2a26f391	1.4828266e-13
49	0x02172ad7	1.1106022e-37
50	0x2992d010	6.5197956e-14
51	0x297141c1	5.3569782e-14
52	0x29a4b067	7.313664e-14
53	0xaad4203c	-3.7681132e-13
54	0x2990d1d3	6.431283e-14
55	0x29e346c6	1.0093102e-13
56	0x29e47f43	1.01473104e-13
57	0x297f7dc2	5.6730452e-14
58	0x29fb5cf2	1.11627626e-13
59	0x299168e8	6.457492e-14
60	0x2a1b7002	1.3805626e-13
61	0x0210326f	1.0593923e-37
62	0x29537d6d	4.69602e-14
63	0x2a844990	2.3498955e-13
64	0x29c3c1bf	8.693349e-14
65	0x29e4faab	1.0168718e-13
66	0x0210fe83	1.065249e-37
67	0x29b8e324	8.210644e-14
68	0x29163d67	3.335995e-14
69	0x29ecc69a	1.0514957e-13
70	0x29f10e78	1.070506e-13
71	0x28e5e83e	2.5524826e-14
72	0x2a07137c	1.1997169e-13
73	0x297511b7	5.4416293e-14
74	0x2952bc20	4.679254e-14
75	0x02178acb	1.113356e-37
76	0x02156c72	1.0977913e-37
77	0x296dca7f	5.280021e-14
78	0x0217988e	1.1137509e-37
79	0x29e5d8ba	1.0207239e-13
80	0x2a9dab84	2.8007815e-13
81	0x295d2aeb	4.9109083e-14
82	0x298e8ce6	6.330509e-14
83	0x296730b1	5.1334537e-14
84	0x2aaf83d2	3.1177713e-13
85	0x2a9585a9	2.6560462e-13
86	0x28a84c22	1.8684764e-14
87	0x297e2a06	5.643578e-14
88	0xaadfeb54	-3.977605e-13
89	0x29e19ae1	1.00188744e-13
90	0x2932bf55	3.9689894e-14
91	0x30e9b092	1.7003166e-09
92	0x2963adc0	5.055483e-14
93	0x2a87a793	2.4097095e-13
94	0x29685fc6	5.159742e-14
95	0x29618666	5.0076608e-14
96	0x2a961f1e	2.6666944e-13
97	0x2a2651af	1.4772101e-13
98	0x28d4c4a5	2.3622009e-14
99	0x0213db96	1.0862872e-37
100	0x29dc70d8	9.789538e-14
101	0x2a7b08b0	2.2296292e-13
102	0x0215d9b1	1.1009266e-37
103	0x28e711f3	2.5653936e-14
104	0x29760728	5.462918e-14
105	0x295a23bb	4.8436715e-14
106	0x021495ec	1.0916348e-37
107	0x29d61719	9.507516e-14
108	0x2964afaa	5.0778534e-14
109	0x29842ea8	5.870071e-14
110	0x29c19000	8.595902e-14
111	0x29efc0ae	1.0647157e-13
112	0x02170861	1.1096133e-37
113	0x2ad93cf2	3.8589233e-13
114	0x2a13a3d3	1.3113061e-13
115	0x2834efa6	1.0043973e-14
116	0x29631f3c	5.0431217e-14
117	0x2a1804a4	1.3501922e-13
118	0x29f63e73	1.0935428e-13
119	0x29626759	5.027172e-14
120	0x298ff7f6	6.39349e-14
121	0x29106041	3.205791e-14
122	0x28e150d9	2.501508e-14
123	0x29e78fea	1.0283426e-13
124	0x2856c5df	1.1922293e-14
125	0x2916a484	3.3449385e-14
126	0x297fee4b	5.682806e-14
127	0x2a0303eb	1.1636497e-13
128	0x2965a87f	5.099436e-14
129	0x290d5fe9	3.1391478e-14
130	0x29f0f053	1.06998306e-13
131	0x29e82b90	1.03104266e-13
132	0x2968abfe	5.1663528e-14
133	0x2a0245a9	1.1570488e-13
134	0x2a1d366e	1.3963285e-13
135	0x286a4771	1.3005101e-14
136	0x0218e2fa	1.1232335e-37
137	0x021f4c5e	1.1703391e-37
138	0x2a70da19	2.139195e-13
139	0x29f06f98	1.06774995e-13
140	0x2a55ac66	1.8978013e-13
141	0x29d69e73	9.5309956e-14
142	0x2982ef4b	5.8146704e-14
143	0x021e2397	1.161822e-37
144	0x0216a739	1.106825e-37
145	0x2ad1e5a6	3.7285209e-13
146	0x293da78e	4.211176e-14
147	0x290edd2c	3.172217e-14
148	0x29fd5de6	1.1251746e-13
149	0x021f6a4e	1.1711983e-37
150	0x326ccc7c	1.3783502e-08
151	0x29b4586e	8.008946e-14
152	0x29cb4f57	9.028774e-14
153	0x02177a40	1.1128812e-37
154	0x2a3917ed	1.6439602e-13
155	0x2a2e7dac	1.5497906e-13
156	0x298e4b28	6.319104e-14
157	0x31f1e664	7.0402155e-09
158	0x29e91273	1.0350479e-13
159	0x2927c73e	3.7254264e-14
160	0x0214ac03	1.0922688e-37
161	0x29d5faa4	9.5025794e-14
162	0x29d83e31	9.6031154e-14
163	0x280255ae	7.2350285e-15
164	0x27e250ed	6.281534e-15
165	0x0212ca41	1.078443e-37
166	0x296135fd	5.0006863e-14
167	0x295be6f8	4.8828102e-14
168	0x2a288442	1.4967284e-13
169	0x02130482	1.0801148e-37
170	0x021177b4	1.0687271e-37
171	0x29e78802	1.02820543e-13
172	0x28e40114	2.5313553e-14
173	0x2a00c62c	1.1437438e-13
174	0x2982ec61	5.814165e-14
175	0x295478ce	4.7178238e-14
176	0x29dcdefc	9.808644e-14
177	0x29d0fa6c	9.280497e-14
178	0x2aa22417	2.8802023e-13
179	0x28d4c5cf	2.3622514e-14
180	0x296168dc	5.0050987e-14
181	0x2f975776	2.7528885e-10
182	0x2aa25b22	2.8840217e-13
183	0x02107636	1.0613374e-37
184	0x2882cf36	1.4522763e-14
185	0x28e4b01e	2.5389464e-14
186	0x2a2fc80c	1.5612528e-13
187	0x29d15c86	9.297515e-14
188	0x2aa62a6e	2.9516965e-13
189	0xb0442bd0	-7.1366646e-10
190	0x2b3fd8c8	6.8157676e-13
191	0x29bce8c8	8.389258e-14
192	0x2a5cad98	1.9600153e-13
193	0x30db0605	1.5936058e-09
194	0x29a6d692	7.409103e-14
195	0x2918151c	3.376909e-14
196	0x29e6ebc6	1.0254952e-13
197	0x29dbc6e1	9.760054e-14
198	0x021ddc08	1.1597684e-37
199	0x28ff57c0	2.8348743e-14
200	0x28e6d5e3	2.5627888e-14
201	0x29b6ce16	8.118174e-14
202	0x2963b10a	5.0557682e-14
203	0x28e6e11d	2.5632757e-14
204	0x2b81413a	9.184105e-13
205	0x29cd5b76	9.119695e-14
206	0x28e22847	2.5108508e-14
207	0x2957532c	4.781173e-14
208	0x29b7a70c	8.1558106e-14
209	0x29a54b65	7.340551e-14
210	0x28d9b35e	2.4169628e-14
211	0x29664df1	5.1137863e-14
212	0x0216dc07	1.1083404e-37
213	0x28ded464	2.4739061e-14
214	0x29a012a5	7.108662e-14
215	0x29807acb	5.705643e-14
216	0x284f86db	1.152005e-14
217	0x2332fa44	9.702395e-18
218	0x29eb9b35	1.04630206e-13
219	0x28101565	7.998245e-15
220	0x2965acbb	5.0998034e-14
221	0x294ef4c4	4.595349e-14
222	0x2969435f	5.1794828e-14
223	0x0211bb01	1.0706585e-37
224	0x291fe55e	3.5504037e-14
225	0x021ca36d	1.1507971e-37
226	0x29a23e55	7.205058e-14
227	0x29540684	4.7079108e-14
228	0x296924ad	5.1768204e-14
229	0x28675cfb	1.2843238e-14
230	0x2a395447	1.646054e-13
231	0x28fd80b0	2.8144452e-14
232	0x29d4e4ba	9.454369e-14
233	0x28e48ce3	2.5374185e-14
234	0x308085b2	9.351224e-10
235	0x29614080	5.001598e-14
236	0x2a9d7201	2.7967908e-13
237	0x294e4d85	4.5808426e-14
238	0x2a237109	1.4516525e-13
239	0x3283ff47	1.5366494e-08
240	0x2a2218f9	1.4397155e-13
241	0x29b78fa6	8.1517516e-14
242	0x285e74ca	1.23488e-14
243	0x2a5c5ea5	1.9572762e-13
244	0x29e25e1f	1.00527435e-13
245	0x294f0cc9	4.5974323e-14
246	0x2966368b	5.1117568e-14
247	0x28d114c2	2.3212663e-14
248	0x28e78c47	2.5706987e-14
249	0x2a570fb2	1.9101281e-13
250	0x021cf100	1.1530234e-37
251	0x296581e4	5.0960877e-14
252	0x021c988c	1.1504849e-37
253	0x28b12f8e	1.9671571e-14
254	0x297fec6f	5.6826448e-14
255	0x1cf88a3b	1.6446995e-21

exp_avg_sq f4 [10000]
0	0x134f0ecf	2.6134374e-27
1	0x143a166a	9.3950206e-27
2	0x1475beec	1.2406992e-26
3	0x13937cf0	3.7231215e-27
4	0x131f18a5	2.0080772e-27
5	0x14cb9ad9	2.0558838e-26
6	0x12828fd7	8.239613e-28
7	0x13fc4faf	6.3692317e-27
8	0x155542d0	4.3067713e-26
9	0x1505ff5b	2.7060576e-26
10	0x1452803f	1.0627583e-26
11	0x1400d0a9	6.5034995e-27
12	0x0bb9b8ca	7.153745e-32
13	0x1498b856	1.5420785e-26
14	0x14bfe2fb	1.93756e-26
15	0x2219d45f	2.0847795e-18
16	0x13cc2375	5.1531803e-27
17	0x15a8fa9c	6.825005e-26
18	0x147b87e0	1.2699058e-26
19	0x14c9c5b1	2.0373789e-26
20	0x14929656	1.480153e-26
21	0x0e953957	3.6786552e-30
22	0x13caefdc	5.122849e-27
23	0x1300e249	1.6267439e-27
24	0x14b91abb	1.869077e-26
25	0x1500f577	2.6043032e-26
26	0x15a5881c	6.685771e-26
27	0x139a049d	3.8879614e-27
28	0x137ff3e9	3.2305782e-27
29	0x148bee81	1.4129486e-26
30	0x139097dc	3.6500455e-27
31	0x140ec5a7	7.208148e-27
32	0x141108e5	7.322383e-27
33	0x14913c1e	1.466497e-26
34	0x15b11cb7	7.1535035e-26
35	0x0f85b7a9	1.3185556e-29
36	0x0b033765	2.5271356e-32
37	0x1298032a	9.593329e-28
38	0x10912400	5.724788e-29
39	0x151c7c87	3.1602184e-26
40	0x125f0e6c	7.038417e-28
41	0x1199eaeb	2.4283923e-28
42	0x1626b54d	1.3466582e-25
43	0x154ae4b4	4.097399e-26
44	0x0b5bade4	4.2308687e-32
45	0x15c738ce	8.046508e-26
46	0x1390f4fe	3.659229e-27
47	0x0bd13aea	8.0592516e-32
48	0x14a9dcf3	1.7151788e-26
49	0x0e35bf74	2.2402154e-30
50	0x12b9b66a	1.172011e-27
51	0x13162d27	1.8954924e-27
52	0x14319f22	8.9676e-27
53	0x16b4b9ed	2.9197904e-25
54	0x142b47aa	8.647427e-27
55	0x1541f8b8	3.9172244e-26
56	0x148305fb	1.3229979e-26
57	0x13dcf467	5.5776807e-27
58	0x1524d829	3.3290057e-26
59	0x139ba720	3.92923e-27
60	0x14f4639b	2.4676991e-26
61	0x0d3be88e	5.790375e-31
62	0x13b5082e	4.569889e-27
63	0x15a1c005	6.5330336e-26
64	0x1399a7a3	3.8787932e-27
65	0x154633a0	4.0026507e-26
66	0x11378c76	1.4479437e-28
67	0x13dea25b	5.6200774e-27
68	0x123435a4	5.68641e-28
69	0x149fd214	1.6137758e-26
70	0x1413236b	7.428588e-27
71	0x122e98fa	5.5093277e-28
72	0x149b063a	1.5653456e-26
73	0x14487bfb	1.01218704e-26
74	0x13c22d52	4.9017174e-27
75	0x10a1e340	6.3853437e-29
76	0x0b07eeeb	2.6179796e-32
77	0x13ae84c1	4.405468e-27
78	0x11c39911	3.085991e-28
79	0x14cf4f4a	2.0932933e-26
80	0x15758133	4.9579276e-26
81	0x12e1f7c8	1.4260579e-27
82	0x1391842c	3.6733478e-27
83	0x1483fe7d	1.3327998e-26
84	0x15db7397	8.8635764e-26
85	0x1590ee93	5.853754e-26
86	0x11764b8f	1.9429262e-28
87	0x14a210cf	1.636445e-26
88	0x16af5ed1	2.8332612e-25
89	0x14834726	1.3255683e-26
90	0x12afbf79	1.1091254e-27
91	0x2252c81a	2.856624e-18
92	0x13b02ac3	4.4470812e-27
93	0x1560f74e	4.543153e-26
94	0x136f168f	3.0177163e-27
95	0x13d3b6b7	5.344406e-27
96	0x1597245e	6.104579e-26
97	0x14db0317	2.2114568e-26
98	0x125bc73a	6.934978e-28
99	0x0d85fad4	8.2571425e-31
100	0x141703d4	7.624307e-27
101	0x1567366c	4.669301e-26
102	0x0c29d894	1.308446e-31
103	0x132b4536	2.1617358e-27
104	0x139f9114	4.02803e-27
105	0x135a78e7	2.7575078e-27
106	0x0e7e2094	3.1323603e-30
107	0x14165530	7.589865e-27
108	0x13029182	1.6480048e-27
109	0x1434d1e3	9.1290705e-27
110	0x1386d9c0	3.4041074e-27
111	0x13ebe069	5.9543626e-27
112	0x0c87d9cb	2.0931123e-31
113	0x15e47fa9	9.228988e-26
114	0x14ce68ac	2.084197e-26
115	0x1098b9cb	6.023969e-29
116	0x13a2c2f6	4.1086796e-27
117	0x14680367	1.1713678e-26
118	0x1428f8e5	8.530918e-27
119	0x1382c82a	3.301399e-27
120	0x148c9740	1.4196045e-26
121	0x139085b4	3.6482552e-27
122	0x129e3158	9.983366e-28
123	0x14975ef4	1.5284556e-26
124	0x110ee81f	1.1273353e-28
125	0x1263eb1c	7.1918365e-28
126	0x147299d2	1.22482134e-26
127	0x147d99d3	1.2803572e-26
128	0x1359671a	2.7440084e-27
129	0x1283bf07	8.314354e-28
130	0x13e458e8	5.764296e-27
131	0x14a31240	1.6465992e-26
132	0x13af31fc	4.42255e-27
133	0x1491ff8d	1.4742055e-26
134	0x14729e45	1.2249091e-26
135	0x11453a13	1.5558455e-28
136	0x10430a91	3.846511e-29
137	0x0fec7148	2.3315031e-29
138	0x15f06fa5	9.711137e-26
139	0x14bdde33	1.9171765e-26
140	0x14b269b5	1.8015101e-26
141	0x1395af2f	3.7785632e-27
142	0x138cfcad	3.5590126e-27
143	0x0f12f127	7.2448e-30
144	0x0ead4384	4.2712808e-30
145	0x16164a4e	1.214035e-25
146	0x12101f98	4.547733e-28
147	0x130b7932	1.760402e-27
148	0x14444b0f	9.910274e-27
149	0x0f11a22c	7.180285e-30
150	0x25487c26	1.7389298e-16
151	0x138075ce	3.2427907e-27
152	0x14809cfc	1.2986616e-26
153	0x12171779	4.767613e-28
154	0x1536036b	3.6757304e-26
155	0x150b55a2	2.813838e-26
156	0x1350f654	2.637474e-27
157	0x245b4e34	4.7554296e-17
158	0x147e9f7c	1.2855176e-26
159	0x125fe72a	7.0651324e-28
160	0x0cc36d8c	3.0110438e-31
161	0x141d97e5	7.95643e-27
162	0x1469895b	1.17905824e-26
163	0x11674bb8	1.824602e-28
164	0x10a537f0	6.516721e-29
165	0x0d8fcb1c	8.861952e-31
166	0x139e53ea	3.9967553e-27
167	0x1344b98f	2.4830165e-27
168	0x146332b3	1.147057e-26
169	0x0d28f8f0	5.2068645e-31
170	0x0b615ebc	4.3404694e-32
171	0x150c827b	2.8375706e-26
172	0x128223a7	8.212942e-28
173	0x145c43df	1.1120547e-26
174	0x1420cf64	8.118836e-27
175	0x1348baaf	2.5335591e-27
176	0x1424a6a1	8.312746e-27
177	0x1400645d	6.482142e-27
178	0x15a38d64	6.605825e-26
179	0x124015d0	6.0611404e-28
180	0x1309854f	1.7357557e-27
181	0x1fb2a63c	7.5660944e-20
182	0x15b57f13	7.3305806e-26
183	0x0ec17b6a	4.7697017e-30
184	0x120e0629	4.481489e-28
185	0x132bf897	2.1705799e-27
186	0x14e0fe99	2.2718641e-26
187	0x13a136fd	4.0696336e-27
188	0x15b68a00	7.372694e-26
189	0x210ed0dd	4.83879e-19
190	0x16f59193	3.9673755e-25
191	0x1450908d	1.0529824e-26
192	0x157ca100	5.1018e-26
193	0x22453ec2	2.6731702e-18
194	0x14d85f8b	2.1848111e-26
195	0x1279ff12	7.8884945e-28
196	0x148d3fda	1.4262547e-26
197	0x13d8ce63	5.472958e-27
198	0x101600f6	2.9583024e-29
199	0x1253d40d	6.6841233e-28
200	0x1344754d	2.4796512e-27
201	0x1418da44	7.717084e-27
202	0x12dc7d77	1.3914881e-27
203	0x12c08e0f	1.2151924e-27
204	0x17729806	7.83863e-25
205	0x14785838	1.2538198e-26
206	0x1356eec8	2.7128326e-27
207	0x1323de73	2.0683168e-27
208	0x13959bc0	3.776647e-27
209	0x14acc10d	1.7443707e-26
210	0x12cd2ce8	1.2948389e-27
211	0x138ede8b	3.6065284e-27
212	0x0de5d50e	1.4164506e-30
213	0x1297c261	9.577358e-28
214	0x136ac3c7	2.9631478e-27
215	0x13e1d28a	5.7005593e-27
216	0x1272dd3b	7.6634423e-28
217	0x12b04058	1.11230235e-27
218	0x14f59dac	2.4800869e-26
219	0x1395a190	3.77722e-27
220	0x13a1ac52	4.0812035e-27
221	0x1300e96a	1.6270953e-27
222	0x13bdfa45	4.7957092e-27
223	0x0a2166bc	7.77119e-33
224	0x139f95cd	4.0284958e-27
225	0x0f14046c	7.297815e-30
226	0x13994343	3.8688955e-27
227	0x132f07d8	2.2091973e-27
228	0x136df8f0	3.0036341e-27
229	0x11925980	2.3089897e-28
230	0x14863552	1.3551573e-26
231	0x1261319d	7.1058635e-28
232	0x13bd9a61	4.7862537e-27
233	0x13217edc	2.0383603e-27
234	0x217dcf62	8.5994203e-19
235	0x13bffbc4	4.846344e-27
236	0x15c8fb8b	8.117622e-26
237	0x12f689cb	1.5558751e-27
238	0x14a34952	1.6487714e-26
239	0x2586cfe8	2.3386177e-16
240	0x14a00337	1.615714e-26
241	0x1450c0ce	1.05393404e-26
242	0x11210546	1.2702286e-28
243	0x1555e428	4.319499e-26
244	0x148c6c3b	1.4179077e-26
245	0x12d125ae	1.3199043e-27
246	0x139f79c2	4.0257305e-27
247	0x13992768	3.8661487e-27
248	0x12ec4e7d	1.4913043e-27
249	0x150ea756	2.8808676e-26
250	0x0e7b2e5c	3.096046e-30
251	0x139c4319	3.94461e-27
252	0x103b7b1c	3.6974087e-29
253	0x11d148bc	3.3019212e-28
254	0x13d1bfd2	5.2948167e-27
255	0x13d857c5	5.4612613e-27
