checkpoints/checkpoint_200.pth (torch, 366036 bytes, 6 tensors)

W f4 [10000, 2]
0.007379203 -0.0005751037 0.046601217 -1.0657612 -0.0015497112 -0.0016522432 0.007102818 -0.0031532971
-0.00650701 -0.00294728 -0.00028707788 -0.0012875706 0.0025916588 -0.009062097 -7.765772e-05 -0.0015227394
-0.0047202534 9.002482e-05 -0.0066398596 0.0043597426 0.0065713148 -0.0031113937 -0.0014025115 -0.0006914522
-0.10813221 1.8296108 0.001171548 0.005801397 -0.00012546658 -0.006124917 -0.00029644914 -0.0001959554
0.0002212861 0.002471664 0.004328684 3.374492e-05 0.00011379965 -0.0036647364 -0.0059773163 -0.0036485768
0.005032618 0.0008469691 8.9125264e-05 -0.0028761039 0.0003533857 0.004168077 -0.001660309 0.00027876423
0.0002585978 0.003472009 -0.0013301971 0.001274676 -0.0013077284 0.0008687905 0.00062140316 0.000914124
0.0077665946 0.001543574 1.097045 0.458288 0.005981603 -0.004054119 -0.0033409537 -0.0040102387
-0.0030378967 -0.0018820524 -0.0012362326 -0.00010019651 0.53422886 0.2799506 -0.00049720565 -0.0011353624
0.0062019634 0.0027284175 0.002699598 -0.00015303933 0.004247572 -0.0025565536 0.0002062864 -0.0032353313
0.004653019 -0.002838447 0.0016174885 0.008509876 -0.0020148084 0.0065351976 -0.5006978 -0.4186667
-0.00047757596 0.004972727 0.0019915525 -0.001003417 -0.007453791 -0.00068628386 0.00023456411 0.0025945494
0.0031398272 -0.0034578755 -0.000521043 -0.0031853372 -0.2258369 1.1811353 0.88165295 -1.0343349
0.0039432775 -0.011112102 -0.0053595663 0.0019952413 -0.0015207006 0.0012178604 0.001655108 -0.0004570076
0.0022263406 0.0044935714 0.0042149536 -0.0033128872 -0.00020207086 0.0038120684 0.000665627 0.008090218
0.003966386 0.0018197609 -0.002107211 -0.0041893916 0.00026368405 0.0010381498 -0.0015784395 0.004976815
0.0033295418 0.00010522916 -0.35679534 0.117818624 -0.00013009759 -0.00018486257 -0.00040555978 -0.0053934283
-0.00074506964 -0.0037886663 0.041574452 0.02644733 0.0018606598 -0.0049474477 0.002141788 -0.00024485306
0.0040569305 0.0014205136 -0.0023562405 -0.0013968071 0.0005252008 0.006743759 0.0025427563 0.0035220706
0.0014634937 0.002002494 0.0018005808 -0.005092973 -0.0031731608 -0.0015322028 -0.00026947685 0.0021822113
0.23632488 -0.7710487 -0.002496088 0.00021059044 -0.0010403098 -0.0026776309 -0.002402378 0.0054358942
0.005518649 0.0061080675 0.0016316191 3.5777935e-05 0.006801927 0.0024504066 -0.001617585 -0.0031218627
0.0014223243 -0.0052075363 -0.0043441597 -0.0026188644 0.0029363027 -0.00013999143 -0.0017085942 0.0012833147
-0.0024345522 0.0005135071 0.001296112 -0.00056636287 -0.00063363527 -0.0002757663 0.0022332694 0.00224305
-0.063373886 0.08639691 -0.0013523874 0.0037547764 0.00050312316 0.0021810688 -0.0039129816 -0.0011662524
-0.0006449773 -0.0011854023 -0.0021334821 -0.0021295229 -0.0009968468 0.004696436 -0.0033128394 -0.005479282
-0.00024376561 0.00010390401 0.0019109357 -0.0021622796 0.0015940398 -0.003002128 0.0024501702 0.01118901
0.001771662 -0.0028204408 -0.003358215 0.00014060056 0.00500726 0.119690575 0.003606446 0.0036007008
-0.008996931 0.0034770314 0.006915757 0.001946295 -0.004491358 -0.00057288713 -0.0042359694 -0.0010693494
0.78487307 -0.31247035 0.007477608 -0.002335296 0.00012682723 0.0013564819 -0.002279501 0.0019980439
-0.0076232566 0.0068361885 -0.0029145475 -0.0037154062 -0.0028627184 -0.0015279156 -0.004430789 -0.0026175105
0.0023274054 -0.0034575248 -0.0058407057 0.00024938327 0.0036979555 -0.002241958 -8.679239e-05 -2.7508491e-05
00000000: 3ecd f13b 8ec2 16ba ebe0 3e3d dd6a 88bf
00000010: ae1f cbba 1590 d8ba c2be e83b 8ca7 4ebb
00000020: c238 d5bb 2727 41bb f182 96b9 b3c3 a8ba
00000030: d2d8 293b 3179 14bc 2cdc a2b8 a896 c7ba
00000040: 5bac 9abb b5cb bc38 2e93 d9bb 2cdc 8e3b
00000050: 2f54 d73b 86e8 4bbb 7ad4 b7ba 9242 35ba
00000060: 6c74 ddbd b030 ea3f a18e 993a a519 be3b
00000070: ae8f 03b9 87b3 c8bb bb6c 9bb9 6179 4db9
00000080: 0909 6839 a4fb 213b a2d7 8d3b 5589 0d38
00000090: b9a7 ee38 132c 70bb 5ddd c3bb f61c 6fbb
000000a0: a9e8 a43b 2207 5e3a c3e8 ba38 047d 3cbb
000000b0: a046 b939 5d94 883b ba9e d9ba 1a27 9239
000000c0: 6994 8739 a58a 633b 025a aeba 0713 a73a
000000d0: 1568 abba 8bbf 633a a9e5 223a d3a1 6f3a
000000e0: eb7e fe3b c051 ca3a f86b 8c3f baa4 ea3e
000000f0: 5301 c43b 6ad8 84bb e7f3 5abb 5268 83bb
00000100: 7317 47bb 33af f6ba 1509 a2ba 9720 d2b8
00000110: 39c3 083f af55 8f3e e856 02ba 71d0 94ba
00000120: d739 cb3b 40cf 323b bdeb 303b 2f79 20b9
00000130: 372f 8b3b da8b 27bb 954e 5839 da07 54bb
00000140: 5a78 983b 3d05 3abb e801 d43a 026d 0b3c
00000150: e00a 04bb 3625 d63b bb2d 00bf 7b5b d6be
00000160: 2963 fab9 42f2 a23b b584 023b 1685 83ba
00000170: ee3e f4bb bbe7 33ba 53f5 7539 5109 2a3b
00000180: 8fc5 4d3b 869d 62bb 9b96 08ba 17c1 50bb
00000190: ca41 67be 712f 973f 02b4 613f 1665 84bf
000001a0: 9c36 813b 890f 36bc 4d9f afbb 98c2 023b
000001b0: 3f52 c7ba 9da0 9f3a 35f0 d83a 869a efb9
000001c0: cce7 113b cf3e 933b 981d 8a3b 061d 59bb
000001d0: fce2 53b9 e5d3 793b 797d 2e3a d58c 043c
000001e0: 75f8 813b 0b85 ee3a 2219 0abb 2a47 89bb
000001f0: 133f 8a39 8712 883a a4e3 ceba 8d14 a33b
00000200: 7134 5a3b 7aae dc38 e1ad b6be e44a f13d
00000210: ce6a 08b9 abd7 41b9 50a1 d4b9 5bbb b0bb
00000220: c750 43ba 464b 78bb f949 2a3d 12a8 d83c
00000230: 62e1 f33a 331e a2bb 3d5d 0c3b 9f5f 80b9
00000240: 00f0 843b 8730 ba3a 286b 1abb 1215 b7ba
00000250: a1ad 093a c0fa dc3b 5fa4 263b 8ad2 663b
00000260: b3d2 bf3a 463c 033b 7701 ec3a f4e2 a6bb
00000270: cef4 4fbb 32d4 c8ba 9248 8db9 6e03 0f3b
00000280: 26ff 713e 7363 45bf 6895 23bb f1d1 5c39
00000290: 015b 88ba 317b 2fbb 3771 1dbb 961f b23b
000002a0: c8d5 b43b 2f26 c83b 0ddc d53a 4410 1638
000002b0: b3e2 de3b 0097 203b 2505 d4ba 2a98 4cbb
000002c0: 496d ba3a fba3 aabb 7459 8ebb 41a1 2bbb
000002d0: fc6e 403b aaca 12b9 e8f2 dfba e534 a83a
000002e0: 028d 1fbb e19c 063a 4de2 a93a f877 14ba
000002f0: 8b1a 26ba ba94 90b9 0b5c 123b 2200 133b
00000300: 2bca 81bd ddf0 b03d 9742 b1ba b212 763b
00000310: 06e4 033a 43f0 0e3b 7838 80bb f0dc 98ba
00000320: b213 29ba 805f 9bba e4d1 0bbb 778f 0bbb
00000330: a1a8 82ba 90e4 993b 391c 59bb 8c8b b3bb
00000340: 559b 7fb9 0ae7 d938 5d78 fa3a 08b5 0dbb
00000350: 1aef d03a 5abf 44bb 0993 203b 1c52 373c
00000360: 1d37 e83a 25d7 38bb 8015 5cbb 2d6e 1339
00000370: f113 a43b 5520 f53d 205a 6c3b bcf9 6b3b
00000380: dd67 13bc e8de 633b 939d e23b d31a ff3a
00000390: 3e2c 93bb ce2d 16ba e3cd 8abb 6929 8cba
000003a0: 71ed 483f 1dfc 9fbe b906 f53b c40b 19bb
000003b0: edfc 0439 fbcb b13a ae63 15bb 9df1 023b
000003c0: 83cc f9bb 1b02 e03b fe01 3fbb 2c7e 73bb
000003d0: 729c 3bbb 5744 c8ba 2730 91bb 8a8a 2bbb
000003e0: 6287 183b a497 62bb 6463 bfbb a8bf 8239
000003f0: 6659 723b d0ed 12bb 4f04 b6b8 09c2 e6b7

b f4 [10000]
-0.019667167 -2.8323424 -0.0063235317 -0.020576842 -0.01993985 0.00229783 -0.025900217 -0.0041956045
-0.01308385 -0.021809323 -0.019231718 -0.004370134 -4.746991 -0.015329987 -0.016893448 -0.0009878163
-0.0064240727 -0.011416281 -0.01012574 -0.019527962 -0.01347154 -0.007946672 -0.010831226 -0.0046377443
-0.009018788 -0.005041574 -0.00431054 -0.0028612472 -0.020857848 -3.0057569 -0.019589903 -0.014492811
-0.009960505 -0.0034129072 -1.5620449 -0.003423665 -0.01765744 -0.007176389 -0.013338027 -0.008949244
-0.014678467 -0.022420678 -0.017869722 -1.8216237 -0.013007596 -0.005906603 -0.020590791 -0.0067436895
-0.012873297 -0.0089582475 -3.035997 -5.287941 -0.03237308 -0.015709704 -0.005323783 -0.004522499
-0.013053295 -0.0146151725 -0.009880708 -0.021021347 -0.011361393 -0.012951404 -0.0027787236 -0.013667424
-0.008784852 -1.001959 0.0015339921 -0.014848263 -0.010743971 -0.12834331 -0.014497816 -0.0057344898
-0.011216339 -0.007644628 -0.017519636 -0.011247632 -0.0064255646 -0.014832145 -0.009845918 -0.0057413275
-2.147251 -0.006942293 -0.007959883 -0.015831346 -0.02141348 -0.004300898 -0.018868396 -0.009720256
-0.014829831 -0.01415035 -0.007797012 -0.0058541102 -0.006815591 -0.0037458092 -0.0019272526 -0.008219096
-0.2885428 -0.010526446 -0.005804505 -0.011210923 -0.0037371588 -0.008427128 -0.012586809 -0.017772626
0.00019022636 -0.007968354 -0.009416633 -0.029691646 -0.009272871 -0.009319442 -0.3031664 -0.013230682
-0.02647305 -0.018737258 -0.012435366 -0.012004537 -2.1719568 -0.020675682 -0.0035261505 -0.008288319
-0.02800893 -0.01305937 -0.009070088 -0.014363595 -0.011609319 -0.016209299 -0.011640903 0.00068428816
-0.038965993 -0.022320012 -0.00884507 -0.019307943 -0.86377084 -0.008239068 -0.010568215 -0.011283778
-0.0066127693 -0.014167616 -0.0077010067 -0.01797814 -0.03400838 -0.011578841 -0.01480672 -0.015204878
-0.013983257 -0.015159533 -0.0076642795 -0.014816726 -0.009836529 -0.0049522943 -0.009571219 -0.0068693855
-0.005950843 -0.016618308 -0.0052781366 -0.014091064 -0.014834619 -0.009397667 -0.013405951 0.0025147998
-0.0129495505 -0.007921669 -0.004021713 -0.014503944 -2.0944495 -0.01848124 -0.007624801 -0.016644387
-0.010060129 -0.015668781 -0.0052132807 -0.013947355 -0.017472792 -0.020463198 0.0004588185 -0.008099971
-0.011599563 -0.013982204 -2.9849138 -0.007808604 -0.013811079 -0.007246044 -0.006361876 -0.63324136
-0.015312375 -0.012633094 -0.014326366 -0.013477004 -0.0108260615 -0.01252597 0.0010247156 -0.012634548
-0.009162893 -0.016456835 -0.009467626 -0.018152056 -0.019876327 -0.008992576 -0.022239052 -0.013924672
-0.02379101 -0.018996514 -0.01368909 -0.013530513 -0.007465628 -0.0060727852 0.0034664979 0.0006184449
-0.010215881 -0.010141299 -0.13189815 -0.0050259824 -0.007977799 -0.00607608 -0.009482475 -0.014063585
-0.011028538 -0.008644882 -0.006379498 -0.010650196 -0.009286479 -0.016944757 -0.00815396 -0.013201241
-0.017425112 -0.009520874 -0.005851113 -0.006500936 0.0013137589 -0.016904328 -0.01630689 -0.014410706
-0.013307779 -0.015173915 -0.007470234 -0.016361883 -0.012917833 -0.0016580948 -0.017872589 -0.013290857
-0.0071795923 -0.008046985 -0.016388685 -0.009404765 -0.010995354 -1.3000985 0.0025711267 -2.7402723
-0.018917045 -0.007575151 -0.0067329463 -0.005853131 -0.013535954 -0.0111109 -0.1238752 -0.013871826
00000000: 0a1d a1bc 1945 35c0 a135 cfbb c490 a8bc
00000010: e558 a3bc 3197 163b b12c d4bc 487b 89bb
00000020: a55d 56bc 77a9 b2bc d68b 9dbc 5733 8fbb
00000030: 5ae7 97c0 a02a 7bbc 2164 8abc 9d79 81ba
00000040: 0781 d2bb 5a0b 3bbc 6fe6 25bc 1bf9 9fbc
00000050: bcb7 5cbc c232 02bc 7475 31bc 38f8 97bb
00000060: 8ac3 13bc ca33 a5bb 6e3f 8dbb c383 3bbb
00000070: 14de aabc 525e 40c0 017b a0bc 4173 6dbc
00000080: 6331 23bc 15ab 5fbb 16f1 c7bf 915f 60bb
00000090: 56a6 90bc ea27 ebbb bd87 5abc da9f 12bc
000000a0: f47d 70bc 92ab b7bc 8663 92bc f72a e9bf
000000b0: d01d 55bc 2d8c c1bb 05ae a8bc 2bfa dcbb
000000c0: 85ea 52bc 9dc5 12bc c64d 42c0 d036 a9c0
000000d0: a299 04bd a3b1 80bc 2173 aebb 7931 94bb
000000e0: 7ddd 55bc 7a74 6fbc b1e2 21bc f634 acbc
000000f0: 2325 3abc 2032 54bc 3f1b 36bb 55ed 5fbc
00000100: 57ee 0fbc 3140 80bf 3c10 c93a 2146 73bc
00000110: 7b07 30bc 6e6c 03be 3f88 6dbc 63e8 bbbb
00000120: bcc4 37bc ca7f fabb 5785 8fbc fd47 38bc
00000130: 8b8d d2bb 8602 73bc c650 21bc bf21 bcbb
00000140: 8f6c 09c0 2d7c e3bb 2b6a 02bc bdb0 81bc
00000150: 536b afbc 8cee 8cbb e591 9abc b541 1fbc
00000160: d2f8 72bc dfd6 67bc 147e ffbb d6d3 bfbb
00000170: 5255 dfbb 407c 75bb de9b fcba 63a9 06bc
00000180: e2bb 93be 1d77 2cbc b833 bebb 05ae 37bc
00000190: 1feb 74bb f011 0abc e738 4ebc e697 91bc
000001a0: 8077 4739 b38d 02bc 3948 1abc e53b f3bc
000001b0: 3ded 17bc 93b0 18bc a038 9bbe 81c5 58bc
000001c0: 02de d8bc e17e 99bc b5bd 4bbc adae 44bc
000001d0: 5701 0bc0 0c60 a9bc fd16 67bb bbcb 07bc
000001e0: fc72 e5bc f8f6 55bc b59a 14bc 4955 6bbc
000001f0: 0335 3ebc 5dc9 84bc 7cb9 3ebc cd61 333a
00000200: ce9a 1fbd 75d8 b6bc eaea 10bc b12b 9ebc
00000210: 1620 5dbf 28fd 06bc 4e26 2dbc 98df 38bc
00000220: eeaf d8bb 4a1f 68bc ba58 fcbb e446 93bc
00000230: 5f4c 0bbd 2eb5 3dbc e397 72bc e11d 79bc
00000240: 081a 65bc b15f 78bc a324 fbbb dac1 72bc
00000250: 6529 21bc db46 a2bb 9ad0 1cbc 9518 e1bb
00000260: 4aff c2bb 1e23 88bc 38f4 acbb 35de 66bc
00000270: e70c 73bc acf8 19bc a2a4 5bbc 57cf 243b
00000280: 5a2a 54bc e3c9 01bc 93c8 83bb f3a1 6dbc
00000290: 760b 06c0 f865 97bc 77d9 f9bb cf59 88bc
000002a0: 3dd3 24bc d15b 80bc 2bd4 aabb 7283 64bc
000002b0: 1a23 8fbc 70a2 a7bc 948d f039 beb5 04bc
000002c0: 180c 3ebc 9d15 65bc d408 3fc0 51df ffbb
000002d0: dd47 62bc 3970 edbb 4977 d0bb 1b1c 22bf
000002e0: c1e0 7abc 09fb 4ebc 22b9 6abc a7ce 5cbc
000002f0: cb5f 31bc ba39 4dbc c04f 863a 2301 4fbc
00000300: f51f 16bc 7cd0 86bc 1a1e 1bbc 9fb3 94bc
00000310: aed3 a2bc 9955 13bc ac2e b6bc 4f24 64bc
00000320: 5de5 c2bc 949e 9bbc 3448 60bc 16af 5dbc
00000330: 3aa2 f4bb 37fe c6bb 2f2e 633b 221f 223a
00000340: 8360 27bc b127 26bc 4f10 07be ffb0 a4bb
00000350: 50b5 02bc da19 c7bb 625c 1bbc f36a 66bc
00000360: 0bb1 34bc 43a3 0dbc 1c0b d1bb 297e 2ebc
00000370: 5126 18bc bbcf 8abc 3098 05bc 054a 58bc
00000380: 1cbf 8ebc 71fd 1bbc b1ba bfbb ce05 d5bb
00000390: 6f32 ac3a f27a 8abc 0796 85bc e21a 6cbc
000003a0: df08 5abc 039c 78bc ddc8 f4bb 5b09 86bc
000003b0: 52a5 53bc 6e54 d9ba 8969 92bc e5c1 59bc
000003c0: c942 ebbb 80d7 03bc 9041 86bc 7216 1abc
000003d0: db25 34bc a169 a6bf 5980 283b 9f60 2fc0
000003e0: ebf7 9abc f938 f8bb 0ca0 dcbb 9fcb bfbb
000003f0: e8c5 5dbc 7e0a 36bc 48b2 fdbd a846 63bc

exp_avg f4 [10000, 2]
1.1351348e-12 -1.3969408e-13 -9.345972e-10 2.9737848e-10 -4.0455833e-13 -3.8149768e-13 1.1249619e-12 -4.5993754e-13
-1.7982035e-12 -9.323443e-13 4.5105117e-13 8.525114e-13 2.311607e-13 -7.5703663e-13 5.2013155e-15 -1.5221106e-13
-3.752108e-13 1.9591777e-14 -1.1309445e-12 7.371347e-13 8.0168717e-13 -3.2776765e-13 -3.5246835e-13 -1.8275011e-13
-1.8670447e-10 -3.018507e-10 9.869776e-14 3.775156e-13 3.6542374e-14 -1.0693739e-12 -2.820756e-14 -1.4625242e-14
7.166422e-15 1.8825082e-13 7.6796225e-13 -9.450843e-14 1.9370863e-14 -5.668679e-13 -1.0886936e-12 -5.644729e-13
4.4913026e-13 4.919871e-14 1.9382538e-14 -5.672095e-13 1.4338738e-14 3.7665644e-13 -4.655618e-13 2.4309492e-14
2.1487473e-14 5.644427e-13 -1.472277e-13 1.3992029e-13 -2.8256529e-13 1.8417233e-13 5.870859e-14 1.10518894e-13
1.2438521e-12 1.3625436e-13 -2.1379601e-10 -4.270779e-10 1.1310495e-12 -9.712374e-13 -6.838629e-13 -6.4488134e-13
-5.3323285e-13 -2.7647405e-13 -1.1288854e-37 -1.1711257e-37 -9.075907e-11 -1.392907e-10 -1.1489217e-37 -1.0993429e-37
1.1332374e-12 4.255014e-13 3.9153812e-13 -4.8184208e-14 6.503636e-13 -5.5847037e-13 1.9401583e-14 -5.677668e-13
7.7746837e-13 -6.6761576e-13 1.9756469e-13 7.5567823e-13 -6.4686564e-13 1.1286928e-12 -4.3682818e-11 8.434654e-11
-8.171555e-14 3.7854754e-13 3.9345084e-13 -3.378581e-13 -1.1695574e-37 -1.129362e-37 7.168934e-15 1.8831677e-13
6.1684734e-13 -9.168241e-13 -2.3378703e-13 -8.932165e-13 -1.0500357e-10 -3.112801e-10 6.2318833e-10 -1.1694242e-09
6.895823e-13 -2.2583383e-12 -1.1326394e-12 3.536814e-13 -2.8321768e-13 1.8459754e-13 9.459645e-14 -1.2188653e-14
1.8967155e-13 3.5705664e-13 3.7666127e-13 -3.2344074e-13 -1.2247167e-13 5.6735037e-13 2.869648e-14 7.5381216e-13
3.7824827e-13 1.4202248e-13 -3.9284193e-13 -6.468396e-13 2.4607944e-14 9.4124544e-14 -2.2831734e-13 3.983827e-13
5.309571e-13 5.1961324e-14 -7.272361e-11 -3.695694e-10 2.0108943e-13 3.182753e-13 1.2904296e-14 -3.776306e-13
-2.4601924e-13 -9.296639e-13 -9.077702e-12 8.1443775e-12 2.641886e-13 -8.6520125e-13 1.8912548e-13 -2.4368623e-14
3.7775772e-13 1.418383e-13 -1.8872195e-13 -9.784979e-14 4.308738e-14 1.1318388e-12 4.06735e-13 4.6152963e-13
1.4462899e-13 1.6411316e-13 2.422338e-13 -7.933006e-13 -8.297752e-13 -4.3022725e-13 -4.0671436e-14 1.8841054e-13
-6.5578387e-10 -4.7520647e-11 -3.8728108e-13 2.0221978e-14 -7.435812e-14 -2.8098636e-13 -5.5417503e-13 9.6696e-13
4.7817024e-13 5.4258854e-13 2.441659e-13 2.389493e-14 1.127163e-12 4.2322068e-13 -4.4314248e-13 -6.881706e-13
1.152582e-13 -3.7746336e-13 -3.7637845e-13 -1.9514713e-13 4.629022e-13 -5.696654e-14 -3.0733743e-13 2.003185e-13
-6.8551864e-13 3.5794552e-14 9.455187e-14 -3.865727e-14 -1.36595e-13 -7.082266e-14 1.7584163e-13 1.995307e-13
-2.393844e-12 4.073947e-12 -3.2439296e-13 5.660216e-13 4.9192346e-14 1.8815909e-13 -1.12872e-12 -5.852261e-13
-1.2395833e-13 -1.9249898e-13 -5.666745e-13 -5.343728e-13 -8.169957e-14 3.784735e-13 -7.250243e-13 -1.1259145e-12
-1.7857521e-13 2.3009519e-13 4.0838052e-13 -6.0697866e-13 1.2705374e-13 -1.8884074e-13 1.9722676e-13 7.5438565e-13
3.1850355e-13 -4.7339395e-13 -5.61012e-13 2.9293466e-14 -1.092455e-11 -1.8254119e-11 4.1113375e-13 4.66521e-13
6.0508857e-13 1.1059853e-12 1.726901e-12 1.891686e-13 -1.0623927e-37 -1.0953482e-37 -3.7753438e-13 -7.61198e-14
-3.5042974e-10 -3.912759e-10 1.4147758e-12 -5.784273e-13 3.5187487e-15 9.24321e-14 -1.8885498e-13 1.7948148e-13
-8.525256e-13 8.102119e-13 -7.8706117e-13 -7.42197e-13 -5.6646967e-13 -2.9370684e-13 -3.7744284e-13 -1.9569901e-13
3.7722147e-13 -5.6066664e-13 -1.1116383e-12 5.804463e-14 6.958211e-13 -5.975048e-13 5.4961905e-14 1.6151929e-13
00000000: 8bc1 9f2b 1448 1daa 3773 80b0 4d7c a32f
00000010: 00bf e3aa 9cc3 d6aa 0653 9e2b fe75 01ab
00000020: 1c13 fdab 3e37 83ab 53eb fd2a ecf5 6f2b
00000030: c521 822a 3d16 55ab ab65 bb27 da5f 2baa
00000040: 9339 d3aa 9077 b028 922a 9fab 277c 4f2b
00000050: a6a7 612b 4c84 b8aa 0b6c c6aa 22c2 4daa
00000060: a348 4daf b6f1 a5af 633f de29 bb85 d42a
00000070: 7d92 2429 4180 96ab 3412 fea8 83bb 83a8
00000080: 4a19 0128 9bf3 532a 8329 582b 67d0 d4a9
00000090: 2b7a ae28 238f 1fab 5238 99ab 8fe2 1eab
000000a0: 7ed6 fc2a 4092 5d29 1795 ae28 c0a7 1fab
000000b0: e126 8128 ea09 d42a 430b 03ab dff5 da28
000000c0: bd8a c128 62e0 1e2b 7fc3 25aa 4789 1d2a
000000d0: f311 9faa 0f5c 4f2a 3333 8429 cedd f829
000000e0: 7f0e af2b a568 192a 3a12 6baf dfc9 eaaf
000000f0: 5a2e 9f2b 84b0 88ab 847d 40ab 9984 35ab
00000100: 7a17 16ab 1ca4 9baa eaa7 1982 c667 1f82
00000110: d094 c7ae d926 19af 1462 1c82 82a2 1582
00000120: 2e7d 9f2b 3789 ef2a 976a dc2a 9c00 59a9
00000130: a30f 372b 0832 1dab 01c1 ae28 e9cf 1fab
00000140: 80d6 5a2b c9ea 3bab 2570 5e2a 5bb4 542b
00000150: 9513 36ab 72d9 9e2b 7b1e 40ae e17a b92e
00000160: cf01 b8a9 731a d52a 3e7e dd2a 7c32 beaa
00000170: 2131 1f82 86b8 1982 df24 0128 9d06 542a
00000180: 89a0 2d2b 1208 81ab 439c 83aa 086b 7bab
00000190: c1e7 e6ae c820 abaf fb4c 2b30 75b9 a0b0
000001a0: a419 422b 9bea 1eac a367 9fab dd1a c72a
000001b0: f86f 9faa 9ed6 4f2a 2403 d529 3e92 5ba8
000001c0: 1a8d 552a 4901 c92a 9c0a d42a b914 b6aa
000001d0: 0ee4 09aa e7b1 1f2b ca3c 0129 e42d 542b
000001e0: 52ef d42a 31e7 1f2a 7d26 ddaa b511 36ab
000001f0: 0ea6 dd28 1bf3 d329 ff87 80aa ff44 e02a
00000200: 7e73 152b 5403 6a29 c1eb 9fae 452c cbaf
00000210: 1568 622a 4e2c b32a 9076 6828 4e96 d4aa
00000220: 1c7f 8aaa acd6 82ab 56b2 1fad 0447 0f2d
00000230: 97b9 942a 5288 73ab b5ef 542a 387e dba8
00000240: a0a8 d42a 1bb2 1f2a 667b 54aa 9056 dca9
00000250: 5e0c 4229 ca4a 9f2b b1f8 e42a b7e8 012b
00000260: 78d6 222a 66c6 382a 925d 882a 554b 5fab
00000270: 9b8f 69ab 4832 f2aa f92a 37a9 a421 542a
00000280: b042 34b0 7eff 50ae 1605 daaa b524 b628
00000290: 8a70 a7a9 672e 9eaa 85fc 1bab 6816 882b
000002a0: cc97 062b a0b9 182b 0474 892a f539 d728
000002b0: 54a2 9e2b 8740 ee2a 9077 f9aa ebb3 41ab
000002c0: eac4 012a 347e d4aa dae1 d3aa 55b7 5baa
000002d0: 9e4b 022b f946 80a9 fe03 adaa e089 612a
000002e0: d3f4 40ab 4f34 2129 71e9 d429 cc18 2ea9
000002f0: d4ca 19aa 7c7a 9fa9 e6fa 452a cfa6 602a
00000300: a973 28ac da56 8f2c f49d b6aa 2852 1f2b
00000310: ea8a 5d29 2ad9 532a 6cda 9eab fcb9 24ab
00000320: 8e90 0baa 0ebc 58aa 3381 1fab 9e69 16ab
00000330: 98f8 b7a9 c80f d52a 8213 4cab 5875 9eab
00000340: cd0e 49aa 3688 812a d6e5 e52a 6cd9 2aab
00000350: bf0c 0f2a a39d 54aa be0e 5e2a 3757 542b
00000360: 334d b32a a13f 05ab 2de9 1dab 11ed 0329
00000370: cd2f 40ad 9f90 a0ad 9e72 e72a 6150 032b
00000380: 3a51 2a2b 52a7 9b2b 2a0a f32b 23fc 542a
00000390: fc9a 1082 5017 1582 7088 d4aa 1468 aba9
000003a0: 9aa6 c0af 301b d7af ac1c c72b 14d0 22ab
000003b0: 758d 7d27 7a23 d029 bea1 54aa 0414 4a2a
000003c0: f2f6 6fab ec0d 642b bc89 5dab eee8 50ab
000003d0: 7172 1fab 9e57 a5aa 3f7b d4aa 6656 5caa
000003e0: 585b d42a 4ad0 1dab fe72 9cab 73b4 8229
000003f0: 32db 432b c22e 28ab c386 7729 c4da 352a

exp_avg_sq f4 [10000, 2]
1.0399867e-24 1.5899877e-26 9.32434e-19 5.6852834e-20 1.4140327e-25 1.2581009e-25 6.5308054e-25 1.0954554e-25
2.1818723e-24 5.90602e-25 2.08426e-25 6.8378803e-25 1.2838524e-25 1.3865298e-24 1.6947863e-29 1.5461597e-26
2.9577607e-25 7.664113e-28 7.9937356e-25 3.390328e-25 3.711539e-25 6.2284445e-26 1.1471615e-25 3.1011105e-26
2.8515465e-20 1.7350846e-19 3.6207622e-26 5.2990203e-25 5.944102e-28 5.3522433e-25 1.2857191e-27 3.4784606e-28
1.5869663e-28 1.1000564e-25 6.1162536e-25 9.3393635e-27 2.8105149e-28 2.553453e-25 6.419176e-25 1.7373408e-25
5.94319e-25 7.080927e-27 3.240499e-28 2.9082903e-25 2.664615e-28 1.8504141e-25 1.822213e-25 4.721678e-28
2.6294555e-28 1.8226748e-25 3.0188588e-26 2.7237398e-26 4.9674426e-26 2.1074444e-26 2.576464e-27 9.1294056e-27
1.2038485e-24 1.432867e-26 1.5253191e-20 1.5024872e-19 9.012685e-25 6.667557e-25 6.0715745e-25 5.4026515e-25
1.4883574e-25 4.0283244e-26 4.798776e-31 2.2385064e-33 3.651343e-21 1.5861447e-20 3.4003975e-32 2.4284329e-31
8.04095e-25 1.1313733e-25 2.1075918e-25 3.2184982e-27 6.5393754e-25 4.8365136e-25 3.2802087e-28 2.985102e-25
7.582369e-25 5.6086255e-25 4.3100097e-26 6.3085724e-25 2.4964526e-25 7.6303577e-25 1.1714617e-21 6.395318e-21
2.188439e-26 4.690018e-25 1.8087151e-25 1.3369253e-25 1.689426e-29 7.8865015e-32 1.9282431e-28 1.3366984e-25
3.7315956e-25 8.274666e-25 3.6235528e-26 5.248588e-25 1.3971441e-20 6.763618e-20 3.8188284e-19 1.4224588e-18
5.3008835e-25 5.7191015e-24 1.3840388e-24 1.3390537e-25 6.6895836e-26 2.8380103e-26 6.648328e-27 1.1150528e-28
8.0713345e-26 2.860003e-25 3.1209001e-25 2.3088726e-25 1.07111e-26 2.2950582e-25 1.00239675e-27 6.960757e-25
1.9372173e-25 2.723878e-26 2.5898981e-25 6.9977115e-25 6.7877244e-28 9.935234e-27 1.5232735e-25 4.632127e-25
1.1596705e-25 1.1019128e-27 2.8730402e-21 1.4592327e-19 4.1227615e-26 1.02864035e-25 2.6136184e-28 2.3360129e-25
3.8927984e-26 5.516378e-25 4.773715e-23 9.491656e-23 8.783245e-26 9.483594e-25 5.1666886e-26 8.677005e-28
1.4424148e-25 2.0282296e-26 1.205637e-25 3.264318e-26 1.0483341e-27 7.267397e-25 1.1297487e-25 1.4541435e-25
4.5491174e-26 5.855416e-26 8.169202e-26 8.82123e-25 4.770598e-25 1.2908435e-25 2.361593e-27 5.0583536e-26
4.882617e-19 9.62869e-22 2.17975e-25 5.6673647e-28 6.63912e-27 9.429204e-26 2.2787763e-25 6.9307386e-25
3.0686144e-25 3.9493153e-25 2.5505013e-26 2.4229395e-28 6.920355e-25 9.73902e-26 1.5426714e-25 3.7124213e-25
4.267744e-26 4.6094193e-25 3.4157956e-25 9.249956e-26 1.8083724e-25 2.7651374e-27 7.136991e-26 3.0269086e-26
3.0941316e-25 1.0224134e-27 2.4072049e-26 4.039253e-27 2.1806712e-26 5.905354e-27 6.365834e-26 8.193379e-26
4.638751e-24 1.2718768e-23 7.0210463e-26 2.1349796e-25 2.905768e-27 4.2531565e-26 1.4445284e-24 3.899602e-25
2.122522e-26 5.0989904e-26 2.8948582e-25 2.5755783e-25 1.4662465e-26 3.1422758e-25 4.514073e-25 1.0849959e-24
3.3866665e-26 5.271539e-26 1.741731e-25 3.8608665e-25 1.1168289e-26 2.4780161e-26 1.3941561e-25 2.0403647e-24
7.1010134e-26 1.5731136e-25 1.8490275e-25 4.7881825e-28 1.2376488e-22 5.697863e-22 1.5561425e-25 2.0029933e-25
1.5065746e-25 1.6897012e-24 1.7368516e-24 2.0712175e-26 5.987507e-30 2.7905645e-32 2.453602e-25 1.0079667e-26
1.4479007e-19 1.4573993e-19 1.5498778e-24 2.599073e-25 5.235681e-29 3.629722e-26 5.836727e-26 5.264736e-26
7.087097e-25 6.3941106e-25 5.4410434e-25 4.9708586e-25 3.4617386e-25 9.3610253e-26 4.4381186e-25 1.2016297e-25
8.6019686e-26 1.907769e-25 9.449593e-25 2.4649434e-27 4.445579e-25 3.287996e-25 2.8905177e-27 2.6399175e-26
00000000: 1eee a017 fa76 9d14 5c9a 8921 6e3d 861f
00000010: 7c0c 2f16 cfbe 1b16 5f1e 4a17 5e9c 0716
00000020: 6fd0 2818 50c8 3617 6b02 8116 459f 5317
00000030: e8ee 1e16 1b8e d617 2bdf ab0f ce1f 9914
00000040: 9713 b716 ace2 7212 e664 7717 e4d9 d116
00000050: afbb e516 7535 9a15 0003 0e16 3f8f 1915
00000060: 15a9 061f b7d7 4c20 9d4a 3315 2aff 2317
00000070: 4960 3c12 d7a4 2517 f6ba cb12 4079 dc11
00000080: 002c 4911 2e2e 0816 f449 3d17 33fc 3814
00000090: 3623 b211 140d 9e16 f4a9 4617 8712 5716
000000a0: cdee 3717 9140 0c14 1a64 cd11 b303 b416
000000b0: dae3 a811 f711 6516 3c94 6116 cea2 1512
000000c0: 5ba9 a611 dfa2 6116 957c 1515 81df 0615
000000d0: d1f9 7515 10b6 d014 e620 4c13 96d3 3414
000000e0: 5a49 ba17 7fe7 8d14 f40f 901e e461 3120
000000f0: ec76 8b17 d459 4e17 f8e7 3b17 3734 2717
00000100: ee3f 3816 1479 4715 acba 1b0d c4f7 3909
00000110: 9ff1 891d a0ce 951e 098f 300b 439d 9d0c
00000120: f8da 7817 a70e 0c16 2074 8216 e6fe 7e13
00000130: 4562 4a17 cfae 1517 6ee8 cf11 d4c4 b816
00000140: b7a9 6a17 1c94 2d17 dd6b 5515 a93d 4317
00000150: df85 9a16 ec25 6c17 bb06 b11c b89b f11d
00000160: 85bb d814 2726 1117 78e8 5f16 db80 2516
00000170: 0254 ab0f cbbe cc0b 116f 7411 aa79 2516
00000180: 7ef9 e616 540b 8017 fd6d 3315 996f 2217
00000190: dff4 831e 90b3 9f1f 816c e120 f9ea d121
000001a0: ed0d 2417 3d3f dd18 6d2b d617 4ec4 2516
000001b0: 46a0 a515 0e88 0c15 07af 0314 8859 0d11
000001c0: 29d6 c715 8e06 b116 a32c c116 8ce9 8e16
000001d0: bb27 5414 a60e 8e16 0bd6 9e12 cc6c 5717
000001e0: ded0 6f16 41e1 0615 934e a016 9591 5817
000001f0: 901c 5712 9fc9 4414 7792 3c16 7e5b 0f17
00000200: 6d8f 0f16 e59a ae12 ae14 591d 9a46 2c20
00000210: 3626 4c15 d4ad fe15 62a8 a511 9a97 9016
00000220: 15c3 4015 40b9 2a17 bbd7 661a 817e e51a
00000230: 6e76 d915 63c0 9217 8fd7 7f15 1d7e 8912
00000240: f38f 3216 bbdd c814 2940 1516 26a4 2115
00000250: 7c1d a612 40ea 6017 2adb 0b16 a603 3416
00000260: ea42 6115 1cf9 9015 7842 ca15 7e80 8817
00000270: 92a4 1317 77cc 1f16 cc1a 3b13 407a 7a15
00000280: 031c 1021 3181 911c 84eb 8616 209b 3312
00000290: 5680 0314 ae74 e915 a70c 8d16 f87e 5617
000002a0: 23f0 bd16 6673 f416 e496 fc14 7192 9911
000002b0: b32c 5617 5f20 f115 35f9 3e16 aac9 e516
000002c0: 1554 5315 95a7 0e17 716d d316 9004 e515
000002d0: 9cdd 5f16 a613 5b13 0eb4 b015 a0e2 1515
000002e0: 7984 bf16 0402 a212 e565 ee14 e402 a013
000002f0: 95f6 d714 68ef e913 449c 9d15 b6db ca15
00000300: f773 b318 4a04 7619 2bd5 ad15 1a26 8416
00000310: fa37 6613 2a9b 5215 aa87 df17 a95f f116
00000320: 5334 d214 627d 7c15 dc2e b316 ab6b 9f16
00000330: c435 9114 597f c216 2cb4 0b17 1ee5 a717
00000340: 19b3 2715 5984 8215 a99d 5716 dff9 ee16
00000350: f435 5d14 2c69 f514 9296 2c16 96dd 1d18
00000360: 05d0 af15 f6bd 4216 05e6 6416 5abe 1712
00000370: 609f 151b 1435 2c1c 20a4 4016 64f5 7716
00000380: 4181 3a16 fbbb 0218 e461 0618 9a1f cd14
00000390: d4e1 f20e f7e4 100b e0de 9716 fca5 4714
000003a0: 1df0 2a20 310f 2c20 fcd4 ef17 f5df a016
000003b0: 83bd 8410 31bc 3315 a782 9015 3b59 8215
000003c0: c455 5b17 5de3 4517 6364 2817 33d7 1917
000003d0: 7045 d616 8cc4 e715 665a 0917 2ac1 1416
000003e0: 74f9 d415 9d2b 6c16 b239 9217 fe4a 4313
000003f0: 8195 0917 6084 cb16 aa02 6513 eeb8 0215

exp_avg f4 [10000]
4.2998312e-13 1.1168086e-09 1.9881895e-13 4.5879305e-13 7.245943e-13 -6.1489117e-13 2.8800343e-13 5.5146016e-14
1.3549802e-13 4.916612e-13 3.26952e-13 1.4202874e-13 1.8972905e-09 1.5040622e-13 3.8743385e-13 1.1366365e-14
7.2675644e-14 2.9090006e-13 2.0537607e-13 4.38694e-13 1.7087463e-13 2.0549986e-13 1.4541101e-13 1.6812605e-13
2.179073e-13 7.42208e-14 1.2284101e-13 4.8058573e-14 4.7323197e-13 1.128331e-09 5.4633826e-13 3.3608234e-13
2.1486862e-13 1.0606391e-37 5.132248e-10 1.091175e-37 4.6377225e-13 1.4831258e-13 3.1414942e-13 2.0570178e-13
3.7554568e-13 3.0107023e-13 4.8569926e-13 5.4905686e-10 1.4771508e-13 1.9005113e-13 1.0990521e-37 7.27011e-14
3.967116e-13 3.3119232e-13 1.0817232e-09 1.0785294e-37 8.5915156e-13 4.3132297e-13 1.2312463e-13 3.5851056e-14
1.5526424e-13 1.8194116e-13 2.2138887e-13 2.9101483e-13 1.547964e-13 2.7314384e-13 3.7500225e-14 1.7143211e-13
2.0185562e-13 4.2446557e-10 -4.5360476e-13 1.3681545e-13 3.448793e-13 1.386037e-11 3.2915307e-13 7.1676565e-14
1.5459566e-13 7.6046374e-14 4.3695486e-13 2.3646878e-13 8.4084825e-14 3.0179952e-13 3.3436172e-13 7.35207e-14
9.538154e-10 1.3985693e-13 1.04238084e-13 4.1610248e-13 2.78e-13 9.282531e-14 4.6128634e-13 2.9475684e-13
1.4360036e-13 1.5166342e-13 1.753449e-13 1.3361035e-13 2.47558e-13 3.8561073e-14 5.5041576e-14 1.0223132e-13
4.329418e-11 2.4357052e-13 7.496458e-14 4.548229e-13 8.245105e-14 2.784904e-13 1.476862e-13 4.8225096e-13
-1.5111668e-13 2.6264082e-13 8.171176e-14 3.0055526e-13 2.0483845e-13 2.0259551e-13 1.0639506e-10 2.3902614e-13
3.7559534e-12 6.57011e-13 1.1097795e-37 1.3999739e-13 1.0065478e-09 5.769879e-13 3.5684102e-14 9.520607e-14
4.297774e-13 3.8679875e-13 2.282615e-13 1.520923e-13 2.4260157e-13 4.0144057e-13 3.3610698e-13 -1.4077938e-13
3.3576338e-12 4.75628e-13 2.1551027e-13 4.3138342e-13 4.034541e-10 2.3071876e-13 2.3418228e-13 3.109609e-13
1.2917662e-13 1.3973699e-13 6.8122794e-14 4.438366e-13 9.487918e-13 2.1410539e-13 2.9649474e-13 3.5881484e-13
1.545049e-13 3.0037068e-13 1.6062457e-13 1.5007697e-13 1.582567e-13 1.7435744e-13 3.3213108e-13 7.3001684e-14
4.328845e-14 4.0858536e-13 1.7122148e-13 1.06921484e-13 1.4197062e-13 2.436781e-13 3.4480405e-13 -5.75304e-13
1.639494e-13 1.9076982e-13 5.949758e-14 1.640403e-13 7.0550493e-10 5.571595e-13 8.5007386e-14 4.0802328e-13
1.0876841e-13 2.0164687e-13 1.2305578e-13 1.5009474e-13 2.1542917e-13 5.550955e-13 -1.1682144e-13 2.729164e-13
2.3582845e-13 1.5323276e-13 9.485914e-10 8.211938e-14 1.5069314e-13 7.482073e-14 7.7215645e-14 2.4032373e-10
1.3977383e-13 1.4598636e-13 1.129832e-37 1.4712569e-13 1.9349363e-13 3.0737755e-13 -2.889213e-13 3.821966e-13
2.4370837e-13 4.3691748e-13 2.181279e-13 3.3433567e-13 8.44885e-13 2.1446018e-13 2.918985e-13 4.1066374e-13
4.2399377e-13 4.4390842e-13 1.6393007e-13 4.02162e-13 1.0124659e-13 8.132687e-14 -8.7138727e-13 -1.473414e-13
2.2960467e-13 2.184629e-13 9.6152366e-12 1.1531122e-13 2.1411898e-13 9.529556e-14 3.4240763e-13 3.965824e-13
2.7095424e-13 2.6546658e-13 1.353128e-13 1.9917453e-13 2.8444014e-13 2.0784141e-13 2.31918e-13 4.1683638e-13
6.5249634e-13 2.462245e-13 6.278967e-14 1.9277731e-13 -4.689774e-13 4.9158686e-13 5.555276e-13 1.5073103e-13
4.107838e-13 6.752102e-13 1.5500412e-13 4.6401956e-13 1.3614703e-13 3.0118706e-14 4.8937346e-13 1.5436698e-13
1.5069331e-13 2.1392367e-13 3.0248436e-13 1.9100571e-13 2.1343413e-13 1.7053267e-09 -5.669653e-13 1.2564201e-09
4.3687775e-13 7.4414704e-14 6.838329e-14 1.9159048e-13 1.6380715e-13 1.3680523e-13 2.4195687e-11 1.6336956e-13
00000000: 190f f22a 367e 9930 a9d9 5f2a 8623 012b
00000010: 86f4 4b2b 9413 2dab ab21 a22a 075b 7829
00000020: a58e 182a ec63 0a2b c00e b82a ffe8 1f2a
00000030: 7d61 0231 a457 292a 1a1b da2a 1bc2 4c28
00000040: a8a6 a329 1ec3 a32a 9f3b 672a 78f6 f62a
00000050: 4263 402a 4d5f 672a dfb7 232a 094b 3d2a
00000060: 8157 752a 6121 a729 834e 0a2a c36f 5829
00000070: f533 052b 9e13 9b30 d2c7 192b 9232 bd2a
00000080: aaeb 712a e15d 1002 fc12 0d30 e685 1402
00000090: 508a 022b 31fc 262a b4d9 b02a 8099 672a
000000a0: d669 d32a cb7c a92a 52b6 082b 71ec 1630
000000b0: f94f 262a 82fa 552a 6098 1502 55b5 a329
000000c0: 2b54 df2a d871 ba2a c0ab 9430 44cd 1202
000000d0: 65d4 712b 31d0 f22a 42a0 0a2a 7475 2129
000000e0: dfcf 2e2a f8d8 4c2a ff42 792a a8d3 a32a
000000f0: 0649 2e2a 2dc4 992a d1e2 2829 f103 412a
00000100: ec44 632a 385a e92f 565b ffaa 5e0a 1a2a
00000110: 5826 c22a 8fd5 732d f54b b92a ba66 a129
00000120: 2a0f 2e2a c03d ab29 d5fb f52a be1e 852a
00000130: 9a57 bd29 e5e5 a92a 9a3a bc2a cc8d a529
00000140: 6517 8330 0477 1d2a 2ab9 ea29 b03e ea2a
00000150: 0680 9c2a 2606 d129 2fd7 012b f0ee a52a
00000160: fcad 212a 01c2 2a2a ba6b 452a 906e 162a
00000170: de5c 8b2a e4a9 2d29 9ee2 7729 5834 e629
00000180: ea68 3e2e 361e 892a 23ce a829 7205 002b
00000190: cba9 b929 b2c6 9c2a a647 262a d8bd 072b
000001a0: 6b24 2aaa 88da 932a 9fff b729 9432 a92a
000001b0: aaa0 662a 2e1a 642a 18f7 e92e 4c8f 862a
000001c0: 9f26 842c a2ee 382b 2c0e 1702 809f 1d2a
000001d0: c156 8a30 5c68 222b f8b4 2029 9062 d629
000001e0: 73f1 f12a 93bf d92a f37f 802a 9f3d 2b2a
000001f0: 9292 882a affd e12a 1f36 bd2a e580 1eaa
00000200: c145 6c2c 9ce0 052b 9ba4 722a e7d8 f22a
00000210: 1ecd dd2f 14e2 812a 39d5 832a 300e af2a
00000220: a070 112a 7254 1d2a 1e66 9929 98db f92a
00000230: d487 852b ad0f 712a 65e9 a62a abfe c92a
00000240: 01f5 2d2a fa17 a92a e1d8 342a bef8 282a
00000250: 632e 322a 1c4f 442a 22f9 ba2a 9b62 a429
00000260: 2ff4 4229 5b03 e62a 3bc7 402a 0ac4 f029
00000270: 3fd8 1f2a b72d 892a 801b c22a 06ef 21ab
00000280: 3297 382a a8c9 562a 05fa 8529 66b1 382a
00000290: 7fed 4130 93d3 1c2b 6c6b bf29 5ab2 e52a
000002a0: b8ec f429 c108 632a 6a8c 0a2a ddfd 282a
000002b0: 3b8d 722a d93e 1c2b 7d87 03aa 66a3 992a
000002c0: 76c2 842a 5686 2c2a 985f 8230 99ea b829
000002d0: 57aa 292a 377b a829 cadf ad29 8f1e 842f
000002e0: 105f 1d2a b45d 242a e6c8 1902 18a6 252a
000002f0: beda 592a c609 ad2a f3a5 a2aa 5628 d72a
00000300: 1432 892a 72f6 f52a 1697 752a d936 bc2a
00000310: 61d0 6d2b f075 712a 0253 a42a e22e e72a
00000320: f1af ee2a f2e5 f92a a091 382a a765 e22a
00000330: affc e329 c021 b729 1246 75ab 44e4 25aa
00000340: 8541 812a a5f7 752a 2d27 292d 32d4 012a
00000350: 9813 712a 2696 d629 24c2 c02a 8c41 df2a
00000360: 9f88 982a c471 952a 4259 182a 2640 602a
00000370: 2520 a02a 3502 6a2a e88e 822a 74a8 ea2a
00000380: 51a9 372b b19c 8a2a c863 8d29 470c 592a
00000390: 6201 04ab 915e 0a2b fb5d 1c2b 43b5 292a
000003a0: 2f40 e72a 060e 3e2b e584 2e2a 229c 022b
000003b0: b649 192a 81a4 0729 13bf 092b 41cd 2d2a
000003c0: 64aa 292a 4ddb 702a 9748 aa2a a60d 572a
000003d0: 334e 702a d960 ea30 2896 1fab 5aae ac30
000003e0: b8f0 f52a 2891 a729 48fc 9929 32b6 572a
000003f0: 326e 382a 6c07 1a2a d8d3 d42d 12f0 372a

exp_avg_sq f4 [10000]
1.4928468e-25 1.3916542e-18 3.418196e-26 1.0870746e-25 3.5498386e-25 4.1680925e-25 2.0062436e-25 2.0301879e-27
3.85802e-26 1.5105848e-25 6.178587e-26 1.865674e-26 3.4660539e-18 8.413036e-26 7.027261e-26 2.091503e-28
1.6399025e-26 8.779265e-26 3.3527457e-26 1.0443335e-25 8.603864e-26 3.818398e-26 2.7587338e-26 2.3768353e-26
2.7171402e-26 7.670021e-27 9.387301e-27 1.7268034e-27 1.7428321e-25 1.4093278e-18 2.1064637e-25 1.4678941e-25
2.4214278e-26 6.3994706e-32 2.770037e-19 3.634218e-32 1.3467463e-25 3.0251974e-26 1.5281756e-25 3.9195463e-26
1.77203e-25 1.0016699e-25 1.4121814e-25 3.1423377e-19 7.143471e-26 4.2256758e-26 2.2535671e-30 1.9926822e-26
1.547945e-25 7.222081e-26 1.2182351e-18 1.5176879e-27 8.275599e-25 2.0062473e-25 1.2642674e-26 9.553697e-28
5.409472e-26 7.29429e-26 3.4957665e-26 1.037756e-25 3.2445735e-26 1.2494511e-25 1.5775071e-27 8.5821934e-26
1.6763656e-26 1.6926839e-19 1.4255954e-25 3.066967e-26 7.5983606e-26 2.236617e-22 1.3722398e-25 7.42501e-27
2.4158531e-26 1.9616764e-26 1.0833883e-25 3.8187434e-26 1.5376854e-26 1.2763947e-25 7.760684e-26 7.705343e-27
8.4622097e-19 2.8431814e-26 1.2984647e-26 1.283993e-25 1.0372566e-25 3.6868994e-27 1.1590603e-25 6.818088e-26
6.669607e-26 5.558056e-26 2.5958587e-26 1.3486848e-26 4.038534e-26 4.007208e-27 3.548326e-27 2.1517682e-26
1.845189e-21 3.9556296e-26 6.753113e-27 2.3485545e-25 9.369184e-27 6.9977454e-26 4.7860764e-26 1.9932107e-25
2.5778275e-26 7.2231334e-26 4.63502e-27 3.2394147e-25 2.943485e-26 2.4118353e-26 1.040027e-20 5.2600444e-26
1.6188798e-23 2.5144175e-25 7.990918e-31 3.376386e-26 8.463362e-19 2.5797297e-25 5.4109984e-27 1.4828332e-26
1.8006166e-25 1.3321452e-25 5.630504e-26 7.221176e-26 3.5687325e-26 1.2325446e-25 1.0388922e-25 1.7820112e-26
1.3466267e-23 1.3065673e-25 2.7896115e-26 1.4960011e-25 1.700472e-19 2.8814772e-26 3.45578e-26 9.219695e-26
1.3806123e-26 8.1199154e-26 8.492928e-27 1.0883923e-25 5.6030177e-25 6.679696e-26 1.2095391e-25 1.5671015e-25
7.478044e-26 1.2178644e-25 3.1639904e-26 7.9396884e-26 1.407432e-26 2.2788121e-26 6.6149253e-26 1.9954053e-26
3.793833e-27 1.2152877e-25 2.077874e-26 2.0836963e-26 3.755435e-26 3.6764958e-26 1.347174e-25 2.9952348e-25
6.228631e-26 2.9566917e-26 3.7034547e-27 5.4492447e-26 4.833761e-19 3.144154e-25 1.4604832e-26 1.2103513e-25
2.210354e-26 5.0291118e-26 7.5481524e-27 8.587711e-26 3.1638247e-26 2.069984e-25 1.14110394e-26 6.6269684e-26
3.6109236e-26 5.0503436e-26 9.725758e-19 1.9564451e-26 7.4239786e-26 1.9392739e-26 1.227631e-26 5.0044353e-20
4.002815e-26 6.0392904e-26 6.0867333e-31 7.8349696e-26 6.170288e-26 1.1340084e-25 5.94723e-26 1.3976136e-25
3.6569727e-26 1.119828e-25 2.2616559e-26 1.2995718e-25 5.15899e-25 3.2016404e-26 1.1359698e-25 1.7734789e-25
2.104812e-25 1.5874398e-25 8.433326e-26 1.8674924e-25 1.9891086e-26 1.3901034e-26 6.3050014e-25 2.0600904e-26
2.7975217e-26 3.1331786e-26 7.999257e-23 7.323307e-27 4.144485e-26 2.2568947e-26 8.6834037e-26 1.7246509e-25
4.8232962e-26 5.5827643e-26 2.7448338e-26 3.224767e-26 6.3088005e-26 9.119889e-26 3.9708244e-26 1.9380957e-25
3.5903436e-25 4.2018097e-26 3.3065463e-27 3.5257078e-26 1.4589276e-25 1.6774474e-25 2.7652821e-25 7.9756186e-26
1.799862e-25 4.497826e-25 3.1114692e-26 1.8715008e-25 5.3379456e-26 8.390687e-28 1.5244643e-25 5.2795625e-26
3.201095e-26 3.635745e-26 6.4967805e-26 3.747676e-26 3.2459223e-26 2.939322e-18 3.1762373e-25 1.5869238e-18
1.0596388e-25 2.0700029e-26 8.17676e-27 2.9963042e-26 6.928248e-26 3.1882445e-26 6.087693e-22 7.16511e-26
00000000: 34ce 3816 365f cd21 c842 2915 c592 0616
00000010: 70b9 db16 08ff 0017 665c 7816 1ad9 2013
00000020: 370a 3f15 5800 3b16 73f9 9815 75c4 b814
00000030: e8bf 7f22 f34b d015 8ffc ad15 9490 8411
00000040: 7868 a214 345d d915 1a05 2615 4048 0116
00000050: 7805 d515 f213 3d15 1b9b 0815 ef63 eb14
00000060: d88b 0615 a0eb 1714 45ef 3914 bccf 0813
00000070: 8ec0 5716 e6fa cf21 4062 8216 6cb7 3516
00000080: 7dce ef14 c723 a60b 9e83 a320 0bb3 3c0b
00000090: 18b8 2616 efcc 1515 d12d 3d16 2716 4215
000000a0: df5d 5b16 5f00 f815 d1d1 2e16 aa7d b920
000000b0: 20dd b015 ce3e 5115 c2d4 360e 7f58 c514
000000c0: 56a0 3f16 60cf b215 9fc7 b321 bc7c f012
000000d0: 060f 8017 845c 7816 f969 7a14 6662 9712
000000e0: 9aee 8515 0e99 b415 1b1a 2d15 cd77 0016
000000f0: dba9 2015 b0ac 1a16 4af7 f912 1d7c d415
00000100: eb04 a614 3bd6 4720 ec7a 3016 6dde 1715
00000110: 5520 bc15 f931 871b 04e0 2916 4611 1314
00000120: 2741 ef14 6846 c214 f21d 0616 5318 3d15
00000130: f548 9814 9002 1e16 2e25 c015 bb9e 1814
00000140: a6c2 7921 9bc9 0c15 fe97 8014 5df3 1e16
00000150: f967 0016 9a0d 9213 167c 0f16 c4ce a815
00000160: a821 a515 5d9c 8915 6b8a 0015 3991 8514
00000170: 80fa 4715 ebbd 9e13 4d90 8c13 ce19 d514
00000180: 256b 0b1d 90df 4315 5ac2 0514 555e 9116
00000190: 6893 3914 7b41 ad15 bafe 6c15 5ebf 7616
000001a0: b14b ff14 0cd6 b215 b09c b713 9382 c816
000001b0: 1bc1 1115 4adb ee14 9f74 441e 7e3b 8215
000001c0: 8691 9c19 89a2 9b16 faa8 810d c730 2715
000001d0: 5bcb 7921 73ad 9f16 0b5a d613 4ada 9214
000001e0: d1e7 5e16 5ee9 2416 8f67 8b15 a4c9 b215
000001f0: 0fb7 3015 e694 1816 cf9b 0016 5a7b b014
00000200: dd3c 8219 c5be 2116 8722 0a15 2b32 3916
00000210: 9dc1 4820 10af 0e15 371f 2b15 c244 e415
00000220: aeba 8814 140a c915 4338 2814 87bc 0616
00000230: ae67 2d17 9a61 a515 d3bb 1516 6eff 4116
00000240: bc25 b915 aac3 1616 58ac 1c15 c193 c415
00000250: a462 8b14 c0ae e114 12c7 a315 899d c514
00000260: 0a4a 9613 0172 1616 5dc8 cd14 fa5b ce14
00000270: cbf5 3915 1f0d 3615 a6c5 2616 6465 b916
00000280: a436 9a15 8568 1215 7eb5 9213 b1ea 8615
00000290: deaa 0e21 1c9d c216 a6a3 9014 90d5 1516
000002a0: 22e7 da14 9107 7915 ae81 1514 169f d415
000002b0: 3eaa 1c15 3520 8016 d804 6214 6713 a415
000002c0: e5cd 3215 b614 7a15 e086 8f21 c7c1 c114
000002d0: 0ecf b715 6f0e c014 4928 7314 e953 6c1f
000002e0: b535 4615 8d86 9515 9a86 450d 05fc c115
000002f0: d9c4 9815 2962 0c16 0c3f 9315 2504 2d16
00000300: a315 3515 c4a0 0a16 cafb df14 13e1 2016
00000310: bba9 1f17 9d89 1e15 52a0 0c16 ca8b 5b16
00000320: 1448 8216 fa83 4416 8ecc d015 322f 6716
00000330: e5fd c414 4fab 8914 5e21 4317 7f05 cc14
00000340: cd86 0a15 c225 1b15 0169 c11a 940d 1114
00000350: 9739 4d15 1483 df14 9cfd d615 5e80 5516
00000360: 8bd6 6e15 f938 8a15 e7ea 0715 c7ae 1f15
00000370: c632 9c15 2acc e115 2ea0 4415 b4ec 6f16
00000380: 443b de16 4410 5015 5dfc 8213 a895 2e15
00000390: 439b 3416 6ea8 4f16 a529 ab16 7d77 c515
000003a0: e7cf 5e16 7333 0b17 8f12 1a15 3aae 6716
000003b0: 4029 8415 acf4 8412 34b8 3c16 34b7 8215
000003c0: b382 1e15 8b08 3415 3dda a015 7093 3915
000003d0: f4ba 2015 39e2 5822 7d99 c416 4930 ea21
000003e0: 4b2d 0316 cf00 cd14 19f5 2114 ab5e 1415
000003f0: fd88 ab15 cddf 1d15 3efd 371c 4866 b115
