checkpoints/checkpoint_30.pth (torch, 363976 bytes, 6 tensors)

W f4 [10000, 2]
-0.0032365224 0.0001788064 -0.00034266515 -0.0031597565 -6.2143727e-06 0.0044756206 -0.0034465773 -0.0041051265
-0.003566899 0.0022134301 -0.00023378874 -0.0007430507 0.004640652 0.0016399723 -6.266085e-05 -0.00019915502
-0.0030445645 0.0011723577 -0.0020151795 -0.0002956115 0.0029134923 0.0011633288 -0.00031622755 -0.0028999734
0.0071910536 -7.079065e-05 -0.006674927 0.0028291566 -0.0033615816 0.00011437906 -0.00086954253 0.0015013348
0.00017303697 0.0039042418 0.00024085771 -0.004392918 -0.005827976 0.003297183 -0.0040339427 0.0018393665
0.0046925875 0.0016580784 -0.002765247 -0.0015353776 -0.00010189605 -0.0040996587 0.0044495687 0.0015719464
0.0055276896 -0.001440945 -0.00086365355 -0.0020822037 -0.0022464334 -0.0054159 0.0015437491 -0.0035537006
0.0048191086 0.0017237575 -0.0034351656 -0.0014931682 -0.003096247 0.0029483547 -0.0015556867 0.0034977947
0.002352008 0.0011665905 0.003167853 0.0022923395 0.000107550164 0.0071754553 -0.0010654207 0.0050185416
8.076866e-05 0.0053925924 0.00023118168 0.00021951845 0.002069957 0.0019030819 5.6825895e-05 0.0037796844
-0.0007606314 0.004399952 0.0016054636 0.003023664 -0.0010274781 0.0014562248 -0.0007739057 -0.00073644484
-0.0022170937 -0.002365207 2.7520964e-05 0.0017143614 8.094506e-05 0.005471669 0.0017718102 0.0047227712
0.00318423 0.0011366461 -0.0005635794 -0.0014300161 0.0031870592 0.0026057824 -0.0032565573 0.003137089
9.459965e-05 0.006285925 -0.0016892089 0.0023578806 -0.0005379075 -0.0052512623 -0.0020637708 -0.0017804912
0.0023820742 -0.0005971528 -0.0010677009 -0.0010852003 0.000179416 0.0026535282 -0.0023554873 0.0010608616
-0.0016212047 0.0019037897 0.00048137925 -0.002125276 0.0012340854 0.00043798538 -0.0010798598 0.0027751436
0.0033068713 -0.005396001 0.0016371395 -0.0023760067 0.00018046332 0.0014191819 0.0001820085 0.0014311458
0.004279596 0.0006486651 -0.0022145826 -0.005258219 -0.34434474 0.63030666 0.00010744427 0.0071600773
6.7035355e-05 0.004499059 -0.0011519417 0.005480125 -7.5362805e-05 -0.0031683773 -0.0009893978 -0.0029269492
2.6301881e-05 0.0016371547 0.0016246042 0.0005312072 4.334523e-05 0.0028776682 -0.00020600409 -0.0018646336
0.00071298826 -0.00230233 0.002394329 -0.004727252 -0.0051542246 0.0023190167 -0.00023149438 -0.0007120861
0.00021081555 0.0016573105 5.853434e-05 0.0039197532 0.6215139 -0.5567941 0.0013050152 0.0022967907
-0.0038624334 -0.002202302 3.2493735e-05 0.0021662058 -0.00093562016 0.0002845345 0.002857128 0.00014812477
0.0027460365 6.8739435e-05 0.00042572198 0.0037906377 0.00077488186 -0.0008889009 -0.004185888 -0.0021512797
0.003122648 0.0010705399 -0.001134355 0.00092421076 -0.0019482163 -0.0001598109 -0.0038489047 0.0039534895
0.0034301481 -0.0008171915 -0.0023974716 -0.0022741249 0.002941751 -0.0006957835 5.9675072e-05 0.0039835284
-0.00046405505 -0.00015133606 -0.002024967 -0.0019216377 -0.0030813229 0.0013878788 9.33812e-05 0.006381448
0.0014580594 0.0020945512 0.00024346788 0.0019146863 -0.0030574778 -0.0002616855 -0.0032619394 0.0010696321
0.00056630536 -0.006709215 0.0003945465 -0.0034845748 0.0034861625 0.002976258 -0.0032022032 -0.0036563477
-0.0014594592 0.0011192384 -0.0014008918 0.0032730713 -0.0010310968 0.001023625 0.0032236245 0.001108692
-0.00053438725 -0.0032813724 0.0054136766 -0.0015992819 -0.001462788 0.0010317798 -0.0011143048 -0.0038366348
8.257738e-05 0.00559589 0.00031133587 0.0025156818 0.0040628146 -0.00044523375 0.002615956 -0.0023109186
00000000: d61b 54bb fa7d 3b39 bda7 b3b9 eb13 4fbb
00000010: 0e85 d0b6 3aa8 923b f9df 61bb 4c84 86bb
00000020: a3c2 69bb 320f 113b 3025 75b9 4ac9 42ba
00000030: 9c10 983b 57f4 d63a ca68 83b8 45d4 50b9
00000040: 5187 47bb cca9 993a 1a11 04bb 4efc 9ab9
00000050: 4af0 3e3b d67a 983a 58cb a5b9 7b0d 3ebb
00000060: eea2 eb3b 7175 94b8 59b9 dabb 5f69 393b
00000070: fb4d 5cbb cade ef38 03f2 63ba 70c8 c43a
00000080: 4271 3539 4fde 7f3b c08e 7c39 78f2 8fbb
00000090: 9bf8 bebb 8d15 583b 2a2f 84bb e616 f13a
000000a0: 47c4 993b e153 d93a 2539 35bb b93e c9ba
000000b0: 06b1 d5b8 6e56 86bb b0cd 913b c509 ce3a
000000c0: 9f21 b53b 17de bcba cf66 62ba 9575 08bb
000000d0: e638 13bb dd77 b1bb a057 ca3a 34e5 68bb
000000e0: 9de9 9d3b b4ef e13a 8420 61bb 69b6 c3ba
000000f0: 68ea 4abb 2f39 413b 2fe8 cbba 423b 653b
00000100: 2524 1a3b 48e8 983a c19b 4f3b 133b 163b
00000110: 8e8c e138 1520 eb3b 96a5 8bba 9472 a43b
00000120: 5862 a938 58b4 b03b 5c69 7239 892e 6639
00000130: 1ea8 073b d570 f93a 5758 6e38 95b4 773b
00000140: 1c65 47ba 792d 903b 6b6e d23a aa28 463b
00000150: 72ac 86ba ccde be3a efdf 4aba fa0d 41ba
00000160: a94c 11bb 9701 1bbb d2dc e637 6cb4 e03a
00000170: 0cc1 a938 b04b b33b 163c e83a 7ac1 9a3b
00000180: 84ae 503b 84fb 943a 2cbd 13ba 616f bbba
00000190: fbdd 503b c6c5 2a3b f76b 55bb 9f97 4d3b
000001a0: cd63 c638 29fa cd3b 7268 ddba ac86 1a3b
000001b0: 5c02 0dba c812 acbb 5440 07bb 5f5f e9ba
000001c0: 931c 1c3b 3f8a 1cba 19f2 8bba 483d 8eba
000001d0: 9e21 3c39 d1e6 2d3b 855e 1abb 9c0c 8b3a
000001e0: 9a7e d4ba 9588 f93a a161 fc39 3748 0bbb
000001f0: 09c1 a13a 67a1 e539 158a 8dba 2fdf 353b
00000200: 18b8 583b f0d0 b0bb 4995 d63a c7b6 1bbb
00000210: c13a 3d39 d803 ba3a 89d9 3e39 4995 bb3a
00000220: da3b 8c3b 2e0b 2a3a 8822 11bb 234d acbb
00000230: f44d b0be c75b 213f b453 e138 159f ea3b
00000240: 5595 8c38 d86c 933b c0fc 96ba 9f92 b33b
00000250: 190c 9eb8 8da4 4fbb aeae 81ba 0fd2 3fbb
00000260: dca2 dc37 cc95 d63a acf0 d43a b640 0b3a
00000270: 96cd 3538 4397 3c3b cd02 58b9 b966 f4ba
00000280: d5e7 3a3a b0e2 16bb 2dea 1c3b 10e7 9abb
00000290: c5e4 a8bb a5fa 173b 4dbd 72b9 4aab 3aba
000002a0: 5e0e 5d39 1d3a d93a c582 7538 4671 803b
000002b0: 891b 1f3f 0f8a 0ebf 0b0d ab3a c185 163b
000002c0: e120 7dbb 7f54 10bb e249 0838 e7f6 0d3b
000002d0: 6844 75ba 932d 9539 a73e 3b3b f151 1b39
000002e0: d9f6 333b 3428 9038 7033 df39 596c 783b
000002f0: 7121 4b3a 2105 69ba c629 89bb 7cfc 0cbb
00000300: 57a5 4c3b 5c51 8c3a a3ae 94ba bc46 723a
00000310: 4b5b ffba e992 27b9 e83d 7cbb 468c 813b
00000320: 56cc 603b cb38 56ba e61e 1dbb 7c09 15bb
00000330: 64ca 403b 3e65 36ba 9f4b 7a38 4288 823b
00000340: 6a4c f3b9 f7af 1eb9 4fb5 04bb 76df fbba
00000350: 05f0 49bb 7ce9 b53a a6d5 c338 771b d13b
00000360: 5b1c bf3a bd44 093b 694b 7f39 36f6 fa3a
00000370: f75f 48bb d532 89b9 43c6 55bb e632 8c3a
00000380: 1c74 143a fad8 dbbb 23db ce39 775d 64bb
00000390: 1a78 643b 530d 433b 0edc 51bb 569f 6fbb
000003a0: 534b bfba 69b3 923a 219e b7ba 0681 563b
000003b0: de25 87ba 282b 863a 7243 533b 8851 913a
000003c0: 1f16 0cba 4b0c 57bb 3665 b13b ff9e d1ba
000003d0: 05bb bfba c93c 873a dd0d 92ba 0d70 7bbb
000003e0: 652d ad38 ba5d b73b cb3a a339 23de 243b
000003f0: 5c21 853b 436e e9b9 7570 2b3b c872 17bb

b f4 [10000]
-0.012052202 -0.011741628 -0.016556116 -0.019577729 -0.015806068 0.013068421 -0.018507058 0.0035026427
-0.012185957 -0.0075608403 -0.011784727 -0.01077781 -0.02703131 -0.026940232 -0.012459649 -0.0065414542
-0.0144534325 -0.016294746 -0.025138384 -0.016441459 -0.01871195 -0.011875156 -0.0150617575 -0.017742392
-0.021213723 -0.008262809 -0.02149207 -0.01490284 -0.019243345 -0.013851568 -0.015946276 -0.014269113
-0.009802863 -0.014641326 -0.026462024 -0.019372893 -0.01988647 -0.0011975751 -0.01057025 -0.013938245
-0.016851585 -0.012937647 -0.0067250826 -0.003991309 -0.011991879 -0.006323356 -0.020176277 -0.018982422
-0.012712416 -0.005620565 -0.015469423 -0.016851803 -0.023182636 -0.010942218 -0.019500237 -0.010244747
-0.0091059245 -0.0056581856 -0.009849203 -0.009572016 -0.009367503 -0.008348855 -0.0049240193 -0.011085883
-0.023863915 -0.010740617 -0.0053067524 -0.0053514754 -0.015998334 -0.020929288 -2.5891356 -0.026404431
-0.016590342 -0.021145934 -0.011638402 -0.011221813 -0.0060382993 -0.0064247786 -0.010612626 -0.0069328505
-0.00928862 -0.02026284 -0.020942079 -0.0027254438 -0.0061970125 -0.01445824 -3.1311288 -0.009968794
-0.016713575 -0.007987477 -0.003680812 -0.010715486 -0.010307662 -0.014147672 -0.004425762 -0.017601058
-0.012411133 -0.005504968 -0.0072196885 -0.020452205 -0.013048485 -0.012349882 -0.011183577 -0.014692363
-0.0018002194 -0.010434823 -0.012522062 -0.023530876 -0.009542787 -0.007160864 -0.011337479 -0.012898263
-0.025137883 -0.013184604 -0.017232943 -0.017845562 -0.0069310046 -0.0132395625 -0.0054016323 -0.012816633
-0.0122859115 -0.02105746 -0.0067521012 -0.01461676 -0.020634452 -0.009403227 -0.015326577 -0.0130924005
-0.0062562507 -0.017119106 -0.012147368 -0.011507076 -0.01454819 -0.015839119 -0.014714509 -0.016660908
-0.018730069 -0.008305475 -0.015753962 -0.00960348 0.018616568 -0.01944173 -0.004898516 -0.012535403
-0.0078563765 -0.00385183 -0.0053685685 -0.014758171 -0.013352413 -0.02300136 -0.009745181 -0.0058080787
-0.007962998 -0.009751264 -0.004978142 -0.012331824 -0.011004175 -0.01644404 -0.016670506 -0.008618199
-0.0146795595 -0.0054611913 -0.01044338 -0.0070763207 -0.016757853 -0.009264822 -0.001406621 -0.019701283
-0.022344436 -0.016653752 -0.009375876 -0.01378906 -0.011597362 -0.006533473 -0.016717503 -0.021496704
-0.011769565 -0.0108656585 0.012136383 -0.012657464 -0.009948666 -0.017348167 -0.0044610035 -0.021617617
-0.017984979 -0.017184634 -0.011198712 -0.01728692 -0.0039965343 -0.006902917 -0.007444392 -0.0091704335
-0.0100966785 -0.014774425 -0.0054684808 -0.009312059 -0.0026810786 -0.009823817 -0.015830785 -0.0035820347
-0.0079556415 -0.009670866 -0.017836716 -0.010910889 -0.013666843 -0.01353408 -0.015686212 -0.009864075
-0.0055715926 -0.013384162 -0.017226117 -0.015419049 -0.012475316 -0.007117005 -0.013286021 -0.019985499
-0.009650016 -0.016636169 -0.007691037 -0.019272594 -0.01627238 -0.011416679 -0.016092531 -0.009629776
-0.009608728 -0.007939384 -0.0142993 -0.009327801 -0.0034531942 -0.013023824 -0.014347555 -0.01159576
-0.014697388 -0.01944788 -0.010195691 -0.013147502 -0.00990734 -0.0044000247 -0.006666747 -0.004512174
-0.010771889 -0.0065193456 0.017963767 -0.0175655 -0.009016071 -0.018226067 -0.016071785 -0.015124616
-0.0022028543 -0.012839647 -0.0033465608 -0.014060477 -0.9202299 -0.011245828 -0.027020581 -0.020187356
00000000: 9976 45bc f55f 40bc b1a0 87bc 7961 a0bc
00000010: ba7b 81bc ee1c 563c 1d9c 97bc 988c 653b
00000020: 9ca7 47bc edc0 f7bb ba14 41bc 6995 30bc
00000030: c470 ddbc c3b1 dcbc 8e23 4cbc b259 d6bb
00000040: 17ce 6cbc 8f7c 85bc 03ef cdbc 3db0 86bc
00000050: ce49 99bc 0490 42bc 97c5 76bc 7e58 91bc
00000060: 67c8 adbc bc60 07bc 2310 b0bc 0b2b 74bc
00000070: 38a4 9dbc b0f1 62bc c4a1 82bc ffc8 69bc
00000080: 309c 20bc 2ce2 6fbc e3c6 d8bc e7b3 9ebc
00000090: f3e8 a2bc f4f7 9cba d82e 2dbc 3d5d 64bc
000000a0: 560c 8abc 6df8 53bc 155e dcbb 87c9 82bb
000000b0: 9679 44bc 2834 cfbb b848 a5bc 0681 9bbc
000000c0: bd47 50bc b72c b8bb 7673 7dbc cb0c 8abc
000000d0: 83e9 bdbc fd46 33bc f6be 9fbc 95d9 27bc
000000e0: 0431 15bc 4d68 b9bb 8d5e 21bc f2d3 1cbc
000000f0: 287a 19bc a3c9 08bc ab59 a1bb 90a1 35bc
00000100: 427e c3bc 6af9 2fbc 44e4 adbb 6e5b afbb
00000110: f00e 83bc e673 abbc 66b4 25c0 1b4e d8bc
00000120: 78e8 87bc 3d3a adbc ffae 3ebc b2db 37bc
00000130: eddc c5bb f386 d2bb 94e0 2dbc f72c e3bb
00000140: 4c2f 18bc 41fe a5bc b98e abbc 5c9d 32bb
00000150: 4f10 cbbb 41e2 6cbc 6a64 48c0 2754 23bc
00000160: e8ea 88bc e8dd 02bc c739 71bb 0190 2fbc
00000170: 78e1 28bc a3cb 67bc fc05 91bb 1830 90bc
00000180: 1158 4bbc 0563 b4bb 2393 ecbb 628b a7bc
00000190: 50c9 55bc 2957 4abc 523b 37bc 3db8 70bc
000001a0: 57f5 ebba d2f6 2abc 5629 4dbc d3c3 c0bc
000001b0: 5a59 1cbc aea5 eabb d5c0 39bc 3c53 53bc
000001c0: f6ed cdbc 3d04 58bc 1a2c 8dbc db30 92bc
000001d0: 7b1d e3bb c0ea 58bc 2d00 b1bb dbfc 51bc
000001e0: d94a 49bc b280 acbc bb40 ddbb 237b 6fbc
000001f0: 9509 a9bc fe0f 1abc 531c 7bbc 8281 56bc
00000200: 3c01 cdbb 5e3d 8cbc c105 47bc 2d88 3cbc
00000210: 885b 6ebc 0ac1 81bc 2015 71bc 757c 88bc
00000220: cd6f 99bc b013 08bc 740e 81bc ea57 1dbc
00000230: c681 983c 4344 9fbc bb83 a0bb 4a61 4dbc
00000240: 08b8 00bc fc6e 7cbb d1ea afbb 41cc 71bc
00000250: 14c4 5abc 596d bcbc 40aa 1fbc b251 bebb
00000260: 3c77 02bc c4c3 1fbc af1f a3bb 6b0b 4abc
00000270: db4a 34bc a7b5 86bc 9690 88bc 5933 0dbc
00000280: 8982 70bc cbf3 b2bb b61a 2bbc 7be0 e7bb
00000290: c447 89bc 7bcb 17bc 5e5e b8ba 9664 a1bc
000002a0: ae0b b7bc 736d 88bc 469d 19bc 82eb 61bc
000002b0: dd02 3ebc be16 d6bb 25f3 88bc db19 b0bc
000002c0: 22d5 40bc e005 32bc aed7 463c 4061 4fbc
000002d0: bbff 22bc be1d 8ebc 9c2d 92bb 6e17 b1bc
000002e0: 3c55 93bc cac6 8cbc cd7a 37bc 4d9d 8dbc
000002f0: 5cf5 82bb dd31 e2bb 16f0 f3bb 963f 16bc
00000300: 8a6c 25bc 6e10 72bc f130 b3bb 9b91 18bc
00000310: 09b5 2fbb 13f4 20bc 90af 81bc 92c0 6abb
00000320: 6158 02bc 8d72 1ebc 4e1e 92bc 96c3 32bc
00000330: e5ea 5fbc 0cbe 5dbc 5f80 80bc ee9c 21bc
00000340: e891 b6bb 3f49 5bbc c91d 8dbc 2ea0 7cbc
00000350: 4565 4cbc c435 e9bb 9cad 59bc a1b8 a3bc
00000360: 1a1b 1ebc 9348 88bc 1805 fcbb 8fe1 9dbc
00000370: a74d 85bc 060d 3bbc 7cd4 83bc 35c6 1dbc
00000380: ed6d 1dbc 3114 02bc 9c47 6abc a2d3 18bc
00000390: fc4e 62bb e161 55bc 0212 6bbc 24fc 3dbc
000003a0: 50cd 70bc 2951 9fbc d40b 27bc 9f68 57bc
000003b0: 6552 22bc 152e 90bb ba74 dabb dcda 93bb
000003c0: 947c 30bc 3ca0 d5bb c028 933c 86e5 8fbc
000003d0: 25b8 13bc d54e 95bc faa8 83bc 3dcd 77bc
000003e0: c35d 10bb 625d 52bc f951 5bbb ea5d 66bc
000003f0: 3094 6bbf 6c40 38bc 445a ddbc f45f a5bc

exp_avg f4 [10000, 2]
-1.1179328e-37 1.1150683e-37 -1.0771469e-37 -1.1563958e-37 -1.1243142e-37 1.1236526e-37 -1.0786678e-37 -1.1633726e-37
-1.1006971e-37 1.0588348e-37 1.1051491e-13 1.5157537e-13 1.10261e-37 1.1159083e-37 3.0453077e-14 3.705306e-14
-1.1299663e-37 1.1451168e-37 -1.0723588e-37 -1.1322823e-37 1.1474876e-37 1.1616697e-37 -1.13348e-37 -1.0951998e-37
1.0581948e-37 -1.1747447e-37 -1.1151421e-37 1.1479253e-37 -1.1136833e-37 1.109437e-37 -1.1268749e-37 1.1311246e-37
1.1063826e-37 1.0768047e-37 1.1082555e-37 -1.1032067e-37 -1.1387904e-37 1.0954783e-37 -1.1180278e-37 1.0755061e-37
1.1225569e-37 1.1361047e-37 -1.1323927e-37 -1.0956323e-37 -1.123519e-37 -1.0855712e-37 1.1010658e-37 1.1140257e-37
1.0653005e-37 -1.0758385e-37 -1.1064515e-37 -1.1350503e-37 -1.1738792e-37 -1.0836873e-37 1.1680762e-37 -1.1580429e-37
1.1394615e-37 1.1532088e-37 -1.1050466e-37 -1.0679669e-37 -1.0941359e-37 1.1695034e-37 -1.1559933e-37 1.1604035e-37
1.1700655e-37 1.0866199e-37 1.1167583e-37 1.080522e-37 1.0739103e-37 1.161272e-37 -1.1449495e-37 1.14428e-37
1.0869722e-37 1.1754854e-37 1.092429e-37 1.1747013e-37 1.1660822e-37 1.1285088e-37 1.1005513e-37 1.0711366e-37
-1.1599258e-37 1.159249e-37 1.1153756e-37 1.0879425e-37 -1.1268284e-37 1.1310245e-37 -1.1012467e-37 -1.0681674e-37
-1.1204026e-37 -1.0871834e-37 1.0878476e-37 1.0586395e-37 1.105005e-37 1.0754864e-37 1.1578261e-37 1.1302788e-37
1.1138432e-37 1.1272721e-37 -1.15396e-37 -1.0653052e-37 1.148083e-37 1.111095e-37 -1.1156042e-37 1.0732099e-37
1.17311e-37 1.1416351e-37 -1.1238506e-37 1.1280884e-37 -1.0877742e-37 -1.1678215e-37 -1.0799416e-37 -1.1631442e-37
1.16155e-37 -1.1729478e-37 -1.1046028e-37 -1.0713765e-37 1.0738559e-37 1.1611718e-37 -1.1357049e-37 1.0925095e-37
-1.1180818e-37 1.1222487e-37 1.1066361e-37 -1.0995921e-37 1.0641554e-37 1.0766843e-37 -1.0997699e-37 1.0989758e-37
1.0739674e-37 -1.061802e-37 1.1124654e-37 -1.0985056e-37 1.0955725e-37 1.066151e-37 1.0610846e-37 1.1474517e-37
3.492748e-13 -1.1268069e-14 -1.1633286e-37 -1.0739612e-37 2.6644855e-11 -4.6567736e-11 1.1260473e-37 1.0958467e-37
1.0599327e-37 1.1460827e-37 -1.0680523e-37 1.067429e-37 -1.1512417e-37 -1.1123611e-37 -1.1677065e-37 -1.1282719e-37
1.1126054e-37 1.0829062e-37 1.1089513e-37 1.1223314e-37 1.1187487e-37 1.0887896e-37 -1.1069459e-37 -1.0695501e-37
1.1620562e-37 -1.1537687e-37 1.0778595e-37 -1.0675453e-37 -1.0799053e-37 1.1542596e-37 -1.1721321e-37 -1.1325611e-37
1.12023e-37 1.0902145e-37 1.1005904e-37 1.0710809e-37 3.0881211e-10 4.778661e-10 1.0755626e-37 1.1659497e-37
-1.150835e-37 -1.1134748e-37 1.1135445e-37 1.083647e-37 -1.1325968e-37 1.1407286e-37 1.085382e-37 -1.1335489e-37
1.1079671e-37 -1.1568481e-37 1.1678215e-37 1.1364826e-37 1.1181509e-37 -1.1364858e-37 -1.1137305e-37 -1.0769317e-37
1.1254764e-37 1.1390511e-37 -1.0821069e-37 1.156613e-37 -1.1639533e-37 -1.105678e-37 -1.1674128e-37 1.1663601e-37
1.1374919e-37 -1.1486359e-37 -1.1207106e-37 -1.0870196e-37 1.1083347e-37 -1.11926e-37 1.1570143e-37 1.1259743e-37
-1.0600352e-37 -1.1195434e-37 -1.1086625e-37 -1.0753559e-37 -1.1414864e-37 1.0980734e-37 1.1739182e-37 1.1424233e-37
1.078802e-37 1.1427179e-37 1.1304802e-37 1.100125e-37 -1.0611592e-37 -1.1198175e-37 -1.0697165e-37 1.0773773e-37
1.1090592e-37 -1.1038037e-37 1.1498831e-37 -1.1440265e-37 1.078444e-37 1.1593838e-37 -1.1257688e-37 -1.0927514e-37
-1.059498e-37 1.1324486e-37 -1.0961737e-37 1.1003582e-37 -1.1666117e-37 1.122278e-37 1.120106e-37 1.1339464e-37
-1.1349541e-37 -1.0966249e-37 1.0696379e-37 -1.0801039e-37 -1.07431e-37 1.148279e-37 -1.1719368e-37 -1.1323646e-37
1.1272904e-37 1.0973139e-37 1.1506104e-37 1.1197265e-37 1.1493116e-37 -1.1511808e-37 1.3912776e-36 -1.39859075e-36
00000000: 462a 1882 76c6 1702 179d 1282 8366 1d82
00000010: a208 1982 94f1 1802 16d2 1282 9e59 1e82
00000020: b2d1 1582 021f 1002 82db f829 a0a8 2a2a
00000030: 5a14 1602 bbe3 1702 0226 0929 45df 2629
00000040: 94cd 1982 7fdd 1b02 40f6 1182 481e 1a82
00000050: 1b30 1c02 481e 1e02 0348 1a82 2512 1582
00000060: b508 1002 e1e5 1f82 08c9 1782 5c3f 1c02
00000070: 3396 1782 3d02 1702 dc61 1982 f1f5 1902
00000080: cf97 1602 2b91 1202 11d9 1602 2529 1682
00000090: 0e01 1b82 d91b 1502 952d 1882 eb63 1202
000000a0: 66cb 1802 79a3 1a02 2022 1a82 3721 1582
000000b0: ecec 1882 a3c2 1382 8bde 1502 21a2 1702
000000c0: 4e00 1102 806f 1282 359a 1682 bb7e 1a82
000000d0: b8c7 1f82 fe80 1382 84fd 1e02 e89f 1d82
000000e0: 7018 1b02 76f7 1c02 4169 1682 375d 1182
000000f0: 12ed 1482 3f2f 1f02 7d58 1d82 29f2 1d02
00000100: d542 1f02 2de7 1302 5901 1802 b212 1302
00000110: 502c 1202 6c10 1e02 abd7 1b82 57c0 1b02
00000120: 74f3 1302 b0ff 1f02 98b1 1402 5ee4 1f02
00000130: 09b8 1e02 cb9a 1902 9ecc 1502 aacb 1102
00000140: 84e1 1d82 efc9 1d02 2bd1 1702 4315 1402
00000150: 3d60 1982 74f2 1902 d9e4 1582 3464 1182
00000160: 5580 1882 d0fa 1382 f511 1402 3418 1002
00000170: ce67 1602 3b63 1202 5a98 1d02 78d8 1902
00000180: c59b 1702 b36f 1902 a311 1d82 7800 1182
00000190: db44 1c02 033c 1702 22d9 1782 e813 1202
000001a0: ebac 1f02 2d64 1b02 7af8 1882 258c 1902
000001b0: 660f 1482 a4f4 1e82 79fe 1282 a951 1e82
000001c0: 1c1a 1e02 44a7 1f82 ca59 1682 06d4 1182
000001d0: 6b2a 1202 ef0c 1e02 8a95 1a82 66b4 1402
000001e0: 772f 1882 a9c0 1802 a4a0 1602 31ab 1582
000001f0: 67d8 1002 f98c 1202 63b1 1582 b895 1502
00000200: 4d2e 1202 6686 1082 c36b 1702 5585 1582
00000210: 211f 1502 f11d 1102 676d 1002 db2e 1c02
00000220: ce9f c42a ccfc 4aa8 1658 1e82 162e 1282
00000230: e15e ea2d 9cce 4cae 0645 1902 af28 1502
00000240: 4445 1002 27ff 1b02 3160 1182 794a 1102
00000250: ebb2 1c82 2168 1782 a2f0 1e82 8a92 1982
00000260: a470 1702 c665 1302 50f1 1602 8bc3 1802
00000270: b446 1802 c832 1402 6fab 1682 6294 1182
00000280: c02b 1e02 f90a 1d82 ecb5 1202 864e 1182
00000290: 35fd 1282 141c 1d02 d88a 1f82 ff27 1a82
000002a0: 527a 1802 6e64 1402 facd 1502 b9c9 1102
000002b0: 71c5 a92f d65a 0330 e365 1202 6bb3 1e02
000002c0: bfa4 1c82 ef8e 1782 5d91 1702 967f 1302
000002d0: 3d29 1a82 9744 1b02 0bbc 1302 6a4a 1a82
000002e0: 05cf 1602 4676 1d82 a4f4 1e02 a4b0 1a02
000002f0: df31 1802 c0b0 1a82 d897 1782 9895 1282
00000300: 2131 1902 230a 1b02 ec49 1382 156e 1d02
00000310: da6d 1e82 417f 1682 66e6 1e82 b8c1 1e02
00000320: cfd3 1a02 1f58 1c82 118b 1882 1bf5 1382
00000330: d4db 1602 8558 1882 107c 1d02 7a42 1902
00000340: d648 1082 6562 1882 40e7 1682 af5e 1282
00000350: ff5e 1b82 4676 1502 14c9 1f02 a47f 1b02
00000360: c3d6 1202 e889 1b02 7cdf 1902 c3bd 1502
00000370: 0070 1082 f26b 1882 2e9a 1182 1fa5 1202
00000380: 13f5 1602 f23d 1682 9483 1c02 81b7 1b82
00000390: 4aca 1202 a1ce 1d02 513b 1982 d4bc 1482
000003a0: 1e36 1082 1324 1a02 1434 1582 e3c5 1502
000003b0: 7cca 1e82 aec1 1802 ff75 1802 4458 1a02
000003c0: 617b 1a82 cd43 1582 7197 1102 2104 1382
000003d0: 3d3a 1282 af4b 1c02 0a84 1f82 2621 1a82
000003e0: 5670 1902 cf5b 1502 ec9c 1c02 c668 1802
000003f0: aa6f 1c02 ccb0 1c82 b0b6 ec03 38f5 ed83

exp_avg_sq f4 [10000, 2]
8.368773e-37 4.0982308e-38 0.0 2.7529057e-36 2.5567292e-35 6.037812e-34 3.090038e-36 3.2730698e-36
4.929662e-36 2.4127339e-36 1.3594318e-26 2.0618955e-26 5.0612364e-36 4.706021e-37 1.1171899e-27 1.6225305e-27
1.1593055e-36 5.695451e-38 6.3758475e-37 3.1463032e-38 2.3005373e-36 2.1291403e-37 0.0 2.3733856e-36
1.3934284e-35 2.2189832e-37 6.926849e-36 3.5765625e-37 9.943156e-37 4.3589087e-38 1.17323656e-35 2.7439382e-35
1.2603267e-35 8.034553e-34 1.2464197e-37 1.2809999e-36 1.1890849e-35 5.8229057e-36 5.1673448e-36 2.5245583e-36
5.1555457e-36 4.7883817e-37 6.064903e-37 4.1690607e-37 0.0 1.6759273e-36 4.613649e-36 4.2761315e-37
2.1818667e-30 4.123621e-31 1.0541154e-37 6.659776e-37 7.1415766e-37 4.506723e-36 3.2028454e-37 2.715846e-36
5.516126e-36 5.1320823e-37 1.48642055e-36 1.0786825e-36 5.3839492e-36 2.7003008e-36 7.340597e-35 1.7164689e-34
2.1880565e-28 2.832445e-29 1.4048093e-36 9.680706e-37 3.8109068e-35 2.3720433e-33 4.526051e-35 1.068702e-33
2.3273482e-35 1.4474507e-33 1.6186541e-38 0.0 1.14100465e-36 7.349933e-37 1.2558497e-35 7.870428e-34
3.0759556e-35 7.2640495e-34 1.224837e-35 5.049076e-35 1.0500634e-35 2.456697e-35 1.4018044e-37 1.4478459e-37
3.2695718e-36 3.547216e-36 2.2223629e-36 1.4183215e-34 2.818486e-35 1.7231125e-33 1.0705065e-34 4.4295644e-34
2.3925301e-36 2.223051e-37 4.9405473e-38 3.134754e-37 1.9970262e-36 1.3050502e-36 5.954647e-36 2.9923108e-36
3.080585e-35 1.9205596e-33 3.2385593e-35 7.5769737e-35 1.861183e-38 7.46012e-36 2.0093199e-37 1.4150581e-37
1.1761479e-29 2.2224863e-30 6.3572095e-37 6.8561117e-37 6.459309e-36 4.1165697e-34 1.7347698e-36 7.4864427e-37
3.0517552e-36 7.132006e-36 6.276659e-38 5.605176e-37 3.6058367e-37 3.346394e-38 1.5569024e-35 3.6730709e-34
5.174358e-37 3.892239e-36 9.1548465e-38 5.41813e-37 1.8518079e-36 1.1792895e-34 2.0104573e-36 1.2806683e-34
5.2110444e-26 5.423627e-29 6.7646255e-37 4.2566753e-36 2.1492714e-22 9.241897e-22 3.8102435e-35 2.3686187e-33
1.6087818e-35 9.937225e-34 4.7721113e-35 1.1270125e-33 0.0 1.0525171e-36 1.63081e-37 1.3775826e-36
2.1030097e-36 1.3437245e-34 5.742656e-37 5.35426e-38 6.79958e-36 4.2510385e-34 0.0 1.0304084e-36
1.0078212e-35 8.851329e-35 3.5131956e-37 2.8375556e-36 8.3182985e-36 2.701199e-36 0.0 8.7546755e-38
2.5372523e-36 1.6160585e-34 1.1148737e-35 6.8859926e-34 1.0366973e-19 2.1504399e-19 5.835678e-36 2.4061062e-35
1.1084751e-36 7.4555186e-37 3.8606118e-36 2.4041341e-34 1.014184e-37 0.0 2.1990097e-30 2.2910436e-33
1.4445647e-29 1.5041402e-32 1.3602735e-35 8.664359e-34 1.2590084e-37 1.8607684e-37 1.652619e-36 1.1653321e-36
2.2655123e-36 2.089044e-37 6.149523e-37 3.0067015e-37 6.3272164e-37 2.2312095e-38 8.238943e-36 7.605345e-36
6.9837795e-29 1.3196246e-29 1.297969e-36 1.3359708e-36 9.867278e-31 1.8647294e-31 1.3653027e-35 8.521265e-34
2.3482336e-38 0.0 9.305499e-37 9.5851075e-37 2.9621866e-36 1.2970185e-36 3.3458828e-35 1.8511931e-33
1.7199374e-37 6.3617542e-37 3.1920128e-36 2.0326857e-34 1.6140564e-36 5.733574e-38 1.2501742e-36 5.7293876e-38
3.6657638e-37 3.6346567e-36 1.1361439e-37 1.0974425e-36 2.6338826e-36 1.707215e-36 4.6363204e-36 4.9882677e-36
9.364485e-37 4.5778394e-37 6.973208e-35 1.6305183e-34 6.294648e-37 3.1790491e-37 2.4147537e-36 2.2165125e-37
2.1457106e-37 2.7173323e-36 8.984729e-28 1.6976444e-28 8.526945e-37 4.163824e-37 3.293251e-37 2.8454124e-36
2.7024515e-35 1.6313276e-33 7.034571e-36 4.4848094e-34 2.6165049e-36 3.325927e-38 4.013986e-27 4.0563093e-27
00000000: 2663 8e03 0021 5f01 0000 0000 fa30 6a04
00000010: 65f0 0706 06a4 4808 896f 8304 9338 8b04
00000020: 44af d104 b140 4d04 b1a1 8614 4333 cc14
00000030: fc47 d704 3a23 2003 9b06 b112 d48c 0013
00000040: e03e c503 800b 9b01 77f5 5803 114d 2b01
00000050: 44b5 4304 dbe6 9002 0000 0000 c3e7 4904
00000060: bb2c 9405 2404 9702 5a51 1305 8268 f302
00000070: 8d2c a903 5252 6d01 1385 7905 8de4 1106
00000080: 5b05 8605 357f 8508 63a7 2902 6af3 d903
00000090: f1e3 7c05 d4ad f704 67cb db04 03c4 5604
000000a0: ec4a db04 b0f0 2203 c260 4e03 a4dd 0d03
000000b0: 0000 0000 7792 0e04 303e c404 5c82 1103
000000c0: 9903 310e b4d1 050d 907a 0f02 d59e 6203
000000d0: e803 7303 deb1 bf04 70f9 d902 e309 6704
000000e0: 4ba1 ea04 bea2 2e03 bfe6 fc03 4087 b703
000000f0: 0402 e504 58b7 6504 8425 c306 6928 6407
00000100: 3faf 8a11 3d9f 0f10 1304 ef03 6cb5 a403
00000110: 609f 4a06 c80f 4509 6aa5 7006 8e91 b108
00000120: 727c f705 be7f f008 7e41 b000 0000 0000
00000130: c321 c203 f21a 7a03 7b8b 8505 19c5 8208
00000140: bd8b 2306 b363 7108 3c3f 8205 3b3a 8606
00000150: e452 5f05 d49e 0206 c1cd 3e02 1112 4502
00000160: 7c12 8b04 c3e1 9604 c70e 3d04 fb86 3c07
00000170: 3edb 1506 8d26 0f09 734b 0e07 9132 1308
00000180: b188 4b04 034b 9702 977e 8601 1e57 d502
00000190: 61e3 2904 f40a de03 5d48 fd04 c28e 7e04
000001a0: c0ca 2306 c98d 1f09 fc30 2c06 366e c906
000001b0: 36aa ca00 c2a8 1e05 4abf 8802 949b 4002
000001c0: 178d 6e0f 3c4f 340e 1b53 5803 284d 6903
000001d0: d35f 0905 e7cb 0808 f193 1304 1dc0 7e03
000001e0: acce 8104 56ae 1705 eedd aa01 f8bb 3e03
000001f0: 8966 f502 ed31 3601 ea8e a505 101e f407
00000200: 0413 3003 bb8e a504 f837 f901 925e 3803
00000210: ce88 1d04 24c1 1c07 e207 2b04 e23a 2a07
00000220: eb04 8115 5a81 8910 3330 6603 170f b504
00000230: 5dea 811b dba8 8b1c 5996 4a06 f3c6 4409
00000240: 3513 ab05 481c a508 9dba 7d06 cf41 bb08
00000250: 0000 0000 9613 b303 6ff9 5d02 2f62 ea03
00000260: 7fe7 3204 939c 3207 9769 4303 bfc1 9101
00000270: 6f9c 1005 d643 0d08 0000 0000 9e50 af03
00000280: 0157 5605 064f eb06 8018 ef02 7d64 7104
00000290: 20e9 3005 e8ca 6504 0000 0000 2f53 ee01
000002a0: 76d8 5704 9fcf 5607 7f1b 6d05 8cd3 6408
000002b0: 82c8 f41f 0fe1 7d20 e838 f804 71dc ff05
000002c0: e698 bc03 bab2 7d03 5736 a404 39c8 9f07
000002d0: 280b 0a02 0000 0000 a567 320e 1c55 3e09
000002e0: 0b7f 920f e832 9c0a 2ba6 9005 1bf6 8f08
000002f0: 0a5e 2b02 5146 7d02 db96 0c04 5f45 c603
00000300: 7dba 4004 482c 8e02 e741 5103 21a0 cc02
00000310: d44d 5703 0bf5 f200 1339 2f05 70bf 2105
00000320: 520f b110 6ad3 850f 86d6 dc03 bc4d e303
00000330: 121b a00d 430e 720c 132f 9105 7495 8d08
00000340: 33b3 ff00 0000 0000 2a53 9e03 0815 a303
00000350: b6fe 7b04 20ad dc03 cce5 3106 86ca 1909
00000360: 121b 6a02 b27a 5803 f1c5 8704 5b18 8707
00000370: 094f 0904 2e15 9c01 c4b4 d403 01f8 9b01
00000380: 9d7a f902 e899 9a04 d6a4 1a02 5db8 ba03
00000390: e210 6004 da3b 1104 0f35 c504 6d2d d404
000003a0: 1654 9f03 9bc6 1b03 3261 b906 aabb 5807
000003b0: 1e32 5603 d95a d802 ae6c 4d04 18d9 9602
000003c0: 8d07 9202 422a 6704 645e 8e12 b633 5711
000003d0: 1514 9103 06b0 0d03 8620 e002 980f 7204
000003e0: ddaf 0f06 8086 0709 d99b 1505 8a08 1508
000003f0: 6e96 5e04 a814 3501 a702 9f13 ddaf a013

exp_avg f4 [10000]
1.0763127e-37 1.1184378e-37 1.0757862e-37 1.115193e-37 1.1357429e-37 -2.0848356e-12 1.1010834e-37 -5.2995027e-13
1.0888284e-37 1.1568361e-37 1.1459346e-37 1.059248e-37 1.1080361e-37 1.0759485e-37 1.0722216e-37 1.1404258e-37
1.1508962e-37 1.0732727e-37 1.1750515e-37 1.1536267e-37 1.1210021e-37 1.1693217e-37 1.1665981e-37 1.0995223e-37
1.0942953e-37 1.1290415e-37 1.0779654e-37 1.1269657e-37 1.1378848e-37 1.1407286e-37 1.1289827e-37 1.1699302e-37
1.1713956e-37 1.1295506e-37 1.1170526e-37 1.0955364e-37 1.1307278e-37 1.1050424e-37 1.0615917e-37 1.1448354e-37
1.1098659e-37 1.1347337e-37 1.1403427e-37 1.1381709e-37 1.1581682e-37 1.1314756e-37 1.1494851e-37 1.0608353e-37
1.1123027e-37 1.0596797e-37 1.161339e-37 1.1511354e-37 1.0981639e-37 1.1373661e-37 1.1294856e-37 1.1158634e-37
1.0738133e-37 1.1416184e-37 1.116958e-37 1.1718664e-37 1.1314937e-37 1.0698386e-37 1.0626631e-37 1.1690772e-37
1.148612e-37 1.0697285e-37 1.1395049e-37 1.1037612e-37 9.297497e-14 1.0682911e-37 -7.3959346e-12 1.1712452e-37
1.1024415e-37 1.1355086e-37 1.075847e-37 1.0912361e-37 1.1574161e-37 1.107415e-37 1.1637018e-37 1.1493799e-37
1.1226222e-37 1.1544882e-37 1.1142902e-37 1.0953809e-37 1.1652259e-37 1.1447755e-37 4.064092e-10 1.0944336e-37
1.069529e-37 1.1582034e-37 1.0908715e-37 1.1366696e-37 1.1603112e-37 1.0932076e-37 1.0944993e-37 1.1498573e-37
1.1239193e-37 1.1165615e-37 1.1300652e-37 1.0601872e-37 1.168406e-37 1.1582743e-37 1.1384871e-37 1.0831011e-37
1.1435525e-37 1.1458341e-37 1.06005e-37 1.0989228e-37 1.0783964e-37 1.0582334e-37 1.1447324e-37 1.1447845e-37
1.0738577e-37 1.1129997e-37 1.0907957e-37 1.1638867e-37 1.0932336e-37 1.1093939e-37 1.0833896e-37 1.1185874e-37
1.0606285e-37 1.0987025e-37 1.1085183e-37 1.095193e-37 1.1728179e-37 1.0770897e-37 1.0831021e-37 5.2485703e-37
1.1549764e-37 1.1541196e-37 1.1665828e-37 1.0838697e-37 1.149488e-37 1.0675919e-37 1.0645115e-37 1.0668365e-37
1.1573564e-37 4.7889515e-14 1.0979083e-37 1.1361195e-37 -4.176684e-12 1.0674596e-37 1.1670273e-37 1.0948005e-37
1.0698425e-37 1.1435222e-37 1.093194e-37 1.0895818e-37 1.0794562e-37 1.0601631e-37 1.1065047e-37 1.0690554e-37
1.163588e-37 1.0590314e-37 1.0924924e-37 1.082098e-37 1.1120106e-37 1.106171e-37 1.1333674e-37 1.1526835e-37
1.1118698e-37 1.1069905e-37 1.161713e-37 1.1641786e-37 1.1646414e-37 1.1105314e-37 1.1693068e-37 1.0999829e-37
1.087141e-37 1.0931482e-37 1.0952119e-37 1.0660464e-37 1.1572258e-37 1.1617713e-37 1.1321208e-37 1.0765434e-37
1.1190439e-37 1.1605932e-37 -2.196711e-12 1.0737387e-37 1.1561975e-37 1.147594e-37 1.1350014e-37 1.1169822e-37
1.1451538e-37 1.1640019e-37 1.1350496e-37 1.1212347e-37 1.0910392e-37 1.0862733e-37 1.0927534e-37 1.0948335e-37
1.1364556e-37 1.1317152e-37 1.1023958e-37 1.113105e-37 1.0871576e-37 1.1016254e-37 8.815693e-14 1.1698003e-37
1.1477712e-37 1.0817346e-37 1.1005335e-37 1.1580394e-37 1.1569729e-37 1.0589832e-37 5.6486073e-14 1.10717e-37
1.0599241e-37 1.1457805e-37 1.0620368e-37 1.0586138e-37 1.0621526e-37 1.165107e-37 1.0700337e-37 1.0620133e-37
1.1088331e-37 1.1689541e-37 1.0849623e-37 1.0744486e-37 1.1096554e-37 1.1616333e-37 1.1171499e-37 1.1027193e-37
1.1405753e-37 1.1398257e-37 1.1362508e-37 1.1459729e-37 1.1654424e-37 1.128197e-37 1.0936369e-37 1.0736479e-37
1.1234984e-37 1.0896015e-37 1.1390125e-37 1.0588935e-37 1.1368738e-37 1.143598e-37 1.1642382e-37 1.09602e-37
1.0660838e-37 1.1625892e-37 -4.4156345e-12 1.0941026e-37 1.1272379e-37 1.1061591e-37 1.0612743e-37 1.0820921e-37
1.0945778e-37 1.1087321e-37 1.0585031e-37 1.1022946e-37 1.3637946e-10 1.0726615e-37 1.1230179e-37 1.1494851e-37
00000000: 0680 1202 df3b 1802 ae6d 1202 ceca 1702
00000010: dd96 1a02 0fb5 12ac 28df 1502 f12a 15ab
00000020: 2234 1402 db75 1d02 fef9 1b02 682d 1002
00000030: 6cd1 1602 5573 1202 78f1 1102 0a3a 1b02
00000040: e1a6 1c02 1816 1202 92f0 1f02 0606 1d02
00000050: 3995 1802 ea28 1f02 03ca 1e02 c3a8 1502
00000060: a0f2 1402 5bad 1902 9db9 1202 0665 1902
00000070: 80e1 1a02 9744 1b02 4eab 1902 1e3e 1f02
00000080: 2e71 1f02 18bf 1902 9a0b 1802 df1d 1502
00000090: 1de8 1902 1c69 1602 127f 1002 b1d3 1b02
000000a0: 2f11 1702 b373 1a02 2537 1b02 78eb 1a02
000000b0: 46a4 1d02 2c02 1a02 b675 1c02 b764 1002
000000c0: 1866 1702 733c 1002 c212 1e02 37af 1c02
000000d0: 6d79 1502 6dcf 1a02 d4bc 1902 2ae2 1702
000000e0: ef28 1202 9863 1b02 4e08 1802 9681 1f02
000000f0: cd02 1a02 6f9e 1102 68a4 1002 6520 1f02
00000100: 4957 1c02 999a 1102 f319 1b02 773c 1602
00000110: 6c5c d129 8368 1102 541c 02ad f06b 1f02
00000120: 7b0e 1602 b38e 1a02 cc6f 1202 0788 1402
00000130: 118a 1d02 c8bb 1602 1765 1e02 0b72 1c02
00000140: adcd 1802 0b24 1d02 59ab 1702 7418 1502
00000150: 329a 1e02 9bd1 1b02 036d df2f 72f7 1402
00000160: a593 1102 80a5 1d02 537b 1402 28b7 1a02
00000170: f2ee 1d02 bacc 1402 bcf9 1402 ae82 1c02
00000180: dffa 1802 7dfa 1702 06d1 1902 224e 1002
00000190: 0209 1f02 f8a7 1d02 7cf6 1a02 916c 1302
000001a0: fda6 1b02 7ef6 1b02 5a49 1002 df93 1502
000001b0: a1c8 1202 0d0a 1002 1ad0 1b02 ebd1 1b02
000001c0: 7b2a 1202 617e 1702 af78 1402 886b 1e02
000001d0: a2cd 1402 bc00 1702 9e76 1302 1541 1802
000001e0: 825d 1002 328c 1502 3ae2 1602 e811 1502
000001f0: bda2 1f02 199b 1202 9a6c 1302 7f99 3203
00000200: 0e35 1d02 3317 1d02 7ac9 1e02 5987 1302
00000210: d075 1c02 2650 1102 d0e4 1002 d435 1102
00000220: fc87 1d02 daac 5729 8570 1502 fda3 1a02
00000230: 3af4 92ac 8a4b 1102 f7d8 1e02 3b04 1502
00000240: 929e 1102 efa5 1b02 40cc 1402 624e 1402
00000250: 8fed 1202 4b4d 1002 109c 1602 2583 1102
00000260: 2061 1e02 dc25 1002 ceb3 1402 9d49 1302
00000270: ea5b 1702 6f90 1602 1744 1a02 28e5 1c02
00000280: 0257 1702 fdac 1602 ca1f 1e02 b475 1e02
00000290: d485 1e02 5f28 1702 6528 1f02 cfb8 1502
000002a0: 56f9 1302 a8ca 1402 9112 1502 4c1a 1102
000002b0: 6f83 1d02 d221 1e02 a718 1a02 1088 1202
000002c0: fd50 1802 c5f8 1d02 6d94 1aac 5526 1202
000002d0: 9a5f 1d02 d133 1c02 077d 1a02 2609 1802
000002e0: c9de 1b02 8c6f 1e02 b57e 1a02 549d 1802
000002f0: 2b81 1402 1adb 1302 e6bc 1402 6105 1502
00000300: b3af 1a02 850a 1a02 e30c 1602 0c82 1702
00000310: eaf9 1302 0bf2 1502 0383 c629 9739 1f02
00000320: fd39 1c02 f33c 1302 ffcb 1502 c99f 1d02
00000330: 9f7a 1d02 2e24 1002 0264 7e29 3eb3 1602
00000340: f744 1002 a0f4 1b02 958e 1002 4f17 1002
00000350: 9e92 1002 0e96 1e02 3ca5 1102 c38d 1002
00000360: 32ed 1602 1b1c 1f02 6bad 1302 123f 1202
00000370: d909 1702 031d 1e02 fe0e 1802 2918 1602
00000380: 403f 1b02 2125 1b02 90a8 1a02 54fb 1b02
00000390: bea1 1e02 ee8f 1902 afdb 1402 2b23 1202
000003a0: 35ec 1802 124f 1402 cb08 1b02 0e21 1002
000003b0: 45be 1a02 93a8 1b02 c877 1e02 b92e 1502
000003c0: 991b 1102 523e 1e02 805c 9bac e9eb 1402
000003d0: 826e 1902 0590 1602 0374 1002 6849 1302
000003e0: 78fc 1402 ade9 1602 7313 1002 5c09 1602
000003f0: 68f3 152f cc00 1202 76db 1802 b675 1c02

exp_avg_sq f4 [10000]
6.5663254e-38 2.209551e-37 4.4176765e-35 6.0827407e-37 5.267815e-37 2.8838199e-24 4.229161e-37 1.7385717e-25
8.9758755e-38 5.336695e-38 1.919625e-37 1.9035445e-37 1.1007952e-36 5.3740106e-37 8.209891e-38 2.7494064e-36
5.9351135e-35 1.0624904e-37 1.2726565e-36 5.5267624e-37 4.3176665e-37 7.9219505e-38 1.3547667e-37 3.8576747e-37
1.8364478e-31 6.1514957e-38 4.252457e-37 2.3556253e-37 4.634644e-37 1.9741405e-37 5.910029e-37 1.7197881e-35
1.749303e-29 1.7944055e-37 1.7518383e-34 7.8187427e-35 1.0689294e-34 0.0 1.4261534e-37 5.812086e-35
5.314775e-35 4.39746e-36 2.4616087e-36 2.668132e-38 6.636164e-37 1.04763265e-35 1.2722666e-34 3.850626e-35
1.9923426e-37 2.8925328e-38 2.5175917e-37 6.5555912e-37 1.4184314e-34 7.591241e-36 6.015011e-37 2.711853e-38
9.898789e-31 1.2721769e-37 3.0409187e-35 1.789226e-37 7.1820214e-37 4.7170963e-38 2.9841436e-38 2.6873242e-35
3.3138637e-37 4.733541e-38 8.7119564e-36 9.4605334e-36 3.6924957e-27 4.010721e-37 1.7069625e-22 1.7493623e-34
7.338364e-35 8.2459666e-35 8.465469e-38 1.2333688e-37 9.925019e-36 4.759251e-38 3.139383e-35 8.2519384e-38
8.228615e-36 2.3899941e-37 7.899519e-37 0.0 1.1938261e-35 5.08539e-35 1.6939635e-19 2.0956857e-36
1.45518e-37 1.7754637e-35 0.0 1.5582607e-31 1.023615e-30 6.400781e-35 2.4342314e-38 2.1899508e-37
1.8821728e-37 6.570084e-38 5.6065223e-38 1.1732896e-36 5.8776335e-30 2.4721564e-37 8.3049605e-32 6.292589e-35
0.0 1.7715412e-37 3.0696705e-37 1.3661149e-34 5.96579e-38 1.501652e-35 1.4393668e-37 9.779243e-38
3.0832546e-37 9.126686e-38 3.3227188e-37 9.267293e-37 1.0019227e-37 1.6336338e-35 6.973708e-38 2.0077742e-37
2.3306737e-37 7.5615735e-29 9.118052e-38 2.5756117e-37 1.2044239e-34 3.3125945e-35 2.0151524e-37 5.7125456e-28
1.03878696e-35 4.5118604e-37 9.311389e-38 5.2227125e-31 3.0496697e-35 4.635816e-35 2.632583e-37 1.1454542e-35
4.303321e-37 9.003682e-28 1.2143769e-37 1.1162007e-37 8.608663e-24 1.746407e-37 5.1950153e-38 1.3467473e-37
7.3512706e-38 1.6898135e-38 5.923457e-38 6.0083236e-35 3.2681385e-37 6.632854e-37 1.3929283e-37 2.0390685e-38
6.0990034e-36 1.2925417e-37 6.729602e-36 9.928996e-38 1.901242e-29 4.7512747e-35 2.2530258e-37 8.829334e-38
9.821533e-38 8.560138e-36 1.8009443e-37 8.367798e-29 3.4802732e-37 6.1799476e-38 4.185236e-37 1.7573508e-37
1.348139e-34 9.428868e-35 1.4230651e-37 4.4411006e-35 1.115329e-35 6.3408245e-38 6.2194815e-35 5.8221776e-37
1.6553182e-37 5.351801e-38 2.320353e-24 1.4646101e-37 1.2680401e-37 8.195771e-37 5.295336e-38 1.3761625e-34
5.104381e-32 3.6361958e-37 7.247982e-38 3.0624212e-37 0.0 8.728585e-29 3.3492664e-38 4.9590686e-38
6.786802e-38 6.8287505e-38 5.4565727e-38 6.1714625e-38 0.0 1.1948995e-37 2.934108e-27 2.212367e-38
6.808461e-38 2.7160328e-35 9.261416e-38 6.7650905e-36 1.1564579e-37 4.7127179e-35 1.7395783e-27 1.1906793e-37
8.5577955e-36 1.6424478e-37 1.5010048e-37 2.5033705e-29 1.4634384e-31 1.2729137e-35 7.078003e-38 2.1724974e-37
3.4829442e-30 3.2046703e-37 2.0716418e-35 9.935066e-35 9.614703e-35 3.569381e-38 1.558342e-37 1.6750038e-30
1.1375778e-37 2.914803e-37 4.7843203e-35 2.5923111e-35 2.8655557e-36 2.5126369e-37 3.256554e-37 1.8611555e-29
6.705121e-35 1.7972524e-36 8.007378e-38 1.0395277e-37 5.416368e-38 2.1252767e-38 5.1717565e-38 8.226349e-32
1.4786338e-37 5.7086304e-36 8.705449e-24 2.6761659e-35 5.11797e-38 1.932868e-37 5.580856e-35 1.3827733e-37
0.0 2.096324e-30 1.2959165e-38 4.912571e-35 1.6104475e-20 2.3289463e-35 3.004966e-36 1.2030472e-34
00000000: 9cc0 b201 cf5f 9602 4ce2 6a06 25fc 4e03
00000010: 2441 3303 f01f 5f18 30e9 0f03 8939 5716
00000020: b958 f401 5647 9101 96a4 8202 6c8c 8102
00000030: 654a bb03 3cde 3603 977e df01 c5e4 6904
00000040: 4ac8 9d06 639e 1002 0288 d803 e410 3c03
00000050: 2eec 1203 f0a7 d701 bb66 3802 1645 0303
00000060: 7262 6e0c ab75 a701 20b4 1003 c850 a002
00000070: 71b5 1d03 615a 8602 9d1b 4903 16e1 b605
00000080: 8166 b10f e83d 7402 f8db 6807 9bdb cf06
00000090: c815 0e07 0000 0000 311e 4202 0283 9a06
000000a0: 7c4a 8d06 190c bb04 1769 5104 5544 1101
000000b0: 24d1 6103 8cce 5e05 fd1c 2907 01bc 4c06
000000c0: 8197 8702 067c 1d01 a256 ab02 4113 5f03
000000d0: b88a 3c07 a672 2105 23ae 4c03 b7a5 1301
000000e0: f69d a00d e528 2d02 d7ae 2106 6d89 7302
000000f0: 3b64 7403 5d69 8001 e478 2201 f6e1 0e06
00000100: a687 e102 f7db 8001 6748 3905 0b34 4905
00000110: 5b46 9213 4f7a 0803 ee5b 4e1b b787 6807
00000120: 5116 c306 2437 db06 b573 e601 a1e0 2702
00000130: f114 5305 248f 8101 11eb 2606 9ea3 e001
00000140: d700 2f05 92a7 a202 4267 8603 0000 0000
00000150: 13e6 7d05 5f31 8706 e8fc 4720 fe47 3204
00000160: 9f11 4602 b8cc bc05 0000 0000 1846 4a0c
00000170: 4e17 a60d 7529 aa06 3c88 0401 530a 9502
00000180: 1318 8002 ceda b201 c29f 9801 f89f c703
00000190: d66c ee0e 0a3f a802 ee9b d70b 2449 a706
000001a0: 0000 0000 3421 7102 34e9 d002 7b96 3507
000001b0: 7d67 a201 dbae 9f05 9dea 4302 b01b 0502
000001c0: dfd5 d102 b873 f801 ed21 e202 c1ac 9d03
000001d0: e95f 0802 beb7 ad05 a7d7 bd01 5ca4 8802
000001e0: 109e 9e02 6bb5 bf10 8c37 f801 7c49 af02
000001f0: 6c18 2007 b320 3006 e824 8902 ad09 3512
00000200: f1ec 5c05 d987 1903 e97a fd01 997c 290d
00000210: f425 2206 757b 7606 112a b302 759c 7305
00000220: 376f 1203 46ab 8e12 dc4a 2502 ebed 1702
00000230: 0984 2619 67b5 6d02 f96b 8d01 4b4f 3702
00000240: e11e c801 2001 b800 7840 a101 88ba 9f06
00000250: 016b de02 4fb4 6103 7898 3d02 ef08 de00
00000260: 22b6 0105 81ee 2f02 701f 0f05 8025 0702
00000270: 10cf c00f 009f 7c06 3f55 9902 7a5b f001
00000280: 0caf 0502 d30d 3605 c021 7502 1d26 d410
00000290: e9da ec02 f33b a801 8c6a 0e03 bd32 6f02
000002a0: cb32 3307 8da9 fa06 95b2 4102 2121 6c06
000002b0: 4934 6d05 199d ac01 9957 a506 521e 4603
000002c0: 6c4f 6102 9cb0 9101 5387 3318 375a 4702
000002d0: c098 2c02 9e71 8b03 1b27 9001 62ec 3607
000002e0: 6e84 840b 7777 f702 104f c501 e76a d002
000002f0: 0000 0000 c14b dd10 f659 3601 aaff 8601
00000300: 1bc1 b801 72e5 b901 c38a 9401 d100 a801
00000310: 0000 0000 2ca4 2202 c876 6813 cae7 f000
00000320: 0c58 b901 b968 1006 a61e fc01 a8e0 0f05
00000330: ad68 1d02 3192 7a06 d7d2 0913 1e11 2202
00000340: 1201 3605 f48e 5f02 624e 4c02 37df fd0f
00000350: 15f7 3d0c 025c 8705 7bae c001 3eda 9302
00000360: f648 8d0e 3b19 da02 744b dc05 470f 0407
00000370: 479a ff06 e955 4201 4b1c 5402 78e4 070e
00000380: cdd6 1a02 085f c602 cb60 7e06 b6d4 0906
00000390: 47c6 7304 4f00 ab02 2ca1 dd02 5cbe bc0f
000003a0: b040 b206 b1e4 1804 48fb d901 417e 0d02
000003b0: 9372 9301 116c e700 e2c9 8c01 7891 d50b
000003c0: de42 4902 7bd1 f204 4c63 2819 154a 0e06
000003d0: 0c53 8b01 4f8b 8302 565d 9406 9e36 3c02
000003e0: 0000 0000 f212 2a0e e11c 8d00 3a99 8206
000003f0: 3b1a 981e f3a7 f705 5da2 7f04 93e9 1f07
