checkpoints/checkpoint_5.pth (torch, 363644 bytes, 6 tensors)

W f4 [10000, 2]
-0.005437794 0.007058187 0.0028986805 -0.006290479 0.010499613 -0.0035347699 0.009449484 -0.00019935366
-0.007772753 -0.0039983713 -0.0110054845 -0.003282873 0.00034186378 0.0031961512 -0.0067115813 0.00181971
0.00163989 -0.010962523 -0.004227557 0.007527008 0.009233916 -0.0094901845 0.0002236341 -0.0014949248
0.005266187 0.003240712 0.003512846 -0.009543009 -0.006900627 0.002731294 -0.005620044 -0.0010789107
0.00086900004 0.011303251 0.004949612 -0.0054402836 0.00815147 -0.014544708 -0.002711705 0.009725307
-0.0007704913 0.00848541 -0.00268275 -0.0007834338 -0.00940429 0.0057265623 -0.0021190736 0.0012402764
-0.0024177323 -0.0030093954 0.00030191918 -0.0048250896 -0.004406962 0.0012030771 -0.0017626995 -0.0033670377
-0.0072495597 -0.0051191426 0.021806575 -0.0035480498 -0.0042561493 -0.0036392754 0.00065221376 0.001937489
-0.0046631964 0.011448315 0.00076042255 0.010710222 0.0024876674 0.0035136163 0.0005594515 0.0058344994
0.0014405432 -0.009630044 -0.004935294 0.016698452 0.008673181 -0.0028514513 -0.0041692127 -0.0012204816
0.0048242314 -0.0036584472 0.0006471818 0.0072782557 0.0013045112 -0.0056362753 0.0053959647 -0.002226106
-0.008544082 -0.004245993 0.0029127654 -0.005097714 0.0008922988 -0.00075856067 0.0062287617 -0.0007908521
-0.0020229302 -0.014523482 6.5044956e-06 0.0016100042 0.0005059238 -0.003382359 0.0054997094 -0.0056677423
0.0006897581 0.010419854 0.0017715094 -0.011843499 0.002520368 0.0064887316 0.004803374 -0.0003432254
-0.0029677774 -0.0017173525 0.009893426 -0.0029546632 0.0010610037 -0.0057771704 -0.009887705 -0.0029386412
0.0054089483 -0.014601403 0.012530805 0.0029073542 0.0023732758 0.011152985 -0.0081969 -0.003066563
-0.007460511 0.0006530791 0.0026705589 -0.0069637615 -0.0073882416 0.0013212223 0.0042377715 -8.045718e-05
-0.013109261 -0.005107993 0.0015672236 -0.010477005 0.0008457169 -0.0025640235 0.0043803956 0.0053020758
0.002780941 -0.0009877702 0.0023880315 -0.008935634 0.011405456 -0.006843996 0.0021316188 0.00097435655
0.0015591998 -0.0042419485 0.0032529905 0.0065545067 0.00072175363 0.013994207 0.005174325 0.0009269308
0.0053264275 -0.009342088 0.002310498 -0.010039995 -0.008112919 -0.004173127 0.00013514225 0.0011986893
-0.0043816986 0.007585396 -0.0070112566 -0.0020660064 -0.00940495 0.0036557575 0.0022611138 -0.004524568
-0.011473244 0.0099683385 0.007151118 0.0040293587 -0.010045918 -0.002987502 0.0056861965 0.0074805245
0.002176062 -0.005644595 0.000132744 0.0119283525 -0.00504414 -0.00033740114 -0.013996832 -0.007215053
-0.005456641 -0.008300615 0.0008258548 0.004173653 0.005808914 -0.0015187187 -0.01576688 -0.0069723325
-0.007387825 -0.00433468 -0.00072315126 -0.00087863195 0.006225527 -0.009182294 0.0033108278 0.00073742133
0.0016650961 0.005342042 0.0012212216 -0.0073715327 0.0046896334 0.0023951095 0.0044516893 -0.014476552
0.001160494 -0.0071417177 -0.0025620002 0.0069246534 -0.00034012823 0.013071901 0.0099243 0.0028290802
0.00075550505 0.009909375 0.0014767093 0.005378047 0.005695195 -0.00341756 0.0024788955 0.0011072617
-0.0019281027 -0.007829206 0.0044693765 -5.8779187e-05 0.008162605 0.008697209 0.011582711 -0.00020834168
0.0009191346 -0.0061443336 -0.0038468088 0.0009234046 0.0074483682 0.0038495783 0.003220559 -0.005441225
-0.008380392 -0.00247969 0.0042003444 -0.019181002 -0.0058127777 0.0056392495 0.0042509916 -0.010335262
00000000: 862f b2bb 5d48 e73b caf7 3d3b 5d20 cebb
00000010: 9206 2c3c 99a7 67bb 02d2 1a3c 9709 51b9
00000020: 94b2 febb c504 83bb 5950 34bc 7825 57bb
00000030: 2e3c b339 8576 513b d3ec dbbb 5683 ee3a
00000040: 94f1 d63a 279c 33bc 5287 8abb 1fa5 f63b
00000050: da49 173c b87c 1bbc 527f 6a39 5af1 c3ba
00000060: fa8f ac3b 2062 543b c737 663b 485a 1cbc
00000070: a81e e2bb 82ff 323b 5928 b8bb 3c6a 8dba
00000080: 9bcd 633a 4531 393c 5b30 a23b 6844 b2bb
00000090: be8d 053c ed4c 6ebc dcb6 31bb e556 1f3c
000000a0: ccfa 49ba 6406 0b3c 14d1 2fbb 5a5f 4dba
000000b0: 7314 1abc e3a5 bb3b 28e0 0abb c590 a23a
000000c0: d172 1ebb 4739 45bb e84a 9e39 c91b 9ebb
000000d0: 4768 90bb 92b0 9d3a 610a e7ba 85a9 5cbb
000000e0: b78d edbb 7bbe a7bb b4a3 b23c 6686 68bb
000000f0: 2b77 8bbb e980 6ebb 53f9 2a3a 58f3 fd3a
00000100: bacd 98bb b791 3b3c 1857 473a ed79 2f3c
00000110: 2208 233b b344 663b 28a8 123a 542f bf3b
00000120: 9cd0 bc3a 55c7 1dbc 3fb8 a1bb 31cb 883c
00000130: f519 0e3c 6adf 3abb e49d 88bb 91f8 9fba
00000140: 9614 9e3b 8fc2 6fbb a3a7 293a 6f7e ee3b
00000150: 22fc aa3a 81b0 b8bb a2d0 b03b dce3 11bb
00000160: 7afc 0bbc f921 8bbb 18e4 3e3b b90a a7bb
00000170: 29e9 693a 25da 46ba a41a cc3b 3051 4fba
00000180: 2393 04bb e6f3 6dbc 3141 da36 c706 d33a
00000190: f99f 043a 91aa 5dbb e836 b43b 78b8 b9bb
000001a0: e2d0 343a 09b8 2a3c fe31 e83a 3c0b 42bc
000001b0: c22c 253b 6d9f d43b 9f65 9d3b eff2 b3b9
000001c0: 0b7f 42bb ca18 e1ba 0918 223c 06a3 41bb
000001d0: 6011 8b3a 6b4e bdbb 0a00 22bc 3896 40bb
000001e0: 8c3d b13b b93a 6fbc 014e 4d3c 4f89 3e3b
000001f0: f688 1b3b 02bb 363c 4a4c 06bc 64f8 48bb
00000200: 4d77 f4bb 6633 2b3a 8b04 2f3b 4430 e4bb
00000210: 1019 f2bb dd2c ad3a 01dd 8a3b 1fbb a8b8
00000220: 3ac8 56bc f360 a7bb 4c6b cd3a bea7 2bbc
00000230: 1ab3 5d3a 2d09 28bb 6c89 8f3b 09bd ad3b
00000240: 7340 363b 1178 81ba 8580 1c3b c466 12bc
00000250: f3dd 3a3c 9943 e0bb a1b2 0b3b f66b 7f3a
00000260: 105e cc3a 0b00 8bbb 2030 553b 30c7 d63b
00000270: 1134 3d3a f547 653c 628d a93b 46fd 723a
00000280: 5089 ae3b 8f0f 19bc b96b 173b cb7e 24bc
00000290: 0cec 04bc babe 88bb f9b4 0d39 571d 9d3a
000002a0: 5a94 8fbb ea8e f83b afbe e5bb d665 07bb
000002b0: 3817 1abc 6f95 6f3b 322f 143b d442 94bb
000002c0: 46fa 3bbc 3e52 233c ed53 ea3b b608 843b
000002d0: a297 24bc f7c9 43bb 4653 ba3b 301f f53b
000002e0: 439c 0e3b 4bf6 b8bb 3231 0b39 236f 433c
000002f0: 5049 a5bb 37e5 b0b9 f852 65bc 406c ecbb
00000300: 9fcd b2bb 4dff 07bc 2d7e 583a 24c3 883b
00000310: b458 be3b be0f c7ba 8b29 81bc 2a78 e4bb
00000320: 9115 f2bb ee09 8ebb dc91 3dba fe53 66ba
00000330: 81ff cb3b 5571 16bc 79fa 583b 824f 413a
00000340: 5b3f da3a 4c0c af3b 6611 a03a e68c f1bb
00000350: 7fab 993b 45f7 1c3b 7adf 913b 0f2f 6dbc
00000360: b81b 983a 1205 eabb 3be7 27bb 34e8 e23b
00000370: 3d53 b2b9 872b 563c 8899 223c 1768 393b
00000380: 160d 463a ee5a 223c 248e c13a 543a b03b
00000390: c29e ba3b 24f9 5fbb f774 223b 8a21 913a
000003a0: 64b8 fcba 1246 00bc d973 923b ac89 76b8
000003b0: 72bc 053c bd7e 0e3c 69c5 3d3c 4b76 5ab9
000003c0: 14f2 703a 6856 c9bb be1a 7cbb a210 723a
000003d0: 7111 f43b 3549 7c3b 0410 533b 4e4c b2bb
000003e0: e94d 09bc 4b82 22bb 0ba3 893b 7a21 9dbc
000003f0: 1d79 bebb 74c9 b83b e74b 8b3b 3b55 29bc

b f4 [10000]
-0.010103863 -0.007959258 -0.011942594 -0.010290295 -0.008773942 -0.012824833 -0.003953636 -0.008466624
-0.011000907 -0.010427623 -0.016101748 -0.0015001748 -0.0074568386 -0.011332172 -0.008918174 -0.006648272
-0.0140614845 -0.008940364 -0.019626766 -0.012860285 -0.010870603 -0.0031286702 -0.0131153865 -0.00293057
-0.0046507576 -0.005081375 -0.0055611115 -0.004668333 -0.009695814 -0.022164246 -0.006382389 -0.0022989372
-0.0154668875 -0.013335549 -0.0045718327 -0.007232488 -0.009664309 -0.022150436 -0.009804011 -0.0048625637
-0.0072731236 -0.009033722 -0.006044285 -0.006495828 -0.009667987 -0.0069259577 -0.0014169331 -0.006444837
-0.016960992 -0.0020285952 -0.0033947418 -0.009605083 -0.012986105 -0.011885352 -0.0076203668 -0.0051065823
-0.0035574876 -0.010921596 -0.005963586 -0.011522501 -0.017370958 -0.01527293 -0.01353761 -0.009447952
-0.009183079 -0.0083591305 -0.009206075 -0.004620038 -0.015070391 -0.010513666 -0.002962391 -0.007568327
-0.0032083646 -0.009852321 -0.015605402 -0.0028461434 -0.005035718 -0.0075437045 -0.017486872 -0.0061675883
-0.012682928 -0.010757771 -0.009157285 -0.0014814886 -0.010534514 -0.008172843 -0.012121185 -0.0058741383
-0.017542398 -0.009937515 -0.011707677 -0.010143161 -0.0067863786 -0.015011763 -0.0060752905 -0.015813857
-0.012140234 -0.0050801686 -0.006222735 -0.017991373 -0.008920925 -0.0013677429 -0.013297242 -0.004019991
-0.006366189 -0.007498146 -0.0063899285 -0.01645218 -0.0072455253 -0.0092982715 -0.016556185 -0.012369697
-0.01232706 -0.0064542415 -0.0077925115 -0.0032956363 -0.009621967 -0.0048855753 -0.013472752 -0.012631936
-0.0061662327 -0.004833907 -0.01017544 -0.007486139 -0.0097676935 -0.020371873 -0.00921293 -0.012649903
-0.008304837 -0.013535245 -0.0053741313 -0.0058554364 -0.0059234085 -0.013942722 -0.0026333986 -0.0049517546
-0.008668837 -0.0073369164 -0.007946042 -0.016048005 -0.014808822 -0.010325427 -0.008387486 -0.0062114
-0.006586908 -0.007817085 -0.0041741556 -0.008204959 -0.011489446 -0.011869962 -0.009938505 -0.0071187923
-0.009303594 -0.01118372 -0.0066547794 -0.004983298 -0.008778578 -0.009315878 -0.016646672 -0.0042255768
-0.011309627 -0.013742348 -0.009873411 -0.013253205 -0.009262922 -0.01719556 -0.013939682 -0.0036618435
-0.0070758453 -0.020298362 -0.016868271 -0.017665653 -0.009128228 -0.01223575 -0.00547481 -0.012993738
-0.010437496 -0.012793213 -0.021449987 -0.005944652 -0.0032730936 -0.0058026933 -0.01338665 -0.010366724
-0.012573924 -0.004386266 -0.0022946238 -0.015318132 -0.0111208875 -0.013638416 -0.020157197 -0.0042311247
-0.024660237 -0.003919052 -0.018005883 -0.006138627 -0.013045319 -0.0072760554 -0.010230268 -0.007386639
-0.0030428045 -0.012260409 -0.008611944 -0.010106253 -0.01267611 -0.012742859 -0.009302037 -0.0069050426
-0.022383152 -0.020312248 -0.008265141 -0.01051797 -0.009683467 -0.008374252 -0.003319775 -0.0046767564
-0.007813129 -0.0031799385 -0.0049360753 -0.011960913 -0.008181069 -0.0032843815 -0.0011324856 -0.016293596
-0.0072990176 -0.01179906 -0.0075743105 -0.017027197 -0.010096238 -0.01136947 -0.0010573628 -0.009810295
-0.006481611 -0.0040679234 -0.010957015 -0.010637878 -0.015478066 -0.0033270014 -0.005772164 -0.010819775
-0.015603547 -0.00611592 -0.013817144 -0.0047280365 -0.0030569157 -0.006026151 -0.005370642 -0.020110838
-0.0049387 -0.01625878 -0.006352571 -0.01225001 -0.0038649293 -0.014215519 -0.009137069 -0.0032445795
00000000: ac8a 25bc 8c67 02bc dfaa 43bc a098 28bc
00000010: 94c0 0fbc 401f 52bc 818d 81bb 98b7 0abc
00000020: 263d 34bc 9fd8 2abc d0e7 83bc 83a1 c4ba
00000030: 7f58 f4bb 93aa 39bc 881d 12bc bfd9 d9bb
00000040: 2462 66bc 9b7a 12bc 50c8 a0bc f2b3 52bc
00000050: 9d1a 32bc 600a 4dbb ebe1 56bc ce0e 40bb
00000060: 6265 98bb aa81 a6bb fc39 b6bb d1f8 98bb
00000070: 31db 1ebc cb91 b5bc 5c23 d1bb c4a9 16bb
00000080: d468 7dbc 597d 5abc 50cf 95bb 82fe ecbb
00000090: 0d57 1ebc d574 b5bc 01a1 20bc 2456 9fbb
000000a0: 6253 eebb 2d02 14bc 230f c6bb f4da d4bb
000000b0: 7a66 1ebc 25f3 e2bb 63b8 b9ba 362f d3bb
000000c0: c7f1 8abc 2ef2 04bb 517a 5ebb a35e 1dbc
000000d0: acc3 54bc c8ba 42bc 45b4 f9bb 1e55 a7bb
000000e0: bd24 69bb 7ef0 32bc 2f6a c3bb dfc8 3cbc
000000f0: 8a4d 8ebc 503b 7abc dacc 5dbc 95cb 1abc
00000100: a074 16bc bcf4 08bc 14d5 16bc b063 97bb
00000110: cde9 76bc 8341 2cbc ac24 42bb baff f7bb
00000120: 6d43 52bb a16b 21bc cdad 7fbc 5d86 3abb
00000130: aa02 a5bb 2e31 f7bb a140 8fbc 7b19 cabb
00000140: 0ecc 4fbc 5d41 30bc 7008 16bc 822e c2ba
00000150: f498 2cbc 63e7 05bc ef97 46bc d87b c0bb
00000160: 13b5 8fbc f5d0 22bc 8ed1 3fbc 802f 26bc
00000170: 4560 debb e6f3 75bc 3b13 c7bb 108c 81bc
00000180: d5e7 46bc 8b77 a6bb 16e8 cbbb a562 93bc
00000190: 1229 12bc d645 b3ba addc 59bc 21ba 83bb
000001a0: 779b d0bb 02b3 f5bb 9b62 d1bb b9c6 86bc
000001b0: df6b edbb c757 18bc d6a0 87bc 45aa 4abc
000001c0: 70f7 49bc 1a7e d3bb 5358 ffbb 9afb 57bb
000001d0: 74a5 1dbc 2d17 a0bb d1bc 5cbc 2ef6 4ebc
000001e0: 1c0e cabb c065 9ebb e4b6 26bc 494e f5bb
000001f0: ad08 20bc eae2 a6bc d4f1 16bc 8a41 4fbc
00000200: 0311 08bc efc2 5dbc 7b19 b0bb f6de bfbb
00000210: 2719 c2bb 0470 64bc 1995 2cbb 5442 a2bb
00000220: bd07 0ebc 846a f0bb 1e30 02bc 1b77 83bc
00000230: b4a0 72bc fb2b 29bc ab6b 09bc 0089 cbbb
00000240: fdd6 d7bb 3b13 00bc 5bc7 88bb 186e 06bc
00000250: 3b3e 3cbc 3b7a 42bc 1cd5 22bc c244 e9bb
00000260: 1a6e 18bc ec3b 37bc 5610 dabb ef4a a3bb
00000270: 06d4 0fbc a0a1 18bc 9a5e 88bc b576 8abb
00000280: 044c 39bc 9627 61bc 16c4 21bc f923 59bc
00000290: 83c3 17bc b4dd 8cbc 4463 64bc 8afb 6fbb
000002a0: 7edc e7bb c048 a6bc 542f 8abc 8fb7 90bc
000002b0: 908e 15bc 7578 48bc 0966 b3bb b0e3 54bc
000002c0: 0802 2bbc a09a 51bc e2b7 afbc 5bcb c2bb
000002d0: 6681 56bb 8524 bebb ae53 5bbc 31d9 29bc
000002e0: dc02 4ebc abba 8fbb 6661 16bb e7f8 7abc
000002f0: 6234 36bc aa73 5fbc b520 a5bc 3fa5 8abb
00000300: 4404 cabc 646b 80bb 1381 93bc 8926 c9bb
00000310: 09bc 55bc fa6b eebb db9c 27bc 9e0b f2bb
00000320: ca69 47bb e2df 48bc 1c19 0dbc b394 25bc
00000330: 75af 4fbc 6dc7 50bc 9267 18bc b243 e2bb
00000340: df5c b7bc df65 a6bc 846a 07bc 9053 2cbc
00000350: 68a7 1ebc 2934 09bc 9590 59bb 7a3f 99bb
00000360: a302 00bc 8466 50bb cdbe a1bb b5f7 43bc
00000370: e409 06bc c73e 57bb e96f 94ba 267a 85bc
00000380: 992c efbb d850 41bc ec31 f8bb 9f7c 8bbc
00000390: b16a 25bc 0347 3abc 3597 8aba 5cbb 20bc
000003a0: b263 d4bb 374c 85bb 0d85 33bc 7f4a 2ebc
000003b0: b797 7dbc d209 5abb 6c24 bdbb 6d45 31bc
000003c0: 05a6 7fbc 0e68 c8bb 4d61 62bc a5ed 9abb
000003d0: 8956 48bb 0577 c5bb 36fc afbb 7cbf a4bc
000003e0: d1d4 a1bb 2231 85bc 3a29 d0bb 44b4 48bc
000003f0: c14a 7dbb 35e8 68bc a5b3 15bc 03a3 54bb

exp_avg f4 [10000, 2]
-1.1543963e-37 1.0963542e-37 1.0948078e-37 -1.1415024e-37 1.0997956e-37 -1.1464486e-37 1.0782559e-37 1.1707703e-37
-1.1308743e-37 -1.1504736e-37 -1.1284539e-37 1.1636646e-37 -1.1497824e-37 1.0920703e-37 -1.0800482e-37 1.1142621e-37
-1.164914e-37 -1.0846441e-37 -1.0707283e-37 1.1298842e-37 1.1304556e-37 -1.0606876e-37 -1.1671075e-37 -1.0749743e-37
1.1715462e-37 1.1453322e-37 1.1169338e-37 -1.1645772e-37 -1.1742352e-37 1.1527709e-37 -1.0580784e-37 1.0911641e-37
-1.1267164e-37 1.0701331e-37 1.0948342e-37 -1.1414309e-37 1.1464699e-37 -1.0757693e-37 -1.1390877e-37 1.0818594e-37
-1.0925646e-37 1.1529987e-37 -1.058107e-37 1.091175e-37 -1.0621644e-37 1.0918139e-37 -1.1537386e-37 1.1713306e-37
-1.0799973e-37 -1.0987646e-37 -1.0631256e-37 -1.0816093e-37 -1.1137729e-37 1.1492329e-37 -1.0744061e-37 -1.0930837e-37
-1.143658e-37 -1.163531e-37 1.0581281e-37 1.1488269e-37 -1.1251025e-37 -1.1446529e-37 -1.1355817e-37 1.0786153e-37
-1.1378872e-37 1.0807323e-37 -1.1535141e-37 1.095616e-37 1.0904091e-37 1.1471e-37 -1.0790076e-37 1.1386779e-37
-1.1556184e-37 -1.07226e-37 -1.0596258e-37 1.1182223e-37 1.1712498e-37 -1.0988895e-37 -1.1310081e-37 1.1661352e-37
1.1637239e-37 -1.0918919e-37 -1.0940886e-37 1.1546295e-37 1.0695547e-37 -1.1151935e-37 1.1629104e-37 -1.0910462e-37
-1.1029702e-37 1.1371223e-37 1.1675582e-37 -1.0956098e-37 1.1033987e-37 -1.1503366e-37 1.1636279e-37 1.1369917e-37
-1.0700042e-37 -1.088612e-37 -1.0878332e-37 1.1480092e-37 -1.07022e-37 -1.0921678e-37 1.0632045e-37 -1.1084479e-37
-1.0994241e-37 1.160238e-37 -1.1521588e-37 -1.0867232e-37 -1.114276e-37 1.0583717e-37 1.1362246e-37 1.1102435e-37
-1.1125476e-37 -1.1318761e-37 1.1731971e-37 -1.100672e-37 1.0930771e-37 -1.1397204e-37 -1.0821861e-37 1.1159415e-37
1.0720766e-37 -1.1178085e-37 1.1462069e-37 1.1202456e-37 -1.1616527e-37 1.1033461e-37 -1.1051354e-37 1.1394282e-37
-1.1133463e-37 1.1484136e-37 1.078187e-37 -1.1241541e-37 -1.1657772e-37 1.0824209e-37 1.0613908e-37 1.1524281e-37
-1.1400144e-37 1.0580308e-37 -1.1498831e-37 -1.0633498e-37 1.1596044e-37 -1.0881567e-37 7.473429e-36 3.6835027e-36
1.109349e-37 -1.156399e-37 1.1653535e-37 -1.0935695e-37 1.1713852e-37 -1.0990595e-37 1.067159e-37 1.1589015e-37
1.088838e-37 -1.1352708e-37 -1.1412035e-37 1.0839537e-37 -1.1279292e-37 1.0713158e-37 1.0796562e-37 1.1723273e-37
1.1071435e-37 -1.1543272e-37 1.0933134e-37 -1.1399629e-37 -1.1656442e-37 -1.067296e-37 -1.1050279e-37 1.1661817e-37
-1.073606e-37 1.1329272e-37 -1.1721569e-37 1.0877948e-37 -1.1018582e-37 1.0813615e-37 1.1559605e-37 -1.0846983e-37
-1.1747832e-37 1.0824638e-37 1.0853034e-37 1.0608907e-37 -1.1306638e-37 1.1657502e-37 3.801088e-13 1.8734794e-13
1.0652007e-37 -1.1106022e-37 -1.1161877e-37 1.0601617e-37 -1.1560794e-37 1.0730384e-37 -1.0840364e-37 -1.1028601e-37
-1.065104e-37 -1.0836182e-37 -1.0656415e-37 1.1246142e-37 1.1605857e-37 -1.0888484e-37 -1.1110215e-37 1.1453484e-37
-1.1726318e-37 -1.0737072e-37 -1.172815e-37 -1.0738762e-37 1.105693e-37 -1.1527913e-37 1.1417463e-37 1.1158514e-37
-1.1290589e-37 1.072374e-37 1.0637812e-37 -1.1091822e-37 1.083766e-37 1.0594014e-37 1.0594992e-37 -1.1046542e-37
1.1452622e-37 -1.0747093e-37 -1.1596313e-37 1.101342e-37 -1.1574012e-37 1.0992831e-37 1.0991252e-37 1.074148e-37
-1.08971e-37 1.1500107e-37 -1.1420254e-37 1.0847192e-37 1.1598176e-37 -1.0882132e-37 1.1725524e-37 1.1461151e-37
-1.0980062e-37 -1.1170951e-37 1.0860158e-37 1.0612275e-37 1.1544963e-37 1.0706055e-37 1.0680919e-37 1.1596481e-37
-1.099363e-37 -1.1372417e-37 -1.1597992e-37 1.0768216e-37 1.1293674e-37 1.1039336e-37 1.1476304e-37 -1.0768685e-37
-1.1401564e-37 1.058182e-37 1.1567433e-37 -1.0854906e-37 -1.1379631e-37 1.106171e-37 1.1252738e-37 -1.1732504e-37
00000000: d720 1d82 5e3a 1502 7c04 1502 8e5f 1b82
00000010: 49b2 1502 e70b 1c82 bcc3 1202 645b 1f02
00000020: 38ed 1982 2798 1c82 e198 1982 cb63 1e02
00000030: 1280 1c82 19a5 1402 3002 1382 5eaa 1702
00000040: 548f 1e82 55a2 1382 70bd 1182 b8ca 1902
00000050: a1de 1902 925f 1082 c3db 1e82 6351 1282
00000060: 6d76 1f02 01e5 1b02 7607 1802 9883 1e82
00000070: 20d4 1f82 34e8 1c02 a704 1082 8585 1402
00000080: 565c 1982 b2a8 1102 6705 1502 105d 1b82
00000090: a50c 1c02 176d 1282 6a0b 1b82 4c41 1302
000000a0: 52b6 1482 24f0 1c02 a605 1082 e685 1402
000000b0: 0793 1082 299c 1402 ec09 1d82 ea6e 1f02
000000c0: 6a00 1382 5c8e 1582 85b4 1082 9538 1382
000000d0: 5299 1782 ec6c 1c02 973d 1282 68c8 1482
000000e0: aaaa 1b82 235f 1e82 6206 1002 c65e 1c02
000000f0: 1a24 1982 55cd 1b82 3f91 1a82 42d0 1202
00000100: 95e1 1a82 061a 1302 1a02 1d82 a520 1502
00000110: 366b 1402 9a22 1c02 eddd 1282 22fd 1a02
00000120: 6d4b 1d82 cff2 1182 923a 1082 5c34 1802
00000130: 196c 1f02 b692 1582 e1f1 1982 e2b9 1e02
00000140: dc65 1e02 e19e 1482 6ceb 1482 f728 1d02
00000150: 8b94 1102 d2ca 1782 8349 1e02 6981 1482
00000160: e720 1682 eec6 1a02 77eb 1e02 6e20 1582
00000170: d52f 1602 6193 1c82 8462 1e02 61c2 1a02
00000180: 34a4 1182 982c 1482 7411 1482 4842 1c02
00000190: b9ab 1182 7ea8 1482 45b7 1002 c6df 1682
000001a0: 57a5 1582 65ec 1d02 e0d2 1c82 c7ea 1382
000001b0: daaa 1782 df0e 1002 a6a7 1a02 571e 1702
000001c0: a06e 1782 2010 1a82 f4af 1f02 d2d0 1582
000001d0: 2ec8 1402 7621 1b82 af4c 1382 e3e4 1702
000001e0: 6bec 1102 f125 1882 7b03 1c02 dd7a 1802
000001f0: b01d 1e82 002e 1602 596c 1682 4717 1b02
00000200: 758a 1782 6050 1c02 55c1 1202 0e03 1982
00000210: 68ad 1e82 dd54 1302 1278 1002 42dc 1c02
00000220: b42b 1b82 fe02 1002 9483 1c82 55bc 1082
00000230: 51d6 1d02 ba1c 1482 38f1 1e05 cbad 9c04
00000240: 2cff 1602 a066 1d82 a59e 1e02 56d9 1482
00000250: d170 1f02 a298 1582 1041 1102 d3bd 1d02
00000260: 7834 1402 6a86 1a82 2355 1b82 468a 1302
00000270: 9986 1982 e8d1 1102 87f4 1202 a591 1f02
00000280: 52b2 1602 6f1e 1d82 69d0 1402 e929 1b82
00000290: c6a8 1e82 d645 1182 9a68 1682 80bb 1e02
000002a0: b621 1282 c034 1a02 b58b 1f82 1e10 1402
000002b0: 28fa 1582 f32f 1302 5857 1d02 38a4 1382
000002c0: 38e7 1f82 5c56 1302 4eb9 1302 a566 1002
000002d0: e2e5 1982 77ac 1e02 74fb d52a 5eef 522a
000002e0: d4fc 1002 d72a 1782 77ed 1782 3e4d 1002
000002f0: 7d5b 1d82 ee0d 1202 288d 1382 111d 1682
00000300: 75f9 1082 957e 1382 300c 1182 1613 1902
00000310: 82f8 1d02 d434 1482 7339 1782 91e5 1b02
00000320: 419c 1f82 3c25 1282 a3a2 1f82 202b 1282
00000330: c77f 1602 eae8 1c82 0d68 1b02 bfe1 1702
00000340: f6ad 1982 c8f6 1102 5dcb 1002 5cf9 1682
00000350: bc83 1302 c032 1002 2936 1002 955b 1682
00000360: 90e2 1b02 2748 1282 41d7 1d82 2be8 1502
00000370: 8c89 1d82 6da0 1502 ec9a 1502 9834 1202
00000380: da52 1482 0688 1c02 c771 1b82 f3a4 1302
00000390: bfdd 1d02 b21e 1482 7d99 1f02 4800 1c02
000003a0: ef73 1582 150d 1882 21d2 1302 6272 1002
000003b0: 5324 1d02 28b9 1102 9261 1102 d7d7 1d02
000003c0: 36a3 1582 17cb 1a82 1bdd 1d82 c291 1202
000003d0: b6b8 1902 7942 1602 1535 1c02 6493 1282
000003e0: a730 1b82 4308 1002 9f72 1d02 d4bf 1382
000003f0: 3ae4 1a82 6f90 1602 122a 1902 cfb1 1f82

exp_avg_sq f4 [10000, 2]
0.0 0.0 0.0 0.0 0.0 0.0 0.0 0.0
0.0 0.0 0.0 0.0 0.0 0.0 0.0 0.0
0.0 0.0 0.0 0.0 0.0 0.0 0.0 0.0
0.0 0.0 0.0 0.0 0.0 0.0 0.0 0.0
0.0 0.0 0.0 0.0 0.0 0.0 0.0 0.0
0.0 0.0 0.0 0.0 0.0 0.0 0.0 0.0
0.0 0.0 0.0 0.0 0.0 0.0 0.0 0.0
0.0 0.0 0.0 0.0 0.0 0.0 0.0 0.0
0.0 0.0 0.0 0.0 0.0 0.0 0.0 0.0
0.0 0.0 0.0 0.0 0.0 0.0 0.0 0.0
0.0 0.0 0.0 0.0 0.0 0.0 0.0 0.0
0.0 0.0 0.0 0.0 0.0 0.0 0.0 0.0
0.0 0.0 0.0 0.0 0.0 0.0 0.0 0.0
0.0 0.0 0.0 0.0 0.0 0.0 0.0 0.0
0.0 0.0 0.0 0.0 0.0 0.0 0.0 0.0
0.0 0.0 0.0 0.0 0.0 0.0 0.0 0.0
0.0 0.0 0.0 0.0 0.0 0.0 0.0 0.0
0.0 0.0 0.0 0.0 0.0 0.0 1.3364603e-26 3.2466268e-27
0.0 0.0 0.0 0.0 0.0 0.0 0.0 0.0
0.0 0.0 0.0 0.0 0.0 0.0 0.0 0.0
0.0 0.0 0.0 0.0 0.0 0.0 0.0 0.0
0.0 0.0 0.0 0.0 0.0 0.0 0.0 0.0
0.0 0.0 0.0 0.0 0.0 0.0 2.3384171e-26 5.6807168e-27
0.0 0.0 0.0 0.0 0.0 0.0 0.0 0.0
0.0 0.0 0.0 0.0 0.0 0.0 0.0 0.0
0.0 0.0 0.0 0.0 0.0 0.0 0.0 0.0
0.0 0.0 0.0 0.0 0.0 0.0 0.0 0.0
0.0 0.0 0.0 0.0 0.0 0.0 0.0 0.0
0.0 0.0 0.0 0.0 0.0 0.0 0.0 0.0
0.0 0.0 0.0 0.0 7.31933e-29 1.7775846e-29 0.0 0.0
0.0 0.0 0.0 0.0 0.0 0.0 0.0 0.0
0.0 0.0 0.0 0.0 0.0 0.0 0.0 0.0
00000000: 0000 0000 0000 0000 0000 0000 0000 0000
00000010: 0000 0000 0000 0000 0000 0000 0000 0000
00000020: 0000 0000 0000 0000 0000 0000 0000 0000
00000030: 0000 0000 0000 0000 0000 0000 0000 0000
00000040: 0000 0000 0000 0000 0000 0000 0000 0000
00000050: 0000 0000 0000 0000 0000 0000 0000 0000
00000060: 0000 0000 0000 0000 0000 0000 0000 0000
00000070: 0000 0000 0000 0000 0000 0000 0000 0000
00000080: 0000 0000 0000 0000 0000 0000 0000 0000
00000090: 0000 0000 0000 0000 0000 0000 0000 0000
000000a0: 0000 0000 0000 0000 0000 0000 0000 0000
000000b0: 0000 0000 0000 0000 0000 0000 0000 0000
000000c0: 0000 0000 0000 0000 0000 0000 0000 0000
000000d0: 0000 0000 0000 0000 0000 0000 0000 0000
000000e0: 0000 0000 0000 0000 0000 0000 0000 0000
000000f0: 0000 0000 0000 0000 0000 0000 0000 0000
00000100: 0000 0000 0000 0000 0000 0000 0000 0000
00000110: 0000 0000 0000 0000 0000 0000 0000 0000
00000120: 0000 0000 0000 0000 0000 0000 0000 0000
00000130: 0000 0000 0000 0000 0000 0000 0000 0000
00000140: 0000 0000 0000 0000 0000 0000 0000 0000
00000150: 0000 0000 0000 0000 0000 0000 0000 0000
00000160: 0000 0000 0000 0000 0000 0000 0000 0000
00000170: 0000 0000 0000 0000 0000 0000 0000 0000
00000180: 0000 0000 0000 0000 0000 0000 0000 0000
00000190: 0000 0000 0000 0000 0000 0000 0000 0000
000001a0: 0000 0000 0000 0000 0000 0000 0000 0000
000001b0: 0000 0000 0000 0000 0000 0000 0000 0000
000001c0: 0000 0000 0000 0000 0000 0000 0000 0000
000001d0: 0000 0000 0000 0000 0000 0000 0000 0000
000001e0: 0000 0000 0000 0000 0000 0000 0000 0000
000001f0: 0000 0000 0000 0000 0000 0000 0000 0000
00000200: 0000 0000 0000 0000 0000 0000 0000 0000
00000210: 0000 0000 0000 0000 0000 0000 0000 0000
00000220: 0000 0000 0000 0000 0000 0000 0000 0000
00000230: 0000 0000 0000 0000 4b5b 8414 b59c 8013
00000240: 0000 0000 0000 0000 0000 0000 0000 0000
00000250: 0000 0000 0000 0000 0000 0000 0000 0000
00000260: 0000 0000 0000 0000 0000 0000 0000 0000
00000270: 0000 0000 0000 0000 0000 0000 0000 0000
00000280: 0000 0000 0000 0000 0000 0000 0000 0000
00000290: 0000 0000 0000 0000 0000 0000 0000 0000
000002a0: 0000 0000 0000 0000 0000 0000 0000 0000
000002b0: 0000 0000 0000 0000 0000 0000 0000 0000
000002c0: 0000 0000 0000 0000 0000 0000 0000 0000
000002d0: 0000 0000 0000 0000 eb95 e714 5009 e113
000002e0: 0000 0000 0000 0000 0000 0000 0000 0000
000002f0: 0000 0000 0000 0000 0000 0000 0000 0000
00000300: 0000 0000 0000 0000 0000 0000 0000 0000
00000310: 0000 0000 0000 0000 0000 0000 0000 0000
00000320: 0000 0000 0000 0000 0000 0000 0000 0000
00000330: 0000 0000 0000 0000 0000 0000 0000 0000
00000340: 0000 0000 0000 0000 0000 0000 0000 0000
00000350: 0000 0000 0000 0000 0000 0000 0000 0000
00000360: 0000 0000 0000 0000 0000 0000 0000 0000
00000370: 0000 0000 0000 0000 0000 0000 0000 0000
00000380: 0000 0000 0000 0000 0000 0000 0000 0000
00000390: 0000 0000 0000 0000 0000 0000 0000 0000
000003a0: 0000 0000 0000 0000 0000 0000 0000 0000
000003b0: 2b91 b910 bc44 b40f 0000 0000 0000 0000
000003c0: 0000 0000 0000 0000 0000 0000 0000 0000
000003d0: 0000 0000 0000 0000 0000 0000 0000 0000
000003e0: 0000 0000 0000 0000 0000 0000 0000 0000
000003f0: 0000 0000 0000 0000 0000 0000 0000 0000

exp_avg f4 [10000]
1.073438e-37 1.1705454e-37 1.0581506e-37 1.0891941e-37 1.174215e-37 1.1459642e-37 1.0692549e-37 1.0967909e-37
1.1085646e-37 1.1062687e-37 1.0877e-37 1.0976859e-37 1.0651406e-37 1.0747867e-37 1.0838386e-37 1.0744909e-37
1.1641905e-37 1.1704912e-37 1.103149e-37 1.05925e-37 1.1289035e-37 1.0745226e-37 1.1024096e-37 1.0741186e-37
1.1214107e-37 1.1039104e-37 1.1310397e-37 1.1156152e-37 1.0687627e-37 1.0688725e-37 1.1682475e-37 1.1734314e-37
1.058147e-37 1.0727246e-37 1.1236049e-37 1.1148827e-37 1.0955887e-37 1.0948542e-37 1.1269167e-37 1.1485703e-37
1.1197046e-37 1.1305043e-37 1.1435702e-37 1.1188856e-37 1.1201076e-37 1.123485e-37 1.0616695e-37 1.1754519e-37
1.1110593e-37 1.1240219e-37 1.1149689e-37 1.1366711e-37 1.1359937e-37 1.1118783e-37 1.151408e-37 1.1477643e-37
1.1552047e-37 1.1287758e-37 1.1687204e-37 1.0989784e-37 1.146252e-37 1.1578392e-37 1.0802955e-37 1.1223002e-37
1.1306064e-37 1.1527561e-37 1.0654637e-37 1.0721623e-37 1.1577031e-37 1.0861758e-37 1.115844e-37 6.906117e-36
1.0673406e-37 1.1213955e-37 1.1270654e-37 1.0779925e-37 1.1641549e-37 1.0613163e-37 1.165482e-37 1.0906092e-37
1.0653291e-37 1.1689697e-37 1.0892996e-37 1.141819e-37 1.1092482e-37 1.0713158e-37 1.129946e-37 1.1122994e-37
1.1325643e-37 1.0963414e-37 1.1482242e-37 3.5125453e-13 1.1388599e-37 1.1533472e-37 1.1740103e-37 1.1255931e-37
1.1059567e-37 1.1011187e-37 1.1166436e-37 1.1282944e-37 1.0958379e-37 1.0960109e-37 1.0639156e-37 1.1533312e-37
1.1666323e-37 1.1374065e-37 1.0947917e-37 1.1327632e-37 1.1020551e-37 1.0783243e-37 1.0763117e-37 1.1102758e-37
1.1259841e-37 1.0620613e-37 1.1159395e-37 1.0660222e-37 1.140124e-37 1.0970389e-37 1.06682e-37 1.0789366e-37
1.1623104e-37 1.0599988e-37 1.1408484e-37 1.1042736e-37 1.1578468e-37 1.1131129e-37 1.1184384e-37 1.0827911e-37
1.1455873e-37 1.1172497e-37 1.0941199e-37 1.1742525e-37 1.09691e-37 1.1488785e-37 1.1344863e-37 1.1494593e-37
1.1491443e-37 1.1325859e-37 1.0714102e-37 1.0733639e-37 1.0743022e-37 1.1683106e-37 1.1303749e-37 1.1124916e-37
1.1059113e-37 1.0886145e-37 1.1540185e-37 1.1704347e-37 1.0791342e-37 1.1606554e-37 1.1170577e-37 1.1754e-37
1.1305858e-37 1.1001407e-37 1.0820365e-37 1.1438121e-37 1.1196923e-37 1.1459069e-37 1.11419e-37 1.1754254e-37
1.0671753e-37 1.0711857e-37 1.1308534e-37 1.1459688e-37 1.1241983e-37 1.152312e-37 1.1497658e-37 1.0854353e-37
1.1351689e-37 1.1663905e-37 1.1059904e-37 1.143821e-37 1.071228e-37 1.0686145e-37 1.1600723e-37 1.1324071e-37
1.1599125e-37 1.0805203e-37 1.0933821e-37 1.1290415e-37 1.1268082e-37 1.1480523e-37 1.0645771e-37 1.0804363e-37
1.1140664e-37 1.0979895e-37 1.0781644e-37 1.1077602e-37 1.0750816e-37 1.0750286e-37 1.0770485e-37 1.0986638e-37
1.1054095e-37 1.0730021e-37 1.0638827e-37 1.1569954e-37 1.0788523e-37 1.0991717e-37 1.1182484e-37 1.1335776e-37
1.1531628e-37 1.1193318e-37 1.1306694e-37 1.1021394e-37 1.1449956e-37 1.1421663e-37 1.1366119e-37 1.1124613e-37
1.1481107e-37 1.1075906e-37 1.1488956e-37 1.1092486e-37 1.117232e-37 1.1238202e-37 1.12833e-37 1.1446594e-37
1.0755707e-37 1.0951949e-37 1.1543734e-37 1.0768507e-37 1.0800557e-37 1.0970008e-37 1.1176685e-37 1.0944383e-37
1.0694305e-37 1.0625923e-37 1.1652612e-37 1.0710809e-37 1.0724088e-37 1.1754751e-37 1.1067334e-37 1.0596324e-37
1.161174e-37 1.1098868e-37 1.1489988e-37 1.0822592e-37 1.1250417e-37 1.0790859e-37 1.0857831e-37 1.1385018e-37
1.1753129e-37 1.161167e-37 1.0904271e-37 1.1651246e-37 1.071791e-37 1.1029962e-37 1.1536158e-37 1.168873e-37
1.0628501e-37 1.0599184e-37 1.1536401e-37 1.0741637e-37 1.0773036e-37 1.1383511e-37 1.1054726e-37 1.098533e-37
00000000: db1b 1202 8e53 1f02 2b07 1002 e040 1402
00000010: 6cd3 1f02 06fb 1b02 188a 1102 9649 1502
00000020: d7e3 1602 d793 1602 d00c 1402 c568 1502
00000030: bcfa 1002 da4a 1202 4386 1302 8b40 1202
00000040: 1e76 1e02 aa51 1f02 2227 1602 7a2d 1002
00000050: 8ca8 1902 a641 1202 5e0d 1602 9233 1202
00000060: 76a3 1802 aa41 1602 fbf2 1902 84d9 1702
00000070: f278 1102 c57c 1102 7c03 1f02 1eb8 1f02
00000080: 0b07 1002 ff02 1202 ebef 1802 febf 1702
00000090: b21f 1502 1a06 1502 5163 1902 d555 1c02
000000a0: 0368 1802 53e0 1902 9ba7 1b02 794b 1802
000000b0: 0e76 1802 bdeb 1802 c881 1002 85fe 1f02
000000c0: c43a 1702 72fe 1802 ffc2 1702 35b7 1a02
000000d0: 9a9f 1a02 4e57 1702 b7b8 1c02 c039 1c02
000000e0: 023d 1d02 19a4 1902 f613 1f02 cf95 1502
000000f0: 0e05 1c02 cf98 1d02 ce0a 1302 74c2 1802
00000100: e2e3 1902 b0e7 1c02 fe05 1102 67ef 1102
00000110: 1194 1d02 b4d7 1302 7de1 1702 7ae0 1205
00000120: 6447 1102 eea2 1802 7f68 1902 8eba 1202
00000130: e174 1e02 7a75 1002 1fa3 1e02 2f72 1402
00000140: 4d01 1102 a61c 1f02 8d44 1402 966a 1b02
00000150: a9fb 1602 e8d1 1102 dfcc 1902 fa65 1702
00000160: 1b28 1a02 ec39 1502 c649 1c02 1dbd c52a
00000170: 7a03 1b02 49fc 1c02 4acc 1f02 3235 1902
00000180: f788 1602 63e0 1502 5afd 1702 5293 1902
00000190: 6128 1502 682e 1502 0cd0 1002 bafb 1c02
000001a0: 34cb 1e02 d5d0 1a02 ec03 1502 092f 1a02
000001b0: 0401 1602 1ec6 1202 fd7f 1202 771f 1702
000001c0: d242 1902 6f8f 1002 d1e4 1702 7419 1102
000001d0: 862f 1b02 3a52 1502 4035 1102 74db 1202
000001e0: 9b34 1e02 9147 1002 c448 1b02 524e 1602
000001f0: 1399 1d02 5382 1702 e43b 1802 c361 1302
00000200: e4ed 1b02 7812 1802 84ec 1402 bad4 1f02
00000210: bc4d 1502 9360 1c02 146b 1a02 d074 1c02
00000220: d669 1c02 dc28 1a02 32d5 1102 4619 1202
00000230: f839 1202 af05 1f02 d1db 1902 ad6c 1702
00000240: 6287 1602 ae2c 1402 ad13 1d02 b24f 1f02
00000250: 57e2 1202 f0fa 1d02 c80b 1802 b6fc 1f02
00000260: 2ae3 1902 4fbe 1502 7847 1302 09b0 1b02
00000270: 9567 1802 07f9 1b02 dba7 1702 99fd 1f02
00000280: a241 1102 60cd 1102 7dec 1902 2ffb 1b02
00000290: 9804 1902 37d8 1c02 7e7f 1c02 e6bd 1302
000002a0: dd82 1a02 c7c2 1e02 248a 1602 58b0 1b02
000002b0: d9ce 1102 c873 1102 9fe6 1d02 a122 1a02
000002c0: 0de1 1d02 a312 1302 ced2 1402 5bad 1902
000002d0: 895f 1902 c943 1c02 19e7 1002 b60f 1302
000002e0: 8ca3 1702 5a73 1502 8cc0 1202 cfc7 1602
000002f0: 2055 1202 4853 1202 aa99 1202 d98a 1502
00000300: e675 1602 ab0c 1202 e7ce 1002 687b 1d02
00000310: 84d8 1202 8b9c 1502 4535 1802 6a4b 1a02
00000320: dcf5 1c02 055b 1802 14e6 1902 f403 1602
00000330: 46d9 1b02 b076 1b02 25b5 1a02 9e6b 1702
00000340: d245 1c02 e6c1 1602 2b61 1c02 acfb 1602
00000350: da11 1802 6bf7 1802 9094 1902 8fcd 1b02
00000360: 2b66 1202 f911 1502 0b20 1d02 c592 1202
00000370: 7302 1302 e650 1502 1021 1802 9cf7 1402
00000380: 3790 1102 f0a1 1002 6d9b 1e02 b9c9 1102
00000390: fef7 1102 54ff 1f02 08a4 1602 cd3a 1002
000003a0: 020d 1e02 e911 1702 c464 1c02 3b4f 1302
000003b0: fb21 1902 a8e0 1202 05ca 1302 fff6 1a02
000003c0: adf9 1f02 c40c 1e02 d76b 1402 ab96 1e02
000003d0: 77e2 1102 cf21 1602 a505 1d02 4819 1f02
000003e0: ecaa 1002 c444 1002 7e06 1d02 2435 1202
000003f0: 8da2 1202 bff1 1a02 1978 1602 4a86 1502

exp_avg_sq f4 [10000]
0.0 0.0 0.0 0.0 0.0 0.0 0.0 0.0
0.0 0.0 0.0 0.0 0.0 0.0 0.0 0.0
1.8763185e-38 0.0 0.0 0.0 0.0 0.0 0.0 0.0
0.0 0.0 0.0 0.0 0.0 0.0 0.0 0.0
1.7965418e-38 1.8316315e-38 0.0 0.0 0.0 7.91038e-38 0.0 0.0
0.0 0.0 0.0 0.0 0.0 0.0 0.0 0.0
0.0 0.0 0.0 0.0 1.3533228e-38 0.0 0.0 0.0
0.0 0.0 0.0 0.0 0.0 1.4028536e-38 2.2320581e-38 0.0
0.0 0.0 0.0 0.0 0.0 0.0 0.0 1.1412555e-26
0.0 0.0 0.0 0.0 0.0 0.0 5.326023e-38 0.0
0.0 0.0 0.0 0.0 0.0 0.0 0.0 0.0
2.1920806e-38 0.0 0.0 1.9968706e-26 0.0 2.0514582e-38 0.0 0.0
0.0 0.0 0.0 0.0 0.0 0.0 0.0 0.0
0.0 0.0 0.0 0.0 0.0 0.0 2.7636506e-38 0.0
1.3155047e-38 0.0 0.0 0.0 0.0 0.0 6.24972e-29 0.0
0.0 0.0 0.0 0.0 0.0 0.0 0.0 0.0
0.0 0.0 0.0 0.0 0.0 0.0 0.0 0.0
0.0 0.0 0.0 0.0 0.0 0.0 0.0 0.0
0.0 0.0 0.0 0.0 1.3792946e-38 0.0 0.0 0.0
0.0 0.0 0.0 0.0 0.0 0.0 0.0 0.0
0.0 2.2255858e-38 0.0 0.0 0.0 1.1907598e-38 0.0 0.0
0.0 0.0 0.0 1.7543437e-38 0.0 0.0 0.0 1.2751728e-38
0.0 0.0 8.9809936e-38 0.0 0.0 0.0 1.2191501e-38 0.0
0.0 0.0 0.0 0.0 0.0 0.0 5.1642635e-38 0.0
0.0 0.0 0.0 0.0 0.0 0.0 0.0 0.0
0.0 1.3656592e-38 0.0 0.0 0.0 0.0 0.0 0.0
0.0 0.0 0.0 0.0 0.0 0.0 0.0 0.0
0.0 0.0 0.0 0.0 0.0 0.0 0.0 0.0
0.0 0.0 0.0 0.0 0.0 0.0 0.0 0.0
0.0 1.8821005e-32 6.9420376e-28 0.0 0.0 0.0 0.0 0.0
0.0 0.0 0.0 0.0 0.0 0.0 0.0 2.115344e-38
0.0 0.0 0.0 0.0 0.0 1.3805431e-38 0.0 0.0
00000000: 0000 0000 0000 0000 0000 0000 0000 0000
00000010: 0000 0000 0000 0000 0000 0000 0000 0000
00000020: 0000 0000 0000 0000 0000 0000 0000 0000
00000030: 0000 0000 0000 0000 0000 0000 0000 0000
00000040: 2050 cc00 0000 0000 0000 0000 0000 0000
00000050: 0000 0000 0000 0000 0000 0000 0000 0000
00000060: 0000 0000 0000 0000 0000 0000 0000 0000
00000070: 0000 0000 0000 0000 0000 0000 0000 0000
00000080: 47a0 c300 6f72 c700 0000 0000 0000 0000
00000090: 0000 0000 4e57 d701 0000 0000 0000 0000
000000a0: 0000 0000 0000 0000 0000 0000 0000 0000
000000b0: 0000 0000 0000 0000 0000 0000 0000 0000
000000c0: 0000 0000 0000 0000 0000 0000 0000 0000
000000d0: 225d 9300 0000 0000 0000 0000 0000 0000
000000e0: 0000 0000 0000 0000 0000 0000 0000 0000
000000f0: 0000 0000 dac1 9800 b30c f300 0000 0000
00000100: 0000 0000 0000 0000 0000 0000 0000 0000
00000110: 0000 0000 0000 0000 0000 0000 870c 6214
00000120: 0000 0000 0000 0000 0000 0000 0000 0000
00000130: 0000 0000 0000 0000 f7fc 9001 0000 0000
00000140: 0000 0000 0000 0000 0000 0000 0000 0000
00000150: 0000 0000 0000 0000 0000 0000 0000 0000
00000160: 4ab2 ee00 0000 0000 0000 0000 afc2 c514
00000170: 0000 0000 4f62 df00 0000 0000 0000 0000
00000180: 0000 0000 0000 0000 0000 0000 0000 0000
00000190: 0000 0000 0000 0000 0000 0000 0000 0000
000001a0: 0000 0000 0000 0000 0000 0000 0000 0000
000001b0: 0000 0000 0000 0000 ab77 1601 0000 0000
000001c0: eb3e 8f00 0000 0000 0000 0000 0000 0000
000001d0: 0000 0000 0000 0000 0073 9e10 0000 0000
000001e0: 0000 0000 0000 0000 0000 0000 0000 0000
000001f0: 0000 0000 0000 0000 0000 0000 0000 0000
00000200: 0000 0000 0000 0000 0000 0000 0000 0000
00000210: 0000 0000 0000 0000 0000 0000 0000 0000
00000220: 0000 0000 0000 0000 0000 0000 0000 0000
00000230: 0000 0000 0000 0000 0000 0000 0000 0000
00000240: 0000 0000 0000 0000 0000 0000 0000 0000
00000250: 1f31 9600 0000 0000 0000 0000 0000 0000
00000260: 0000 0000 0000 0000 0000 0000 0000 0000
00000270: 0000 0000 0000 0000 0000 0000 0000 0000
00000280: 0000 0000 4758 f200 0000 0000 0000 0000
00000290: 0000 0000 8aa9 8100 0000 0000 0000 0000
000002a0: 0000 0000 0000 0000 0000 0000 f707 bf00
000002b0: 0000 0000 0000 0000 0000 0000 a1da 8a00
000002c0: 0000 0000 0000 0000 647c f401 0000 0000
000002d0: 0000 0000 0000 0000 f2c0 8400 0000 0000
000002e0: 0000 0000 0000 0000 0000 0000 0000 0000
000002f0: 0000 0000 0000 0000 aa95 8c01 0000 0000
00000300: 0000 0000 0000 0000 0000 0000 0000 0000
00000310: 0000 0000 0000 0000 0000 0000 0000 0000
00000320: 0000 0000 06b5 9400 0000 0000 0000 0000
00000330: 0000 0000 0000 0000 0000 0000 0000 0000
00000340: 0000 0000 0000 0000 0000 0000 0000 0000
00000350: 0000 0000 0000 0000 0000 0000 0000 0000
00000360: 0000 0000 0000 0000 0000 0000 0000 0000
00000370: 0000 0000 0000 0000 0000 0000 0000 0000
00000380: 0000 0000 0000 0000 0000 0000 0000 0000
00000390: 0000 0000 0000 0000 0000 0000 0000 0000
000003a0: 0000 0000 d072 c30a 8000 5c12 0000 0000
000003b0: 0000 0000 0000 0000 0000 0000 0000 0000
000003c0: 0000 0000 0000 0000 0000 0000 0000 0000
000003d0: 0000 0000 0000 0000 0000 0000 2f57 e600
000003e0: 0000 0000 0000 0000 0000 0000 0000 0000
000003f0: 0000 0000 ed53 9600 0000 0000 0000 0000
