checkpoints/checkpoint_50000.pth (torch, 964588 bytes, 6 tensors)

W f4 [10000, 2]
000000 8e 0b 98 38 d0 13 49 3a f8 d6 b2 b9 92 0c 6f 3a
       7.250077e-05 0.0007670494 -0.0003411097 0.00091189996
000010 e8 da 49 39 ed a2 ab b9 ad 2f 86 ba a1 73 e5 ba
       0.00019250403 -0.0003273705 -0.0010237597 -0.0017505774
000020 13 66 aa bb ca 6d 83 3a c4 44 0e bc 0a 54 26 bb
       -0.0052001565 0.0010027227 -0.008683387 -0.002537968
000030 a1 a7 1a bb 04 31 c0 bb fe f5 b4 ba c6 a2 c9 3b
       -0.002359845 -0.005865218 -0.0013806222 0.0061534373
000040 fe 73 5b bb 45 60 49 bb 85 26 c8 3b f8 a1 16 3c
       -0.0033485885 -0.0030727547 0.0061081075 0.00919389
000050 c5 21 3d 3b 8e 67 a2 ba 7c 9c 76 b9 5b d8 98 b9
       0.002885924 -0.0012390481 -0.00023518683 -0.00029152897
000060 90 23 4f 39 b9 96 91 ba 95 fa 85 bb a3 40 6c ba
       0.00019754306 -0.0011107541 -0.0040887096 -0.0009012317
000070 96 c4 f9 38 51 26 1a bc 1d 56 b0 38 7d 12 cf bb
       0.00011909862 -0.009408549 8.408374e-05 -0.0063193426
000080 7a d2 f1 b9 80 ed b9 3a f0 94 b4 ba a6 cd f0 bb
       -0.0004612392 0.001418516 -0.0013777297 -0.007348734
000090 8d f2 de 3a da 65 c1 39 37 e1 b5 3a 31 f9 f5 3b
       0.0017009542 0.00036887714 0.0013876323 0.0075065126
0000a0 97 d8 18 3a 56 67 f9 39 05 da 53 3a ed 54 57 3b
       0.0005830614 0.00047569972 0.00080814987 0.0032857016
0000b0 1a 8d 61 3a 4b c7 b7 3a 6a 8c c6 bb 7d 3a b1 3a
       0.00086040946 0.0014021186 -0.006059219 0.0013521459
0000c0 ca 13 fd bb 84 cb 9f 3a fa d0 ce bb da 30 78 3c
       -0.0077233063 0.001219139 -0.006311533 0.015148366
0000d0 8a 16 cc 39 99 ee 81 3b 64 35 98 3b ca 87 3c 3b
       0.00038926705 0.0039652106 0.0046450365 0.002876746
0000e0 e0 cb ad 3b aa 0b 43 3c ac 33 fa 3b f0 31 0e bc
       0.005303845 0.011904636 0.0076355543 -0.008678898
0000f0 2e 43 a8 3a 3f 88 19 ba e1 98 c8 3b 53 42 60 bb
       0.0012837404 -0.0005856789 0.00612174 -0.003421922
000100 7a 2d 70 39 56 08 7e b9 bd 97 2a 3b 13 ee 4d bb
       0.00022905125 -0.00024226433 0.0026030384 -0.003142242
000110 fe eb 20 bb 42 8a ca bb d1 af 56 bb 13 31 c0 bb
       -0.0024554725 -0.0061810324 -0.0032758603 -0.005865225
000120 e4 42 01 3a 76 9c 93 ba c6 db ea bc 62 71 73 3b
       0.0004930927 -0.0011261839 -0.02866925 0.003714644
000130 26 23 13 3b 16 08 a3 b9 ff b4 4d 3b 32 13 41 3a
       0.002245137 -0.00031095807 0.00313884 0.0007365226
000140 d1 3e 5a 3b 79 a1 8a ba bb 34 11 3c 46 6b 5f bc
       0.0033301602 -0.0010576687 0.00886267 -0.013636416
000150 31 70 7c 3c 2c 7e 4a 3c 5e 06 69 bb 5b a0 44 3c
       0.015407608 0.012359183 -0.0035556774 0.012001122
000160 38 86 de b8 ba d5 93 ba 27 d5 dd b9 da dc ae ba
       -0.00010610785 -0.0011278905 -0.00042311216 -0.0013340965
000170 d6 2d b1 bb 18 24 a0 3c ac e3 08 ba d4 a0 68 ba
       -0.0054070754 0.01954846 -0.0005221914 -0.0008874063
000180 c1 46 47 3c 01 38 0d bc 46 f8 9a 3b b2 bf 8d bb
       0.012162865 -0.008619309 0.0047293035 -0.0043258304
000190 39 8a ee 39 94 e7 83 39 93 4b 5c 3c 68 66 27 bc
       0.0004549788 0.00025158806 0.013445753 -0.010217287
0001a0 2f 1e 4e bb 7b a9 0f bc 46 0d 0e 3b b5 9f 4c b9
       -0.0031451096 -0.008768435 0.0021675392 -0.00019514452
0001b0 82 2f 3e bb 13 10 fb 3b c6 7d 8f bb 49 4a 24 bc
       -0.0029020016 0.0076618283 -0.004379007 -0.010027477
0001c0 4f 69 41 bc cc 4c 3b 3b 27 d5 70 ba 33 6b d9 3b
       -0.011804893 0.002857971 -0.00091870356 0.0066350936
0001d0 9e 5d 19 bc d7 96 dc 3b 9b a0 79 bb 14 3e cc 39
       -0.009360699 0.0067318487 -0.0038090113 0.00038956164
0001e0 e9 1d f6 39 5f 97 61 ba 1a 34 e6 ba 81 a1 37 bb
       0.0004694306 -0.0008605625 -0.0017563135 -0.0028019848
0001f0 58 02 00 bc d5 c4 41 bc 03 e3 83 3b 63 7d 8a bb
       -0.007813059 -0.011826714 0.0040248646 -0.004226373
000200 53 c2 a6 3a 24 f3 a9 3a b1 5a 33 bb 98 b1 47 ba
       0.0012722708 0.0012966138 -0.0027367289 -0.0007617711
000210 10 64 d8 ba 2f 9c 56 38 de cf 5d bb 64 60 c8 bb
       -0.0016509313 5.1167033e-05 -0.0033845822 -0.0061150063
000220 2f 10 82 3b ee c7 0d bb a4 70 ab b8 d0 bb ad 3a
       0.0039692144 -0.002163406 -8.174896e-05 0.0013254825
000230 16 e3 a2 3b cf 2d c3 3b b2 55 be 3b f6 0a 8b bb
       0.0049709184 0.0059563885 0.0058085555 -0.00424325
000240 80 cc 92 3b cd 31 7c 3a 20 e5 16 bb ed b8 bd 3a
       0.0044799447 0.0009620458 -0.0023024753 0.0014474668
000250 06 db 82 39 48 d0 9d ba 9f d5 1c ba 5c 1a bc ba
       0.00024958717 -0.0012040222 -0.000598276 -0.0014351117
000260 a3 d7 1a bc 84 b0 cc 3a 38 2f a4 bb ce be c3 3a
       -0.009450826 0.0015616571 -0.0050105117 0.0014934184
000270 e3 c4 2d bb 25 e7 66 39 d4 25 b1 3a f4 59 00 bb
       -0.0026515059 0.00022020617 0.0013515302 -0.0019584866
000280 d9 96 1a 3b 0a 8b cc ba f2 c8 e1 ba 89 6e 63 3b
       0.0023588447 -0.0015605402 -0.0017226024 0.0034703335
000290 5a 03 a1 b8 de 1b ce 3b 51 bb ae ba f4 d7 09 bb
       -7.6777025e-05 0.006289943 -0.0013330971 -0.002103326
0002a0 28 e7 c4 3b ba 78 c9 bb 49 89 8b ba b2 0d 4b bb
       0.0060090013 -0.006148425 -0.0010645773 -0.0030983505
0002b0 92 e1 36 3e df 85 a7 3d 46 9f 4b 3a ed bb 8f 3c
       0.17859486 0.08179831 0.0007767569 0.017545665
0002c0 96 b5 fa b9 51 aa 3c ba f5 a6 c0 3a 47 9a f2 ba
       -0.00047819008 -0.000719701 0.0014698195 -0.0018509113
0002d0 82 31 38 ba 9b 15 be b9 3d 5b 0d 3c b8 8b f8 3b
       -0.000702642 -0.0003625572 0.00862771 0.007585015
0002e0 a3 7c 3d 3b fe f2 61 3b 38 d9 b9 b9 d3 06 a4 39
       0.00289134 0.003447711 -0.0003544779 0.00031285602
0002f0 9f 4b 11 bb 57 80 69 b9 5a 87 73 b9 64 b8 14 3b
       -0.0022170318 -0.00022268422 -0.00023224708 0.0022692913
000300 08 27 c9 ba 85 72 a9 bb 82 f6 8f b8 21 42 fc b9
       -0.0015346715 -0.0051711225 -6.864687e-05 -0.00048114455
000310 24 13 a1 39 e0 bf 18 b9 21 12 72 39 14 7f 33 3b
       0.00030722574 -0.00014567329 0.00023085672 0.0027388977
000320 e9 b1 99 bb 98 5c bd 38 79 96 53 39 1b 0d b7 39
       -0.004690398 9.029469e-05 0.00020178584 0.00034914244
000330 de 0f 4c bb 2e 96 02 bb 9f 4e e5 ba 45 ee d9 3b
       -0.0031137387 -0.001992594 -0.0017494744 0.0066507184
000340 6f f1 b5 ba 0d 45 7b ba 83 1f 5a b9 4d 2a 48 b9
       -0.0013881157 -0.00095851795 -0.00020801839 -0.00019089245
000350 4e 99 2e bb 5d 35 4b bb 52 1f 48 3b 8e 4f be ba
       -0.002664167 -0.0031007149 0.0030536246 -0.0014519559
000360 da 5d 25 b8 0f f4 09 bb f5 b9 62 3a fd e8 1f 38
       -3.942647e-05 -0.0021050011 0.00086489256 3.812554e-05
000370 6f 2d 47 b9 43 da 0f b9 fc 17 9b bb 29 d2 14 3c
       -0.00018995044 -0.00013718852 -0.004733084 0.009083309
000380 4d 69 83 bc e4 e5 3c 3b 20 2a ff ba 85 4d c2 39
       -0.016041422 0.002882355 -0.001946751 0.0003706032
000390 86 82 1b bb dc 7c 88 bb e8 46 d4 bb 97 09 57 bc
       -0.002372892 -0.004165275 -0.0064781792 -0.013124845
0003a0 9f 92 68 3b cb 70 f6 ba a2 e3 b8 3b 42 bf fd bb
       0.0035487784 -0.0018801925 0.0056423703 -0.007743747
0003b0 73 29 0d 39 ef eb bd 3a 74 d5 0f 3b 9c de ac bb
       0.00013462249 0.0014489869 0.0021947296 -0.0052755605
0003c0 a1 02 19 3b a3 aa 63 b9 c0 98 58 bb 97 c3 b5 3b
       0.0023347514 -0.00021711974 -0.003305003 0.0055469978
0003d0 b2 c7 a8 3b 0d 61 3a 3a 9e 94 08 ba b9 ef 2b b8
       0.0051507587 0.00071097986 -0.0005210134 -4.0992836e-05
0003e0 40 bf d5 ba 62 8e 32 3b 01 d5 c8 b7 7c 6e 1c 39
       -0.0016307607 0.0027245511 -2.3941046e-05 0.00014918478
0003f0 df b5 e3 38 a6 d1 16 3a bc ce 29 bb 39 b1 d3 3b
       0.000108580796 0.0005753286 -0.0025910577 0.0064603356

b f4 [10000]
000000 95 7d 82 39 4f 65 89 39 9d 82 88 39 b4 ec 88 39
       0.00024889098 0.00026206157 0.00026037256 0.000261163
000010 dd 9f 9e 39 90 43 97 39 f8 4e 98 39 8e 83 77 39
       0.00030255216 0.00028851302 0.00029050536 0.00023604764
000020 3f 5e 6d 39 f4 aa 9d 39 59 cf 97 39 a3 84 7b 39
       0.0002263719 0.00030072744 0.0002895545 0.00023986636
000030 d8 eb 64 39 21 40 c7 39 66 a5 96 39 72 a0 99 39
       0.00021831633 0.00038004018 0.0002873346 0.00029301975
000040 90 a6 65 39 50 a2 73 39 f2 71 7a 39 2f e2 ab 39
       0.00021901191 0.00023234752 0.00023884306 0.00032784182
000050 83 8d 2f 39 25 7a 87 39 73 d2 80 39 7e bd 76 39
       0.00016742018 0.0002584021 0.0002457086 0.0002353098
000060 7d cd 78 39 cc 23 54 39 f8 c4 ad 39 5b 82 8f 39
       0.00023727673 0.00020231231 0.00033143885 0.00027372208
000070 01 ce 76 39 6d 65 68 39 03 90 8f 39 6a 10 94 39
       0.0002353713 0.00022163028 0.00027382383 0.0002824099
000080 dc 44 a8 39 b6 c0 98 39 2e ce a9 39 5c e3 8b 39
       0.0003209476 0.0002913528 0.00032387808 0.00026681542
000090 39 27 82 39 d8 46 78 39 89 8c a1 39 63 49 99 39
       0.00024824755 0.00023677514 0.0003081302 0.0002923711
0000a0 1e b9 9e 39 a7 c3 a3 39 1d e5 95 39 39 0b 8a 39
       0.0003027403 0.00031235555 0.00028590197 0.00026329773
0000b0 e4 e5 94 39 96 fa 90 39 50 4b 8e 39 f9 6c 80 39
       0.00028400042 0.0002765252 0.00027140463 0.00024495253
0000c0 f8 7b 8c 39 42 05 84 39 a1 5f 82 39 35 e7 57 39
       0.00026795245 0.0002518092 0.0002486678 0.00020590129
0000d0 4d 94 9d 39 a4 a1 8b 39 03 00 a2 39 d7 96 90 39
       0.00030055866 0.00026632578 0.00030899057 0.00027578205
0000e0 97 09 99 39 01 c2 b3 39 43 1c 86 39 60 9f a0 39
       0.0002918958 0.00034286085 0.00025579528 0.00030636322
0000f0 72 9c 9a 39 f3 53 90 39 9a 9f 45 39 0b 82 8d 39
       0.0002948973 0.00027528367 0.0001884684 0.00026990505
000100 a5 4e a9 39 1f bf 6c 39 c7 b9 b8 39 97 fd 83 39
       0.00032292787 0.00022577912 0.0003523363 0.00025175206
000110 bd 79 af 39 1d 2f 99 39 d7 38 9d 39 7c 38 81 39
       0.00033469303 0.00029217536 0.00029987723 0.00024646882
000120 3d ab 96 39 48 8b 52 39 c1 59 7a 39 0e 5c 84 39
       0.00028737812 0.00020079047 0.00023875294 0.00025245588
000130 50 03 68 39 ca a8 5f 39 71 76 98 39 a4 1e 94 39
       0.00022126478 0.00021329816 0.00029079945 0.0002825159
000140 de bf 6e 39 6a 15 79 39 04 ac 85 39 67 32 ab 39
       0.00022768925 0.00023754468 0.00025495898 0.00032653214
000150 2f a4 60 39 89 d7 93 39 1e 83 8c ba 62 a4 78 39
       0.00021423468 0.0002819861 -0.0010720228 0.0002371236
000160 a7 0c 44 39 c2 a4 6e 39 c6 60 78 39 c9 73 95 39
       0.0001869673 0.00022758826 0.00023687174 0.0002850576
000170 5f 10 98 39 80 33 6d 39 61 6a 95 39 93 2b 95 39
       0.00029003897 0.00022621267 0.00028498753 0.0002845196
000180 2a 01 81 39 1d 47 84 39 02 fa 81 39 09 04 8d 39
       0.00024605665 0.00025229985 0.00024791068 0.00026896622
000190 75 1e 7d 39 4c ec 89 39 9d 5b 8c 39 7f 42 60 39
       0.00024139306 0.0002630673 0.00026771138 0.00021387076
0001a0 5b a5 96 39 6c 9b 9f 39 1f 79 b6 39 33 e1 91 39
       0.0002873343 0.00030442642 0.00034803987 0.00027824342
0001b0 a2 76 9b 39 cd a3 9a 39 a5 b6 7b 39 c3 2d 7c 39
       0.00029652292 0.0002949521 0.00024005266 0.0002404964
0001c0 e2 3f 7e 39 d7 da 5b 39 18 cc 75 39 08 36 b1 39
       0.00024247126 0.00020966992 0.00023441052 0.00033800327
0001d0 67 4d 92 39 14 00 98 39 ee 72 a3 39 c2 72 74 39
       0.0002790496 0.00028991757 0.00031175412 0.00023312404
0001e0 71 ee 92 39 c8 c1 72 39 f3 34 99 39 ab bb 9c 39
       0.00028024943 0.00023151108 0.00029221884 0.00029894462
0001f0 ac 7c 9e 39 5e 08 76 39 3f 2a 8e 39 97 95 a2 39
       0.00030228996 0.00023463505 0.00027115826 0.000310105
000200 4e d1 52 39 ec df ac 39 1b 9f 8d 39 15 76 97 39
       0.00020105133 0.0003297323 0.00027012159 0.00028888942
000210 33 be 8a 39 4c f9 96 39 0f d1 85 39 23 2a 83 39
       0.0002646312 0.0002879597 0.00025523498 0.0002501766
000220 80 ec 8f 39 e8 0b c1 39 09 7f 86 39 90 fb 62 39
       0.00027451292 0.000368207 0.0002565312 0.00021646754
000230 49 88 63 39 76 23 99 39 45 8e 5d 39 c6 65 7a 39
       0.00021699177 0.00029208855 0.00021129202 0.00023879771
000240 e0 e5 7b 39 77 15 c7 39 a2 51 8c 39 bf 98 c3 39
       0.0002402286 0.0003797223 0.00026763702 0.00037307103
000250 f7 4a 98 39 66 ee 8f 39 ef b3 99 39 f8 d0 84 39
       0.00029047552 0.00027452706 0.00029316495 0.00025332696
000260 75 88 8d 39 a3 33 90 39 6a db bb 39 2c 72 82 39
       0.00026995284 0.00027504293 0.00035830896 0.00024880597
000270 9c 81 9a 39 ad ad ab 39 3b 18 62 39 a3 7c a1 39
       0.00029469735 0.0003274506 0.00021562066 0.00030801175
000280 e2 e8 87 39 21 7b a1 39 6e 49 89 39 33 a9 61 39
       0.00025922718 0.0003080005 0.00026185386 0.00021520704
000290 a9 bc b1 39 c0 5a 8f 39 5c 20 8e 39 a9 81 91 39
       0.00033900634 0.000273427 0.0002710846 0.0002775316
0002a0 c2 83 92 39 de 6e 9c 39 cf 2d 87 ba 8d 3e 82 39
       0.00027945457 0.0002983724 -0.0010313335 0.00024842136
0002b0 dd c2 60 39 67 4f 55 39 82 50 6e 39 9e 5c 7b 39
       0.00021434897 0.00020342843 0.0002272744 0.00023971728
0002c0 84 06 86 39 67 89 83 39 e8 79 9e 39 9d 32 aa 39
       0.00025563326 0.0002508864 0.00030226936 0.00032462637
0002d0 87 0a 98 39 0b be ac 39 85 37 95 39 29 3d 91 39
       0.00028999543 0.0003294799 0.0002846086 0.00027702123
0002e0 3e 6c 6d 39 a2 be 80 39 aa 26 84 39 da 8c 79 39
       0.00022642405 0.00024556095 0.0002520581 0.00023798962
0002f0 53 65 97 39 11 01 9f 39 0a 8f a5 39 55 e9 3d 39
       0.00028876457 0.00030327638 0.00031577825 0.00018111368
000300 28 57 78 39 8b 6e af 39 ad 32 bb 39 2a 5d 72 39
       0.00023683591 0.00033460962 0.00035705176 0.00023113625
000310 29 40 87 39 aa 29 bc 39 d2 46 69 39 b8 7b 86 39
       0.0002579701 0.00035889196 0.00022246994 0.0002565065
000320 73 96 7c 39 bf 2a 98 39 ea 66 a1 39 8a a7 89 39
       0.0002408864 0.00029023548 0.0003078499 0.00026255503
000330 58 a5 90 39 84 39 b8 39 41 21 80 39 f3 e5 84 39
       0.0002758901 0.00035138067 0.0002443884 0.00025348327
000340 50 29 87 39 b4 bd 6e 39 d3 05 9b 39 5c 4d 53 39
       0.00025779987 0.00022768119 0.00029568243 0.00020151347
000350 e1 a3 83 39 1b 44 53 39 59 c3 9e 39 ec f5 88 39
       0.00025108366 0.000201479 0.00030281654 0.00026123167
000360 88 ce 97 39 10 25 93 39 c3 3c 98 39 cb 22 73 39
       0.00028954842 0.0002806564 0.0002903697 0.00023187247
000370 bb 02 80 39 08 e6 9c 39 a6 66 68 39 05 e8 63 39
       0.00024416097 0.00029926025 0.00022163484 0.00021734841
000380 a3 74 8d 39 b1 b1 81 39 17 aa 8a 39 7a 22 99 39
       0.00026980517 0.00024737188 0.00026448138 0.0002920812
000390 85 35 b7 39 90 32 9a 39 6b 8f 92 39 b1 3d 89 39
       0.00034944355 0.0002941084 0.00027954145 0.0002617664
0003a0 27 fc 6f 39 59 8d 62 39 7e 4a bc 39 39 e4 76 39
       0.0002288675 0.00021605696 0.00035913655 0.00023545408
0003b0 ca 49 a4 39 b6 c9 5c 39 16 5a ac 39 f0 d8 94 39
       0.00031335495 0.00021055978 0.00032873516 0.0002839039
0003c0 f5 a9 a9 39 c6 4c 7f 39 53 31 b0 39 43 b1 b2 39
       0.0003236082 0.00024347295 0.00033606085 0.00034082876
0003d0 5f f5 a5 39 5b 5d 8c 39 06 ea 86 39 79 cc 52 39
       0.00031654068 0.00026772436 0.00025732833 0.00020103333
0003e0 d2 fc 95 39 e1 e9 8e 39 7d 0d b1 39 02 eb a2 39
       0.0002860786 0.00027258604 0.0003377012 0.00031074142
0003f0 7b ab a6 39 29 9b 29 39 7e 0a 8d 39 ee 36 a0 39
       0.0003178975 0.00016174898 0.00026901433 0.00030558504

exp_avg f4 [10000, 2]
000000 9e c5 6d 27 89 65 22 ab 94 58 c7 aa 47 5c 93 2a
       3.2997486e-15 -5.769487e-13 -3.5410965e-13 2.6176476e-13
000010 60 26 41 a9 f8 86 dc aa 30 cb f7 aa b5 6d 5e ab
       -4.2887894e-14 -3.9173504e-13 -4.4017004e-13 -7.9022493e-13
000020 c1 07 f5 ab 5c 4d 95 2b cc 08 84 2c 62 79 66 ac
       -1.7410449e-12 1.0608558e-12 3.7526423e-12 -3.2752347e-12
000030 4b 8f 52 2c 72 fc 86 2b ee 0f c8 aa e5 f8 47 2c
       2.9922338e-12 9.59134e-13 -3.553819e-13 2.8417765e-12
000040 a6 0c c4 2b b8 98 68 2b 34 ae cd ab 3b 73 72 ab
       1.3930148e-12 8.2634897e-13 -1.4614477e-12 -8.6135585e-13
000050 6f e2 4f ab d3 8a c9 2b 6c 06 4d a8 d5 40 6b a9
       -7.3855413e-13 1.432044e-12 -1.13811785e-14 -5.2236715e-14
000060 48 6e 2f ab 4f b3 cc 2a f3 82 ad 29 53 68 16 2c
       -6.2325535e-13 3.63621e-13 7.7054594e-14 2.1374194e-12
000070 d5 38 35 ac f0 85 b6 ab de 41 14 2c ea bb d6 2b
       -2.5753195e-12 -1.2969053e-12 2.1068629e-12 1.5257771e-12
000080 9c 51 b3 2a 08 bd 1f ac 26 43 de aa f7 b6 35 2a
       3.1853415e-13 -2.2700192e-12 -3.9481715e-13 1.6139508e-13
000090 8e 02 19 2b f2 95 8d aa d2 0f f4 aa 77 ef 1d aa
       5.4360065e-13 -2.5150677e-13 -4.3354084e-13 -1.4027482e-13
0000a0 f1 f2 02 ab 40 ea 69 2a 14 c4 f0 aa d4 da dd ab
       -4.6522427e-13 2.0775829e-13 -4.276862e-13 -1.5763731e-12
0000b0 36 b8 84 aa 13 38 9b 2a 68 af 0c ac 32 c8 97 2b
       -2.3575732e-13 2.757244e-13 -1.9992567e-12 1.0784761e-12
0000c0 54 11 a3 29 d5 b5 3c a9 9c 0c ba 28 18 da 61 ac
       7.24166e-14 -4.19021e-14 2.0655617e-14 -3.209549e-12
0000d0 f3 3d a8 ab 04 4e 27 2b aa 63 4d aa 80 54 55 2b
       -1.1954312e-12 5.9438587e-13 -1.8242236e-13 7.579007e-13
0000e0 f0 b0 89 aa 23 ba e9 ab 9b 99 a7 ab 21 f6 9c 2b
       -2.4458864e-13 -1.6607309e-12 -1.1908698e-12 1.1152781e-12
0000f0 1b 20 39 ab 8d 77 ff 2a 37 16 43 ac 71 18 77 2c
       -6.576976e-13 4.5380054e-13 -2.7723498e-12 3.5114379e-12
000100 3b e3 18 ab 11 d9 4b 2a a4 3b af 2b 0b ab dc ab
       -5.4316594e-13 1.8105332e-13 1.2451051e-12 -1.5679414e-12
000110 4e be c0 ab c9 8f 6e a7 11 c3 0a ab b4 61 a9 2b
       -1.3695241e-12 -3.3107081e-15 -4.929816e-13 1.203529e-12
000120 39 6e fa a9 d8 9d c3 2a 78 2d 52 2c 41 04 53 a9
       -1.1121351e-13 3.4748484e-13 2.9868035e-12 -4.68551e-14
000130 5f 7e b1 2a c8 c5 e9 2a 64 7a 46 ab 62 60 76 aa
       3.1529204e-13 4.1526353e-13 -7.051358e-13 -2.1882629e-13
000140 f2 93 09 ab 5a 7b 02 aa d1 1f a7 aa 58 11 bd 2b
       -4.8877493e-13 -1.1589116e-13 -2.9687236e-13 1.3434072e-12
000150 25 69 5d ac 42 86 ee ab 0b 42 6d 2b 1b ab 91 ab
       -3.1464356e-12 -1.6948181e-12 8.4290967e-13 -1.0350361e-12
000160 c8 b4 63 aa 61 82 62 29 97 94 3c 2b c3 fa 05 2b
       -2.0224371e-13 5.0295166e-14 6.6997227e-13 4.7599094e-13
000170 4c b7 76 2b 3d 47 0d 2b fe 52 2c 2b 3b 92 6d aa
       8.765113e-13 5.0192126e-13 6.122185e-13 -2.1100562e-13
000180 3e 6d f3 ab 7f c6 48 2b 8a 92 e9 ab 05 bd 6e 2b
       -1.7296509e-12 7.132974e-13 -1.6596319e-12 8.4816903e-13
000190 62 14 78 aa 21 77 5b 2b da 84 1b ac 2f 24 01 2c
       -2.2033897e-13 7.7969754e-13 -2.2100572e-12 1.8352089e-12
0001a0 94 36 6a ab d2 9d 0a 2b e6 87 5c 2a 5f 58 af ab
       -8.320924e-13 4.924647e-13 1.9587074e-13 -1.2459026e-12
0001b0 10 11 48 ab 33 95 58 29 1d 51 06 2c ea 2b 97 aa
       -7.107795e-13 4.8091044e-14 1.9087572e-12 -2.685346e-13
0001c0 9d c5 b4 2d 14 72 90 ac 5c 6a 13 2b d2 ea 4d ac
       2.0551389e-11 -4.1053914e-12 5.2372494e-13 -2.9262604e-12
0001d0 9a f5 b0 29 7b 81 11 ac 66 21 1b ab d6 24 29 aa
       7.858575e-14 -2.0677615e-12 -5.511341e-13 -1.5022995e-13
0001e0 14 52 0b 2b a4 2d a7 29 e3 16 39 2c 25 04 8a 2c
       4.9496626e-13 7.424207e-14 2.6302786e-12 3.922656e-12
0001f0 a8 df bc 2b ee 5e e9 2b 06 38 13 ab 76 97 d1 2a
       1.342028e-12 1.6581994e-12 -5.230264e-13 3.7230955e-13
000200 2f 35 bd ab f9 79 81 2b 36 fd 3b ab ac 22 1f 2b
       -1.3444019e-12 9.199856e-13 -6.6787147e-13 5.6536264e-13
000210 31 87 5d 2d 4a 70 76 ac 62 76 8f 2b 60 39 28 2b
       1.2592414e-11 -3.5021036e-12 1.0193619e-12 5.9765214e-13
000220 19 b1 ef ab 60 67 00 2c a2 30 30 ab 25 9a f5 2a
       -1.7031126e-12 1.8247279e-12 -6.259525e-13 4.3627702e-13
000230 e2 ee 8e 2c 24 2e 8b ac 3c 01 b6 2c 38 a2 b9 ac
       4.062404e-12 -3.9557402e-12 5.172888e-12 -5.276026e-12
000240 2d 42 5f aa 2c 4d 60 a9 51 f6 a9 2b a9 cb ac ab
       -1.9829338e-13 -4.9804927e-14 1.2076539e-12 -1.2277862e-12
000250 88 d7 81 2a b2 50 e6 a8 c0 a9 d3 2a d3 7e 06 ab
       2.3064558e-13 -2.5570126e-14 3.7598917e-13 -4.7782367e-13
000260 36 00 02 ab ff c4 f1 aa 2d 6d 17 2c 98 af 01 ab
       -4.618557e-13 -4.2946893e-13 2.1518995e-12 -4.607369e-13
000270 46 49 c5 2b e7 0d 61 aa b3 f9 82 2b 4d 30 38 ab
       1.4018029e-12 -1.9988838e-13 9.306361e-13 -6.543696e-13
000280 c5 c5 17 ab af ee dd a8 30 57 83 2b 86 46 02 ac
       -5.3920437e-13 -2.4639441e-14 9.332309e-13 -1.851326e-12
000290 ae ca bc 2a 1b 4b 81 ac cc 2b f8 2b 8c 5f 92 2b
       3.3536146e-13 -3.674739e-12 1.7633616e-12 1.0400444e-12
0002a0 92 2d da ab 1e c8 b5 2b fb 62 07 29 92 51 5e 2b
       -1.550248e-12 1.2916367e-12 3.0061874e-14 7.8983445e-13
0002b0 eb 51 99 ad a6 01 28 ad 2a 83 54 ab 26 d8 c9 ab
       -1.7430465e-11 -9.55006e-12 -7.5499557e-13 -1.4341902e-12
0002c0 9c 43 30 ab 6e c4 ed a9 1c 20 90 2a 40 f6 89 2b
       -6.262159e-13 -1.05589894e-13 2.560182e-13 9.802784e-13
0002d0 30 4b 61 2b e6 ef b5 a9 be df b6 ab 7b 62 81 ab
       8.00404e-13 -8.0796304e-14 -1.2993979e-12 -9.193335e-13
0002e0 a9 cd a0 ab d4 0b 59 2a 77 21 d5 2a 7b a3 8f aa
       -1.1425766e-12 1.9277575e-13 3.7859622e-13 -2.551534e-13
0002f0 68 74 93 aa 36 64 dc 29 72 b7 bd aa 11 8a a7 aa
       -2.6193219e-13 9.7873464e-14 -3.3700435e-13 -2.9760962e-13
000300 20 15 c2 2a 1c bc 79 2b 1c c6 45 2b f8 af 8d 2b
       3.447598e-13 8.8723625e-13 7.026339e-13 1.0067494e-12
000310 97 45 ea aa aa 8d 4d 2a b5 94 96 aa ff cf 94 ab
       -4.1615038e-13 1.8256807e-13 -2.674854e-13 -1.0573763e-12
000320 43 64 43 aa b5 38 88 2a 91 cb 93 a9 81 8b 39 29
       -1.7354264e-13 2.4197801e-13 -6.5634245e-14 4.1199252e-14
000330 ea 40 2f 2b df fe 5d 2b fe d5 c4 aa 83 55 ca aa
       6.2262576e-13 7.8868677e-13 -3.496508e-13 -3.5941744e-13
000340 9a b9 c7 2b 18 ec ce 2a e4 fc 65 2a 24 9e 61 2a
       1.4191315e-12 3.6756774e-13 2.0427025e-13 2.003888e-13
000350 59 28 65 2c 8e f4 23 ac a0 bc f9 ab 62 d7 d7 2b
       3.2565255e-12 -2.3299448e-12 -1.7744868e-12 1.533645e-12
000360 1b 95 b8 2a 54 ca 37 aa 3f fb 2b ab 66 3b e6 a9
       3.2788429e-13 -1.6323862e-13 -6.110008e-13 -1.0224356e-13
000370 ab aa 54 aa 78 6a dd 2a 0a a0 ca aa 20 50 8f 2b
       -1.8888595e-13 3.9331364e-13 -3.5993458e-13 1.0183e-12
000380 f3 3a e0 ab f4 fd 5e 2b 24 c5 aa 2c 8a 0c f5 ab
       -1.5932519e-12 7.9222674e-13 4.8535776e-12 -1.7411777e-12
000390 03 c5 8c 2a 68 2d 79 2b 53 43 96 2c a9 09 15 ac
       2.50057e-13 8.8525584e-13 4.270731e-12 -2.1179536e-12
0003a0 66 d0 40 ab 60 73 98 2b 8b d3 1e ac ae 82 b3 2b
       -6.8501314e-13 1.0832273e-12 -2.257058e-12 1.2754986e-12
0003b0 ac 2f 0b 2b 56 48 43 2c 2b e5 57 a9 86 8f d7 29
       4.944888e-13 2.7751321e-12 -4.793836e-14 9.5728154e-14
0003c0 62 5a dc a9 6f 92 e4 a9 ea da 75 2b 32 0f 4c ab
       -9.7856415e-14 -1.0150636e-13 8.734529e-13 -7.2496447e-13
0003d0 e2 35 51 2b 9d 95 1e ab 06 48 9b 2c 8d 43 b0 ab
       7.4326493e-13 -5.6340506e-13 4.413361e-12 -1.2524301e-12
0003e0 88 48 5f 2a b6 0b 03 ab 61 b4 dc aa 7e 58 94 a8
       1.9831543e-13 -4.65568e-13 -3.9205013e-13 -1.6469678e-14
0003f0 94 ba e6 aa ad 91 9b 2a 3e e9 10 ab 9a 13 32 aa
       -4.0985672e-13 2.7634614e-13 -5.1482766e-13 -1.5816377e-13

exp_avg_sq f4 [10000, 2]
000000 af ce c1 11 24 de c3 16 92 3b 25 16 08 12 b4 15
       3.057741e-28 3.164414e-25 1.3347391e-25 7.272987e-26
000010 f1 91 52 13 08 9a 20 16 44 54 81 16 45 4c 3e 17
       2.6577681e-27 1.2973301e-25 2.0894253e-25 6.1488577e-25
000020 a0 71 71 18 6a ac b3 17 29 a9 85 19 82 03 4f 19
       3.1205886e-24 1.1611127e-24 1.3820201e-23 1.07023576e-23
000030 6e cb 2e 19 7a 82 89 17 26 b6 42 16 4b e3 14 19
       9.0366715e-24 8.886354e-25 1.5728671e-25 7.697322e-24
000040 5d 98 15 18 fb 02 53 17 50 a3 22 18 20 a1 5b 17
       1.9334722e-24 6.818154e-25 2.1020461e-24 7.0966085e-25
000050 0c d9 12 17 91 62 12 18 d6 7b 01 11 aa 49 d3 13
       4.7449096e-25 1.8919821e-24 1.0214466e-28 5.3336527e-27
000060 a2 22 fd 16 86 8c 28 16 4b 35 9c 13 46 e2 bb 18
       4.089621e-25 1.3615273e-25 3.9432487e-27 4.8566845e-24
000070 b3 ee 03 19 91 1c e4 17 79 64 ab 18 bd 57 33 18
       6.820746e-24 1.4741366e-24 4.4303915e-24 2.3179504e-24
000080 38 6e c6 15 b7 e5 ac 18 7b 5f 48 16 df 2c d4 14
       8.014546e-26 4.469291e-24 1.6186e-25 2.1424228e-26
000090 70 5f c8 16 8d 40 7b 15 ba b8 77 16 b1 85 86 14
       3.2371972e-25 5.0739968e-26 2.001079e-25 1.3583274e-26
0000a0 24 57 8e 16 b3 04 6f 15 b5 60 6d 16 29 12 3c 18
       2.299633e-25 4.8269373e-26 1.9175223e-25 2.43076e-24
0000b0 c5 df 93 15 f6 f9 c3 15 eb b1 9d 18 1b ba b6 17
       5.9725873e-26 7.915424e-26 4.07632e-24 1.1808454e-24
0000c0 8d 1d aa 13 bb d0 de 12 8a 2a b0 12 c9 1c 4a 19
       4.2943173e-27 1.4061626e-27 1.1117648e-27 1.0448968e-23
0000d0 b7 b1 e4 17 e4 28 df 16 ed 0d 2d 15 c6 f5 2f 17
       1.4779016e-24 3.6053399e-25 3.4948057e-26 5.685576e-25
0000e0 72 c9 9c 15 1e d7 4b 18 30 82 db 17 ce 1b bd 17
       6.332572e-26 2.6345741e-24 1.4185407e-24 1.2220858e-24
0000f0 cd 7e 05 17 6c 07 82 16 c7 1f 15 19 d6 0f 6f 19
       4.3134663e-25 2.1007317e-25 7.709537e-24 1.23592084e-23
000100 43 b8 c0 16 19 f7 25 15 95 c0 e7 17 44 aa 3b 18
       3.1135558e-25 3.351641e-26 1.497664e-24 2.4255146e-24
000110 f5 ac 13 18 4b 4b 62 11 f3 c4 9f 16 f9 2e df 17
       1.9086626e-24 1.7851458e-28 2.5812128e-25 1.4422895e-24
000120 b0 c7 91 14 c8 18 18 16 8b 62 29 19 cd 99 c1 12
       1.4720021e-26 1.2286282e-25 8.756996e-24 1.2217927e-27
000130 ca df df 15 aa 57 5a 16 9f a4 16 17 44 6d 69 15
       9.042206e-26 1.7637562e-25 4.8675395e-25 4.714017e-26
000140 4d b4 92 16 1d 43 95 14 7d 5f c3 15 d9 f2 07 18
       2.3701358e-25 1.5071627e-26 7.8910527e-26 1.7570948e-24
000150 68 60 3c 19 8e 43 55 18 a3 01 53 17 82 bf 98 17
       9.738841e-24 2.7563711e-24 6.8179843e-25 9.871113e-25
000160 11 30 52 15 9f bb 25 13 d8 97 05 17 e6 f4 8c 16
       4.244708e-26 2.0918432e-27 4.316627e-25 2.2772773e-25
000170 5a bc 75 17 f6 79 cd 16 aa ae e5 16 98 13 64 15
       7.9401503e-25 3.3196504e-25 3.7107174e-25 4.605969e-26
000180 1d c2 67 18 55 93 1f 17 60 84 53 18 45 e7 54 17
       2.9954052e-24 5.156163e-25 2.7337943e-24 6.87928e-25
000190 0b 8b 8b 15 6f a8 44 17 ad 75 ba 18 bc c9 80 18
       5.6361024e-26 6.354361e-25 4.8198695e-24 3.3290924e-24
0001a0 06 ea 5e 17 9b 2f 8b 16 df a6 3e 15 a0 3f ec 17
       7.202745e-25 2.2486704e-25 3.8501833e-26 1.5267204e-24
0001b0 31 db 1c 17 86 5a c5 13 88 b6 8a 18 50 d0 a1 15
       5.0682977e-25 4.9819054e-27 3.5856473e-24 6.535604e-26
0001c0 c7 d4 fd 1b 8f 8b a2 19 1e 36 8a 16 83 25 2c 19
       4.1992843e-22 1.6806775e-23 2.2329255e-25 8.899767e-24
0001d0 33 37 bb 13 80 62 a3 18 bb 8f c7 16 b7 d1 da 14
       4.7259867e-27 4.2233972e-24 3.224089e-25 2.2095093e-26
0001e0 c5 6f b6 16 6f 69 de 13 d5 11 06 19 9b 56 96 19
       2.9474222e-25 5.6144644e-27 6.931239e-24 1.5544616e-23
0001f0 da 4b 07 18 ef 52 4f 18 31 cf aa 16 5d de 2b 16
       1.7486636e-24 2.6795994e-24 2.7595737e-25 1.3883435e-25
000200 43 85 12 18 22 7d 8d 17 d7 d0 0d 17 fc c3 c7 16
       1.8937338e-24 9.143499e-25 4.582315e-25 3.2273867e-25
000210 eb c0 3e 1b 48 fd 68 19 53 0d 9b 17 6e bb d6 16
       1.5778767e-22 1.2045269e-23 1.0020004e-24 3.469185e-25
000220 12 de 67 18 ad 37 86 18 f3 2f f4 16 b1 14 63 16
       2.9968167e-24 3.4694406e-24 3.9450586e-25 1.8343443e-25
000230 21 82 9c 19 85 7f 92 19 e3 f3 fe 19 32 47 06 1a
       1.618258e-23 1.5147551e-23 2.636149e-23 2.7768062e-23
000240 cc 67 47 15 72 40 23 13 98 f2 e3 17 e4 cb ea 17
       4.026961e-26 2.0605266e-27 1.473077e-24 1.5173365e-24
000250 a8 fd 77 15 7b 97 46 12 7a f3 39 16 f3 39 77 16
       5.0081352e-26 6.26645e-28 1.5021009e-25 1.9970787e-25
000260 f9 34 87 16 87 a2 66 16 d8 b8 b0 18 cb 55 83 16
       2.1843857e-25 1.8630537e-25 4.568158e-24 2.1218334e-25
000270 7c 52 0f 18 6c 48 2f 15 b4 ac 82 17 4c f9 03 17
       1.852396e-24 3.53981e-26 8.4446495e-25 4.264304e-25
000280 27 58 b4 16 29 33 40 12 2f da 85 17 73 4d 83 18
       2.91362e-25 6.0647577e-28 8.650001e-25 3.394091e-24
000290 56 48 08 16 5a 74 82 19 d0 0e 6e 18 4d d3 a6 17
       1.1008818e-25 1.3488679e-23 3.0768257e-24 1.0780838e-24
0002a0 c2 f1 38 18 c1 61 01 18 1d fc b4 12 db 8c 4c 17
       2.39035e-24 1.6722212e-24 1.1421748e-27 6.609374e-25
0002b0 75 86 b3 1b 37 9e d4 1a a8 77 2e 17 05 2b 19 18
       2.9699957e-22 8.7936755e-23 5.637346e-25 1.9796506e-24
0002c0 66 24 f2 16 15 39 37 14 18 19 a5 15 ca 93 9a 17
       3.912018e-25 9.250396e-27 6.668256e-26 9.989324e-25
0002d0 92 61 43 17 f0 9d e6 13 90 56 06 18 4e e2 7d 17
       6.313105e-25 5.82159e-27 1.7362797e-24 8.2034346e-25
0002e0 1e 79 cd 17 db e5 5e 15 cd c4 28 16 e3 ae 9e 15
       1.3278389e-24 4.5013867e-26 1.3633031e-25 6.4091614e-26
0002f0 08 ac d5 15 3e 46 8a 13 52 53 15 16 5b 19 d2 15
       8.630143e-26 3.490536e-27 1.2062415e-25 8.485833e-26
000300 93 d7 08 16 64 8f 70 17 b7 23 19 17 4a 05 a8 17
       1.1054016e-25 7.7729167e-25 4.9482045e-25 1.0858081e-24
000310 79 5c 5e 16 c4 65 22 15 c0 6a b5 15 9b 1d ac 17
       1.7962196e-25 3.2795918e-26 7.327374e-26 1.1122713e-24
000320 6a 81 10 15 07 51 9b 15 a5 ba ce 13 88 7d 38 13
       2.9182658e-26 6.273184e-26 5.2185757e-27 2.3285957e-27
000330 07 77 e2 16 63 56 3e 17 bd 0d 1e 16 99 43 1a 16
       3.6587386e-25 6.1501346e-25 1.2767473e-25 1.2461351e-25
000340 13 c5 18 18 bc 5e 26 16 08 0b 41 15 f2 ea 4d 15
       1.9745037e-24 1.3439266e-25 3.8984742e-26 4.158476e-26
000350 59 43 4c 19 c1 df cd 18 53 b6 74 18 6f 0f 37 18
       1.05601536e-23 5.321719e-24 3.1628311e-24 2.3659988e-24
000360 93 90 f9 15 01 5e fc 14 fd cb e7 16 7c dc 54 14
       1.007984e-25 2.5482575e-26 3.7448797e-25 1.0746748e-26
000370 39 4f 30 15 e6 10 46 16 bb 06 32 16 0a 74 a0 17
       3.5605413e-26 1.5999645e-25 1.4380849e-25 1.036905e-24
000380 20 a4 4c 18 a1 6c 41 17 1c bd e2 19 6e bb 64 18
       2.6449244e-24 6.249877e-25 2.3444233e-23 2.9562937e-24
000390 72 42 8d 15 fa 65 6a 17 3a 55 af 19 c4 ef aa 18
       5.705428e-26 7.573819e-25 1.8128999e-23 4.418607e-24
0003a0 3e 47 18 17 16 87 ba 17 2d 00 c8 18 8b 91 ff 17
       4.920377e-25 1.2054069e-24 5.1698966e-24 1.6515729e-24
0003b0 67 c2 8c 16 af 5e 1b 19 ab 9d 8f 13 5b 6c 1b 14
       2.2740905e-25 8.032433e-24 3.6253748e-27 7.8468695e-27
0003c0 a8 b4 30 14 e4 cd 43 14 f4 c3 64 17 a7 fc 1b 17
       8.9213574e-27 9.885589e-27 7.39181e-25 5.0402093e-25
0003d0 c8 b3 27 17 31 ac b7 16 95 db bb 19 e3 e3 f7 17
       5.4187526e-25 2.9673913e-25 1.9424035e-23 1.6019528e-24
0003e0 73 a3 35 15 90 eb 8b 16 eb 24 4b 16 9a 2a 64 11
       3.6681598e-26 2.2605322e-25 1.6409859e-25 1.7999156e-28
0003f0 0f ec 4e 16 6a 7a d0 15 38 82 b0 16 16 13 c9 14
       1.6715034e-25 8.4203666e-26 2.8516513e-25 2.0303341e-26

exp_avg f4 [10000]
000000 5d 2f d5 a8 97 45 9b a9 4c 94 f9 a8 14 60 9c a9
       -2.3668291e-14 -6.895455e-14 -2.7708867e-14 -6.9444586e-14
000010 0a 3c 9f a9 1f 4a d9 a8 ea 4a d6 a8 83 e1 1f a9
       -7.0714336e-14 -2.4123985e-14 -2.3791262e-14 -3.5500692e-14
000020 9a e0 5b a8 cb b3 94 a9 b8 0c d9 a8 04 41 a0 a8
       -1.2205645e-14 -6.6037094e-14 -2.4097356e-14 -1.7791764e-14
000030 20 7c 1f a9 f1 ad 9d a9 c1 aa 9c a9 96 b4 d6 a8
       -3.5412753e-14 -7.0023746e-14 -6.957413e-14 -2.383709e-14
000040 47 1a 58 a8 21 19 1c a9 ca a6 5c a8 60 44 9c a9
       -1.1996107e-14 -3.4660754e-14 -1.224862e-14 -6.939653e-14
000050 7d 6b 17 a9 44 e7 e2 a8 96 25 94 a9 c4 76 1e a9
       -3.3621967e-14 -2.5191336e-14 -6.5790404e-14 -3.518606e-14
000060 c2 04 20 a9 d9 31 ac a8 c1 eb 9f a9 3e 4f 9a a9
       -3.5531264e-14 -1.9117454e-14 -7.101915e-14 -6.85272e-14
000070 8e 02 1c a9 26 66 5d a8 16 9f 82 a9 18 9c ed a8
       -3.4641174e-14 -1.2290114e-14 -5.800757e-14 -2.637998e-14
000080 09 1c 95 a9 14 d9 95 a9 05 cd 9d a9 fa 4f 89 a9
       -6.6217926e-14 -6.654586e-14 -7.007766e-14 -6.097896e-14
000090 ef a4 d9 a8 31 88 1e a9 ca fd f0 a8 95 8c 3c a9
       -2.4163368e-14 -3.5201175e-14 -2.6755416e-14 -4.186632e-14
0000a0 24 61 38 a9 8e f8 29 a9 02 1a df a8 02 4b 9d a9
       -4.0940463e-14 -3.7741125e-14 -2.4769253e-14 -6.9852124e-14
0000b0 c2 ed 84 a9 42 57 e4 a8 c4 3c 9f a9 1d ce d5 a8
       -5.903222e-14 -2.5350927e-14 -7.0715596e-14 -2.3737138e-14
0000c0 ef 0a 17 a9 1a a0 d6 a8 f6 6a 8e a9 7d 52 85 a8
       -3.353822e-14 -2.3828206e-14 -6.3246215e-14 -1.480174e-14
0000d0 01 97 9d a9 72 b7 ea a8 48 b4 9c a9 60 38 ea a8
       -6.9983956e-14 -2.6058775e-14 -6.9590655e-14 -2.6003668e-14
0000e0 69 12 d1 28 d0 7a d8 a8 f3 59 9d a9 62 70 9e a9
       2.3211645e-14 -2.4034079e-14 -6.987804e-14 -7.036105e-14
0000f0 ec af e5 a8 76 93 d6 a8 5e ec 8e a8 6c bb e0 a8
       -2.5500401e-14 -2.3822724e-14 -1.5867675e-14 -2.4950277e-14
000100 a8 35 9c a9 ee e7 1a a9 c2 b9 dd a8 2e 13 d4 a8
       -6.9370995e-14 -3.4396036e-14 -2.4616488e-14 -2.3545046e-14
000110 f0 a6 da a8 54 36 98 a9 3a 1c ec a8 01 6a 9d a9
       -2.427526e-14 -6.7595804e-14 -2.6213505e-14 -6.9905893e-14
000120 af 26 0f a9 d1 ee 57 a8 7a bc 5e a8 d5 25 dc a8
       -3.178593e-14 -1.19866826e-14 -1.2364345e-14 -2.4441314e-14
000130 b6 70 1f a9 2d e7 68 a8 98 41 d8 a8 68 36 f7 a8
       -3.5402853e-14 -1.2928715e-14 -2.4009264e-14 -2.7446104e-14
000140 48 56 b8 a8 e8 46 54 a8 6e 38 da a8 8e 9b dc a8
       -2.0465522e-14 -1.1783739e-14 -2.4227334e-14 -2.4492368e-14
000150 fd 1c 5b a8 20 6d dc a8 5c e1 d3 29 d0 b9 1e a9
       -1.2163228e-14 -2.4472232e-14 9.409376e-14 -3.5244214e-14
000160 18 6f 1c a9 78 e1 7a a8 8c 5d 6a a8 a5 32 e8 a8
       -3.4735317e-14 -1.39266785e-14 -1.3009894e-14 -2.5779138e-14
000170 16 e7 97 a9 12 ad 5e a8 03 b2 9a a9 9c 36 9b a9
       -6.745834e-14 -1.2361004e-14 -6.869854e-14 -6.892856e-14
000180 54 af e6 a8 e3 ca f3 a8 71 ec 9d a9 e0 f9 d9 a8
       -2.5611166e-14 -2.7066408e-14 -7.0132166e-14 -2.4200206e-14
000190 80 9b 19 a9 f5 19 40 a9 f4 dd d8 a8 9f 12 20 a9
       -3.41077e-14 -4.2655078e-14 -2.4077074e-14 -3.5543288e-14
0001a0 82 88 da a8 d9 47 e7 a8 4a 38 db a8 da d0 d6 a8
       -2.4262063e-14 -2.567731e-14 -2.4338296e-14 -2.3849348e-14
0001b0 c3 a6 e1 a8 d9 7c 92 a9 87 a2 0f a9 a7 82 1e a9
       -2.505234e-14 -6.50536e-14 -3.189335e-14 -3.519637e-14
0001c0 80 49 1f a9 3a c4 59 a8 f6 3e 71 a8 f0 0c e1 a8
       -3.5368843e-14 -1.208847e-14 -1.339184e-14 -2.4985629e-14
0001d0 cc 98 d7 a8 bb 38 e4 a8 1b 4d 9e a9 ce 65 1c a9
       -2.393606e-14 -2.5337688e-14 -7.029985e-14 -3.472726e-14
0001e0 cb 19 e9 a8 b0 56 9d a8 9d b1 f6 a8 48 15 d7 a8
       -2.5879382e-14 -1.7468096e-14 -2.7388514e-14 -2.3879024e-14
0001f0 21 e8 ec a8 9e f1 18 a9 50 ef 99 a9 b5 9d 9e a9
       -2.6301933e-14 -3.396035e-14 -6.836079e-14 -7.043967e-14
000200 d8 7c 83 a8 47 9a e0 a8 7f 1e 9d a9 cd e5 e2 a8
       -1.4598064e-14 -2.4935903e-14 -6.977491e-14 -2.51907e-14
000210 6d 61 db a8 61 0e e1 a8 1e 0f 9c a9 49 7a e6 a8
       -2.4356136e-14 -2.4986254e-14 -6.930414e-14 -2.5588162e-14
000220 d8 66 e3 a8 3a 36 d5 a8 0d 7c e0 a8 c1 b6 6c a8
       -2.5246664e-14 -2.3671267e-14 -2.4922794e-14 -1.314026e-14
000230 2a ac 1c a9 1c 77 90 a9 5c e3 64 a8 84 2f 84 a9
       -3.4788287e-14 -6.415547e-14 -1.2705843e-14 -5.87022e-14
000240 00 f4 97 a8 b4 52 98 a9 f3 9f 9d a9 16 9b 76 a9
       -1.6870186e-14 -6.764503e-14 -6.9999474e-14 -5.475749e-14
000250 10 36 a0 a9 87 fa 9d a9 02 a3 d7 a8 0c 8f e6 a8
       -7.114806e-14 -7.01566e-14 -2.3940488e-14 -2.5597166e-14
000260 d6 0a dd a8 8c 9e dc a8 95 bf eb a8 65 ea fd a8
       -2.4540628e-14 -2.4493665e-14 -2.6173327e-14 -2.8190295e-14
000270 4b 67 99 a9 09 d2 9d a9 26 eb 1b a9 1a 8b 28 a9
       -6.8124834e-14 -7.008636e-14 -3.4620873e-14 -3.7424145e-14
000280 c1 e4 df a8 34 d7 11 a9 8a 6c 9c a9 11 b4 1c a9
       -2.485718e-14 -3.2383127e-14 -6.94662e-14 -3.479514e-14
000290 0d 4b 8b a9 64 6b 9f a9 44 3b 9e a9 1d 47 ec a8
       -6.185859e-14 -7.079648e-14 -7.0268905e-14 -2.6232104e-14
0002a0 ae 10 9b a9 8e e9 9e a9 13 70 6f ab 0d 5f 2c a9
       -6.886276e-14 -7.057125e-14 -8.506539e-13 -3.8274115e-14
0002b0 b0 02 53 a8 e0 21 eb a8 65 63 1f a9 bc 7f 1d a9
       -1.1713436e-14 -2.6104932e-14 -3.5391303e-14 -3.4971795e-14
0002c0 fa 6b 9c a9 96 91 ff a8 47 2d d8 a8 99 30 db a8
       -6.9465226e-14 -2.8373825e-14 -2.4000453e-14 -2.433496e-14
0002d0 2e 44 ff a8 86 b5 d7 a8 7a 62 de a8 c7 93 f5 a8
       -2.8340255e-14 -2.3948518e-14 -2.4689659e-14 -2.7264552e-14
0002e0 8b c9 1e a9 d7 b2 95 a9 9d 65 50 a9 a0 e0 18 a9
       -3.5257858e-14 -6.647953e-14 -4.6273413e-14 -3.394561e-14
0002f0 fc 31 9d a9 be e9 8b a9 9d aa 8b a9 82 a2 60 a8
       -6.9808715e-14 -6.213388e-14 -6.202437e-14 -1.2469736e-14
000300 0f 7c 18 a9 c2 ce db a8 ba 96 9f a9 3f f2 57 a8
       -3.3858384e-14 -2.4403551e-14 -7.087165e-14 -1.1987426e-14
000310 31 ff 86 a9 3e 72 da a8 95 9c 80 a9 f6 b0 e1 a8
       -5.995064e-14 -2.4252407e-14 -5.7115045e-14 -2.5056763e-14
000320 1c 52 ec a8 22 ee 6b a9 7b f1 35 a9 14 b3 97 a9
       -2.6236873e-14 -5.238703e-14 -4.0399524e-14 -6.736812e-14
000330 85 6d d6 a8 1b 6f 9b a9 72 bc 9d a9 2b a6 9a a9
       -2.380627e-14 -6.9026565e-14 -7.0048906e-14 -6.8677994e-14
000340 80 e4 99 a9 02 92 b2 a8 79 3c 02 a9 f5 5c 20 a9
       -6.8342033e-14 -1.982529e-14 -2.891825e-14 -3.5607764e-14
000350 d1 08 d8 a8 7a b6 1b a9 50 9b dd a8 80 8c 9e a9
       -2.398464e-14 -3.4575187e-14 -2.4603285e-14 -7.0409824e-14
000360 0d 33 fb a8 c5 b1 d7 a8 93 d9 9e a9 8d 77 1b a9
       -2.7888738e-14 -2.394689e-14 -7.0543526e-14 -3.4520608e-14
000370 31 87 fd a8 47 5a f0 a8 72 0b 15 a9 22 5e 1b a9
       -2.8147272e-14 -2.6684504e-14 -3.3094573e-14 -3.449856e-14
000380 a3 b6 9c a9 52 f5 e5 a8 65 97 9d a9 e0 d1 fa a8
       -6.959474e-14 -2.5530498e-14 -6.9984634e-14 -2.7846594e-14
000390 a9 4f 9f a9 ab 63 9e a9 23 07 97 a9 d6 08 e8 a8
       -7.074837e-14 -7.033899e-14 -6.706985e-14 -2.5761006e-14
0003a0 56 3c 00 a9 ef 6f 71 a8 a3 1c 97 a9 6b a0 76 a8
       -2.8474043e-14 -1.3402459e-14 -6.710715e-14 -1.3690528e-14
0003b0 ea fb 8e a9 b1 56 6d a8 76 2a d9 a8 01 9e df a8
       -6.349767e-14 -1.3174941e-14 -2.4110254e-14 -2.4826497e-14
0003c0 75 40 10 a9 ea ab 7f a8 1a e5 f0 a8 2e ca 9e a9
       -3.203033e-14 -1.41926215e-14 -2.674471e-14 -7.051682e-14
0003d0 d5 77 9a a9 0e 75 e4 a8 fa 1e 9a a9 0c 9d 57 a8
       -6.8597614e-14 -2.536385e-14 -6.8443474e-14 -1.1968952e-14
0003e0 0b d6 9f a9 5c a7 f4 a8 13 c0 9d a9 23 87 d5 a8
       -7.098149e-14 -2.7162022e-14 -7.00552e-14 -2.3706357e-14
0003f0 70 b6 f0 a8 f7 8c 55 a8 5c 90 4c a9 27 b3 0e a9
       -2.6724472e-14 -1.1854442e-14 -4.542231e-14 -3.1685724e-14

exp_avg_sq f4 [10000]
000000 ea 53 13 12 9d ad 2d 13 88 e2 15 12 b0 0d 32 13
       4.6488453e-28 2.1921268e-27 4.729533e-28 2.2473507e-27
000010 6f 52 3a 13 d2 45 fa 11 a7 88 ff 11 d1 fc 9b 12
       2.3517143e-27 3.9486075e-28 4.0316125e-28 9.844199e-28
000020 29 67 c5 11 6d 30 22 13 1a 3e 11 12 5a d1 05 12
       3.1144697e-28 2.047115e-27 4.583048e-28 4.2225446e-28
000030 5e 06 87 12 14 c3 78 13 b5 8f 39 13 c3 62 00 12
       8.521267e-28 3.1398182e-27 2.3421136e-27 4.051141e-28
000040 46 eb c1 11 e7 3e 91 12 f0 7a d4 11 cd 26 39 13
       3.059503e-28 9.166293e-28 3.3523468e-28 2.3369413e-27
000050 b6 dc 32 12 6e 2a 04 12 26 6b 26 13 ba e5 9d 12
       5.6438944e-28 4.1704154e-28 2.1004974e-27 9.964725e-28
000060 82 d3 90 12 45 f2 d8 11 8f a6 3a 13 3a 50 2f 13
       9.139818e-28 3.4228101e-28 2.355862e-27 2.212766e-27
000070 a6 ae 51 12 da 56 c9 11 c3 45 1a 13 a0 9e 14 12
       6.6164042e-28 3.1765735e-28 1.9471928e-27 4.6896086e-28
000080 81 14 2f 13 47 b0 30 13 a6 68 3b 13 d1 7f 25 13
       2.2098215e-27 2.2301235e-27 2.3654314e-27 2.0888946e-27
000090 34 96 20 12 21 60 87 12 a3 1e 24 12 ae 71 b3 12
       5.0672238e-28 8.543395e-28 5.178704e-28 1.1324512e-27
0000a0 eb 9a c6 12 2e fb ce 12 93 20 08 12 f6 67 15 13
       1.2533747e-27 1.3062348e-27 4.2954184e-28 1.88577e-27
0000b0 4b f0 16 13 aa 1a 04 12 1f 0b 3a 13 89 0d 06 12
       1.9051135e-27 4.168472e-28 2.3481984e-27 4.229963e-28
0000c0 67 0d 0e 12 e4 f6 07 12 2e f7 25 13 a2 3c b6 11
       4.482382e-28 4.2902805e-28 2.0947797e-27 2.8751905e-28
0000d0 cc 75 36 13 03 21 0d 12 ee 4b 3c 13 cb 74 10 12
       2.3029708e-27 4.4532445e-28 2.3766372e-27 4.5582347e-28
0000e0 2f c9 18 12 86 ff 11 12 f3 53 34 13 96 ca 3a 13
       4.821072e-28 4.606889e-28 2.2760584e-27 2.3576383e-27
0000f0 79 84 0c 12 a6 40 f5 11 4e 18 ea 11 4a 3d 13 12
       4.4339496e-28 3.8694027e-28 3.693367e-28 4.6460566e-28
000100 24 0f 37 13 3b 5c 91 12 bc 6e ad 11 88 7a 07 12
       2.3105312e-27 9.173523e-28 2.7362833e-28 4.274952e-28
000110 0f 25 14 12 94 84 32 13 0c 7c 03 12 51 56 3a 13
       4.6746244e-28 2.2532125e-27 4.148921e-28 2.3519058e-27
000120 01 21 6e 12 2c b6 9c 11 ed ee d6 11 80 f9 0d 12
       7.514024e-28 2.4724732e-28 3.3910496e-28 4.4799288e-28
000130 90 e3 93 12 85 8c b1 11 ba 01 02 12 af f2 13 12
       9.333103e-28 2.8012278e-28 4.1022895e-28 4.668415e-28
000140 0c 29 44 12 cd c4 c3 11 5c a3 f8 11 e2 9d 0f 12
       6.189729e-28 3.0886863e-28 3.922818e-28 4.531745e-28
000150 ea cf c2 11 ea 10 0d 12 da b2 89 14 6a 22 93 12
       3.073594e-28 4.4512603e-28 1.390401e-26 9.285488e-28
000160 eb d9 80 12 07 0f ce 11 d4 bf ca 11 e1 a0 48 12
       8.131657e-28 3.251033e-28 3.1988204e-28 6.330717e-28
000170 be 41 31 13 df 6c d5 11 3b 0a 32 13 ad f0 2a 13
       2.2372954e-27 3.3672572e-28 2.2471803e-27 2.1575679e-27
000180 3a c8 07 12 cb 7b 07 12 6d ba 2e 13 44 09 0a 12
       4.2845287e-28 4.2751075e-28 2.2053803e-27 4.3556543e-28
000190 ab 94 8e 12 00 1e ca 12 ab 90 07 12 bd 12 8d 12
       8.998109e-28 1.2755388e-27 4.2776806e-28 8.90297e-28
0001a0 d6 5c 01 12 dc 64 17 12 2f b2 16 12 f9 59 0e 12
       4.081965e-28 4.7771517e-28 4.7551283e-28 4.49182e-28
0001b0 9c ed 12 12 c9 fd 27 13 2c cd 7b 12 d6 91 99 12
       4.6362353e-28 2.120349e-27 7.945453e-28 9.691609e-28
0001c0 d8 95 b1 12 48 aa 91 11 9c d5 d6 11 51 e4 79 12
       1.120721e-27 2.298191e-28 3.3894894e-28 7.885197e-28
0001d0 6e 72 08 12 61 1f 06 12 0c d5 37 13 e7 0e 87 12
       4.305508e-28 4.232162e-28 2.3202888e-27 8.5233715e-28
0001e0 31 f0 26 12 04 f6 08 12 ef b7 19 12 3c bc fd 11
       5.2676423e-28 4.321727e-28 4.8505003e-28 4.003237e-28
0001f0 70 23 11 12 cf 8a 84 12 cf 91 2c 13 cf ba 39 13
       4.5797613e-28 8.36459e-28 2.1781341e-27 2.3442387e-27
000200 31 41 e4 11 14 07 10 12 9c bb 32 13 e3 63 18 12
       3.6012235e-28 4.5447113e-28 2.2559257e-27 4.8085863e-28
000210 4a d7 19 12 6b bb 00 12 a6 18 33 13 09 a6 02 12
       4.854365e-28 4.062069e-28 2.2605129e-27 4.122542e-28
000220 ff 71 00 12 67 d6 c1 12 9c 14 fd 11 ac 39 d3 11
       4.053019e-28 1.2232867e-27 3.9929063e-28 3.3325473e-28
000230 dd 35 8c 12 b3 eb 25 13 d2 93 c9 11 0c c5 2f 13
       8.84852e-28 2.0942137e-27 3.180331e-28 2.2185257e-27
000240 d4 5d 2d 12 e2 b2 69 13 dc e2 2f 13 cb 10 4b 13
       5.4704827e-28 2.949693e-27 2.2199956e-27 2.5630482e-27
000250 89 bc 46 13 d8 4e 35 13 4f 70 ed 11 37 d0 10 12
       2.5084068e-27 2.2884285e-27 3.7461222e-28 4.5695033e-28
000260 a5 bf 05 12 d9 de fa 11 57 87 35 12 e9 5c 09 12
       4.220362e-28 3.9580386e-28 5.728035e-28 4.33441e-28
000270 75 25 2e 13 32 38 3a 13 3a b1 63 12 60 79 ce 12
       2.1980355e-27 2.3504207e-27 7.184702e-28 1.3030349e-27
000280 1b b3 fa 11 94 88 5d 12 5f 54 34 13 8a 58 94 12
       3.9553428e-28 6.990365e-28 2.2760792e-27 9.36194e-28
000290 a7 bc 29 13 a5 c9 2e 13 f8 52 58 13 b6 4a 16 12
       2.1423812e-27 2.2061306e-27 2.730394e-27 4.7423743e-28
0002a0 9e a7 34 13 66 d5 36 13 99 85 b2 16 d5 e8 38 12
       2.2801836e-27 2.3076843e-27 2.8841763e-25 5.834715e-28
0002b0 56 5a bd 11 51 5a 47 12 42 11 8b 12 f8 cb 8b 12
       2.9874616e-28 6.290465e-28 8.776388e-28 8.822415e-28
0002c0 57 0e 2f 13 44 c9 17 12 9d d2 02 12 ad 12 15 12
       2.2095175e-27 4.789528e-28 4.128037e-28 4.703913e-28
0002d0 2a 39 0e 12 7c 0b 14 12 c0 fa 06 12 d2 90 21 12
       4.487776e-28 4.671472e-28 4.259202e-28 5.0981147e-28
0002e0 f5 84 87 12 bf 11 1b 13 7d dc bc 12 7d a5 87 12
       8.552474e-28 1.95725e-27 1.1918823e-27 8.560494e-28
0002f0 6e 1e 31 13 d6 b2 1e 13 ed c3 26 13 ff 69 0d 11
       2.2355544e-27 2.0030577e-27 2.1048745e-27 1.1155601e-28
000300 58 6a 86 12 1a 84 ef 11 cf 27 51 13 dd 65 e9 11
       8.482805e-28 3.7788965e-28 2.6399136e-27 3.6823696e-28
000310 9c b2 b9 12 95 3a 0c 12 b3 2d 0d 13 4f 3b ee 11
       1.1719172e-27 4.424842e-28 1.7819233e-27 3.758633e-28
000320 db c8 60 12 34 a6 ee 12 16 f1 d7 12 5a 8d 32 13
       7.092951e-28 1.5060884e-27 1.362784e-27 2.253645e-27
000330 5e 53 06 12 ed 58 39 13 2b 9c 35 13 6a 95 33 13
       4.2385703e-28 2.3394127e-27 2.2922409e-27 2.2666643e-27
000340 d1 7a 32 13 94 61 1b 12 a5 a3 3d 12 19 8e 83 12
       2.2527312e-27 4.902965e-28 5.983959e-28 8.302292e-28
000350 53 85 28 12 c1 dd 81 12 99 b8 fa 11 f7 43 36 13
       5.317579e-28 8.195711e-28 3.9556812e-28 2.3005139e-27
000360 e9 cf 28 12 a0 bf 04 12 10 dd 39 13 57 fb 82 12
       5.326772e-28 4.188805e-28 2.3459275e-27 8.266113e-28
000370 4b 30 10 12 d3 11 0c 12 c1 a7 80 12 28 3f 91 12
       4.5497914e-28 4.419818e-28 8.11929e-28 9.166356e-28
000380 50 a8 15 13 04 e5 16 12 a8 a4 32 13 13 23 15 12
       1.8889428e-27 4.761394e-28 2.254794e-27 4.705934e-28
000390 cd bd 40 13 5f 76 31 13 a2 04 31 13 34 4b 1c 12
       2.4327386e-27 2.2398902e-27 2.2342825e-27 4.9317615e-28
0003a0 71 88 66 12 84 62 d1 11 9b 54 2f 13 10 60 f6 11
       7.274338e-28 3.30351e-28 2.212982e-27 3.887116e-28
0003b0 7c eb 27 13 04 d6 da 11 5a 44 1a 12 83 a5 fc 11
       2.1194466e-27 3.4526233e-28 4.867808e-28 3.9860594e-28
0003c0 a8 4c 91 12 2a 1d d8 11 e9 ac 54 12 fe 3b 3e 13
       9.169684e-28 3.4096765e-28 6.7108533e-28 2.401095e-27
0003d0 ff 17 31 13 4c 90 25 12 dc 5d 2b 13 09 d0 9d 11
       2.2352372e-27 5.224268e-28 2.162951e-27 2.4898444e-28
0003e0 71 b8 37 13 4a 11 11 12 c1 7f 38 13 fc 65 22 12
       2.3188784e-27 4.5775243e-28 2.3287053e-27 5.124389e-28
0003f0 06 0a 1f 12 43 ee 13 11 52 d7 cf 12 1d 51 9c 12
       5.018391e-28 1.1669675e-28 1.3116617e-27 9.86498e-28
