checkpoints/checkpoint_100.pth (torch, 364820 bytes, 6 tensors)

W f4 [10000, 2]
00000000: 4757 b53b 6024 d0ba 620c f239 9088 90b9
00000010: 968c 403b d771 a23b a7ba 35bb 4bea 9cbb
00000020: cca7 6dba 0a45 0f3b 0e39 44bb 34b7 75ba
00000030: 6882 36be 0c77 6a3f 68a2 f0ba 6b9c 8f3b
00000040: 59af 3eba be88 423a 9dcb 553b 5af4 99bb
00000050: e09e b5ba 25c8 4bbb 6db8 b1ba d31a 2abb
00000060: 7090 743a 4812 ec3a 1d14 853b 1646 9eba
00000070: a622 65ba 57cf d3b9 0570 b83a b4fe 4639
00000080: 18e3 c339 0d5a 313b fa2f 523b 378b e039
00000090: 488d 923f 6197 983f c675 8cbb 7376 4c3b
000000a0: b6fb 7cbb 662b 853b 348f afbb 74e4 a538
000000b0: ce52 9eba b18d 513b 1579 4bbd 3ab5 823e
000000c0: dbde f739 0643 42ba c9bd 5dbb ad8f 2538
000000d0: 9077 a2bb a642 2739 7a5a c0bb f1cb d539
000000e0: fefc e73a 89f4 123a 54c1 5cbb 3986 15b8
000000f0: ff3e 60ba 5f5f 393b fbb4 48bb a728 a8bb
00000100: d747 58b9 c3cd 8ebb 0750 cf3a 837d 053a
00000110: c6e5 97bb c171 91b9 8112 7dba 6980 8ebb
00000120: 3395 04bb d923 3ab9 bf1b f4ba 90e3 9a3a
00000130: 26ea 50bb 4385 503a a0e5 2a3b 32c9 343b
00000140: 1cfc 28bb 3e69 853b 10a3 0239 235d 40b8
00000150: 1edb 1b3b e48b 1c3b 42ef b8b9 b968 fe3a
00000160: e083 ac3e a3a5 b33e 3e23 0d3b 501b a73a
00000170: 77bc 773b dcd7 fb3a fb05 2eba 4223 8039
00000180: a7f1 37bb 219b 5fbb a56f 573a ab3b 033b
00000190: 169f b4ba 7407 5bbb 362a 853b 3b46 893a
000001a0: d9d0 10ba bffc f4ba ffca 533a b7d9 3ebb
000001b0: d50e df3a 0208 fa3a ac05 bfba b5d0 ce37
000001c0: 9686 2a3b 3df1 803a 6b3e 84bb 64f0 9b3b
000001d0: 22e7 053b e4e7 a6ba 792f 613a f428 663b
000001e0: 32e2 d3b9 8536 8c3a 8a04 8239 5049 843b
000001f0: 0103 55bb 6530 263a 3c12 5dbb 38f9 133a
00000200: d7ec cdbe 694f a9be 6c8b 6eba 03cf 453b
00000210: 3147 0cbb 8bc0 b93b 702e a0bb 0280 2f3b
00000220: b14b 7ebb 61a1 1bbb c89e e1ba a1f7 3ebb
00000230: 29ef ae3d 483e 513f d5d1 ad3a 6185 16b9
00000240: 308a ddba c97c a33b d5ed 6a3f 8298 3c3f
00000250: 195e bfb7 ccee 393b 8cea a93b 9a6e bc39
00000260: f6fe 4539 5142 1f3b d266 d53a 2a33 3b3b
00000270: 57d6 7eba ddac 993b d2ef d3ba a996 243b
00000280: c86c 003c fc2e 973b 2b99 1e3b 655d 54bb
00000290: fda0 21ba a501 04bb 02a1 be3d fe7e 253c
000002a0: d06d b23a 0911 b83b 4d8a 5939 5036 9c3a
000002b0: 3ef8 eb39 75af 403b 9b0a 743b def7 123a
000002c0: 9703 88b9 f3ec deb9 a096 86b7 11a9 bb3a
000002d0: 19df 25ba 3ef2 7abb 428f b1ba 78f9 823b
000002e0: b574 a7ba b80f 7ab8 d0b3 fabb b655 1a38
000002f0: 619d dfba 9916 943b bc30 85ba e8da 7abb
00000300: 847b 3b3b 03c4 eaba 6362 88b9 3c60 7fba
00000310: 3ab4 9a3b f739 c73a ba35 e63a b789 373b
00000320: fb4a 9c3a d689 ffba f32f 573b 893f fd3a
00000330: 92c7 b63e a2b5 463f 41f9 c63a 233a 2c3a
00000340: 9a5e cfb9 9337 8b3b 19b5 2d3b 56d3 3839
00000350: efd7 c43b f3bd beb9 df7a 44b9 05a3 a239
00000360: 2e5e 99ba 4f19 383b 1e6e 65bb 67d1 bd3a
00000370: 868a 28bb 4725 e639 869a 453b 5065 8eba
00000380: 7e9c 7fba 8cde 00bb cb86 baba 9918 dd39
00000390: d1aa c1b9 7118 4f3b 09b8 40ba 8d5f 4ebb
000003a0: f8cd 81ba 9b99 83bb 191e c1bd 1f25 723c
000003b0: 4b6b dcbb d9a1 3eb8 f222 2cbb e008 a034
000003c0: 5bce 88ba 5647 7cbb 04ba 9ebb 7262 7b3b
000003d0: cb2a eaba 2c95 9abb 6e44 acbb 8477 143b
000003e0: 4fb9 c7bb 8518 103b 4b65 6eba 1d8c 943b
000003f0: 581c 853a e3ab e1b9 890e 8d3b d9bf 2cbb
0.005534086 -0.0015879981 0.00046167063 -0.00027567567 0.002938067 0.0049574184 -0.0027729662 -0.004788672
-0.0009065836 0.002186122 -0.0029941234 -0.00093733077 -0.17823184 0.915879 -0.0018358948 0.00438266
-0.00072740536 0.0007420889 0.0032622584 -0.0046983184 -0.0013856553 -0.0031094637 -0.0013558991 -0.002595593
0.0009329384 0.0018010819 0.0040612356 -0.0012075331 -0.000874082 -0.00040399536 0.001407147 0.00018977636
0.00037362496 0.002706173 0.0032072053 0.00042828333 1.1449366 1.1921197 -0.0042865006 0.003119853
-0.003860218 0.0040640114 -0.0053576473 7.910366e-05 -0.0012079121 0.0031975324 -0.04967602 0.2552889
0.00047277551 -0.00074105 -0.0033835045 3.9472874e-05 -0.0049581006 0.0001595119 -0.0058701606 0.00040778474
0.0017699299 0.00056058966 -0.0033684568 -3.5649373e-05 -0.0008554309 0.0028285605 -0.003062545 -0.0051317993
-0.00020626128 -0.004358025 0.0015816697 0.000509225 -0.0046355454 -0.00027741308 -0.00096539414 -0.004348804
-0.0020230531 -0.00017751697 -0.0018623992 0.0011817086 -0.0031877845 0.0007954428 0.0026076809 0.0027585742
-0.0025785035 0.0040713837 0.00012458512 -4.5863108e-05 0.0023781727 0.0023887092 -0.00035273476 0.0019409872
0.33694363 0.35087308 0.0021535899 0.0012749229 0.0037801543 0.0019214111 -0.00066384644 0.00024440332
-0.002806762 -0.0034119564 0.00082182355 0.0020024579 -0.0013780321 -0.003342119 0.00406387 0.0010473201
-0.0005524285 -0.0018691047 0.000807926 -0.0029121467 0.001701797 0.0019075873 -0.0014573834 2.46543e-05
0.002602016 0.000983752 -0.004035761 0.0047588814 0.0020431955 -0.0012733904 0.0008590143 0.0035119625
-0.00040413585 0.00106974 0.00024798914 0.00403706 -0.0032503011 0.0006339609 -0.0033732792 0.00056447415
-0.40219757 -0.33068398 -0.0009099755 0.0030183203 -0.0021404738 0.005668705 -0.0048883483 0.002677918
-0.003880244 -0.0023747312 -0.0017213458 -0.0029139298 0.0854171 0.8173566 0.0013261387 -0.00014354802
-0.0016902145 0.004989241 0.9176915 0.7367021 -2.2812792e-05 0.0028371094 0.005185431 0.0003594056
0.00018882364 0.0024301002 0.0016281253 0.0028564432 -0.000972127 0.0046897964 -0.0016169494 0.0025114215
0.0078384355 0.0046137553 0.0024200182 -0.00324043 -0.0006165652 -0.0020142582 0.093080536 0.010101078
0.0013613049 0.005617265 0.00020746254 0.0011918042 0.00045007648 0.0029401456 0.0037237767 0.0005606393
-0.00025942616 -0.0004251968 -1.6044185e-05 0.0014317353 -0.00063274946 -0.003829136 -0.0013546722 0.003997024
-0.001277587 -5.9619284e-05 -0.00765083 3.6796286e-05 -0.0017060452 0.0045192954 -0.0010161619 -0.003827745
0.0028607557 -0.0017911199 -0.00026013245 -0.0009741818 0.0047211917 0.001519977 0.0017563619 0.0028005668
0.0011924201 -0.0019496034 0.0032834976 0.0019321303 0.35699135 0.776209 0.0015180485 0.00065699423
-0.000395526 0.0042485683 0.0026505648 0.00017626336 0.0060071866 -0.00036381147 -0.0001873779 0.00031020507
-0.0011701041 0.0028091257 -0.0035008262 0.0014481962 -0.0025717332 0.00043896792 0.0030151918 -0.0010863934
-0.0009750797 -0.0019663898 -0.0014230845 0.00042170731 -0.00036939097 0.0031600262 -0.0007351642 -0.0031490058
-0.0009903302 -0.004016114 -0.09429569 0.014779358 -0.0067266575 -4.5450262e-05 -0.0026265946 2.980878e-07
-0.0010437475 -0.0038494668 -0.004843952 0.0038358239 -0.0017865537 -0.0047174897 -0.005257181 0.0022654245
-0.0060950886 0.002198727 -0.00090940733 0.0045333044 0.0010155542 -0.0004304341 0.0043047112 -0.0026359467

b f4 [10000]
00000000: 24e2 9fbc bee0 f2ba e713 9fbc 7324 93bc
00000010: 9708 fcbb a7e2 28bc b178 36c0 d02f 7dbc
00000020: e21f 8e3b bbe7 9fbc 337a 35bc b519 1cbc
00000030: ed89 dfbb 5336 6bbc 619f 50bb ff38 9cbb
00000040: 82fa 0ebc 9604 32bc e6ba adc0 25a2 8dbc
00000050: e8c9 95bc e5e0 91bc 71c5 34bc 8074 4bbf
00000060: 7fa7 44bb 5e26 38bc d66b 87bc ef66 a1bc
00000070: 8cee c8bb 3999 36bc 3122 1abc 68bd 9ebc
00000080: 04d1 70bc 4fe4 b3bb 000e 79bc 0276 75bc
00000090: de04 dabb 3c90 ebbb 2de8 34bc 1eab 4cbc
000000a0: c1b5 82bc 0eab eab9 99c8 35bc 6bbd cebb
000000b0: 9088 ccbf 2a4c 06bc ed1f 65bc 6fc5 19bb
000000c0: aa0a 6cbc 984b ecbb c3f4 40bc eb62 63bc
000000d0: ccdc d4bb 492b 27bc 0da6 0abc c6c9 9ebb
000000e0: c5e7 16bc 0f20 a8bc ebf7 07bc b6ab 3ebc
000000f0: d6e9 71bb 01a1 53bc 7ab9 36bc 8db9 3cbc
00000100: f7a2 d3bf e171 24bc 7f39 a0bc 0321 94bc
00000110: 2348 74bc aedc 33bc 41ab 20c0 fc14 93bb
00000120: 771c 8abc d536 6ec0 aba9 13bc 654f 8fbc
00000130: 6d34 ffbb e87a 35bc 13fd 7abc 9f0c 22bc
00000140: 32f3 f3bc c9c7 61bc 98ae e5bb aeb8 98be
00000150: 4b4e 98bc 54cc 7cbb 0894 1bbc 28eb 4ebc
00000160: 19de d3ba 67fc 94bb 80a7 56bc 184f 5dbc
00000170: 7f9c 89bb dcf1 cfbc 4376 7fbc f42d 59bc
00000180: 2a9f 3ebc 7022 5dbb c33d 86bc 167a 36bc
00000190: d689 ffbb 4d5c 4cbc 317d 24c0 3d6b b3bb
000001a0: b368 5ebc 1a7b 12bc 18b3 a4bc 7f29 9dba
000001b0: 6915 22bc 6f49 4cbc 00f7 0fbc e319 31bc
000001c0: d61a eabb 62d2 a2bb b731 26bc 36fc 31bc
000001d0: 685a 63bc d201 99be 4272 b6bc 86a8 0ebc
000001e0: 5c8f 5abc 65c7 a4bc cea4 87bc d5d4 99bc
000001f0: 8042 b0bc b64d 72bc 36d0 aa3b c086 8ebc
00000200: 1be7 27bf bfa7 49bc ad95 72bc 71e6 c3bb
00000210: 8776 6dbc e60d bcbb ca73 843b 9d3e 8cbc
00000220: 280a 15bc fdb0 fdbb 03f7 93bc 2ec9 a3c0
00000230: 64ff 46bc 7f67 fdbb 2f01 1cbc 07a0 7dbc
00000240: d91c 0abc 8873 8dbc 5709 55bc a0d6 3abc
00000250: f73b 09bc 935b cbbc deea 18bf b6a8 11bc
00000260: 530c 1ebc a9b0 9abb b02e 88bc bc27 23bc
00000270: 86fc 36bc 137a 3abc 0618 dbbb eea7 afbc
00000280: 85c5 85bc 6209 2fbc ee17 14bc 73d4 19bc
00000290: c856 d9bb d2e1 61bc 4b25 19bc 13ec fbbb
000002a0: 2598 0abc 79a7 a2bc 67b4 1cbc 2b40 0ebc
000002b0: 1933 79bc d65e adbc 520a c5bb d2dc b8bb
000002c0: d09d 72bc 7acb 40bc fe9e 78bc ac67 8abc
000002d0: 8db9 5cbc 00f5 193b ca72 96bc 98a0 d8ba
000002e0: 8ea4 1fbb 24d5 04bc 1f7a 3cbe 8a42 73bc
000002f0: 3d15 6cbc 526a 0cbc 67c3 f7be ab46 1bbc
00000300: 0588 d4bb 9748 95bc 25ac ac3a fe7f 87bc
00000310: d8f6 13bb 4923 00bc 8464 96bc 4d46 13bc
00000320: 5b48 d5bb 4ccb 13bc 6b26 00bc da76 8fbd
00000330: 785a 22bc 57c3 9dbc 460d 9cbb a207 eebc
00000340: 48b3 afbc bd19 41bc 7ed3 64bc 9d20 a6bc
00000350: 9ae9 eabb f15d 3cc0 0032 f2bb 0aa3 d9bb
00000360: 6ff3 87bb 7195 a5bc 4a5d 19bc be85 49bb
00000370: 5be3 a2bb fa93 acbc cb95 a8be eca8 77bc
00000380: d9e3 f4bb bc97 30bc 6fd7 81bc cbfd 0fbc
00000390: 6878 b8bc 35eb cebb 2d44 3dbc fdd6 45bb
000003a0: b118 1e3b 9d27 88bc 814c 5cbc 24fa 9abc
000003b0: dac0 10bc f959 6ebc a455 1fbb 040b 22bb
000003c0: 8c2b 11bc 60fa 99bc f204 acbb bc1c 59bc
000003d0: 3f1f bcbc a18b 23bc 6112 a5bc da84 b1bb
000003e0: fc36 a3bb 62a0 45bc 74a4 63bb 58da 02bc
000003f0: 3050 67bc 98b4 80bc 96a6 b4bc 2b52 5cbc
-0.019517012 -0.0018530113 -0.01941867 -0.017961716 -0.0076914537 -0.010307944 -2.8511164 -0.015453294
0.004337297 -0.019519677 -0.011076498 -0.009527613 -0.006821862 -0.014356214 -0.0031833278 -0.0047675367
-0.008726718 -0.010865351 -5.4290648 -0.01728923 -0.018284753 -0.017807433 -0.011033402 -0.7947464
-0.0030007062 -0.011239616 -0.016530912 -0.019702403 -0.0061319526 -0.01114493 -0.009407566 -0.019377425
-0.014698271 -0.005489863 -0.015201092 -0.014981749 -0.0066534122 -0.007188825 -0.011041683 -0.012491969
-0.015955808 -0.00044759404 -0.0110951895 -0.0063092015 -1.5979176 -0.00819687 -0.0139846625 -0.0023463627
-0.014406839 -0.00721116 -0.011777106 -0.013878564 -0.0064960476 -0.010203191 -0.008462441 -0.0048458306
-0.009210532 -0.0205231 -0.008298854 -0.011637619 -0.0036913059 -0.012916804 -0.0111526195 -0.011518848
-1.6534108 -0.0100369165 -0.019558666 -0.018082147 -0.014909777 -0.010977907 -2.5104525 -0.0044885855
-0.016859276 -3.7220967 -0.00901262 -0.017493913 -0.007788232 -0.011076666 -0.015319127 -0.009890704
-0.02977905 -0.013780543 -0.0070093386 -0.298284 -0.01859202 -0.0038573937 -0.009495743 -0.012629308
-0.0016164213 -0.0045466903 -0.013101459 -0.013507627 -0.004199564 -0.025383882 -0.015592161 -0.013255585
-0.011634627 -0.003374245 -0.016386872 -0.011137506 -0.0077984137 -0.012473178 -2.570141 -0.0054754303
-0.013574767 -0.0089404825 -0.02010493 -0.0011990516 -0.0098928 -0.01246868 -0.008786917 -0.0108093945
-0.0071443124 -0.0049689272 -0.010143689 -0.010863354 -0.013876535 -0.298842 -0.02227128 -0.008707171
-0.013339844 -0.02011461 -0.016558077 -0.018778244 -0.021516085 -0.014789036 0.005212809 -0.017398238
-0.65587014 -0.01230806 -0.014806193 -0.0059783985 -0.014493591 -0.0057389615 0.0040421234 -0.0171197
-0.00909666 -0.007742046 -0.01806212 -5.118308 -0.012145851 -0.007733285 -0.009521767 -0.015480048
-0.008429729 -0.017267004 -0.013002715 -0.01140371 -0.008376113 -0.02482394 -0.5973338 -0.0088903215
-0.009646493 -0.0047207666 -0.016623825 -0.009958204 -0.011168605 -0.011381644 -0.0066862134 -0.02144238
-0.016329536 -0.010683389 -0.009038908 -0.009389031 -0.0066326596 -0.01378675 -0.00934727 -0.0076880543
-0.008459126 -0.019855248 -0.009564496 -0.008682291 -0.015209937 -0.021163385 -0.006013193 -0.005641558
-0.014808133 -0.011767263 -0.015174625 -0.016895138 -0.013471973 0.0023491979 -0.018365283 -0.0016527353
-0.0024359557 -0.008107457 -0.1840596 -0.014847407 -0.0144093605 -0.008570271 -0.48391268 -0.009477298
-0.0064859414 -0.01822309 0.0013173862 -0.016540524 -0.002257755 -0.007820913 -0.018358476 -0.008988929
-0.0065088696 -0.009020638 -0.00782166 -0.07005091 -0.009909265 -0.019258184 -0.0047623245 -0.029056374
-0.021447793 -0.011785922 -0.013966439 -0.020279223 -0.0071689608 -2.9432337 -0.0073912144 -0.00664175
-0.0041488926 -0.02021286 -0.009360621 -0.0030749883 -0.0049709505 -0.021066654 -0.32926783 -0.015115958
-0.0074734506 -0.010778364 -0.015849797 -0.008788536 -0.022518352 -0.00631466 -0.011551899 -0.0030187957
0.0024123604 -0.016620452 -0.013445974 -0.018918104 -0.008835042 -0.014547818 -0.002431252 -0.0024725804
-0.00886048 -0.018796146 -0.005249613 -0.01325148 -0.022964118 -0.009982021 -0.020150365 -0.0054174485
-0.00498092 -0.012062164 -0.0034735473 -0.0079866275 -0.014118239 -0.015711114 -0.02205209 -0.013447325

exp_avg f4 [10000, 2]
00000000: 3ff6 da2a d7f5 d2a9 5f3f d728 2cb9 87a8
00000010: ac75 7e2a e314 d42a 58f2 4caa 9322 d4aa
00000020: c64d 8ca7 8421 d327 c56e 59aa cf07 bea9
00000030: f22d 522e cb39 cbae 08eb 77a8 fc88 ba28
00000040: 4d04 53a8 07ae 8aa9 ba11 8b2a bd91 d4aa
00000050: ed7b d2a9 6c52 5aaa 062a d1a9 f1f3 58aa
00000060: 2070 9b29 178d 012a 9a23 c82a 49d3 c0a9
00000070: 43ff b0a9 65c6 1ca9 95d9 d529 c01b e027
00000080: 89de af28 4981 542a 7992 912a 288e 9828
00000090: 800d ceaf fbc7 5daf fe41 d4aa 494a 932a
000000a0: 468f 8daa 4b05 d52a a509 d6aa 1006 9a29
000000b0: eaf2 0aaa 8b17 512a 41fb 4f2d 8af0 70ae
000000c0: 4062 0a29 8685 53a9 6119 eeaa ae56 ab29
000000d0: e821 d6aa 8617 9a29 f0ee d6aa 10ab 9a29
000000e0: 3339 2a2a 62c4 8729 706c fdaa c15d b629
000000f0: b00f 2aa9 e775 552a f800 51aa 9f55 d8aa
00000100: af8c 51a9 5312 d4aa b46d d429 dc6d 2929
00000110: e34b ceaa f873 9429 d9e1 51a9 8368 d4aa
00000120: a425 44aa 85d4 e6a8 d68d d7a9 7935 9529
00000130: 1331 55aa 376a 1929 8206 fd29 dfe2 522a
00000140: ca0b 8caa 34be d22a 0b26 cb27 2b18 80a7
00000150: 4b59 542a 0b93 2c2a df7e a9a8 22c0 d429
00000160: 2a91 96ae bc73 472d 3196 532a 0870 2a2a
00000170: 8d3e eb2a 68a0 3b2a 2992 55a9 16b0 1928
00000180: a1df 51aa 072c 89aa cabc 4129 e178 a129
00000190: 8f46 93a9 530c 15ab c50e a42a 77ed ab28
000001a0: ac59 1ca9 663b 9eaa b022 6629 4d60 54aa
000001b0: 1893 862a 2253 e02a e7bc 26aa fcf8 ef28
000001c0: 92b3 542a 95a5 a929 d630 8caa f4f5 d22a
000001d0: dde9 532a ff9e 05aa 41ef fc29 7dcf 522a
000001e0: 0566 7ea4 5f69 bf24 eb79 1420 9267 b321
000001f0: 78bd 56aa 7887 1a29 b31f 5caa 4467 1e29
00000200: 42bc a02e e2e7 382e ed08 2aa9 6b6d 552a
00000210: 9b78 8daa 2fe3 d42a a5c1 d4aa b745 932a
00000220: bc01 dfaa 2787 45aa 5579 d3a9 2ce4 5aaa
00000230: 6a53 0d2d eccf 6fae 2bfc d729 9b17 d0a8
00000240: d7f4 8daa 209e d52a 7c3f 89af a192 0caf
00000250: ecd8 b028 d3af 552a 07db d62a 8829 e128
00000260: bf0e 3b27 1e06 e228 62c3 fc29 edaa 522a
00000270: 5e4d 46a9 9ae8 782a bf60 0baa d5bc 512a
00000280: 4eab fa2a 5deb c92a 6a81 0a2a 28b5 53aa
00000290: 0e62 d1a8 2ee7 53aa dcca 06ae 80cd 87ac
000002a0: ef77 7f2a 24ec d42a 8698 9325 7057 3227
000002b0: 317f b128 bb78 562a bc62 f62a 391a 0129
000002c0: 4a42 a5a8 5cdd d8a8 f110 3028 2ebe d429
000002d0: 78dd 98a9 74b4 1aab e31c bf9c decb 0f1d
000002e0: e5a0 d5a9 afba 9928 f020 95ab 06a1 562a
000002f0: f170 68a7 f0e3 ae27 b247 9ba9 2026 1dab
00000300: 6113 562a 04fc 06aa 522d 9da8 9811 1faa
00000310: b07b d52a 3045 2a2a 9a33 ff29 30b3 542a
00000320: badf 8929 04be d2a9 e1d7 a62a 5465 862a
00000330: 216c fd2e 7e89 252f 6b0b d729 0284 2b29
00000340: 387c a7a8 263a d229 0adb 562a 8d29 6128
00000350: e8ea 312b 786a 2baa 9f23 8ca8 12e2 d228
00000360: 32f2 0baa b197 522a 1b08 54aa 8494 1829
00000370: ed14 53aa 87e5 1729 9c52 562a 9a7d 4ea9
00000380: 4476 a6a9 1da9 2caa eea6 d3a9 944e 9828
00000390: 6c0d 2aa9 1173 552a a339 52a9 5ac1 d4aa
000003a0: a66e 4ca9 86e4 ceaa 48c0 9f2d 513f 042c
000003b0: d686 76ab 3367 312a df55 55aa b284 1929
000003c0: 211a 9da9 2cfe 1eab 5651 d5aa 9406 942a
000003d0: ca54 51a9 c1d9 d3aa 36f2 d5aa 32f5 9929
000003e0: c621 d6aa 6c17 9a29 21f4 1ba9 b1c0 432a
000003f0: f279 d8a9 05a7 1d27 78d7 d22a fbf1 84aa
3.8895447e-13 -9.36852e-14 2.3897278e-14 -1.5068316e-14 2.2600557e-13 3.7673258e-13 -1.820292e-13 -3.7682756e-13
-3.894213e-15 5.8600602e-15 -1.9311903e-13 -8.4390496e-14 4.778928e-11 -9.241637e-11 -1.3762219e-14 2.0709556e-14
-1.17137855e-14 -6.15862e-14 2.470366e-13 -3.775989e-13 -9.347371e-14 -1.9390885e-13 -9.2887544e-14 -1.9269288e-13
6.9028333e-14 1.1506452e-13 3.555184e-13 -8.563165e-14 -7.860251e-14 -3.4811038e-14 9.4968446e-14 6.2202576e-15
1.9525412e-14 1.8874237e-13 2.585881e-13 1.693704e-14 -3.7480774e-10 -2.017088e-10 -3.7704556e-13 2.616399e-13
-2.5146047e-13 3.7840073e-13 -3.8020729e-13 6.8400255e-14 -1.234114e-13 1.8571097e-13 1.1822377e-11 -5.4783324e-11
3.0727374e-14 -4.6967225e-14 -4.2294903e-13 7.608962e-14 -3.8037564e-13 6.8430545e-14 -3.8179833e-13 6.8686484e-14
1.5118878e-13 6.029271e-14 -4.5017072e-13 8.098687e-14 -3.776119e-14 1.8959106e-13 -1.8563265e-13 -3.842872e-13
-4.6529346e-14 -3.767148e-13 9.433722e-14 3.7620826e-14 -3.6645608e-13 6.592638e-14 -4.6603214e-14 -3.7731285e-13
-1.7421356e-13 -2.5627295e-14 -9.5725226e-14 6.626205e-14 -1.8935226e-13 3.406495e-14 1.1236586e-13 1.8730459e-13
-2.4877176e-13 3.7435474e-13 5.6385065e-15 -3.555334e-15 1.8860362e-13 1.5327685e-13 -1.881779e-14 9.448021e-14
-6.8469966e-11 1.13375385e-11 1.8792673e-13 1.5137902e-13 4.178779e-13 1.6664589e-13 -4.7422275e-14 8.531389e-15
-1.8640516e-13 -2.436664e-13 4.3018357e-14 7.1708054e-14 -6.5403513e-14 -5.2952537e-13 2.91425e-13 1.9087798e-14
-3.4716736e-14 -2.8107654e-13 5.1100346e-14 -1.8862794e-13 2.3905248e-13 3.9848078e-13 -1.48093e-13 2.664231e-14
1.8891683e-13 7.5338316e-14 -2.4902882e-13 3.7474158e-13 1.8821702e-13 -1.1867936e-13 1.1232552e-13 1.8723734e-13
-5.5163884e-17 8.301155e-17 1.2576427e-19 1.2156927e-18 -1.9072753e-13 3.431237e-14 -1.9550923e-13 3.5172616e-14
7.309399e-11 4.204271e-11 -3.7755325e-14 1.8956162e-13 -2.5130318e-13 3.7816405e-13 -3.7793133e-13 2.616082e-13
-3.961396e-13 -1.7544005e-13 -9.39133e-14 -1.9441453e-13 8.033444e-12 -5.452698e-11 9.591662e-14 -2.3102876e-14
-2.5216523e-13 3.7946122e-13 -2.4965263e-10 -1.2785019e-10 1.9634e-14 1.8979202e-13 3.8166017e-13 2.499803e-14
2.5959457e-15 2.5093693e-14 1.12249416e-13 1.8711049e-13 -4.4031937e-14 2.2107525e-13 -1.2379246e-13 1.8628443e-13
4.4527787e-13 3.5868089e-13 1.2301762e-13 -1.8803416e-13 -2.3246186e-14 -1.8820771e-13 -3.0648248e-11 -3.859746e-12
2.269016e-13 3.782262e-13 2.560379e-16 2.4749862e-15 1.9706108e-14 1.9048905e-13 4.376689e-13 2.86665e-14
-1.8347428e-14 -2.4076817e-14 9.773636e-15 9.447682e-14 -6.788575e-14 -5.496222e-13 -1.2646787e-21 1.903129e-21
-9.487011e-14 1.7067373e-14 -1.0596229e-12 1.9062884e-13 -3.2257693e-15 4.854183e-15 -6.89582e-14 -5.5830514e-13
1.9013742e-13 -1.1989026e-13 -1.7450156e-14 -1.4128141e-13 3.7922226e-13 1.5123037e-13 1.1333226e-13 1.889155e-13
6.1228325e-14 -9.358836e-14 2.963732e-13 2.3873492e-13 1.15243155e-10 1.505551e-10 9.549899e-14 3.8084126e-14
-1.8594596e-14 9.3359606e-14 1.9083013e-13 1.2499019e-14 6.320903e-13 -1.522479e-13 -1.555857e-14 2.3412726e-14
-1.2429708e-13 1.8704375e-13 -1.8832195e-13 3.3879597e-14 -1.8747825e-13 3.372782e-14 1.9035679e-13 -4.585013e-14
-7.392397e-14 -1.5335342e-13 -9.39924e-14 1.6909468e-14 -3.7759224e-14 1.8958122e-13 -4.667936e-14 -3.779293e-13
-4.539307e-14 -3.675152e-13 1.8161597e-11 1.8793476e-12 -8.758388e-13 1.5756562e-13 -1.8947993e-13 3.408792e-14
-6.976733e-14 -5.648561e-13 -3.789284e-13 2.6294646e-13 -4.6480865e-14 -3.7632226e-13 -3.8004468e-13 6.8370995e-14
-3.8037471e-13 6.843037e-14 -3.4628662e-14 1.7386332e-13 -9.613481e-14 2.1878668e-15 3.7453005e-13 -2.3615818e-13

exp_avg_sq f4 [10000, 2]
00000000: 0cbd 0717 290a fc14 2c09 0b13 3d2e 5d12
00000010: f7fb 7d15 dc83 3016 69cf b715 d4f1 c416
00000020: 9b08 b513 8617 4d14 b5b6 5c15 1b8f 2814
00000030: 76ba c31c 108a ce1e 4693 ba14 3e5e 5315
00000040: c79a 4514 3d60 3a13 1adc 4b15 1e29 ee15
00000050: 7541 8e14 651a 9915 8062 d814 3ad0 e815
00000060: b9d9 4914 e341 0c15 d56d 5616 5817 4714
00000070: 1813 2d14 f7c5 0713 2c58 0315 3a50 1011
00000080: ce10 ec11 e948 2c15 76d5 c115 2804 d511
00000090: 1aa9 2e20 66f8 921f c589 0a16 7e74 8515
000000a0: 4ebf 9315 db5e 2716 b50f eb16 e39b 7314
000000b0: fb85 4d14 e2d3 e814 9daf 081b 1d23 301d
000000c0: 3a0c c112 cb87 6113 d899 e615 4603 6f13
000000d0: adf1 b916 a0b6 4014 7afb 6716 c88b f013
000000e0: bf9f 2715 144e d513 64fb f415 9ce8 7d13
000000f0: 50f3 d712 ec22 2a15 a8bc 9715 9d94 a216
00000100: cc21 8513 006c 8816 6266 7514 5a2b 1c13
00000110: 4565 9616 2ae0 1b14 2d60 8813 4dbf 8b16
00000120: 16e4 7815 903b ac12 e5b0 e014 e362 5714
00000130: 832e 7015 120f f912 1d90 8615 1402 3b16
00000140: a7c1 7115 ffeb 0816 771d 1211 606f 6810
00000150: 759f 3d15 5293 fa14 0639 6012 6ca6 b014
00000160: 7214 7c1d 1907 cb1b fb01 4015 d63e f914
00000170: 3aa2 4c16 4c33 0215 3c01 9813 5a8b 1d11
00000180: b900 b615 5380 1b16 314d f213 8e61 a814
00000190: e69e 6613 9c4b 6c16 1997 3a16 950c 4d12
000001a0: ec2e 7512 e335 7b15 be0f a513 509b 8c15
000001b0: 35ec 1815 e881 d415 4523 1715 419f 9c12
000001c0: c3b6 9215 a2b4 3a14 191e a515 5c0e 3b16
000001d0: f301 3b15 c0be 9414 f0dc 2514 3b8e e614
000001e0: 6605 9c12 09c3 3013 56bd f511 ac56 3315
000001f0: 4ecd 8a15 f9ec 0f13 c44a 8615 0a3e 0b13
00000200: bfa4 cf1d d3b8 3b1d 20e5 8512 bffc d214
00000210: 2e41 7915 482b 0d16 4b9b 5a16 c48a d115
00000220: f278 5f16 794e 2f15 dabe f714 40b9 0416
00000230: 0ec5 b919 5fbd 921e b4bb 0015 f808 ef12
00000240: b980 3e15 eac5 d715 c563 9c1f 6e59 551e
00000250: 6456 f911 cbf8 3515 0759 cc16 2e8a e012
00000260: 2d70 a511 9579 f114 463a ad14 d4c8 7015
00000270: 5899 3b13 52cd 9315 f679 8c14 4322 1f15
00000280: 2b62 f116 6692 9c16 7587 1315 725a ac15
00000290: e2df 8112 bc14 8515 bcab 5d1c 8bb3 5f19
000002a0: c04b 7f15 a968 3116 5fa4 9510 396b da13
000002b0: f2c0 8011 6eeb bb14 5bdf 4b16 9dff 5f12
000002c0: e50b 7f12 6c9b db12 5724 fb10 d349 3714
000002d0: b6f9 8213 eb32 8616 4066 5f14 0e10 fd14
000002e0: f7a5 e114 22d9 6912 42c8 8217 f484 0715
000002f0: 221c ad14 741e 4415 3577 8413 05ba 8716
00000300: fdd5 8415 1653 d314 4610 8711 5a63 8a14
00000310: ebb6 8516 552a 2a15 eaef b114 8454 7715
00000320: a7a6 1414 ffa9 ad14 529a 0e16 c802 b915
00000330: 2630 2f1e 7783 7e1e cce4 5714 8964 0913
00000340: d17c fd12 cdb5 4715 8921 e015 0346 f611
00000350: a73f e516 6ed8 d414 f2d9 6d11 38b7 0612
00000360: 6b9c 8a14 6602 1d15 0c5d fb15 0a42 8213
00000370: 87f3 ab15 aa36 3213 f509 9b15 5ff4 8f13
00000380: 8465 3114 0ede 3e15 2b41 b214 21c2 3812
00000390: b385 9012 d8bb e314 65e2 d512 f82d db15
000003a0: 196e 7e13 0f5b 8216 a33f 181c a48d 3a18
000003b0: 924a ee16 6bfa 7614 1ac0 e315 5407 6c13
000003c0: 9fb0 8513 08fb 8816 ab24 2a16 dfe7 a315
000003d0: a6dc b413 9256 b916 6622 9316 687e 1814
000003e0: 7cf5 3f16 1d0d c713 cfba 2313 7bff 8015
000003f0: 46b6 3214 5997 4c13 6266 4b16 84c8 a115
4.3859463e-25 2.5449505e-26 1.7548789e-27 6.9792297e-28 5.1291708e-26 1.4258774e-25 7.4240347e-26 3.1818123e-25
4.569931e-27 1.0354494e-26 4.4572777e-26 8.510055e-27 1.2952217e-21 2.18682e-20 1.883929e-26 4.2685455e-26
9.976483e-27 2.352395e-27 4.1169153e-26 9.6192306e-26 1.4364154e-26 6.183785e-26 2.1849278e-26 9.403258e-26
1.0190845e-26 2.832475e-26 1.7321439e-25 1.0051536e-26 8.7380335e-27 1.7137e-27 2.6524795e-26 1.1384319e-28
3.7244591e-28 3.479264e-26 7.828886e-26 3.3608036e-28 1.4794324e-19 6.2244346e-20 1.1191024e-25 5.3902064e-26
5.967465e-26 1.3520084e-25 3.797621e-25 1.2299108e-26 1.0376278e-26 2.3509586e-26 1.13064e-22 2.331156e-21
1.2183026e-27 2.8465944e-27 9.313898e-26 3.0167655e-27 3.004088e-25 9.729539e-27 1.8739383e-25 6.0722352e-27
3.38514e-26 5.384575e-27 9.894744e-26 3.2047775e-27 1.3628389e-27 3.4358775e-26 6.128606e-26 2.62663e-25
3.3607246e-27 2.2040143e-25 1.23895304e-26 1.9711342e-27 2.4297717e-25 7.869709e-27 3.4426063e-27 2.257739e-25
5.026313e-26 1.0869409e-27 2.2687992e-26 1.0874228e-26 4.8504305e-26 1.5717824e-27 5.434954e-26 1.5106395e-25
4.8822327e-26 1.106046e-25 1.1526449e-28 4.5839733e-29 3.8294035e-26 2.5301657e-26 7.0752224e-28 1.78371e-26
3.3362492e-21 3.358812e-22 3.8775654e-26 2.5167359e-26 1.6530178e-25 2.6293757e-26 3.837141e-27 1.2428057e-28
7.3510355e-26 1.2561292e-25 6.1165505e-27 1.7002143e-26 2.9108424e-27 1.9087786e-25 1.5072638e-25 6.4702103e-28
7.7366204e-28 5.0731555e-26 4.166738e-27 5.679059e-26 3.088249e-26 8.5831074e-26 3.052203e-26 9.884243e-28
5.925728e-26 9.426224e-27 6.6690455e-26 1.5110271e-25 3.7765887e-26 1.5019419e-26 8.3739434e-27 2.3280165e-26
9.846315e-28 2.2310483e-27 3.8770872e-28 3.6217134e-26 5.606167e-26 1.8165974e-27 5.424013e-26 1.7574854e-27
5.4962787e-21 2.4844796e-21 8.449964e-28 2.1304272e-26 5.0336567e-26 1.1403546e-25 1.7658902e-25 8.463336e-26
1.805196e-25 3.5402873e-26 2.5015904e-26 1.072133e-25 1.9208141e-23 1.5536673e-20 2.5997466e-26 1.5085231e-27
3.847174e-26 8.715006e-26 6.6233625e-20 1.129462e-20 3.9338515e-28 3.6748922e-26 3.3014162e-25 1.4170451e-27
2.6101544e-28 2.4382737e-26 1.749152e-26 4.862604e-26 2.3678323e-27 5.9696766e-26 1.4184493e-26 3.2136822e-26
3.8997603e-25 2.529555e-25 2.979327e-26 6.9612944e-26 8.196236e-28 5.3750985e-26 7.334473e-22 1.1565088e-23
5.1556596e-26 1.4330971e-25 5.902339e-29 5.5136666e-27 2.031375e-28 1.8975035e-26 1.6468688e-25 7.068146e-28
8.0478473e-28 1.38591575e-27 9.9058034e-29 9.253698e-27 3.3062848e-27 2.1681001e-25 1.1278788e-26 2.5552804e-26
2.2784656e-26 7.3789473e-28 8.451605e-25 2.7367914e-26 1.7479632e-26 3.9605908e-26 3.343903e-27 2.192782e-25
5.365199e-26 2.1338327e-26 2.1309274e-28 1.3973626e-26 2.1602746e-25 3.436462e-26 1.7967062e-26 4.9947924e-26
7.504957e-27 1.7535588e-26 1.1519364e-25 7.472529e-26 9.27438e-21 1.3473834e-20 1.0899848e-26 1.7341399e-27
1.5997314e-27 4.0331145e-26 9.052579e-26 3.8855105e-28 3.7037116e-25 2.1491896e-26 1.8763163e-28 4.250878e-28
1.3996135e-26 3.170779e-26 1.01524895e-25 3.2881733e-27 6.945057e-26 2.249371e-27 6.261971e-26 3.6339244e-27
8.956237e-27 3.8545365e-26 1.7999111e-26 5.8299445e-28 9.120637e-28 2.2995234e-26 1.3498e-27 8.852592e-26
3.211359e-27 2.10601e-25 5.037483e-22 2.4111447e-24 3.8498034e-25 1.2469212e-26 9.198765e-26 2.9791e-27
3.3748082e-27 2.2130408e-25 1.3744061e-25 6.6201004e-26 4.5655964e-27 2.9942996e-25 2.377084e-25 7.698968e-27
1.5506318e-25 5.0247593e-27 2.0665596e-27 5.2101865e-26 9.0226505e-27 2.582304e-27 1.6430516e-25 6.534374e-26

exp_avg f4 [10000]
00000000: 96c1 042a b6a3 1328 e8c8 122a 8ec0 102a
00000010: e917 1927 0c98 8f29 e48e 2930 3842 0728
00000020: 301a 9dab 33d0 142a 88e8 9429 7af9 9329
00000030: 1854 3329 19b0 f229 2b31 ea28 c9b3 fe28
00000040: b0ad 8529 9761 ad29 579a 1531 0568 1e2a
00000050: b176 1a2a 8b22 012a 699d 9729 6ccb 212f
00000060: 6e14 9428 e4a6 0f2a 2f31 012a e2ac 012a
00000070: 535b 5d29 cae5 182a df17 8829 209e 132a
00000080: 52fc fc29 b01e 0a29 cbed f829 2363 fd29
00000090: 8ca4 7129 96bd 2029 e29f 8029 1bf5 9129
000000a0: e3cf 182a 3f57 0b27 9456 a529 fba3 0729
000000b0: 54a9 9f2f 3333 a429 5ff4 182a 76da 8028
000000c0: 69b8 d329 b783 df28 a9cd 312a ea65 c329
000000d0: 52c2 bc29 8c57 8229 2a42 1b2a 0332 4929
000000e0: 1d4c 8a29 50f8 182a 495a 9129 b0e7 9129
000000f0: 74cb 0a24 8cb6 e120 0b8f 8129 92ce 8429
00000100: ef74 0430 7712 8829 f65d 1a2a 85a7 1e2a
00000110: dd88 132a c15c 9529 5809 1d30 89f3 0229
00000120: 83e5 1a2a 6b66 bf30 006c 8629 68e6 ff29
00000130: c52e 0e28 63ce 9129 81b1 9e29 4315 9829
00000140: 9587 422a c635 9429 dbc8 7c29 8585 062f
00000150: e25d 132a 0b60 6026 62ea 8629 09ba 122a
00000160: 4723 2728 fed3 0529 2d8d 382a 7189 501c
00000170: 59e3 0029 70f2 b32a 40a1 fd26 8d77 3b2a
00000180: f2d5 9229 d7c1 3d29 3ace 0a2a 7736 9329
00000190: c288 1329 2e7a 012a e4a7 59af 22d2 0b29
000001a0: 2108 0629 6ce6 7f29 06be 572a e4e9 1828
000001b0: f5b3 9829 6fd9 7f29 feb3 7e29 86f1 8129
000001c0: 7b87 6b29 2a64 ff28 0f16 8829 20cd fd29
000001d0: bdce f629 2241 da2e 8abc 942a 15b6 8029
000001e0: acaa 3d2a 8832 1f2a d8b8 fc29 6814 012a
000001f0: 1c31 012a 629b 7929 568d 06ab 159e 102a
00000200: 6313 6b2f 1d5a b429 c07e a629 90d2 2529
00000210: ddee e129 f164 7429 e09b d9aa be64 5e2a
00000220: 9a8a 9229 06bc b228 4b53 152a e251 0c31
00000230: 99d7 9129 42e2 c128 e50d 8829 2e31 9a29
00000240: b6c3 8a29 01dc 112a 02e1 9229 35ec 9929
00000250: cda0 8a29 a136 142a a99d 422f aada 7f29
00000260: f1a9 d929 c68c 0329 c6b6 0d2a 1fd5 9229
00000270: b244 8e29 48df 9a29 48cc b229 829b 1d2a
00000280: 914f 002a 0b3f a429 be2b 8129 1eca 9e29
00000290: 2ffb 5a29 7f1c ed29 bfc2 b629 2cea 6229
000002a0: e207 7d29 5e81 1a2a abd0 9429 b464 7e29
000002b0: 8b05 012a b806 712a c142 2829 8dcf 8529
000002c0: c589 fd29 a6b2 9229 f8f0 b929 e61c 012a
000002d0: c848 102a 5d5f 7eaa 04bb 132a 8ae7 bd28
000002e0: 2f1e 9228 ea0e 8129 ee91 282d 8bf8 f729
000002f0: dcf5 a029 c8e1 a429 433b 2e2f 59f7 8629
00000300: 4229 5029 be51 0c2a 146a e4a9 35a7 0d2a
00000310: e468 8428 9255 7d29 8cf5 1e2a 5946 9229
00000320: 48f8 1e29 1ae8 da29 12db d929 a9ed 342d
00000330: 8646 8a29 6fef 0d2a 6e05 4d29 d393 2f2c
00000340: e99c 662a b6ff 9129 c7e1 ec29 9606 202a
00000350: eae5 6429 2801 7e30 1b78 e628 df0e bc29
00000360: 8932 0a29 b260 252a 02f7 9229 4a21 9328
00000370: 0abc 1229 ef7f 122a 8aba 40ad 9a7f ae29
00000380: 6041 3927 80eb 9229 931c 0d2a 34aa 9429
00000390: b4d3 832a 86e9 bd29 5d5e 9e29 5163 8228
000003a0: f1de 13ab e43f 002a 3286 d529 8a61 112a
000003b0: d060 7c29 50a5 d129 cc3e 8728 0fff 7d28
000003c0: d7cb 8229 f025 3d2a b91a 1329 5433 372a
000003d0: 46b0 002a eb7d 8029 d00d 142a 3fe8 3629
000003e0: 143e 0929 ccef 152a adc6 5c28 6905 9129
000003f0: 3205 f829 5d44 fd29 b765 132a a391 ed28
1.1791119e-13 8.195638e-15 1.3037108e-13 1.2856575e-13 2.1245977e-15 6.3768516e-14 6.16849e-10 7.508364e-15
-1.1162789e-12 1.3217274e-13 6.612858e-14 6.571389e-14 3.9818924e-14 1.0777507e-13 2.6000542e-14 2.8277634e-14
5.9365165e-14 7.6996725e-14 2.1770086e-09 1.4069308e-13 1.3719127e-13 1.1469486e-13 6.7330534e-14 1.4715135e-10
1.644016e-14 1.2758853e-13 1.1474566e-13 1.1517482e-13 4.915107e-14 1.3580036e-13 6.043754e-14 1.3111083e-13
1.1234819e-13 3.0668773e-14 1.1054663e-13 1.12526545e-13 5.365547e-14 3.5691576e-14 5.712077e-14 6.4818126e-14
1.3572437e-13 1.9337421e-15 7.342491e-14 3.0118252e-14 2.9042246e-10 7.291945e-14 1.3585095e-13 1.4305597e-14
9.4022724e-14 2.4815096e-14 1.5792111e-13 8.677419e-14 8.3825863e-14 5.788347e-14 1.3789721e-13 4.4674344e-14
6.1416346e-14 1.3586463e-13 6.4549555e-14 6.479485e-14 3.009631e-17 3.8237282e-19 5.753565e-14 5.897812e-14
4.8187493e-10 6.0428164e-14 1.3710547e-13 1.4091339e-13 1.3103707e-13 6.6330195e-14 5.7129546e-10 2.9077032e-14
1.3757576e-13 1.3926188e-09 5.9695304e-14 1.1364244e-13 7.892725e-15 6.475096e-14 7.0474015e-14 6.753844e-14
1.7277701e-13 6.5818485e-14 5.6129455e-14 1.2234665e-10 1.3088795e-13 7.7845774e-16 5.9914543e-14 1.3031949e-13
9.278012e-15 2.9715806e-14 1.6391463e-13 6.8999066e-22 2.8618902e-14 3.1965012e-13 1.7599108e-15 1.6650414e-13
6.520816e-14 4.213456e-14 1.2328411e-13 6.5375595e-14 3.2759175e-14 1.1499891e-13 -1.9795682e-10 3.104646e-14
2.9761028e-14 5.6821233e-14 1.9161764e-13 8.488412e-15 6.7813736e-14 5.6809968e-14 5.6555448e-14 5.7706484e-14
5.2297993e-14 2.8354126e-14 6.04344e-14 1.12710405e-13 1.0960458e-13 9.925062e-11 2.6420906e-13 5.715928e-14
1.6845786e-13 1.4139568e-13 1.12231134e-13 1.1464581e-13 1.147454e-13 5.542388e-14 -4.7802506e-13 1.2844615e-13
2.1380013e-10 8.009238e-14 7.3938685e-14 3.6819994e-14 1.00334434e-13 5.4266436e-14 -3.8655103e-13 1.9752513e-13
6.507746e-14 1.9843512e-14 1.3262757e-13 2.0419226e-09 6.476694e-14 2.1525428e-14 6.0420236e-14 6.847505e-14
6.1623815e-14 1.2954916e-13 6.522735e-14 6.83554e-14 6.1563256e-14 1.3163994e-13 1.770021e-10 5.6811035e-14
9.666216e-14 2.9209945e-14 1.2586728e-13 6.520673e-14 6.3179835e-14 6.877707e-14 7.940225e-14 1.3998354e-13
1.1396289e-13 7.293999e-14 5.736339e-14 7.051671e-14 4.862359e-14 1.05298576e-13 8.116207e-14 5.0385192e-14
5.6184122e-14 1.3722831e-13 6.6087184e-14 5.6486676e-14 1.1459425e-13 2.1407431e-13 3.7361393e-14 5.942391e-14
1.1259356e-13 6.514693e-14 8.257452e-14 1.1467528e-13 1.281502e-13 -2.2592818e-13 1.3121107e-13 2.108363e-14
1.6222346e-14 5.731338e-14 9.582097e-12 1.1012119e-13 7.148077e-14 7.32223e-14 1.5846262e-10 5.9937034e-14
4.6221063e-14 1.2462858e-13 -1.01436356e-13 1.2581327e-13 1.4700433e-14 5.6251505e-14 1.411841e-13 6.495906e-14
3.5298397e-14 9.721408e-14 9.6747385e-14 1.02845866e-11 6.140665e-14 1.2606386e-13 4.5523854e-14 2.4951055e-12
2.0482543e-13 6.483652e-14 1.05196715e-13 1.421314e-13 5.082559e-14 9.2406305e-10 2.5587217e-14 8.351457e-14
3.0685988e-14 1.4688492e-13 6.5265515e-14 1.6334715e-14 3.258161e-14 1.3011791e-13 -1.0955356e-11 7.7492876e-14
2.5709347e-15 6.524555e-14 1.253323e-13 6.602046e-14 2.3417173e-13 8.433796e-14 7.032979e-14 1.4475971e-14
-5.2534284e-13 1.139085e-13 9.4823793e-14 1.2912428e-13 5.6039212e-14 9.3101416e-14 1.5015245e-14 1.4099628e-14
5.80852e-14 1.6799734e-13 3.2663735e-14 1.6271473e-13 1.1429841e-13 5.706185e-14 1.3149833e-13 4.061356e-14
3.0473955e-14 1.3317055e-13 1.2255534e-14 6.440232e-14 1.10143136e-13 1.1247316e-13 1.3091512e-13 2.6375446e-14

exp_avg_sq f4 [10000]
00000000: 05a0 4715 c1de 8211 a922 a914 8170 3715
00000010: b1b0 d712 a695 c013 a2d5 e520 764a de13
00000020: 421b 3217 e77d 6914 c17c 0e14 54a7 5814
00000030: 1063 8613 02b0 9d14 ff86 9712 e559 3a13
00000040: 335e 8813 9d83 0914 b5c9 ac22 fc5e 9a14
00000050: 5804 b014 c42a 2b15 20dc 7413 a6cc e61e
00000060: d11a dd11 8ded 2714 ea66 0715 34f5 a814
00000070: 97c1 8d13 ac65 3214 2354 8a13 ec6f 1715
00000080: 3f2e c214 c392 cf12 e508 db14 2cea c614
00000090: f4e7 bc13 49fa 7913 b2ee ae13 892e b314
000000a0: 10fe 8f14 df88 890f 8f05 e613 119f 0f13
000000b0: e713 981f 7d5a e713 0c0e ad14 c260 dd11
000000c0: cb45 b914 3356 2113 9d29 a814 d75f 8414
000000d0: 57c6 b213 31e3 d313 dc9b 4b14 f71a 5c13
000000e0: 4a29 f813 88b8 c414 7c05 b013 ceeb 5c13
000000f0: e2e5 b911 1ef4 8d13 8d2f ca13 d49c c313
00000100: 8af9 7420 6c8d 2b13 6c75 9414 f431 f314
00000110: 90a8 c314 bc3e 7714 9daf ab20 1253 3d13
00000120: 9eea 6214 5caf 0c22 0609 9013 72f7 1015
00000130: f022 3f13 14b8 e613 c557 f013 bf5a a713
00000140: 1264 9115 05fa 2814 336c bd13 55d4 8d1e
00000150: 64fc a914 f8e2 2c12 debf 1413 0aa0 9014
00000160: bb79 8211 c413 9112 0302 bf14 4011 8513
00000170: 694f 2413 e474 be15 4741 ce13 ab2e c114
00000180: 1f14 fa13 80f8 c412 082d e214 adfd ec13
00000190: af42 2a13 63c6 ab14 b1f4 871f fb9d b612
000001a0: 1060 a213 f5ff 1e14 c394 2815 8cac 8d10
000001b0: 211e a513 870a 3714 2c6d fa13 c308 e413
000001c0: b4a0 b113 6bce 0113 732b 3913 58fe 1b14
000001d0: 248b b914 e7f5 311e c886 2d15 6bd7 2514
000001e0: c4f7 c214 5698 bd14 14e8 0315 b848 d614
000001f0: 3ecf 8b14 49c5 d113 e1c6 1d16 8c73 bf14
00000200: f0a3 4f1f 3fbf 8314 947f 8314 4527 a913
00000210: 7b0e a014 dd7a 2813 f045 0e16 08a7 c714
00000220: 6cf5 ce13 fd96 7313 40c8 3b15 3579 8122
00000230: 040f 0914 28cf 3713 31aa 1513 ac17 4614
00000240: 9a46 c313 f804 1e15 5b83 2014 e5bc 4613
00000250: b7b2 e413 d099 0a15 c032 1c1f 077e fa13
00000260: 2832 6614 1675 5013 6f09 e614 b722 cd13
00000270: 9a5b d313 b6ff 4913 4849 ae13 47a8 f714
00000280: ace2 0d15 4431 2614 f804 1614 1873 0114
00000290: f4ab 8413 a928 c714 5b23 3914 d3e1 c713
000002a0: e985 0914 20ef 9814 64e9 6613 5a77 0f14
000002b0: e855 b014 252e 0f15 3d29 8313 9f58 3d13
000002c0: 67d7 c614 1fd6 2614 4fd5 4214 ca28 0f15
000002d0: 1108 a514 209f 2315 16e8 5c14 7602 c111
000002e0: 2fff 1d12 aa88 dd13 f4e3 a81a e803 ba14
000002f0: 90f1 3014 49fe 0914 49ff ed1e 017b 8b13
00000300: ea0e 8c13 61ee 0a15 fa6f 2814 932a e314
00000310: e2bc 6012 4ee7 d313 b3e4 b214 be21 8913
00000320: d4bb 4513 1ed6 f713 b57e c613 47ab fb1a
00000330: 9055 0514 0788 1b15 9046 4913 f46a 0d19
00000340: b5cc 1915 f2ed 0914 aea2 9014 8e17 5715
00000350: d013 ac13 aacf 8421 2cda d212 0deb c113
00000360: 2292 db12 a3cc c914 edeb 2814 f1ca 3a12
00000370: 531c 5113 be5b 2d15 d4db 451c c042 9614
00000380: 7771 cd12 09a3 e413 e95f d114 da99 6613
00000390: 51c0 1915 a8d3 ac13 5a6f b113 971b 3812
000003a0: b40d 1e16 7105 1115 d1ba a914 95b9 cc14
000003b0: 8a47 1814 045b a314 f7e0 1a11 c677 cf11
000003c0: 61d9 3214 3a00 5315 818e e512 77e2 be14
000003d0: e357 9f14 ab65 eb13 ad78 a714 cfde 0f13
000003e0: 0092 4113 9b18 9214 5aa4 1f12 6b48 0214
000003f0: 8e73 ae14 1897 c314 594b fa14 ae1b 9913
4.0313963e-26 2.0647666e-28 1.707831e-26 3.7045306e-26 1.3611965e-27 4.861518e-27 3.893548e-19 5.6114103e-27
5.7549306e-25 1.1788324e-26 7.193771e-27 1.0938213e-26 3.392404e-27 1.5922372e-26 9.562719e-28 2.3520822e-27
3.4424114e-27 6.9426886e-27 4.683426e-18 1.5587491e-26 1.7773172e-26 3.456691e-26 3.090566e-27 2.4436838e-20
3.488418e-28 8.478194e-27 2.7344218e-26 1.706038e-26 3.57843e-27 9.006755e-27 3.4919063e-27 3.0582498e-26
1.9607235e-26 1.3099716e-27 2.2116857e-26 2.0085255e-26 4.7686595e-27 3.1551619e-27 4.4159147e-27 1.8092736e-26
1.453952e-26 1.3561964e-29 5.8065644e-27 1.8127563e-27 6.440743e-20 5.8401826e-27 1.7474076e-26 3.4927284e-28
1.8707755e-26 2.0363556e-27 1.6980078e-26 1.3366396e-26 4.5129095e-27 5.3487916e-27 1.0279619e-26 2.7781199e-27
6.2644716e-27 1.9863727e-26 4.4434054e-27 2.7884165e-27 2.932953e-28 3.5834122e-27 5.1038858e-27 4.9379565e-27
2.075017e-19 2.165296e-27 1.4990496e-26 2.4556433e-26 1.9756454e-26 1.2482685e-26 2.9084738e-19 2.389611e-27
1.1456354e-26 1.9066372e-18 3.635961e-27 2.9275768e-26 2.4124815e-27 5.8241678e-27 6.0671065e-27 4.224621e-27
5.8722917e-26 8.53114e-27 4.7817e-27 1.5016774e-20 1.716419e-26 5.455339e-28 1.8774824e-27 1.4603408e-26
2.0585406e-28 9.155659e-28 1.9286865e-26 3.359093e-27 2.0738862e-27 7.692481e-26 5.206608e-27 1.9506427e-26
6.3128713e-27 1.2430599e-27 2.283793e-26 5.982492e-27 2.1489894e-27 1.7344837e-26 5.757953e-20 1.152476e-27
4.0989274e-27 8.02744e-27 3.4044682e-26 5.5880544e-29 4.1681565e-27 9.241215e-27 6.3216524e-27 5.756393e-27
4.4839547e-27 1.6383861e-27 2.3371705e-27 7.875661e-27 1.8735108e-26 9.421153e-21 3.5043395e-26 8.372855e-27
1.968672e-26 1.9144209e-26 2.6638317e-26 2.163716e-26 1.4117156e-26 5.2953556e-27 1.2745114e-25 1.9331647e-26
4.396956e-20 1.3303053e-26 1.327794e-26 4.270032e-27 1.6161583e-26 2.1265157e-27 1.1492737e-25 2.0159747e-26
5.2243716e-27 3.0745355e-27 3.792232e-26 3.5093853e-18 6.919694e-27 2.3199983e-27 1.8890355e-27 1.0001114e-26
4.929454e-27 3.1911766e-26 8.103841e-27 2.5084246e-27 5.773152e-27 2.7990215e-26 3.3076264e-20 6.3233145e-27
1.1621924e-26 2.6311019e-27 2.3227786e-26 5.1783507e-27 5.3354214e-27 2.5495842e-27 4.3996036e-27 2.5007e-26
2.8653536e-26 8.390574e-27 7.5740446e-27 6.535534e-27 3.3491044e-27 2.0109903e-26 9.347086e-27 5.0457342e-27
6.9431415e-27 1.5442396e-26 2.9145152e-27 7.243193e-27 1.7805343e-26 2.8915022e-26 3.3109713e-27 2.3898847e-27
2.0077852e-26 8.423086e-27 9.836565e-27 2.8910797e-26 1.6663924e-26 3.3043115e-26 1.11529324e-26 3.0451548e-28
4.9855003e-28 5.5923004e-27 6.985145e-23 1.8782741e-26 8.933369e-27 6.966881e-27 2.5198935e-20 3.5209824e-27
3.5355675e-27 2.8056926e-26 8.503916e-27 2.2937935e-26 7.0914753e-28 5.3491972e-27 1.8063613e-26 3.4616934e-27
2.4957502e-27 6.25627e-27 5.010717e-27 1.0408788e-22 6.731658e-27 3.1409307e-26 2.5404557e-27 7.311128e-24
3.105959e-26 6.963659e-27 1.460445e-26 4.3437486e-26 4.343844e-27 8.999636e-19 1.3306647e-27 4.8951827e-27
1.3856868e-27 2.0376528e-26 8.5283606e-27 5.8941396e-28 2.6393474e-27 3.5009444e-26 6.5465953e-22 1.5172458e-26
1.296529e-27 5.7716057e-27 2.1141437e-26 2.9105936e-27 3.1049815e-26 4.3627613e-27 4.4790883e-27 5.809417e-28
1.2767462e-25 2.928681e-26 1.7138325e-26 2.0671935e-26 7.6881475e-27 1.6494693e-26 1.221778e-28 3.2732658e-28
9.029574e-27 4.261129e-26 1.4487062e-27 1.9274422e-26 1.6089562e-26 5.9422592e-27 1.6910289e-26 1.815899e-27
2.4432008e-27 1.4751938e-26 5.0374133e-28 6.577605e-27 1.7615088e-26 1.9749564e-26 2.5273268e-26 3.8649924e-27
