checkpoints/checkpoint_6.pth (torch, 363708 bytes, 6 tensors)

W f4 [10000, 2]
00000000: 5b99 cc3b dec4 3a3c 03a0 2fbb 2368 2bba
00000010: ec80 9dba 6c10 f23b 5694 57ba de8d 5bbc
00000020: a2ff e2bb 37c3 cf3a 3959 76bb e5d0 afbb
00000030: 288b 5b3a 0af6 25bc 4811 d4bb 4882 a63a
00000040: 647a 733b 51ad 74bb f1e7 4b38 3b6c a6bb
00000050: 86b9 3cb9 d229 55bb 653d 2b3c 6bb3 cabb
00000060: 0776 e4bb 2d08 0439 dfec 8fba 6e6f a73b
00000070: 839b 4aba c59f c1bb 2446 833b 41f7 3e3b
00000080: 6db1 183c a901 88bb e514 263c 8272 313a
00000090: 6ba7 10bb 5a54 8abb f201 75ba a8f5 27bc
000000a0: c122 283c af28 6f3b f167 c7bb cb56 14bc
000000b0: a12e 57bb 2a57 7a3c 4ee1 3d3b 4879 6ebb
000000c0: cf26 333b a460 c73b cf0f eeb9 ebd9 d4bb
000000d0: f6ce dbba fe42 0dbb 89aa a2bb d1f7 7e3a
000000e0: 35f1 7a3b 39cc ab3b 4982 a53b ea83 f63a
000000f0: 081d 013c f5af 013a 2c3a 02bc a8b7 943b
00000100: 1edf 14b9 4862 a7bb 3ebf 70bb 6a95 aabb
00000110: 4694 5abb 01fa 043b 488a b83a 4fb6 b33a
00000120: ddd5 66b9 2758 b8bb c3d7 aeb9 d8bf 173b
00000130: c56b 2fbb 25ed aabb 5b70 243c 3881 2c3a
00000140: 8fb9 00bc 5875 413b 0f95 633b d819 cfbb
00000150: 945b 053b ea52 7a3a 9ad1 b03b 88ac 9c3b
00000160: 500a cbbb 910e 4abc 7014 51bb 6ea4 533c
00000170: f730 8b3b 19c3 7f3b eeff 35bb 6fbf 533c
00000180: ffb9 243c f20e 94bb 4df3 4c3b 3ee3 35bb
00000190: 830b e0bb 509d 7bbb 800d a7b9 24ab 27bb
000001a0: c50d 72bc b725 403b ecb4 4d3b be63 6739
000001b0: dff1 bc3a 3441 a03b 7ff5 ea3b fce1 dfbb
000001c0: bc0d 97b9 a847 b0bb 24b6 a93a 421f 6f38
000001d0: 3d14 bdba 68fa db3b 8040 523b 222a f83b
000001e0: c92b 2abb a3e3 07bb 95c6 47b9 4236 ccbb
000001f0: dbc0 1cbc 3d39 f83a 1b89 b93b f631 a73b
00000200: 5e34 57b9 71e9 eabb 9da8 1cbc ec32 f73a
00000210: 09ca b13b e6ce e53a ffb0 9e3b e131 0fbc
00000220: 24a5 5bb9 cb2a d3bb 3295 d23b 009a 813a
00000230: ba7e e63b efa9 853a fea4 bb3b 94a5 b339
00000240: 4515 f1ba 8c45 30bc be57 81bb 61ba 8c39
00000250: 1316 f4ba 2303 0e3c 54d8 153b 60f7 3b3b
00000260: b010 f93a a3c9 b53b a176 c63b 93af ae3b
00000270: a5ac 243b 980c 0a39 1c12 9f3b a3e2 f539
00000280: b2ba 11bb 43f3 163b 4ba6 e7ba 174f 0cbb
00000290: 964f 313b b5ef bcbb 8609 aa3b dff3 8ebb
000002a0: 89d1 c83b 0141 6c3a ce30 8fbb a856 c43b
000002b0: 1765 c8b9 0f0e 22bc 4c79 3e3b 0344 d9ba
000002c0: 3d37 28bc 77de 883a 1e76 bd3b 56ce a63b
000002d0: 884b 4abb b994 1d3b 0443 11bb 7469 e6ba
000002e0: a099 2d3b 62ae c4bb 9321 e1ba c313 94ba
000002f0: 540f acba fe08 c83b 057b ecbb f8a9 67bb
00000300: 9f4c 24bb 53a4 37bb 20a6 193b d340 fb38
00000310: ed65 d3ba 20f8 38bc 202a 6fba be2b 8b3b
00000320: b7ea 3a3b 752d 1e39 6b13 c03b 8783 aa3b
00000330: 0e5e 1dbc c332 803b d278 b7b9 6505 123c
00000340: ddc8 3fbb 9e23 5f3c 919b 69bb 3bb5 863b
00000350: dc1c d6ba 681b f93b 6d0a 6cb8 46ba 07bb
00000360: f1cf 453c 1ce6 5e3a 40c7 d639 2a6c 9fbb
00000370: 1fc7 abba c9c2 a8bb e332 adba 0075 c93b
00000380: 1173 1e3c 0540 083b ccd5 963a ec21 0cbb
00000390: 60fc 6a3b 5820 4639 681f 11b9 a098 98bb
000003a0: 2c2f 193c e59d 863a 9dd5 e73b 15f5 c63b
000003b0: d4b5 94bb 1442 693a 45a4 30bb 6a45 9dba
000003c0: 4458 1eb9 a19d a4bb dc0a a73b 7266 e6b9
000003d0: 6dc8 ceba 988b f03b b4d9 eeba 50f8 0a3c
000003e0: 5852 afbb 87b2 893a 46f4 ecbb 3f71 ba3a
000003f0: 894d 8dbb 9ff9 c0ba 52e8 4e3b 4e87 8e39
0.0062438673 0.011399476 -0.0026798255 -0.000653865 -0.0012016571 0.0073872115 -0.0008223703 -0.013400523
-0.0069274465 0.0015851025 -0.0037589802 -0.0053654783 0.0008374923 -0.010129461 -0.0064717866 0.0012703622
0.0037151808 -0.003733475 4.8614984e-05 -0.00507882 -0.0001799819 -0.0032526148 0.010451649 -0.006185939
-0.006972078 0.00012591547 -0.0010980627 0.005109719 -0.00077288615 -0.0059089386 0.004006164 0.0029139074
0.009319645 -0.0041505885 0.010136818 0.0006769077 -0.0022072445 -0.0042214813 -0.0009346298 -0.01025144
0.010262192 0.0036492755 -0.006085389 -0.009053896 -0.003283419 0.015279571 0.0028973403 -0.0036388207
0.0027336364 0.0060845185 -0.00045406676 -0.0064957044 -0.0016770053 -0.0021554823 -0.004964177 0.00097262586
0.0038290743 0.005242851 0.0050509316 0.0018807624 0.007880457 0.0004947179 -0.00794844 0.004538495
-0.00014197498 -0.0051081516 -0.0036735083 -0.0052058 -0.0033352538 0.0020290616 0.0014079297 0.0013710948
-0.0002201418 -0.005625743 -0.0003334862 0.002315512 -0.0026767117 -0.005216258 0.010036553 0.00065805344
-0.007856741 0.0029519405 0.0034726297 -0.0063202195 0.0020348774 0.00095490983 0.00539608 0.0047813095
-0.0061962977 -0.012332574 -0.003190305 0.012917621 0.0042477804 0.00390262 -0.0027770954 0.012924059
0.010054111 -0.004518383 0.0031272948 -0.0027753855 -0.00683731 -0.0038393326 -0.0003186278 -0.0025584185
-0.014773791 0.0029319355 0.0031388355 0.00022067034 0.0014415345 0.0048905853 0.0071703787 -0.0068323594
-0.00028811197 -0.005379636 0.0012947959 5.701115e-05 -0.0014425587 0.0067132004 0.0032081902 0.007573382
-0.002596604 -0.0020735047 -0.00019052096 -0.006232054 -0.009567465 0.0018937957 0.005662096 0.0051023914
-0.00020523506 -0.0071689417 -0.009561685 0.001885978 0.005425696 0.0017532974 0.004842877 -0.008739919
-0.00020946987 -0.0064443103 0.006426477 0.0009887815 0.00703415 0.0010197739 0.0057264557 0.00034264906
-0.001839318 -0.010758769 -0.0039472273 0.00026841744 -0.0018622301 0.00866774 0.0022864537 0.0028681383
0.0019002166 0.0055477186 0.006056622 0.0053309887 0.0025127318 0.00013165397 0.0048544537 0.000468989
-0.0022236523 0.002303318 -0.001767346 -0.0021409446 0.0027055494 -0.00576588 0.0051891236 -0.004362568
0.006128494 0.0009012372 -0.0043698316 0.0059917755 -0.0003822229 -0.009891047 0.0029063998 -0.0016576055
-0.010267076 0.0010442276 0.005781903 0.005090515 -0.0030867774 0.0024044944 -0.0022165189 -0.0017579035
0.0026489273 -0.0060022334 -0.0017176144 -0.0011297393 -0.0013127127 0.0061045876 -0.0072168135 -0.0035349112
-0.0025070084 -0.002802153 0.0023444965 0.00011980687 -0.0016128399 -0.011289626 -0.00091234036 0.004247158
0.0028521249 0.00015084988 0.00586169 0.0052036676 -0.009604944 0.0039123013 -0.00034994498 0.008912419
-0.002926401 0.013619332 -0.0035645703 0.00411096 -0.0016335505 0.007602144 -5.6276494e-05 -0.0020710393
0.012073503 0.0008502917 0.00040965714 -0.004865189 -0.0013105607 -0.0051501733 -0.0013214018 0.0061479807
0.009670989 0.0020790112 0.0011507808 -0.0021382524 0.0035855994 0.000188948 -0.00013839977 -0.004656866
0.009349626 0.0010270445 0.0070750252 0.0060716965 -0.004538277 0.0008898091 -0.002695338 -0.0011998836
-0.00015100936 -0.0050236736 0.00509773 -0.00043945346 -0.0015776284 0.0073408596 -0.001822284 0.008482054
-0.0053503923 0.0010505476 -0.007231268 0.0014224424 -0.0043122214 -0.001472283 0.003157158 0.0002718516

b f4 [10000]
00000000: 9528 98bc 3bcf 7ebb 33d2 21bc fb34 a0bc
00000010: 8852 18bc ecbe 1abc 8402 67bc 7017 0fbc
00000020: 944a f8bb 3d5e edbb bf46 9bbb 24cd 88bc
00000030: 70d9 1ebc 375b dcbb 117a 10bc 8d98 d3bb
00000040: f317 5cbc 1f77 6dbc afe4 e7bb 7f89 77bc
00000050: bbbe 7dbc 678d 81bc 50c3 a4bc a00b dbbb
00000060: af63 1ebc 54c8 1bbc 64cb 7dbb 9387 dbbb
00000070: 556e 12bc 8381 fabb 5381 38bc d145 47bc
00000080: b2ac f1bb d058 16bc 13d5 abbb 102a 24bb
00000090: 5791 05bc 200e 4cbb e4e5 0ebc e70d 6bbc
000000a0: 85f3 28bc bd8c 25bc 0877 4dbb b76a 12bc
000000b0: e16a a8bc 0c36 8ebc 86e9 ecbb 5555 8bbc
000000c0: 6f2b 6ebc a91b c4bb f1b9 2abc 45a3 79bb
000000d0: 5945 a3bc 0225 93bb e663 f4bb 5c09 69bc
000000e0: ca4a 00bc db8f f1ba bbbf 10bc 4cd6 43bc
000000f0: 853d 89bb 1194 13bc 2d7a 53bc 8996 1bbc
00000100: fda2 29bc ea5f 53bc 2758 05bc 9798 65bc
00000110: fdad 18bc dd13 19bc 613d 27bc ecf1 05bc
00000120: 8428 85bc 2466 b2bb e2e7 3abc edcc a2bb
00000130: 636f 0cbc 1a1b 24bc aec7 6abb afab e4bb
00000140: 4092 95bb bd2c 7fbb b2bb 0fbc 9470 1ebc
00000150: fac7 11bc 1efc 2dbc 77ce 6abc f1f6 95bb
00000160: 2eab 66bc 5aa3 1cbc 086d b2bb a92c 69bb
00000170: 2bfa 12bc 300d 2ebb c59e 03bc 3b42 32bc
00000180: 8409 aabb a8fe 5abb 6884 8abc 142b b7bb
00000190: 563d 85bb f54a 1fbc 4910 54bc b29d 4abc
000001a0: 5cd4 92bc 6528 ffbb 64ef 23bc 4cf3 43bb
000001b0: fd80 8dbc f8c5 ddbb 10d2 02bc 508f 04bc
000001c0: 4a02 69bc 338c 5ebb 7681 a7bb 9372 dcbb
000001d0: 60c8 5cbc 9f04 3fbc c8b0 c8bb 4e3b 84bb
000001e0: aadf edbb 8abd e7bb 9c4b 1ebc 04e7 36bc
000001f0: 7497 ecbb c4e1 1fbc 2b30 d0bb a273 94bb
00000200: 55c9 1cbc e0a3 5cbc bbfd 52bc b925 e6bb
00000210: 89b5 e5bc db43 e2bb 5924 2abc 2407 27bc
00000220: 4fda 59bc c894 f9bb 588d 29bc 5960 1cbc
00000230: d4dd 3bbc e395 3abc 7bb9 2fbc 4fb9 b9bb
00000240: 5cb0 c2bb a36a 16bc 7c90 29bc 5075 e2bb
00000250: 275c a2bb e2d3 4fbc 51d7 6fbb ea56 09bc
00000260: 6986 4dbb 5834 a6bc 694e 49bb 8ec3 d4bb
00000270: a380 86bc c8e5 b6bb 74a0 14bb 99ca 02bc
00000280: 852e 32bc a198 52bb 08ac 7ebc 43fc 22bc
00000290: c558 9dbb cf95 a4bb 6dd1 2ebc 3e8a 7bbc
000002a0: a651 8ebb 9412 05bc 6503 87bc 0036 3bba
000002b0: 5e99 1fbc 9b01 a0be 18db 5dbc 33df 44bc
000002c0: 276f c8bb 8b7c 7dbc 71cb abbc ba69 26bc
000002d0: c90e f6ba 7b75 02bc d605 15bc 27c6 65bc
000002e0: 3826 37bc 0870 4dbb 76bc fcbb f194 9abc
000002f0: fb7a d6bb a1e3 5ebc 1d37 35bc 8452 96bc
00000300: e155 b2bb ef62 32bc ef76 9cbb cff1 88bc
00000310: dec9 10bc 4325 4fbc facb 7abc 10a6 45bc
00000320: b9c5 63bc ea85 febb bb9b 1ebc 7ed8 84bb
00000330: 69ee abbb abbe 42bc c95d 16bc f9a0 1dbc
00000340: 17cf f5bb ef41 2ebc 5d46 c7bc 6f2a 99ba
00000350: e909 39bc 5849 37bc 59c4 bcbb 9042 96ba
00000360: a2f3 9ebc 5c09 12bc 4df0 17bc b4ec 20bc
00000370: ab80 63bc dd89 81bc 3896 69bb 07de 14bb
00000380: 6db0 cebb 3bfb 01bc 9e15 debb b1ad c3bb
00000390: d99b 33bc 14b3 e0bb 8e7b d9bb 88df 41bb
000003a0: e35d 42bc 7f90 52bc 8c90 2cbc 8bba 02bc
000003b0: 565d c0bc d551 1dbc a1f7 06bc a9c3 68bc
000003c0: 9d04 d2bb 66bb a6bb 00d8 0dbc 71c2 c6bc
000003d0: 286f f1bb a92a 6fbc fdbc 65bc 34ff 66bc
000003e0: f01f 4abc 6fe4 84bb 732a 57bc 5b23 80bc
000003f0: 1f2b 7cbc 0ee0 16bc 9ce7 c1bb 0783 8fbc
-0.018574039 -0.0038880843 -0.009876776 -0.019556513 -0.009297021 -0.009444933 -0.014099721 -0.008733615
-0.00757725 -0.0072439 -0.004738658 -0.016699381 -0.009695396 -0.006724741 -0.008818165 -0.0064573945
-0.013433444 -0.014493733 -0.0070768218 -0.015108465 -0.015487368 -0.015814496 -0.020112664 -0.0066847354
-0.009667321 -0.009508211 -0.0038725967 -0.0066995113 -0.008937438 -0.0076448335 -0.011261302 -0.012162642
-0.007375323 -0.009176448 -0.0052439063 -0.0025049485 -0.0081523275 -0.003113635 -0.008721802 -0.014346576
-0.010311966 -0.010104355 -0.0031351466 -0.008936576 -0.020558776 -0.017359756 -0.0072299866 -0.017008463
-0.014536723 -0.0059847427 -0.010420308 -0.00380917 -0.019930528 -0.0044904957 -0.007458198 -0.014223423
-0.007830331 -0.0018429713 -0.008834775 -0.011952948 -0.004188242 -0.00900747 -0.012907547 -0.00949634
-0.010353801 -0.012901286 -0.008138693 -0.014013431 -0.009318826 -0.009343115 -0.010207505 -0.008175354
-0.01625467 -0.005444305 -0.011407824 -0.0049682767 -0.008571479 -0.010016227 -0.0035824585 -0.006978474
-0.0045645535 -0.0038936578 -0.008772777 -0.009670395 -0.008897776 -0.010619191 -0.014331452 -0.004576557
-0.014078898 -0.00956043 -0.0054451264 -0.0035579598 -0.0089707775 -0.0026558153 -0.008033459 -0.010880048
-0.0051891226 -0.0033415947 -0.01690884 -0.005589852 -0.0040661497 -0.009722461 -0.012943336 -0.012366699
-0.017923526 -0.007786798 -0.010005806 -0.0029899655 -0.01727342 -0.0067679845 -0.007984653 -0.008090809
-0.014221737 -0.0033958077 -0.0051118685 -0.0067275255 -0.0134755075 -0.011658817 -0.0061245896 -0.00403539
-0.007259329 -0.0070721554 -0.009661581 -0.011163477 -0.007220203 -0.009758417 -0.0063533983 -0.004530386
-0.009569486 -0.013466805 -0.012877877 -0.00702354 -0.028040664 -0.0069050617 -0.0103846425 -0.010194574
-0.013296678 -0.007616613 -0.01034864 -0.009544455 -0.011466462 -0.011388275 -0.010725374 -0.0056678425
-0.005941434 -0.009180698 -0.010349389 -0.0069109574 -0.004954833 -0.012684794 -0.0036596844 -0.008382538
-0.0031360632 -0.020288631 -0.0030716902 -0.0064930385 -0.01641876 -0.0055815913 -0.0022678645 -0.007982873
-0.010875349 -0.003213443 -0.015543945 -0.009947839 -0.004801842 -0.0050227414 -0.010670048 -0.015352784
-0.0043432293 -0.008122105 -0.01648111 -0.00071415305 -0.009741155 -0.31251225 -0.013541006 -0.012016105
-0.006116766 -0.015471588 -0.020971032 -0.010157043 -0.0018772717 -0.00796258 -0.00909563 -0.014024294
-0.011178546 -0.0031347293 -0.007712896 -0.018869849 -0.006545422 -0.013604076 -0.011060503 -0.018349893
-0.0054423665 -0.010887845 -0.00477492 -0.016716866 -0.008837191 -0.012643161 -0.015307421 -0.012063518
-0.013902121 -0.0077674286 -0.009680684 -0.004054128 -0.0052469266 -0.011886279 -0.009177634 -0.009620898
-0.0075014937 -0.010635837 -0.024325544 -0.001168562 -0.011293867 -0.01118692 -0.005760711 -0.0011463929
-0.019403283 -0.008913364 -0.009273601 -0.009822059 -0.013885657 -0.015812809 -0.0035642516 -0.0022715346
-0.0063076527 -0.007933433 -0.0067774793 -0.0059716334 -0.01096245 -0.0068572853 -0.0066370433 -0.0029582698
-0.011863205 -0.012851833 -0.01053251 -0.007979046 -0.023482006 -0.00960203 -0.00823775 -0.014206805
-0.0064092414 -0.0050882576 -0.008657455 -0.024262639 -0.007367987 -0.014597573 -0.014022109 -0.014098931
-0.012336716 -0.0040555517 -0.013132679 -0.015641859 -0.01539114 -0.009208692 -0.0059175026 -0.017518533

exp_avg f4 [10000, 2]
00000000: 56ff 1802 5e28 1302 33f0 6e84 23cc 1d83
00000010: 3ab0 1002 24e5 1a02 f9ad 1682 99e0 1f82
00000020: d41b 1f82 0d84 1d82 1e9a 1e82 224a 1782
00000030: 51e5 1f82 8bb7 1882 b603 1a82 1679 1882
00000040: 8443 1502 7ca1 1482 88a6 1482 5abb 1d82
00000050: f6a1 1482 8fb4 1d82 6da6 1902 e4fe 1882
00000060: c4e0 1c82 a54e 1b82 d2fb 1002 86e9 1302
00000070: 91d9 1d82 aaba 1682 6021 1802 3824 1002
00000080: 82cd 1802 2726 1882 e5fa 1a02 a5d6 1202
00000090: e201 1082 a9ac 1882 04aa 1f82 a375 1882
000000a0: 80b9 1e02 af62 1602 9258 1882 044f 1182
000000b0: 5896 1702 ea54 1902 482f 1502 958e 1482
000000c0: 3d76 1502 1cbe 1f02 2f8d 1f82 165e 1882
000000d0: 531e 1d82 36d3 1582 34dc 8c84 210d 3a83
000000e0: 120c 1b02 8719 1502 43a7 1e02 d250 1602
000000f0: a61c 1f02 13c0 1602 7090 1982 7d90 1d02
00000100: 1b39 1982 9b54 1282 1525 1182 98d7 1982
00000110: 2fd8 1d82 b0c2 1102 c696 1102 1679 1b02
00000120: ace8 1382 f3f1 1c82 536c 1802 f8db 1202
00000130: f618 1782 9f31 1082 a5a8 1402 8e7f 1c02
00000140: edea 1482 66cb 1502 ef67 1a02 45c2 1982
00000150: 67e5 1102 9697 1902 a8fd 1d02 a1d5 1702
00000160: 30f2 1b82 aace 1482 3be9 1382 b4c3 1702
00000170: 17c2 1c02 41a5 1602 a173 1302 6686 1602
00000180: 276d 1902 fcc4 1882 28b1 1302 f80f 1382
00000190: 2985 1e82 e2ee 1c82 65bd 1a82 72be 1382
000001a0: 8818 1982 b18f 1782 2c4a 1f02 f5ea 1602
000001b0: a50c 1c02 9c27 1602 05ad 1302 240c 1382
000001c0: 294a 1282 6535 1b82 8216 1f02 19ba 1602
000001d0: ef2d 1502 5949 1802 ecb3 1202 7ecf 1c02
000001e0: 3622 1082 9090 1882 5395 1382 5298 1c82
000001f0: d5e4 9785 d69f 4884 46bf 1e02 648f 1802
00000200: a6ad 1a82 1bb7 1382 ba8b b085 6f2f 6984
00000210: 7822 1802 0025 1002 21e5 1202 1c48 1282
00000220: 3c5b 1c82 164e 1582 95bf 1902 a0ab 1102
00000230: d180 1202 7d3b 1a02 7dee 1302 37bc 1b02
00000240: e4c8 1f82 ba8f 1882 1c2e 1082 9795 1e82
00000250: f3f9 1c02 3738 1002 6e8c 1902 04a4 1302
00000260: 4a86 1a02 fda6 1402 eda0 1b02 6874 1302
00000270: 1fb9 1202 0e76 1a02 26cc 1d02 4e82 1502
00000280: 0d9d 1a82 02a4 1e02 481e 1d82 e4d1 1582
00000290: f472 1c02 05ce 1b82 fd75 1e02 31c9 1d82
000002a0: b4dd 1602 6ed2 1e02 49b2 1582 7e98 1902
000002b0: a20f 1682 0136 1f82 6216 1102 1078 1082
000002c0: db03 9a85 226d 4b84 8f1a 1a02 9002 1202
000002d0: 6f2a 1c82 cb35 1002 c141 1c82 37d9 1482
000002e0: 86e5 1002 104c 1082 cc61 1582 61e2 1382
000002f0: 0b0f 1c02 be4f 1f02 94ff 1e82 d367 1d82
00000300: 21cf 1182 d46f 1a82 3237 1902 432a 1102
00000310: 6491 1882 54b0 1182 cb77 1702 f29e 1a02
00000320: eb19 1102 52c0 1802 7084 1402 3c95 1e02
00000330: bcc5 1d82 a3b3 1e02 46b7 1a02 5f11 1502
00000340: 0eab 1502 10b7 1802 4a97 1e82 1073 1202
00000350: a102 1a02 0df3 1c02 2b19 1682 c146 1f82
00000360: eb4a 1902 153d 1102 c738 1b82 823e 1482
00000370: 3ba7 1282 e68f 1b82 6fda 1402 bbf4 1702
00000380: 3c3b 1702 9a33 1f02 1dc0 1102 3324 1182
00000390: 4e26 1c02 60f2 1302 76b2 1982 5cc5 1282
000003a0: 89a6 1602 3598 1e02 476b 1502 f84c 1d02
000003b0: d74c 3f85 4bac fc83 7786 52aa 6508 0ba9
000003c0: bba8 1182 eb8d 1a82 a1e5 1302 c3b1 1b02
000003d0: c043 1102 7840 1402 5256 1802 1b82 1b02
000003e0: c574 6a85 49d6 1a84 add6 1582 6556 1482
000003f0: 2dfc 1a82 826e 1982 473b 1d02 72f7 1402
1.1240474e-37 1.0811439e-37 -2.808706e-36 -4.637249e-37 1.0630024e-37 1.1379893e-37 -1.1070187e-37 -1.1745931e-37
-1.1689461e-37 -1.1572435e-37 -1.1652236e-37 -1.1115003e-37 -1.1747286e-37 -1.1219871e-37 -1.1315198e-37 -1.1201946e-37
1.0966167e-37 -1.0919666e-37 -1.0921115e-37 -1.1588306e-37 -1.0919803e-37 -1.1586356e-37 1.1288427e-37 -1.1240346e-37
-1.1525574e-37 -1.1410171e-37 1.0651718e-37 1.0866872e-37 -1.1596977e-37 -1.107383e-37 1.1176774e-37 1.0589843e-37
1.1226174e-37 -1.1178146e-37 1.1386136e-37 1.0787986e-37 -1.057999e-37 -1.1216747e-37 -1.1730267e-37 -1.1200956e-37
1.1661243e-37 1.104858e-37 -1.1192615e-37 -1.0675594e-37 1.1136874e-37 1.1265034e-37 1.096036e-37 -1.0914242e-37
1.0980724e-37 1.1736034e-37 -1.1721993e-37 -1.1194198e-37 -1.1543241e-37 -1.1007406e-37 -3.3116066e-36 -5.467556e-37
1.1391066e-37 1.0954117e-37 1.1656008e-37 1.1043454e-37 1.1689697e-37 1.1075382e-37 -1.1282116e-37 1.1576004e-37
-1.1257053e-37 -1.0750667e-37 -1.066356e-37 -1.1302537e-37 -1.159658e-37 1.070879e-37 1.0696187e-37 1.1422351e-37
-1.0866628e-37 -1.1530506e-37 1.1198284e-37 1.0789514e-37 -1.1100891e-37 -1.059369e-37 1.0921721e-37 1.1497676e-37
-1.0940743e-37 1.1005164e-37 1.1343961e-37 -1.1296417e-37 1.0718753e-37 1.1284168e-37 1.1607334e-37 1.1155036e-37
-1.1457106e-37 -1.0932632e-37 -1.0866788e-37 1.1149892e-37 1.1516771e-37 1.1067685e-37 1.0833038e-37 1.105883e-37
1.127199e-37 -1.1223728e-37 1.0850696e-37 -1.0804437e-37 -1.1646222e-37 -1.1529626e-37 -1.1368487e-37 -1.085451e-37
-1.1247705e-37 -1.1134965e-37 1.1702761e-37 1.1087689e-37 1.1464699e-37 1.1031627e-37 1.0849509e-37 -1.0803339e-37
-1.0747669e-37 -1.1402925e-37 1.1687935e-37 1.1073667e-37 1.0959973e-37 1.1188246e-37 1.0778021e-37 1.1520617e-37
-1.0589267e-37 -1.1208684e-37 -1.0842708e-37 -1.1504784e-37 -1.4284031e-35 -2.358328e-36 1.16629e-37 1.1208347e-37
-1.1363968e-37 -1.0852403e-37 -1.6602288e-35 -2.7410799e-36 1.1177088e-37 1.0590068e-37 1.0792143e-37 -1.074708e-37
-1.1487253e-37 -1.0969201e-37 1.1295646e-37 1.0702172e-37 1.0763354e-37 1.1331205e-37 1.0868297e-37 1.1441617e-37
-1.1739128e-37 -1.1208444e-37 -1.0592682e-37 -1.1650937e-37 1.1532802e-37 1.0595582e-37 1.1280966e-37 1.0846925e-37
1.1352672e-37 1.0921246e-37 1.1433785e-37 1.0833261e-37 1.0779513e-37 1.1348013e-37 1.1593126e-37 1.0984187e-37
-1.1359204e-37 1.1655075e-37 -1.1543229e-37 -1.1007027e-37 1.149406e-37 -1.1446726e-37 1.1641868e-37 -1.1592277e-37
1.1083885e-37 1.1668397e-37 -1.0997956e-37 1.1284428e-37 -1.1024746e-37 -1.1696973e-37 1.0659341e-37 -1.0613905e-37
-1.4483507e-35 -2.3912647e-36 1.1321755e-37 1.0727121e-37 -1.1473248e-37 1.0594887e-37 -1.147994e-37 -1.093566e-37
1.0645319e-37 -1.0601278e-37 -1.0974857e-37 -1.0864822e-37 1.1465387e-37 1.170436e-37 -1.1681354e-37 -1.1564334e-37
-1.0712361e-37 -1.1346226e-37 1.1256505e-37 1.0665046e-37 -1.1208921e-37 -1.0703521e-37 1.1128107e-37 1.1359748e-37
1.0660356e-37 1.122239e-37 1.091133e-37 1.1650835e-37 -1.1591285e-37 1.165956e-37 1.136673e-37 1.0951776e-37
1.0995881e-37 1.1219733e-37 -1.1651425e-37 1.0759407e-37 1.1314888e-37 1.1530822e-37 -1.1027482e-37 -1.170178e-37
1.1262165e-37 1.0670447e-37 -1.1403896e-37 -1.0891262e-37 -1.0774379e-37 -1.1428898e-37 1.093601e-37 1.1163962e-37
1.1110727e-37 1.1696284e-37 1.0708051e-37 -1.0663306e-37 1.1472063e-37 1.0869413e-37 -1.129188e-37 -1.0783025e-37
1.1068053e-37 1.1651688e-37 1.0977578e-37 1.1556627e-37 -8.99489e-36 -1.4850785e-36 -1.8698399e-13 -3.087148e-14
-1.0701341e-37 -1.1354862e-37 1.0865755e-37 1.1438617e-37 1.0672361e-37 1.0891824e-37 1.1191969e-37 1.142494e-37
-1.1024074e-35 -1.8201008e-36 -1.10084e-37 -1.0898117e-37 -1.1386504e-37 -1.1272379e-37 1.155155e-37 1.0944336e-37

exp_avg_sq f4 [10000, 2]
00000000: 0000 0000 0000 0000 19ea 9813 a762 0511
00000010: 0000 0000 0000 0000 0000 0000 0000 0000
00000020: 678e fd11 b22b 5d0f 0000 0000 0000 0000
00000030: 0000 0000 0000 0000 122a 2a13 ac6e 9410
00000040: 0000 0000 0000 0000 0000 0000 0000 0000
00000050: 0000 0000 0000 0000 0000 0000 0000 0000
00000060: e20d c011 f485 270f b2f0 4d0b b6d9 270d
00000070: 0000 0000 0000 0000 0000 0000 0000 0000
00000080: 0000 0000 0000 0000 0000 0000 0000 0000
00000090: 0000 0000 0000 0000 0000 0000 0000 0000
000000a0: 0000 0000 0000 0000 0000 0000 0000 0000
000000b0: 9b5d f002 f05a c004 0000 0000 0000 0000
000000c0: 0000 0000 0000 0000 0000 0000 0000 0000
000000d0: 0000 0000 0000 0000 3114 f612 a0a6 5610
000000e0: 0000 0000 0000 0000 0000 0000 0000 0000
000000f0: 0000 0000 0000 0000 0000 0000 0000 0000
00000100: 0000 0000 0000 0000 0000 0000 0000 0000
00000110: 0000 0000 0000 0000 0000 0000 0000 0000
00000120: 0000 0000 0000 0000 0000 0000 0000 0000
00000130: 0000 0000 0000 0000 0000 0000 0000 0000
00000140: 1251 d20d 6a31 220e 0000 0000 0000 0000
00000150: 0000 0000 0000 0000 0000 0000 0000 0000
00000160: 0000 0000 0000 0000 0000 0000 0000 0000
00000170: 0000 0000 0000 0000 b901 8412 cd92 5714
00000180: 0000 0000 0000 0000 0000 0000 0000 0000
00000190: 401f 4a11 ca4d b00e 0000 0000 0000 0000
000001a0: eebb 6a10 ccbf cc0d 0000 0000 0000 0000
000001b0: 0000 0000 0000 0000 0000 0000 0000 0000
000001c0: 0000 0000 0000 0000 0000 0000 0000 0000
000001d0: e73a 9010 f583 6b12 0000 0000 0000 0000
000001e0: 0000 0000 0000 0000 0000 0000 0000 0000
000001f0: 4f15 f114 1f4b 5212 0000 0000 0000 0000
00000200: 0000 0000 0000 0000 2155 f214 1462 5312
00000210: 0000 0000 0000 0000 0000 0000 0000 0000
00000220: 0000 0000 0000 0000 0000 0000 0000 0000
00000230: 0000 0000 0000 0000 0000 0000 0000 0000
00000240: 0000 0000 0000 0000 b7cf d30b ccb7 3809
00000250: 244a 4711 aeb6 2213 0000 0000 0000 0000
00000260: 0000 0000 0000 0000 0000 0000 0000 0000
00000270: 0000 0000 0000 0000 0000 0000 0000 0000
00000280: 0000 0000 0000 0000 0000 0000 0000 0000
00000290: 0000 0000 0000 0000 0000 0000 0000 0000
000002a0: 0000 0000 0000 0000 0000 0000 0000 0000
000002b0: 0000 0000 0000 0000 0000 0000 0000 0000
000002c0: 9835 a115 ea9e 0c13 0000 0000 0000 0000
000002d0: 0000 0000 0000 0000 0000 0000 0000 0000
000002e0: 0000 0000 0000 0000 d09e c60c 533d 2d0a
000002f0: 51cd b911 5cb5 9713 ce01 3111 0a66 9a0e
00000300: 0000 0000 0000 0000 0000 0000 0000 0000
00000310: 0000 0000 0000 0000 e0c9 770f 4f51 4a11
00000320: 0000 0000 0000 0000 0000 0000 0000 0000
00000330: 6ac6 590e 28ef a70e 0000 0000 0000 0000
00000340: 8439 0b0d bc1e e30e 0000 0000 0000 0000
00000350: cbe2 5509 15ea 2d0b 0000 0000 0000 0000
00000360: 0000 0000 0000 0000 0000 0000 0000 0000
00000370: 0000 0000 0000 0000 e5e2 b711 2c25 9613
00000380: 0000 0000 0000 0000 0000 0000 0000 0000
00000390: 0000 0000 0000 0000 0000 0000 0000 0000
000003a0: 0000 0000 0000 0000 0000 0000 0000 0000
000003b0: fe04 0114 7915 6111 f418 9614 60ed 0212
000003c0: 0000 0000 0000 0000 0000 0000 0000 0000
000003d0: eba3 d10d 3513 ab0f d020 6f10 db3e 4312
000003e0: a367 bd14 2637 2512 f886 8210 07b5 e30d
000003f0: ec21 0a11 d5f9 700e 0000 0000 0000 0000
0.0 0.0 3.8601033e-27 1.052225e-28 0.0 0.0 0.0 0.0
4.0004124e-28 1.0904557e-29 0.0 0.0 0.0 0.0 2.1477759e-27 5.8546224e-29
0.0 0.0 0.0 0.0 0.0 0.0 0.0 0.0
3.0300815e-28 8.259534e-30 3.9662643e-32 5.172291e-31 0.0 0.0 0.0 0.0
0.0 0.0 0.0 0.0 0.0 0.0 0.0 0.0
0.0 0.0 0.0 0.0 3.5318557e-37 4.5222496e-36 0.0 0.0
0.0 0.0 0.0 0.0 0.0 0.0 1.552976e-27 4.2332422e-29
0.0 0.0 0.0 0.0 0.0 0.0 0.0 0.0
0.0 0.0 0.0 0.0 0.0 0.0 0.0 0.0
0.0 0.0 0.0 0.0 0.0 0.0 0.0 0.0
1.2961766e-30 1.9991834e-30 0.0 0.0 0.0 0.0 0.0 0.0
0.0 0.0 0.0 0.0 0.0 0.0 8.330796e-28 1.08836774e-26
0.0 0.0 0.0 0.0 1.594462e-28 4.3462258e-30 0.0 0.0
4.629314e-29 1.2618644e-30 0.0 0.0 0.0 0.0 0.0 0.0
0.0 0.0 0.0 0.0 5.688874e-29 7.4315575e-28 0.0 0.0
0.0 0.0 0.0 0.0 2.4343186e-26 6.635691e-28 0.0 0.0
0.0 0.0 2.4469333e-26 6.670075e-28 0.0 0.0 0.0 0.0
0.0 0.0 0.0 0.0 0.0 0.0 0.0 0.0
0.0 0.0 8.158678e-32 2.2234615e-33 1.5721178e-28 2.0537343e-27 0.0 0.0
0.0 0.0 0.0 0.0 0.0 0.0 0.0 0.0
0.0 0.0 0.0 0.0 0.0 0.0 0.0 0.0
0.0 0.0 0.0 0.0 0.0 0.0 0.0 0.0
6.511194e-26 1.7748835e-27 0.0 0.0 0.0 0.0 0.0 0.0
0.0 0.0 3.0602312e-31 8.341181e-33 2.931439e-28 3.8296593e-27 1.3963394e-28 3.806219e-30
0.0 0.0 0.0 0.0 0.0 0.0 1.221692e-29 1.5960045e-28
0.0 0.0 0.0 0.0 2.6842848e-30 4.1398978e-30 0.0 0.0
4.2901914e-31 5.5989417e-30 0.0 0.0 2.574558e-33 3.3494692e-32 0.0 0.0
0.0 0.0 0.0 0.0 0.0 0.0 2.9012144e-28 3.7901978e-27
0.0 0.0 0.0 0.0 0.0 0.0 0.0 0.0
0.0 0.0 0.0 0.0 6.51382e-27 1.7755987e-28 1.5155972e-26 4.1313354e-28
0.0 0.0 0.0 0.0 1.2920081e-30 1.68693e-29 4.7159717e-29 6.1608626e-28
1.9125e-26 5.2132795e-28 5.148391e-29 1.4033536e-30 1.0896733e-28 2.9702574e-30 0.0 0.0

exp_avg f4 [10000]
00000000: c0c7 1f02 8e52 2b04 0957 1702 5d48 1902
00000010: 677e 1c02 5912 1102 c86a 1202 a67b 1702
00000020: 5f95 1a02 b439 1702 5433 1702 ee1f 1f02
00000030: b24c 1a02 2a01 1102 2783 1002 a4dd 1302
00000040: 273f 1e02 bfa2 1602 6d64 1202 e02b 1202
00000050: 6446 1a02 4bd2 1a02 313f 1602 1281 1a02
00000060: 3119 1c02 0e15 1202 4fa4 1f02 77ff 4904
00000070: 5bb4 1102 c934 1a02 daa6 1a02 feaa 1b02
00000080: e4e1 1b02 c584 1302 8e01 1002 5af3 1702
00000090: a478 1602 796e 1f02 569e 1902 dd7d 1002
000000a0: 5bc7 1502 bde9 1f02 0590 1d02 b665 1402
000000b0: 3d89 1e02 02f0 1502 813c 1302 6492 1302
000000c0: 72e4 1e02 46f4 1802 23ea 1b02 fc63 1d02
000000d0: e394 1602 29d3 1a02 40b9 1202 15f0 1802
000000e0: aace 1402 e2a0 1a02 624c 1502 2e3b 1902
000000f0: 4458 1202 b522 1602 02d2 5905 651b 1502
00000100: 9b5b 1d02 162c 7d05 b8de 1302 c622 1802
00000110: 520d 1f02 4370 1502 eb37 1e02 c2c2 1f02
00000120: 2645 1202 1e93 1d02 8019 1d02 3248 1002
00000130: 6b42 1102 1344 1702 b774 1e02 c25f 1902
00000140: 38bb 1c02 44a3 1f02 4fd5 1102 3cb2 1302
00000150: 0ea3 1202 33bf 1702 01a5 1802 c841 1602
00000160: c1dc 5c05 a8c8 1502 114e 1e02 e4a5 1e02
00000170: dc11 1602 47ee 1202 a42f 1c02 c762 1c02
00000180: d81c 1402 aceb 1402 1333 1b02 4896 1702
00000190: 4eb4 1c02 a1fe 1a02 51af 1e02 6ea5 1102
000001a0: e4b6 1502 e4af 1002 ebda 1902 c6b4 1802
000001b0: e6fe 1402 bceb 1d02 3026 1502 82f9 1402
000001c0: 0cfe 1202 42f3 1602 bcc5 1702 375a 1c02
000001d0: 7e6d 1202 f23a 1102 482a 0905 30f3 162a
000001e0: cb2d 1402 42b9 1f02 2c57 1102 f074 1802
000001f0: ce1b 2805 5160 1302 2470 1802 10d3 1802
00000200: df2c 1802 c7b6 1f02 3018 1102 9706 4b05
00000210: 73a4 1502 5117 ac05 a822 1102 72bc 1602
00000220: 7258 1002 cd7c 1e02 fafd 1a02 8c1f 1f02
00000230: 5dcd 1702 8382 1d02 32b6 1d02 ffc2 1c02
00000240: dec9 1f02 205f 1d02 c4a5 1102 9b52 1302
00000250: 1610 1002 378a 1c02 5937 1502 52a9 1202
00000260: 4883 8904 831e 1502 f1bd 1802 0a68 1102
00000270: 5cdd 1102 2004 1402 0426 9929 daac 1902
00000280: d035 1002 7f57 1202 3478 1302 728c 1602
00000290: cefc 1402 eccb 1002 deef 1502 015c 9005
000002a0: 4d6b 1c02 7fb5 3b2a 5d03 1c02 393e 1902
000002b0: 8beb 1a02 0768 1d2d e416 1f02 7db5 1502
000002c0: f254 1502 3e05 1a02 6ad6 1f02 2cdb 1802
000002d0: b9ad 8b03 90ce 1602 02c5 1b02 d099 1e02
000002e0: 4819 1f02 815a 1d02 fba7 1802 ca07 1b02
000002f0: 1f85 1902 666a 1f02 27aa 1802 c504 1102
00000300: db89 1802 5c05 1102 c290 1102 4444 1d02
00000310: b812 1902 69a7 1502 87fb a105 fcf1 1202
00000320: 5eeb 1f02 f72a 1402 e22d 1f02 883e 1a02
00000330: 2eef 1602 e205 0e06 8e97 1602 42bf 1702
00000340: e565 1e02 9901 1002 396d 1902 a20b 1402
00000350: 38a0 1402 c477 1102 f778 1702 4618 1f02
00000360: 8631 1d02 a423 1502 fb47 1902 687f 1302
00000370: 8ad8 8e05 e0dd 1f02 1ef3 1702 b3bd 1b02
00000380: c109 1905 9048 1302 6184 1402 c0c3 1602
00000390: fd2a 1402 660c 1802 166f 1d02 6e9c 1802
000003a0: fe31 1002 8ec4 1702 c956 1302 783b 1302
000003b0: 8ff9 1902 0f10 1e02 cc38 1802 e049 1a02
000003c0: fab2 de04 7125 1f02 9662 1502 f4cf 1202
000003d0: d8dd 1502 ba2d 1e02 f5aa 1a02 e63b 1302
000003e0: a470 1502 3a6c bd29 2596 1202 8507 1a2b
000003f0: 565f da05 2e20 1d02 0f10 1702 6d64 1202
1.17388e-37 2.013886e-36 1.1118706e-37 1.1261432e-37 1.1497346e-37 1.0658183e-37 1.0757031e-37 1.1129213e-37
1.1357e-37 1.1110288e-37 1.1108458e-37 1.1690638e-37 1.1336144e-37 1.0653252e-37 1.0617088e-37 1.0863462e-37
1.162613e-37 1.1066965e-37 1.0755207e-37 1.0738977e-37 1.1334334e-37 1.1374484e-37 1.1038395e-37 1.1351174e-37
1.14683e-37 1.0732428e-37 1.1728629e-37 2.374474e-36 1.0704677e-37 1.1329282e-37 1.1362017e-37 1.1436674e-37
1.1452429e-37 1.0837957e-37 1.0579895e-37 1.1163566e-37 1.1054882e-37 1.1713179e-37 1.1286105e-37 1.061557e-37
1.1004003e-37 1.1748555e-37 1.157587e-37 1.0902512e-37 1.1647392e-37 1.101567e-37 1.0817218e-37 1.0841866e-37
1.1673567e-37 1.1237299e-37 1.1454795e-37 1.1563232e-37 1.1062988e-37 1.1374733e-37 1.077955e-37 1.1236096e-37
1.0932632e-37 1.1360304e-37 1.0968712e-37 1.1257648e-37 1.0751717e-37 1.103022e-37 1.0241863e-35 1.0954653e-37
1.1560828e-37 1.19041e-35 1.0863771e-37 1.1177176e-37 1.1685298e-37 1.0979009e-37 1.1624054e-37 1.1737368e-37
1.0746231e-37 1.1576759e-37 1.1541856e-37 1.0600168e-37 1.0671979e-37 1.1113264e-37 1.1641502e-37 1.1268146e-37
1.1514799e-37 1.172833e-37 1.0714134e-37 1.0851005e-37 1.077318e-37 1.1148599e-37 1.121455e-37 1.1039138e-37
1.03848964e-35 1.1004377e-37 1.1630411e-37 1.1655615e-37 1.1025385e-37 1.0794768e-37 1.1474742e-37 1.1489418e-37
1.08816e-37 1.0940957e-37 1.1402259e-37 1.1136857e-37 1.1512815e-37 1.1387208e-37 1.165832e-37 1.0700394e-37
1.0999278e-37 1.0629927e-37 1.1303491e-37 1.1219076e-37 1.0946475e-37 1.1602191e-37 1.095775e-37 1.0944928e-37
1.0799294e-37 1.1090071e-37 1.1150475e-37 1.148696e-37 1.0757809e-37 1.0669834e-37 6.449475e-36 1.3407049e-13
1.0886465e-37 1.1734641e-37 1.0677935e-37 1.1200756e-37 7.904429e-36 1.0827496e-37 1.1199379e-37 1.1227768e-37
1.1180074e-37 1.173393e-37 1.0659859e-37 9.5462245e-36 1.0993986e-37 1.6183367e-35 1.0662863e-37 1.1074341e-37
1.0604832e-37 1.1643823e-37 1.1387021e-37 1.1690529e-37 1.1152664e-37 1.1571993e-37 1.1586826e-37 1.1517031e-37
1.1739408e-37 1.1561838e-37 1.070049e-37 1.0823561e-37 1.0584066e-37 1.1500736e-37 1.0962675e-37 1.0774978e-37
3.2329108e-36 1.0955548e-37 1.1221707e-37 1.0682775e-37 1.0716445e-37 1.0874507e-37 6.8011596e-14 1.1290271e-37
1.0594893e-37 1.0751496e-37 1.0834351e-37 1.1060565e-37 1.0945874e-37 1.0637972e-37 1.101563e-37 1.3575492e-35
1.1491864e-37 1.6671906e-13 1.1462035e-37 1.1258522e-37 1.1381731e-37 8.9475155e-12 1.1688044e-37 1.0998876e-37
1.0971169e-37 1.1315638e-37 1.1743009e-37 1.1230096e-37 8.2095705e-37 1.107954e-37 1.144414e-37 1.1652149e-37
1.168873e-37 1.1560512e-37 1.1215404e-37 1.1389837e-37 1.1278869e-37 1.171201e-37 1.1216028e-37 1.0654286e-37
1.1206759e-37 1.0654456e-37 1.0694461e-37 1.155413e-37 1.1246037e-37 1.0994836e-37 1.5232764e-35 1.0795832e-37
1.1749022e-37 1.0885653e-37 1.1694643e-37 1.1332079e-37 1.1088901e-37 2.6711554e-35 1.1063754e-37 1.1148616e-37
1.1637249e-37 1.0579908e-37 1.127201e-37 1.0876661e-37 1.0919303e-37 1.0687289e-37 1.1128443e-37 1.1688441e-37
1.1548751e-37 1.095702e-37 1.1261322e-37 1.0836418e-37 1.343316e-35 1.174515e-37 1.1163499e-37 1.1442043e-37
7.195817e-36 1.0820679e-37 1.0911314e-37 1.1076437e-37 1.088566e-37 1.1170755e-37 1.1566418e-37 1.121209e-37
1.0593796e-37 1.1150136e-37 1.082476e-37 1.0816921e-37 1.1312285e-37 1.1612615e-37 1.1183496e-37 1.1335334e-37
5.2356313e-36 1.169222e-37 1.0975084e-37 1.0786066e-37 1.1010457e-37 1.162113e-37 1.1363195e-37 1.0817044e-37
1.0979117e-37 8.4120604e-14 1.0769475e-37 5.4722226e-13 2.0535642e-35 1.1543773e-37 1.1098337e-37 1.0755207e-37

exp_avg_sq f4 [10000]
00000000: abb2 5d01 fa3a 1d13 0000 0000 0000 0000
00000010: e65b 8211 0000 0000 0000 0000 b7f7 ae12
00000020: 0000 0000 0000 0000 0000 0000 4079 6a01
00000030: 577a 4511 7474 ab0c 0000 0000 0000 0000
00000040: 4253 f700 d26f 4601 0000 0000 0000 0000
00000050: 28aa 3301 0000 0000 2ff3 4604 0000 0000
00000060: 0000 0000 0000 0000 0000 0000 3706 7d12
00000070: 0000 0000 0000 0000 0f55 9400 0000 0000
00000080: 0000 0000 0000 0000 0000 0000 0000 0000
00000090: 0000 0000 0000 0000 0000 0000 34da 2701
000000a0: 0657 030e 0000 0000 0000 0000 0000 0000
000000b0: 0000 0000 5703 d400 0000 0000 083a dc13
000000c0: 7c75 2701 0000 0000 d1d3 cf10 0000 0000
000000d0: 275f f10f 0000 0000 0000 0000 9aad b000
000000e0: 0000 0000 0000 0000 0099 f011 0000 0000
000000f0: 0000 0000 0000 0000 38e3 7714 0000 0000
00000100: 0000 0000 0f2c 7914 0000 0000 0000 0000
00000110: 0000 0000 0000 0000 0000 0000 0000 0000
00000120: 0000 0000 07d2 590b 9a39 a612 0000 0000
00000130: 0000 0000 0000 0000 0000 0000 0000 0000
00000140: 0000 0000 0000 0000 0000 0000 0000 0000
00000150: 0000 0000 0000 0000 0000 0000 0000 0000
00000160: 52c2 2515 0000 0000 0000 0000 0000 0000
00000170: 0000 0000 923d 4c0c b0fb 1a13 0002 b610
00000180: 0000 0000 0000 0000 0000 0000 ecae ce10
00000190: 0000 0000 0000 0000 57fe 870e 0000 0000
000001a0: ab01 680e 0000 0000 40a0 b10a 0000 0000
000001b0: 05a1 a701 0000 0000 0000 0000 f962 1913
000001c0: 21c8 0d01 0000 0000 0000 0000 0000 0000
000001d0: 4292 f800 0000 0000 37a9 8413 8f55 1a14
000001e0: 0000 0000 0000 0000 d2c2 2e0f 8375 c711
000001f0: febf 4214 ee36 0610 7a08 8e10 0000 0000
00000200: 3d0d ed10 8738 ce00 5546 b000 e8bf 1b14
00000210: 0000 0000 cd11 1d14 0000 0000 20dc a006
00000220: 0000 0000 0000 0000 04ab 8808 0000 0000
00000230: 0000 0000 9dce a300 0000 0000 0000 0000
00000240: 0000 0000 0000 0000 0000 0000 0000 0000
00000250: 0000 0000 0000 0000 0000 0000 0000 0000
00000260: fb19 7b12 98ca 5b01 0000 0000 0000 0000
00000270: 387a 1114 5f76 e810 bb33 1113 0000 0000
00000280: 0000 0000 4a34 080c 1e71 1101 0000 0000
00000290: 142f c70f e421 0e11 6c4c 8400 64c4 3715
000002a0: 0000 0000 39de c214 ec79 c913 3ef2 a40e
000002b0: 0000 0000 a913 1e1a 0000 0000 0000 0000
000002c0: 0000 0000 441f 7f01 942a cf0c 0000 0000
000002d0: f927 2012 0000 0000 0000 0000 0000 0000
000002e0: 4b24 cb0e 0000 0000 b396 570d ef2e 9201
000002f0: 0000 0000 8cde e500 b260 be0e 843a 3712
00000300: 0000 0000 0000 0000 0000 0000 05c5 d613
00000310: 0000 0000 0ff4 d40e b5cf 2e15 0000 0000
00000320: 37b3 1b01 e74d 490d 0000 0000 0000 0000
00000330: 0000 0000 1953 aa14 8e03 3111 0000 0000
00000340: 0000 0000 5cd2 240f 0000 0000 0000 0000
00000350: 9840 9a00 0000 0000 0000 0000 0000 0000
00000360: 0000 0000 0000 0000 0000 0000 0000 0000
00000370: 3234 2515 0000 0000 0000 0000 f591 9b0f
00000380: 3c10 7d13 0000 0000 b1db 500f 0000 0000
00000390: 0000 0000 0000 0000 0000 0000 0000 0000
000003a0: 0000 0000 0000 0000 0000 0000 0000 0000
000003b0: 0000 0000 a482 e710 0000 0000 0000 0000
000003c0: 48e3 7b13 0000 0000 0000 0000 0000 0000
000003d0: 0000 0000 0000 0000 3800 b400 bd53 1e01
000003e0: a95a db00 dc84 ca13 0000 0000 9057 1d16
000003f0: 70cc 3015 0bca e111 950f bd0d 2032 930f
4.0719477e-38 1.9845264e-27 0.0 0.0 2.056702e-28 0.0 0.0 1.104201e-27
0.0 0.0 0.0 4.3066005e-38 1.5578259e-28 2.641681e-31 0.0 0.0
2.2713235e-38 3.6447084e-38 0.0 0.0 3.299919e-38 0.0 2.3386453e-36 0.0
0.0 0.0 0.0 7.9840384e-28 0.0 0.0 1.3622167e-38 0.0
0.0 0.0 0.0 0.0 0.0 0.0 0.0 3.082961e-38
1.6188897e-30 0.0 0.0 0.0 0.0 1.9470323e-38 0.0 5.559303e-27
3.0757347e-38 0.0 8.197346e-29 0.0 2.3801086e-29 0.0 0.0 1.6225324e-38
0.0 0.0 3.7959617e-28 0.0 0.0 0.0 1.2515124e-26 0.0
0.0 1.25799764e-26 0.0 0.0 0.0 0.0 0.0 0.0
0.0 4.1950687e-32 1.0490273e-27 0.0 0.0 0.0 0.0 0.0
0.0 0.0 0.0 0.0 0.0 0.0 0.0 0.0
3.3474776e-26 0.0 0.0 0.0 0.0 1.5734116e-31 1.9561624e-27 7.1789424e-29
0.0 0.0 0.0 8.1522183e-29 0.0 0.0 3.352499e-30 0.0
2.859701e-30 0.0 1.710476e-32 0.0 6.1577163e-38 0.0 0.0 1.9360112e-27
2.6041195e-38 0.0 0.0 0.0 2.282767e-38 0.0 3.3488343e-27 7.7918865e-27
0.0 0.0 8.616383e-30 3.1469086e-28 9.832361e-27 2.6469157e-29 5.6022184e-29 0.0
9.3500414e-29 1.893839e-38 1.6188278e-38 7.863347e-27 0.0 7.929985e-27 0.0 6.0508755e-35
0.0 0.0 8.225408e-34 0.0 0.0 1.5043305e-38 0.0 0.0
0.0 0.0 0.0 0.0 0.0 0.0 0.0 0.0
7.923366e-28 4.03693e-38 0.0 0.0 7.3447326e-27 9.1690245e-29 1.8327078e-27 0.0
0.0 1.0492794e-31 2.6713451e-38 0.0 1.9641049e-29 1.1212268e-28 1.21497e-38 3.711148e-26
0.0 1.9676645e-26 5.0859758e-27 4.0662392e-30 0.0 3.2689516e-23 0.0 0.0
0.0 4.6858535e-38 3.1919026e-31 0.0 5.053637e-28 0.0 0.0 0.0
5.0078313e-30 0.0 6.643339e-31 5.3699276e-38 0.0 2.1110163e-38 4.693173e-30 5.7816744e-28
0.0 0.0 0.0 5.421547e-27 0.0 5.2497055e-30 3.5302872e-26 0.0
2.8597584e-38 6.203168e-31 0.0 0.0 0.0 1.719839e-26 1.3963933e-28 0.0
0.0 8.126338e-30 0.0 0.0 1.4165838e-38 0.0 0.0 0.0
0.0 0.0 0.0 0.0 3.336266e-26 0.0 0.0 1.53404e-29
3.1941094e-27 0.0 1.0297503e-29 0.0 0.0 0.0 0.0 0.0
0.0 0.0 0.0 0.0 0.0 9.131472e-29 0.0 0.0
3.1792712e-27 0.0 0.0 0.0 0.0 0.0 1.6530468e-38 2.9080096e-38
2.0144496e-38 5.112298e-27 0.0 1.2709989e-25 3.570419e-26 3.562326e-28 1.1651776e-30 1.4514627e-29
