checkpoints/checkpoint_10000.pth (torch, 483756 bytes, 6 tensors)

W f4 [10000, 2]
000000 9e 7f 14 ba 89 d2 73 3a dd 64 05 bb 43 74 0c 3c
       -0.00056647684 0.00093010865 -0.0020354309 0.008572641
000010 f6 36 83 ba e3 bc ce b9 7c e9 4e bb dc 4a d6 bb
       -0.0010010886 -0.00039432113 -0.0031572273 -0.0065396857
000020 19 83 61 b9 55 9c c1 3a 21 04 2a b8 8b f5 60 3a
       -0.0002150651 0.0014771322 -4.0535004e-05 0.00085815106
000030 e4 79 13 3b bc 52 7d 39 2d bd 8c b9 de 5a ae 3b
       0.0022503072 0.00024158781 -0.00026843828 0.005320891
000040 5d fb c8 ba 29 21 9f b6 d1 7e 9b 3c 8a 3d e3 bc
       -0.0015333701 -4.7424296e-06 0.01898137 -0.027739305
000050 bf 53 ba 3b 9f f3 d8 bb 26 cf 9f 3b b6 33 82 bb
       0.005686253 -0.006620839 0.004876989 -0.0039734496
000060 ea e0 c8 3a d5 11 3a 3a ca 6b 81 3b 2a 3a c4 3c
       0.0015325819 0.0007097994 0.003949617 0.023953516
000070 9b aa b8 bb e0 51 cf bb 8a 4f a0 37 3a 8f 47 39
       -0.005635572 -0.006326899 1.9110525e-05 0.00019031475
000080 6f a8 16 bc fb ce 7f 3b 91 2c 32 3a ec 22 a0 3a
       -0.009195431 0.0039033282 0.0006796802 0.0012217439
000090 75 15 f0 3b 54 77 ef bb f6 55 01 3b d3 be 8f 3a
       0.0073267766 -0.007307926 0.0019735075 0.0010966904
0000a0 84 ae 1e bb 4f 8b db ba 08 e3 93 39 10 19 15 3b
       -0.0024212906 -0.0016749891 0.00028207176 0.0022750534
0000b0 f8 a9 b6 ba 00 25 80 3b 80 78 13 bc 57 46 64 bc
       -0.0013936153 0.0039106607 -0.009000897 -0.013932786
0000c0 ff a5 5f 3a 98 ad 86 38 e3 fc 7e ba 80 46 5f 3a
       0.000853151 6.421952e-05 -0.0009727014 0.000851728
0000d0 6a 3c 60 bc 7a f1 7e bc ce 77 1f 3c 18 11 35 3b
       -0.013686279 -0.015560502 0.0097331535 0.0027628597
0000e0 ec 98 87 bb 0e fc 13 39 63 f2 f9 3a 3a d4 87 3b
       -0.0041381028 0.0001411291 0.0019069429 0.0041451724
0000f0 98 a0 e5 3a 5a 4b 3b 39 e2 73 24 3b 44 cd 74 3b
       0.0017519174 0.0001786178 0.0025093486 0.0037353793
000100 23 61 34 36 af 8a 68 3d bf 94 a6 b9 ea 25 a2 3a
       2.6878631e-06 0.056772884 -0.00031772812 0.0012370918
000110 5f 82 12 3a 4e 0f 9c ba f0 b0 fd bb aa 85 c3 bb
       0.0005588885 -0.0011906417 -0.00774204 -0.0059668617
000120 30 94 f3 bc 02 2d 44 3c d1 a6 84 3a 9a 23 42 3b
       -0.029733747 0.011973621 0.0010120516 0.002962327
000130 e2 f9 72 ba e0 76 f0 3a b5 4b d1 3a 7e 60 0d ba
       -0.0009268803 0.0018345974 0.0015967997 -0.00053931016
000140 00 3b c8 3a 26 96 ec b9 fc 37 5c bb c9 03 ae 3a
       0.0015276372 -0.00045125297 -0.0033602705 0.0013276275
000150 82 95 50 3b fb c5 33 3b a6 39 a7 ba a1 a7 4a 3b
       0.0031827395 0.0027431238 -0.001275827 0.0030922669
000160 67 f8 1b bc ca 3f 8f 3b 2e e6 3b 3a 1c b7 92 3b
       -0.009519673 0.004371618 0.00071677833 0.0044773947
000170 52 35 b8 bb e3 8b 98 b7 23 19 a7 3a e2 0f b3 ba
       -0.0056215907 -1.8184952e-05 0.001274858 -0.001366135
000180 0e cc 51 bc 93 02 a5 39 e4 2c 9a bb 2d 3d 64 3b
       -0.012804998 0.0003147317 -0.0047050584 0.0034826503
000190 22 f1 ca 39 2d fb 86 3b e8 3a 26 bb 24 e0 d2 3a
       0.000387081 0.004119298 -0.00253647 0.0016088528
0001a0 50 b8 96 3a e1 af 9a 3b 56 36 09 ba 06 53 e3 3a
       0.0011499021 0.0047206734 -0.0005234232 0.0017343468
0001b0 9f 02 c9 3b 3c 40 3b bc ed 96 af ba 27 1e 27 bb
       0.0061343457 -0.011428889 -0.001339642 -0.002550015
0001c0 9a 10 ba 3a ce 06 44 3b db e8 93 3c f8 2a b4 3b
       0.0014195621 0.0029911282 0.01805537 0.0054982863
0001d0 8d a3 31 3c 9f d0 88 bc 43 11 c0 bc 73 17 c5 3b
       0.010842216 -0.01670104 -0.023445731 0.0060147583
0001e0 76 58 72 3b 50 d4 b6 bb 51 cc 6b 38 de a8 52 b9
       0.0036978996 -0.005579509 5.621865e-05 -0.00020090069
0001f0 20 27 0d 3c 47 0b 0d bc c0 c7 9d 3b 28 2e be 3a
       0.008615285 -0.008608646 0.004815072 0.0014509605
000200 a4 b1 87 bc 51 cb 1f bd 30 df 0d 3c 57 95 e9 bb
       -0.016564198 -0.039012257 0.008659169 -0.0071283984
000210 a3 ac 68 ba e1 e5 04 bb 69 ff 01 3d 2a 87 2a 3b
       -0.00088758225 -0.002027862 0.03173772 0.0026020505
000220 e1 68 d8 3a 40 43 8c bc b7 a8 46 3a 3a 4d a3 3a
       0.0016510749 -0.017121911 0.0007578241 0.0012458928
000230 b6 1b 5e ba 58 c1 d6 39 47 54 17 3b 7e c0 01 3c
       -0.0008472757 0.00040961313 0.0023091005 0.007919429
000240 01 94 ac ba ab 97 26 3b 87 c8 50 ba 63 c7 89 39
       -0.0013166667 0.002541999 -0.0007964451 0.0002627923
000250 36 78 ca 3a 79 01 30 bb 23 d5 54 39 19 10 b3 bc
       0.0015447203 -0.0026856347 0.00020297295 -0.021858262
000260 f3 2f 87 bc 4d 4b bc bc 3f 24 08 3c 69 a3 8f bc
       -0.016502356 -0.022985125 0.008309423 -0.017533975
000270 c1 37 30 b9 52 da 23 b9 7d ff 8f bb 92 84 70 bb
       -0.00016805438 -0.00015626222 -0.0043944702 -0.0036700112
000280 a3 d3 15 3c d2 a0 12 3d d3 d4 7d bc b5 10 03 3d
       0.009144696 0.0357979 -0.015492636 0.031998355
000290 c0 4f 91 bb 91 30 a1 bb 11 ab 10 38 bd 6f 24 ba
       -0.004434556 -0.0049191196 3.4491593e-05 -0.0006272754
0002a0 ad 53 7e 3b 67 f3 1d 3a 01 3e 1c bb 61 ed 48 ba
       0.00388072 0.00060253445 -0.0023840668 -0.0007664767
0002b0 5a a4 ce 3a 29 10 e9 39 0a 34 2e bb b7 1b ac 39
       0.0015765533 0.00044453263 -0.002658131 0.00032827046
0002c0 6f 43 23 3c 04 44 4b bc e1 ae 6f 3b 0d 5e 0e 3a
       0.009964808 -0.012406353 0.0036572742 0.0005430885
0002d0 e9 e7 f9 bb b2 79 15 3b d4 d6 c4 ba 6a 02 7b ba
       -0.007626523 0.0022808132 -0.0015017637 -0.000957525
0002e0 a0 34 0e 3c cf d2 1a bc d6 f9 71 3a 3d 28 ab 3a
       0.008679539 -0.009449675 0.0009230649 0.0013058257
0002f0 fe ef 2b ba 03 7a 5c 39 11 5e f1 bb 29 96 9c bb
       -0.0006558894 0.00021026288 -0.00736595 -0.0047786427
000300 f5 69 ac 3a 75 41 01 b9 9b 7e af bb 8c 6c d7 b9
       0.0013154136 -0.00012326783 -0.0053556687 -0.0004108887
000310 e9 92 78 39 ea 7a 04 38 37 fc 0c 38 95 f9 0e ba
       0.00023705851 3.1585725e-05 3.3613494e-05 -0.0005454061
000320 ec 64 27 bd 47 5a 85 3a af af 8f 3b 38 fd 98 3b
       -0.04086773 0.0010174 0.004384957 0.004668858
000330 89 cf 51 39 4d 7c ed ba 94 31 3d b9 8b dd 63 3a
       0.00020009106 -0.001811871 -0.00018042914 0.0008692375
000340 50 01 d1 bb 8f 75 84 3a 32 7e e6 37 c4 a0 83 3a
       -0.0063783303 0.0010105836 2.74769e-05 0.0010042419
000350 24 34 b1 39 0f d7 74 39 55 e3 9a ba 65 2d 80 3b
       0.0003379892 0.00023349769 -0.0011817018 0.0039116614
000360 cc 76 a8 3b 4d 5a e4 bb cf 3e 06 bb 2c b3 42 bb
       0.005141115 -0.0069687725 -0.0020484214 -0.0029708846
000370 84 11 1a ba a9 a9 38 3a f5 86 a4 ba dd c1 22 3b
       -0.0005877244 0.00070443243 -0.0012552427 0.002483479
000380 8f ce d9 b9 96 24 17 3c d6 33 3f 3a 0a 0b 39 3c
       -0.00041543363 0.009225031 0.0007293796 0.011294136
000390 1b e1 2a 38 70 86 ae b8 1f 05 e8 bb a6 69 52 bc
       4.0740804e-05 -8.3220075e-05 -0.0070806886 -0.012842571
0003a0 c6 f1 0c 3c 70 70 4f bc a5 5f de 38 b1 9d ae ba
       0.008602565 -0.0126610845 0.000106036 -0.0013322142
0003b0 11 66 22 ba 22 ab 10 3b ce 22 16 b9 17 e8 f1 b9
       -0.00061950187 0.002207466 -0.0001431808 -0.00046140022
0003c0 1d 11 a7 3a 34 5a 5b bb 2f 94 21 bb dc 08 22 bb
       0.0012746189 -0.0033470513 -0.0024654975 -0.002472452
0003d0 1a d6 03 3c 2b 7b fc 3a 9e e8 8d 39 8c e5 d4 b9
       0.008046651 0.0019262781 0.0002706693 -0.00040606817
0003e0 d3 98 86 3a 99 3d 7b 39 61 88 3e 3b 20 22 d9 3a
       0.0010268934 0.00023960172 0.0029072987 0.0016565956
0003f0 e6 58 61 ba 44 d5 a9 ba 87 6c b4 38 f8 72 a0 b9
       -0.0008596316 -0.0012957235 8.603284e-05 -0.00030603237

b f4 [10000]
000000 04 d5 a5 39 d2 12 b7 39 d9 0c 7e 39 23 f2 89 39
       0.0003162996 0.00034918502 0.00024228114 0.00026311082
000010 6e 63 3f 39 93 c1 93 39 a7 fb 99 39 d2 70 b7 39
       0.0001825222 0.0002818225 0.0002936993 0.00034988538
000020 a8 6c ae 39 a0 ac 7e 39 a4 84 a0 39 ac c1 ca 39
       0.0003326882 0.00024287635 0.00030616403 0.0003867274
000030 31 ac 87 39 95 a0 c0 39 d4 0f 43 39 21 e7 5a 39
       0.000258775 0.00036740737 0.00018602546 0.00020876202
000040 1a c4 3b 39 df ac 47 39 76 ba 39 39 71 0a 44 39
       0.00017906763 0.00019042518 0.00017712437 0.00018695906
000050 62 48 a6 39 f2 79 f9 38 d3 b4 b0 39 bf b5 a2 39
       0.00031715917 0.00011895959 0.0003370406 0.0003103446
000060 3e ed 5e 39 e9 5f b4 39 8f 11 44 39 74 c5 d8 39
       0.0002125995 0.00034403734 0.00018698558 0.00041345845
000070 7c 38 0b 39 29 c6 4c 39 5a 66 79 39 91 b9 9e 39
       0.00013277115 0.00019528776 0.0002378462 0.00030274366
000080 61 74 37 39 5b b8 a1 39 00 09 c5 39 c6 75 8b 39
       0.00017495595 0.00030845669 0.00037581474 0.00026599894
000090 52 99 f5 39 93 a3 a3 39 13 bd b7 39 d1 a4 90 39
       0.00046844274 0.00031211655 0.0003504535 0.00027588618
0000a0 f6 65 6d 39 08 cd 41 39 90 9a ff 38 b6 36 7e 39
       0.00022640065 0.00018482294 0.00012188137 0.00024243709
0000b0 bb 19 db 39 13 6f 59 39 de cb af 39 4b 52 b3 39
       0.00041790106 0.00020736111 0.00033530494 0.00034202854
0000c0 c8 89 95 39 ff dd 78 39 db 0a 8d 39 3a 3f 09 3a
       0.0002852215 0.00023733823 0.00026901704 0.0005235557
0000d0 9d 6f 6c 39 26 8d 8e 39 ac 63 b4 39 93 ff 72 39
       0.00022548293 0.00027189514 0.00034406537 0.00023174127
0000e0 d6 95 bb 39 75 24 b4 39 61 b4 45 bc b0 65 77 39
       0.00035779056 0.00034359438 -0.012066931 0.00023593637
0000f0 51 dc 2d 39 a6 50 9a 39 5f 59 26 39 4e a6 e6 38
       0.0001658064 0.00029433257 0.00015864287 0.00010998231
000100 d9 43 c9 bc 79 ad 8c 39 29 73 a3 39 f1 94 c3 bc
       -0.024568485 0.00026832128 0.00031175584 -0.023874732
000110 d1 17 28 bc 37 4f 8e 39 f2 20 a6 39 d8 46 14 39
       -0.0102595845 0.0002714337 0.00031686533 0.00014140771
000120 9d ad 02 3a 84 dc 85 39 c9 60 b2 39 8c 37 a0 39
       0.0004984977 0.00025532034 0.00034022916 0.00030558964
000130 ad 5a 4e 39 f3 cc ae 39 78 67 4e 39 78 7c b1 39
       0.0001967947 0.00033340565 0.00019684236 0.00033852807
000140 e4 20 bf bc 30 2a aa bc 90 8d 4f 39 81 5c 9a 39
       -0.023331113 -0.02077207 0.00019793794 0.0002944209
000150 8d 51 24 39 07 0f 36 39 d7 9a 34 39 a7 9d 98 39
       0.00015670639 0.0001736247 0.0001722382 0.0002910916
000160 68 d1 db 38 c6 a8 9b 39 fd ee a1 39 0a a4 bc 39
       0.00010481739 0.0002968965 0.00030886373 0.00035980373
000170 8c b1 9e 39 33 c6 41 39 75 93 86 39 df bf 83 39
       0.0003026839 0.00018479749 0.00025668336 0.00025129222
000180 1f ed b7 39 7c 9a 82 39 60 bd 55 39 bc 64 99 39
       0.0003508115 0.00024910632 0.0002038381 0.00029257487
000190 32 1e e1 bc 65 08 6e 39 24 bb 74 39 92 90 5a 39
       -0.027480219 0.00022700576 0.00023339369 0.00020843957
0001a0 f2 36 75 39 99 e7 9c 39 bd bd 8b 39 81 f5 63 39
       0.0002338549 0.00029927192 0.00026653512 0.00021739864
0001b0 b6 86 e5 39 3a 22 ac 39 a5 a8 3d 39 42 12 a9 39
       0.0004377865 0.00032831897 0.0001808727 0.00032247795
0001c0 71 d2 b0 39 22 81 a8 39 93 f8 4b 39 55 5f 38 39
       0.00033726127 0.00032139668 0.0001945219 0.00017583121
0001d0 de 70 db 39 e2 14 56 39 c9 02 eb 39 83 ba 7d 39
       0.00041855028 0.0002041641 0.00044824768 0.00024197441
0001e0 6c 7f 6e 39 51 f2 8d 39 82 fd c1 39 78 d7 1d 39
       0.00022744917 0.00027074156 0.00037000707 0.00015052955
0001f0 b0 1c 7f 39 37 7f 91 39 e1 4e bd 39 69 7c 91 39
       0.00024329382 0.00027751338 0.00036107659 0.00027749248
000200 c5 32 bb 39 50 64 ea 39 4c f9 0c bd c4 44 a2 39
       0.00035705246 0.00044706697 -0.034417436 0.00030950282
000210 3c 0d 46 39 55 ab dc 39 d4 e2 5c 39 71 8f 85 39
       0.00018887682 0.00042089322 0.00021065335 0.0002547461
000220 14 d2 74 bd 45 e8 66 39 ba cb b5 39 08 1b 7d 39
       -0.05977066 0.00022021036 0.00034674798 0.0002413803
000230 08 38 0a 39 ef cf a4 39 a9 f9 d1 39 b3 e4 58 39
       0.00013181579 0.0003143544 0.00040049598 0.00020684562
000240 a6 48 6a 39 e8 e2 96 39 54 73 67 39 06 b1 82 39
       0.00022343043 0.00028779288 0.0002207284 0.00024927425
000250 6b 87 6b 39 3f 0b 3e 39 61 fa 7f 39 25 bd 7a 39
       0.00022461794 0.00018124002 0.00024411968 0.0002391232
000260 47 6b 06 39 e2 b5 96 39 d0 37 a2 39 5b cf 7a 39
       0.000128192 0.00028745743 0.0003094063 0.00023919104
000270 07 82 e4 39 d7 76 92 39 34 97 85 39 20 37 99 39
       0.00043584427 0.00027935833 0.00025480392 0.00029223505
000280 cb 1c 96 39 a0 d1 66 39 bb 8e ac 39 a5 e3 71 39
       0.00028631682 0.000220126 0.0003291274 0.00023068355
000290 9d ce 55 39 2c 44 48 bc b0 0e c1 39 5b a6 7d 39
       0.00020390232 -0.012223285 0.00036822772 0.00024189932
0002a0 fa 37 5f 39 5b c4 b7 39 b3 a6 3a 39 99 e4 83 ba
       0.0002128779 0.00035050776 0.00017800443 -0.0010062634
0002b0 2a b5 60 39 10 d5 79 39 9d 90 8b 39 5b 82 06 39
       0.00021429794 0.00023825862 0.0002661989 0.00012827797
0002c0 a4 48 59 39 ee 97 d8 39 2a 05 88 39 94 6a 64 39
       0.00020721793 0.00041311927 0.0002594379 0.00021783478
0002d0 5e 00 f8 38 e2 9b 9a 39 6e fe b7 39 53 66 41 39
       0.0001182563 0.0002948931 0.00035094045 0.00018444033
0002e0 4e ed 79 39 38 1e 94 39 3a f9 09 39 4a d7 7f 39
       0.00023834893 0.00028251274 0.00013158182 0.00024398896
0002f0 f7 db cd 39 72 45 75 39 dd e2 04 39 2f 8f 5c 39
       0.00039264534 0.00023390891 0.00012673014 0.00021034175
000300 83 65 97 39 fb 7e 1b 39 c6 12 10 3a c2 63 18 39
       0.00028876596 0.00014829256 0.00054959615 0.00014533012
000310 c4 bc dc 39 80 f1 81 39 ed a9 89 39 1d 3e 2a 39
       0.0004210231 0.0002478473 0.0002625728 0.00016235602
000320 df 9e 9a 39 44 2e 86 39 cf be bb 39 59 21 a6 39
       0.00029491537 0.00025592942 0.00035809583 0.00031686833
000330 9e 6c 99 39 0e d9 b0 39 f6 d9 78 39 bb c5 2d 39
       0.0002926336 0.00033731054 0.0002373232 0.00016572226
000340 be e5 43 39 02 e3 9c 39 57 a4 8f 39 55 f0 c5 39
       0.00018682235 0.00029923773 0.00027397528 0.0003775383
000350 25 e4 06 39 38 cf 82 38 14 12 80 39 d0 7a 59 39
       0.00012864226 6.2374806e-05 0.00024427532 0.00020740484
000360 a8 9e 96 bb 5e 3a 49 39 46 bc a0 39 b2 6e b2 39
       -0.00459655 0.00019190597 0.00030657853 0.0003403328
000370 20 79 9c 39 a8 aa f9 39 ac ca 3b 39 ca fe 15 39
       0.00029844884 0.0004762013 0.00017909211 0.00014304664
000380 90 d8 a7 39 a0 15 b7 39 b4 31 2e 39 14 79 15 39
       0.00032014074 0.00034920592 0.00016612449 0.00014254852
000390 16 d8 c4 39 f3 1a 83 39 cc c4 30 39 fa 54 79 39
       0.0003754503 0.00025006346 0.0001685798 0.00023778147
0003a0 8d f3 2c 39 63 d4 73 39 ce 31 51 39 22 8f b7 39
       0.00016493928 0.00023253406 0.00019950347 0.00035011122
0003b0 a0 ea 37 ba 3c 27 92 39 73 a9 92 39 cd 87 74 39
       -0.0007015858 0.00027876522 0.0002797354 0.00023320243
0003c0 aa a9 f8 39 0b 53 cb 38 e1 48 8a 39 c1 34 18 39
       0.00047428656 9.695262e-05 0.0002637571 0.00014515502
0003d0 67 0b 73 39 b1 47 a8 39 72 78 d7 39 a0 f8 fe 39
       0.00023178534 0.0003209687 0.00041097734 0.00048631895
0003e0 49 dd 9e 39 b2 96 bb 39 4f ad 34 39 7f 22 ce 39
       0.0003030098 0.00035779696 0.000172307 0.00039317083
0003f0 42 58 8a 36 f5 1b 75 39 5f 6a 82 39 89 c6 5f bc
       4.122995e-06 0.00023375436 0.00024874785 -0.013658174

exp_avg f4 [10000, 2]
000000 4d 14 9a 29 4c 83 00 aa ce 43 10 2a 76 7c a2 ab
       6.8424955e-14 -1.1414237e-13 1.2813294e-13 -1.1545337e-12
000010 45 e2 d7 29 90 5c 18 28 84 e8 af 2a dc d3 2a 2b
       9.5871695e-14 8.457766e-15 3.1247585e-13 6.0690146e-13
000020 dc fb 32 28 8b a7 12 aa 88 a7 29 28 0c 0d a7 a9
       9.935598e-15 -1.3025533e-13 9.417712e-15 -7.418553e-14
000030 cf 9a 71 aa 4c 58 d0 a8 69 72 c5 29 51 63 e5 aa
       -2.145881e-13 -2.3130932e-14 8.7684044e-14 -4.0747486e-13
000040 e9 b3 1f 2a c5 fd 0c 29 23 90 03 ac a9 14 44 2c
       1.4184456e-13 3.1306355e-14 -1.8696232e-12 2.7864744e-12
000050 a4 64 55 ab ad dd 77 2b 20 fc 02 ab c2 62 ed 2a
       -7.581247e-13 8.8059665e-13 -4.653517e-13 4.2168184e-13
000060 8a 5c 10 aa 4a ad d6 a9 1b e8 e5 aa 09 b6 27 ac
       -1.2821875e-13 -9.53357e-14 -4.0839627e-13 -2.3833177e-12
000070 70 fb 02 2b 79 7a 04 2b 0a 2c 20 27 d0 c7 12 a9
       4.653422e-13 4.7065786e-13 2.2228334e-15 -3.2591822e-14
000080 5c de 84 2b a1 cb ee aa 81 e4 91 a9 19 68 38 aa
       9.440881e-13 -4.241859e-13 -6.4789327e-14 -1.6378599e-13
000090 5e 68 5d ab 40 ee 50 2b ea 9d 71 aa 08 8b f2 a9
       -7.865981e-13 7.4227083e-13 -2.1459887e-13 -1.0771077e-13
0000a0 22 4b 8e 2a 47 e0 18 2a 99 e3 0e a9 36 ff 91 aa
       2.52764e-13 1.3578124e-13 -3.1727743e-14 -2.5934262e-13
0000b0 5a 35 28 2a 88 9f 04 ab af e3 86 2b 00 2f ce 2b
       1.4939907e-13 -4.7117215e-13 9.584468e-13 1.4650225e-12
0000c0 07 ef c5 a9 0b 22 82 2a 54 6b 58 2a d8 08 16 aa
       -8.790022e-14 2.311626e-13 1.9221891e-13 -1.3325745e-13
0000d0 52 66 d3 2b 41 4b de 2b 51 17 8c ab bb 3d b3 aa
       1.5020851e-12 1.5794936e-12 -9.95407e-13 -3.1839622e-13
0000e0 69 d5 f9 2a c9 7d dc a6 9a 99 4c aa 70 34 fa aa
       4.4379368e-13 -1.5299661e-15 -1.8172131e-13 -4.4445307e-13
0000f0 c2 8d 43 aa 82 5b 23 a9 3e 04 a5 aa fe be e4 aa
       -1.7368661e-13 -3.627264e-14 -2.9312831e-13 -4.0633463e-13
000100 8c ca 53 a9 6d a1 d3 ac 8d b4 55 29 23 a8 00 aa
       -4.7027093e-14 -6.0149026e-12 4.7452104e-14 -1.1427018e-13
000110 12 5f 60 a9 0e b7 16 2a 54 bf 38 2b 6f fd d9 2a
       -4.9820452e-14 1.3386186e-13 6.5635453e-13 3.8722798e-13
000120 3d ee 74 2c e5 e9 b1 ab 52 4c cb a9 71 97 ca aa
       3.4806734e-12 -1.2641525e-12 -9.0282504e-14 -3.5987492e-13
000130 6c 96 d1 29 ae f1 30 aa 1b 41 34 aa 60 88 90 29
       9.3075585e-14 -1.571579e-13 -1.60098e-13 6.418542e-14
000140 11 15 47 aa 19 84 4b 29 8e c9 ad 2a c7 d3 56 aa
       -1.768206e-13 4.518963e-14 3.087083e-13 -1.9080493e-13
000150 b5 0a 8f aa f6 ed c6 aa 43 13 18 2a e9 ce c0 aa
       -2.5409332e-13 -3.5336984e-13 1.3506995e-13 -3.4249624e-13
000160 f5 b9 83 2b a9 68 de aa 61 f2 b5 a9 24 68 07 ab
       9.359723e-13 -3.9507744e-13 -8.080061e-14 -4.810616e-13
000170 51 e3 3f 2b a2 82 2f a8 eb 22 6a aa 69 ff 80 2a
       6.8172296e-13 -9.742778e-15 -2.079549e-13 2.2914594e-13
000180 89 d0 ba 2b ba 62 48 29 ce e8 06 2b 01 91 e9 aa
       1.3273975e-12 4.4494553e-14 4.7929445e-13 -4.148973e-13
000190 be 77 a5 a8 07 8c 0d ab 6c 77 9f 2a ba 1b 45 aa
       -1.837061e-14 -5.028759e-13 2.832694e-13 -1.7506734e-13
0001a0 4b 2c 11 aa 66 12 08 ab d5 5f 8d 29 d6 33 7d aa
       -1.2893954e-13 -4.834244e-13 6.278282e-14 -2.2488898e-13
0001b0 50 ac 42 ab 9a 62 93 2b b4 03 46 2a 9d 32 a6 2a
       -6.9161777e-13 1.0472346e-12 1.7587217e-13 2.9522644e-13
0001c0 4a 8d ea a9 5f 4e a7 aa d8 39 04 ac 08 67 32 ab
       -1.0416197e-13 -2.971954e-13 -1.8790438e-12 -6.338129e-13
0001d0 d3 b2 8b ab 58 02 04 2c 61 23 30 2c 67 f2 28 ab
       -9.926178e-13 1.875963e-12 2.5030744e-12 -6.002199e-13
0001e0 eb 56 d4 aa b9 a8 12 2b 43 b1 c8 a8 e9 79 46 29
       -3.7719076e-13 5.210377e-13 -2.2281336e-14 4.4070572e-14
0001f0 3f bc 7f ab 60 4d 73 2b 9c 3a 04 ab 2a c0 29 aa
       -9.0855443e-13 8.643832e-13 -4.697716e-13 -1.5076886e-13
000200 34 2c 2c 2c 7b e1 e3 2c c0 ac 7a ab 70 33 4a 2b
       2.4467208e-12 6.4767614e-12 -8.905758e-13 7.18362e-13
000210 2e 45 a4 29 78 53 11 2a 01 21 62 ac e1 08 97 2b
       7.295064e-14 1.2907546e-13 -3.2134853e-12 1.073166e-12
000220 2e 50 03 2b d5 05 49 2c 44 e1 9b a9 4c 2a cf 28
       4.665182e-13 2.8567055e-12 -6.92246e-14 2.299996e-14
000230 6f f2 ab 29 54 0f fb 29 d7 db 88 aa f3 53 72 ab
       7.635981e-14 1.1149298e-13 -2.4310998e-13 -8.6092174e-13
000240 7b 0b c3 29 7f 05 a5 aa ea 8f ba 29 8c d7 5f a9
       8.661731e-14 -2.9313702e-13 8.2850244e-14 -4.9702904e-14
000250 df 78 63 aa 24 72 d0 2a 5d f0 3e ab 96 af 00 2c
       -2.0203586e-13 3.7027423e-13 -6.783513e-13 1.8287364e-12
000260 c8 4c 11 2c 68 61 32 2c 04 48 73 ab a4 bb f4 2b
       2.0648361e-12 2.5349393e-12 -8.6430884e-13 1.7389323e-12
000270 fb 00 26 29 6d 26 c8 28 db 77 02 2b 1a ed ff 2a
       3.6860255e-14 2.2221125e-14 4.635161e-13 4.5461622e-13
000280 47 3c bf ab ed a2 8d ac 95 93 cc 2b 32 8c 77 ac
       -1.3588097e-12 -4.0255494e-12 1.4536034e-12 -3.5178635e-12
000290 09 8c fd 2a 68 ec 0f 2b 03 b8 10 26 1e 3f ab 29
       4.5038997e-13 5.1131885e-13 5.020942e-16 7.6048746e-14
0002a0 28 8f d3 aa 2c 3a 69 a9 c8 c9 8d 2a 98 bb 25 29
       -3.7580464e-13 -5.178685e-14 2.5186645e-13 3.680007e-14
0002b0 20 b0 15 aa b5 c2 37 a9 4b cb 8c 2a ac 20 92 a7
       -1.3294964e-13 -4.0803044e-14 2.5010059e-13 -4.0558563e-15
0002c0 d9 10 91 ab 26 6e af 2b ff 33 c3 aa 3c f9 91 a9
       -1.0307546e-12 1.246507e-12 -3.4675038e-13 -6.482529e-14
0002d0 59 dd 59 2b ed 38 88 aa 8f 71 29 2a 7d ad 07 2a
       7.740107e-13 -2.4197953e-13 1.5049614e-13 1.20506e-13
0002e0 5f 7f 78 ab 4a 34 78 2b 0e 1c dd a9 b7 e2 ec a9
       -8.828406e-13 8.8179865e-13 -9.819238e-14 -1.0519834e-13
0002f0 88 1c 9c 29 59 4f 85 a9 9f 10 5d 2b 2b 6a 04 2b
       6.932741e-14 -5.920151e-14 7.853804e-13 4.704316e-13
000300 3d d7 1f aa 30 5d 29 28 af 3e 19 2b 68 c0 49 a9
       -1.4196713e-13 9.401591e-15 5.444351e-13 -4.479785e-14
000310 02 fc 93 a8 c1 07 5d a8 b7 fb ec a8 28 b1 9d 28
       -1.642957e-14 -1.2269646e-14 -2.6310427e-14 1.750733e-14
000320 3f d5 a0 2c a8 ce 37 aa ff e6 d9 aa 2b 35 5c ab
       4.5711486e-12 -1.6325363e-13 -3.870723e-13 -7.8233486e-13
000330 41 c4 15 a8 d8 bc 79 2a 82 cd 07 29 9f a8 c8 a9
       -8.313717e-15 2.2181161e-13 3.015427e-14 -8.911035e-14
000340 e9 ff 36 2b e2 8c 00 aa b4 ee 30 28 a9 76 04 aa
       6.5014536e-13 -1.1417562e-13 9.821723e-15 -1.1765124e-13
000350 67 3e 1b a9 98 95 89 a9 9e 83 06 2a 24 12 f6 aa
       -3.447104e-14 -6.1099726e-14 1.1947255e-13 -4.3710966e-13
000360 30 19 22 ab 6d f6 40 2b ae ef 66 2a d3 34 94 2a
       -5.7588916e-13 6.8554087e-13 2.0511259e-13 2.6326735e-13
000370 7c 60 88 29 d7 a3 a5 a9 49 99 20 2a f5 bf 95 aa
       6.0563506e-14 -7.3558936e-14 1.4264036e-13 -2.6600914e-13
000380 1b 95 72 29 29 df 96 ab a9 ef 97 a9 c4 df a7 ab
       5.3864123e-14 -1.072008e-12 -6.7473215e-14 -1.1928171e-12
000390 2e 6d f1 26 a8 7a cf 27 50 4d 58 2b a4 fd ae 2b
       1.6752328e-15 5.7587026e-15 7.684591e-13 1.2433843e-12
0003a0 f2 f2 78 ab 1e ba b2 2b 61 43 6f a8 a8 9d fe 29
       -8.8444454e-13 1.2699319e-12 -1.3281776e-14 1.1307215e-13
0003b0 a7 0b ea 29 a8 5b a9 aa ac 4f 25 28 87 8b 98 28
       1.0393709e-13 -3.008403e-13 9.176616e-15 1.69359e-14
0003c0 fb b3 06 aa 68 08 b5 2a 70 c6 ad 2a a7 07 cb 2a
       -1.1964034e-13 3.2157892e-13 3.0868667e-13 3.6065354e-13
0003d0 ff 09 80 ab b7 fa 87 aa fd f6 82 a8 32 ce b7 28
       -9.097721e-13 -2.4154786e-13 -1.4540013e-14 2.0406504e-14
0003e0 06 86 01 aa be 90 25 a9 73 d9 9c aa a6 36 8b aa
       -1.1504e-13 -3.6762904e-14 -2.7862052e-13 -2.472928e-13
0003f0 8e 24 b8 29 85 90 01 2a 4e 89 b8 a6 b7 50 c3 26
       8.177583e-14 1.1507642e-13 -1.2804781e-15 1.3552721e-15

exp_avg_sq f4 [10000, 2]
000000 d7 ca b2 13 a8 91 82 14 29 c0 7c 14 0a 08 c9 17
       4.5133533e-27 1.3184097e-26 1.27606456e-26 1.299135e-24
000010 1c 47 2e 14 98 d0 61 10 2b e5 ea 15 66 d1 e2 16
       8.798779e-27 4.453412e-29 9.487341e-26 3.6644418e-25
000020 db 8f a5 10 13 90 9f 14 5f 1e ed 10 f1 0d cd 13
       6.530267e-29 1.6111724e-26 9.352681e-29 5.1763023e-27
000030 f1 94 63 15 70 1d 11 12 4e b1 18 14 81 5a 4d 16
       4.595978e-26 4.5790217e-28 7.709006e-27 1.6588326e-25
000040 d8 88 b6 14 ec cb 90 12 e7 39 86 18 a7 3a 13 19
       1.8431279e-26 9.137948e-28 3.4696655e-24 7.611567e-24
000050 87 37 31 17 b2 a0 6d 17 ed 6d 84 16 36 4c 5b 16
       5.726187e-25 7.6781656e-25 2.1395123e-25 1.7714727e-25
000060 4c 99 98 14 94 6a 3c 14 e7 76 45 16 ef 21 d7 18
       1.5408543e-26 9.512593e-27 1.5951052e-25 5.561046e-24
000070 c2 e1 86 16 da 7e 8a 16 b4 35 61 0e a9 0f a1 12
       2.179134e-25 2.2375157e-25 2.7759248e-30 1.0164389e-27
000080 21 24 87 17 26 bb 5a 16 d5 10 a4 13 61 30 01 15
       8.733291e-25 1.7668953e-25 4.1416018e-27 2.6089507e-26
000090 44 db 3b 17 80 2d 28 17 99 bb 5e 15 e5 64 61 14
       6.069971e-25 5.4341157e-25 4.498053e-26 1.1379495e-26
0000a0 00 7f 9b 15 2c f4 ae 14 7d 54 9b 12 83 2b a2 15
       6.280437e-26 1.7665819e-26 9.802703e-28 6.549993e-26
0000b0 8e 3b d4 14 c4 a2 84 16 df fd 8b 17 74 b5 22 18
       2.143002e-26 2.142847e-25 9.046751e-25 2.102962e-24
0000c0 6e 3e 10 14 85 a1 85 15 1b 09 32 15 c2 09 ad 14
       7.282454e-27 5.3973105e-26 3.5953997e-26 1.7472385e-26
0000d0 a5 73 27 18 6a d8 42 18 52 20 95 17 47 53 f6 15
       2.164263e-24 2.5183173e-24 9.637058e-25 9.949e-26
0000e0 57 69 69 16 c8 ff 48 0f 51 30 1e 15 a4 40 6b 16
       1.885483e-25 9.910023e-30 3.194596e-26 1.9003546e-25
0000f0 43 a7 0b 15 e9 aa c0 12 5e 13 c8 15 32 83 49 16
       2.8202773e-26 1.2159036e-27 8.080991e-26 1.6278049e-25
000100 45 0f 3a 13 4f cb 2a 1a 7e f1 19 13 8f 5d 83 14
       2.3484029e-27 3.5319407e-23 1.943038e-27 1.3264522e-26
000110 1e e4 59 13 2a 8a b3 14 20 03 ff 16 1e 89 3d 16
       2.7501721e-27 1.8128877e-26 4.1199444e-25 1.5310565e-25
000120 fd 41 65 19 bc 77 eb 17 d2 98 18 14 74 18 19 16
       1.1852349e-23 1.5216744e-24 7.704177e-27 1.2366958e-25
000130 c8 cf 22 14 eb 38 f5 14 bc 32 f3 14 c3 4e 9c 13
       8.2198875e-27 2.4761128e-26 2.4556741e-26 3.94576e-27
000140 ec 4c 13 15 89 d8 1a 13 db 04 de 15 48 1a 30 15
       2.9747094e-26 1.9544293e-27 8.9672747e-26 3.556365e-26
000150 e2 fb 96 15 12 16 1b 16 5f 48 b1 14 dc 12 0c 16
       6.098192e-26 1.2527764e-25 1.7900978e-26 1.1315061e-25
000160 53 52 83 17 39 d3 3b 16 cc 3a fe 13 d6 7b 8c 16
       8.486458e-25 1.517239e-25 6.4176593e-27 2.2696371e-25
000170 41 14 0c 17 5e d4 88 10 85 d2 54 15 f6 ff 85 15
       4.5262004e-25 5.3969745e-29 4.297913e-26 5.412211e-26
000180 52 50 02 18 9e cc 39 13 ab ba 89 16 1d b2 4d 16
       1.6842658e-24 2.3451167e-27 2.2251348e-25 1.6615971e-25
000190 6b 80 d5 11 62 f2 9a 16 58 cb bd 15 c1 b7 0c 15
       3.3684618e-28 2.5033007e-25 7.665731e-26 2.841773e-26
0001a0 71 54 a7 14 c9 af 8e 16 98 b5 8c 13 a7 83 74 15
       1.6895997e-26 2.3052273e-25 3.5520034e-27 4.9379263e-26
0001b0 18 81 0a 17 a2 95 ad 17 aa 50 18 15 47 82 d8 15
       4.4753144e-25 1.1217636e-24 3.0759788e-26 8.7447247e-26
0001c0 b5 fd 5d 14 80 98 d2 15 f5 09 85 18 06 1b f7 16
       1.12076835e-26 8.505893e-26 3.438975e-24 3.9922056e-25
0001d0 5f dc 98 17 2b 3e 88 18 28 9d e4 18 c1 27 d3 16
       9.878399e-25 3.521795e-24 5.9095306e-24 3.4113977e-25
0001e0 ac 11 2c 16 76 bd ac 16 7a e4 31 12 e2 c0 16 13
       1.3899626e-25 2.7907665e-25 5.613297e-28 1.902776e-27
0001f0 57 eb 79 17 ce 73 65 17 e4 7b 87 16 67 60 e2 14
       8.075328e-25 7.4140057e-25 2.1888612e-25 2.2858192e-26
000200 bd 99 e7 18 52 1f 4b 1a f4 73 6f 17 ab ae 20 17
       5.9867336e-24 4.2004716e-23 7.737142e-25 5.191925e-25
000210 23 3f cc 13 d2 75 94 14 49 a3 47 19 cc 14 b4 17
       5.1559098e-27 1.4990653e-26 1.0321034e-23 1.1637477e-24
000220 2f 0a 87 16 0f f3 1d 19 d3 c4 a3 13 46 78 29 12
       2.1816853e-25 8.165795e-24 4.134107e-27 5.3475246e-28
000230 4e 37 df 13 cc a5 85 14 3f 5a 8d 15 2c 1e 66 17
       5.634765e-27 1.3494963e-26 5.709183e-26 7.435509e-25
000240 50 6b 0e 14 07 66 d4 15 e8 4c f6 13 90 a1 46 13
       7.1903316e-27 8.578709e-26 6.2174966e-27 2.507077e-27
000250 1a 20 41 15 bf e6 2d 16 6a 0c 11 17 c4 b8 84 18
       3.9001363e-26 1.4047639e-25 4.6867696e-25 3.4307766e-24
000260 1a 59 9d 18 73 7b 00 19 b5 c4 63 17 d8 35 69 18
       4.067352e-24 6.642375e-24 7.3595935e-25 3.0141728e-24
000270 13 1f cf 12 a3 f9 1c 12 c1 10 80 16 8b 6a 82 16
       1.3071197e-27 4.953262e-28 2.0690089e-25 2.106987e-25
000280 9c 35 0f 18 f9 0e 9c 19 1e 88 23 18 7d 88 6e 19
       1.8509383e-24 1.613607e-23 2.1135978e-24 1.2331875e-23
000290 a1 15 74 16 aa 5f a4 16 07 4c 4f 0e ff 9f eb 13
       1.9716988e-25 2.6556002e-25 2.5551326e-30 5.948011e-27
0002a0 cd a4 2a 16 b3 69 4d 13 f7 02 98 15 cf 1b c8 12
       1.3784493e-25 2.5926751e-27 6.139699e-26 1.262863e-27
0002b0 98 13 ac 14 a6 cf f2 12 0a 87 9a 15 3c c8 22 0f
       1.737529e-26 1.5323536e-27 6.241316e-26 8.0257804e-30
0002c0 d3 ac a3 17 ba dc e9 17 e7 b3 11 16 ff 62 ab 13
       1.0577255e-24 1.5112991e-24 1.1769774e-25 4.3264086e-27
0002d0 fe 07 39 17 4a 18 92 15 0a 17 d5 14 1f 17 8f 14
       5.978681e-25 5.900725e-26 2.1516591e-26 1.444843e-26
0002e0 ff d4 69 17 01 db 72 17 6d b9 3a 14 9a df 56 14
       7.55552e-25 7.847084e-25 9.427169e-27 1.08483366e-26
0002f0 c6 eb b7 13 e7 19 9b 13 e3 9b 38 17 2a 57 8a 16
       4.6428185e-27 3.9153043e-27 5.9650363e-25 2.235011e-25
000300 fe b5 be 14 8e b2 99 10 c6 a2 b3 16 5c 37 1a 13
       1.925688e-26 6.0622966e-29 2.9021734e-25 1.9464827e-27
000310 dc 08 ba 11 e8 a2 43 11 8a 2f 5b 12 00 35 60 11
       2.9351086e-28 1.5432987e-28 6.916281e-28 1.7686816e-28
000320 b1 77 ca 19 be 7b 04 15 ff ab 37 16 98 3c 3a 17
       2.0934653e-23 2.6754803e-26 1.4836895e-25 6.017632e-25
000330 d9 4b 7d 10 e5 32 6e 15 3a e5 8b 12 28 b5 17 14
       4.9953883e-29 4.8103866e-26 8.828642e-28 7.6592786e-27
000340 88 86 fa 16 5a 08 80 14 b4 88 14 11 ed 89 84 14
       4.047458e-25 1.2927991e-26 1.1717266e-28 1.3382996e-26
000350 82 fa a1 12 e2 63 9e 13 6c bf 85 14 58 89 67 16
       1.0222283e-27 3.99833e-27 1.350507e-26 1.870337e-25
000360 70 0d cc 16 29 e5 0c 17 dd a6 47 15 d4 12 a9 15
       3.2966458e-25 4.552568e-25 4.0319362e-26 6.828826e-26
000370 99 3a 89 13 a7 29 d9 13 d6 3c c5 14 7b cf b0 15
       3.4641444e-27 5.4819574e-27 1.9915912e-26 7.141318e-26
000380 ce 77 5f 13 0e bb ad 17 2b 4b a7 13 bf f8 db 17
       2.8205625e-27 1.1227082e-24 4.223085e-27 1.4215336e-24
000390 12 0f 94 0e 33 04 2f 10 52 f3 33 17 38 b0 ec 17
       3.649933e-30 3.45159e-29 5.8145133e-25 1.5295626e-24
0003a0 1d ed 6e 17 00 07 f7 17 bf 65 4d 11 64 7f 84 14
       7.7201227e-25 1.5963768e-24 1.6203001e-28 1.337884e-26
0003b0 b7 de 4f 14 80 82 de 15 61 79 a7 10 03 27 8d 11
       1.0494752e-26 8.987098e-26 6.60569e-29 2.226992e-28
0003c0 5c c2 90 14 12 15 f7 15 f5 20 e5 15 c5 52 22 16
       1.4616945e-26 9.979575e-26 9.254436e-26 1.3112373e-25
0003d0 11 34 78 17 b9 8e 8f 15 79 59 55 11 24 a6 0e 12
       8.019884e-25 5.7982417e-26 1.6830308e-28 4.5012084e-28
0003e0 38 d1 79 14 c7 40 c9 12 48 11 bc 15 4e 42 97 15
       1.26125485e-26 1.2700852e-27 7.595986e-26 6.1093025e-26
0003f0 dd da f5 13 fa 54 90 14 6e ce 45 0f 50 4d c7 0f
       6.206251e-27 1.4573802e-26 9.752607e-30 1.9652695e-29

exp_avg f4 [10000]
000000 53 4d e7 a8 12 c7 fe a8 bd bd 99 a8 42 34 26 a9
       -2.5679686e-14 -2.8285998e-14 -1.7068698e-14 -3.690473e-14
000010 b8 30 76 a8 5d 2d f4 a8 7f 02 1e a9 60 c4 03 a9
       -1.3666307e-14 -2.7109115e-14 -3.5085213e-14 -2.925817e-14
000020 62 07 e6 a8 b0 71 ff a8 37 d5 12 a9 a5 2a e5 a8
       -2.5538331e-14 -2.8359991e-14 -3.2603447e-14 -2.5442601e-14
000030 65 ca 5f a9 5a 69 ed a8 f1 67 7d a8 db d1 d7 a8
       -4.9691496e-14 -2.6357975e-14 -1.406686e-14 -2.3960805e-14
000040 5d e0 5f a8 61 c6 94 a8 47 6f 9c a8 7c 3f 85 a8
       -1.2427638e-14 -1.6517334e-14 -1.7367738e-14 -1.4793498e-14
000050 5e c1 52 a9 84 cf fe a7 7a 52 df a8 91 47 1b a9
       -4.6797086e-14 -7.072415e-15 -2.4793742e-14 -3.4478988e-14
000060 de 48 7a a8 4c 9a e6 a8 d6 76 91 a8 f2 e9 12 a9
       -1.3893588e-14 -2.5602045e-14 -1.614977e-14 -3.2621428e-14
000070 c5 86 79 a8 e0 3e 63 a8 f0 92 88 a8 19 bb f4 a8
       -1.38515e-14 -1.2614665e-14 -1.5162757e-14 -2.7170582e-14
000080 bc 9a aa a8 0b 00 e0 a8 4a 05 07 a9 7a d7 26 a9
       -1.8940897e-14 -2.4869014e-14 -2.998061e-14 -3.70463e-14
000090 ca 32 e5 a8 6c 84 0f a9 80 27 e3 a8 d6 ff 3d a9
       -2.5446134e-14 -3.1867236e-14 -2.5219193e-14 -4.2188333e-14
0000a0 a4 b0 6f a8 1a 80 5a a8 56 77 00 a8 69 21 7e a8
       -1.3305468e-14 -1.21292086e-14 -7.131304e-15 -1.4107077e-14
0000b0 a1 a0 de a8 96 0a 78 a8 ad 00 f0 a8 d8 f0 f7 a8
       -2.4716613e-14 -1.3769061e-14 -2.6645646e-14 -2.7526958e-14
0000c0 0d fc 16 a9 d7 cb 57 a8 59 3b f9 a8 9b 00 60 a9
       -3.352531e-14 -1.1979098e-14 -2.7670291e-14 -4.9738517e-14
0000d0 6e dc 81 a8 2c 72 04 a9 b6 ed 51 a9 c8 98 85 a8
       -1.4417473e-14 -2.9408916e-14 -4.6613504e-14 -1.4832225e-14
0000e0 37 33 0f a9 03 82 62 a9 6a 14 b4 2b cd cf 87 a8
       -3.17968e-14 -5.0294848e-14 1.2795435e-12 -1.507813e-14
0000f0 43 98 fa a8 8c 11 02 a9 ab be d9 a8 61 89 0a a8
       -2.7821609e-14 -2.8881018e-14 -2.4174529e-14 -7.690328e-15
000100 7e ee 90 2c be 8e 57 a9 7c 04 97 a9 43 8b 0c 2c
       4.119204e-12 -4.78634e-14 -6.706525e-14 1.9972502e-12
000110 36 12 1d 02 51 72 04 a9 fd f6 fb a8 84 8e b6 a8
       1.1539765e-37 -2.940904e-14 -2.7973712e-14 -2.0267865e-14
000120 9e 45 5c a9 3c 06 e8 a8 87 d7 df a8 9f b4 38 a9
       -4.8910196e-14 -2.5759878e-14 -2.4851444e-14 -4.101287e-14
000130 4f 1b 9e a8 29 b2 59 a9 3b fd cf a8 86 ab fe a8
       -1.7553367e-14 -4.833821e-14 -2.3091438e-14 -2.8274051e-14
000140 44 8f 36 2c 0a e7 1d 2c a8 83 75 a8 e5 bc f1 a8
       2.5943284e-12 2.2439294e-12 -1.36287805e-14 -2.6838295e-14
000150 ef ff bb a8 18 6d e6 a8 5c 69 d6 a8 e6 3b f0 a8
       -2.0872164e-14 -2.5582441e-14 -2.3804465e-14 -2.667133e-14
000160 42 e4 3c a8 26 c0 5a a9 fc ff 17 a9 1e ec d7 a8
       -1.0485592e-14 -4.8572386e-14 -3.3750766e-14 -2.3972195e-14
000170 29 83 69 a9 c3 7e b6 a8 08 d6 d7 a8 81 c7 0e a9
       -5.1850156e-14 -2.0261033e-14 -2.3962616e-14 -3.1703376e-14
000180 f6 3b ed a8 35 c7 0f a9 b7 c0 97 a8 b2 1f 3b a9
       -2.633829e-14 -3.1925163e-14 -1.6847944e-14 -4.1549832e-14
000190 21 35 5d 2c f5 35 55 a8 fe dc 6e a8 5e c9 82 a8
       3.1435481e-12 -1.1835575e-14 -1.3259574e-14 -1.4520228e-14
0001a0 31 34 87 a8 60 ff ff a8 72 e8 0d a9 ee a5 6e a8
       -1.5010645e-14 -2.8421438e-14 -3.1509903e-14 -1.3247634e-14
0001b0 96 19 01 a9 ac 2b 5d a9 fc ff 7f a8 8e c7 d8 a8
       -2.8665946e-14 -4.9109737e-14 -1.4210851e-14 -2.406736e-14
0001c0 2b c8 12 a9 08 00 40 a9 ea c0 87 a8 5c f8 aa a8
       -3.259213e-14 -4.263259e-14 -1.5071674e-14 -1.89815e-14
0001d0 e3 84 0b a9 c9 05 6e a8 51 b6 04 a9 b8 6b 8a a8
       -3.097946e-14 -1.32129084e-14 -2.9468022e-14 -1.5367793e-14
0001e0 22 57 95 a8 fc ff df a8 91 f4 eb a8 2b 34 e6 a8
       -1.6580111e-14 -2.4868989e-14 -2.6196305e-14 -2.5557754e-14
0001f0 96 ed 90 a8 d0 20 1c a9 e4 54 05 a9 7e 27 e7 a8
       -1.6090248e-14 -3.466742e-14 -2.9605563e-14 -2.5663279e-14
000200 b1 22 28 a9 89 3f da a8 b8 56 9d 2c fc ff 5b a9
       -3.7333584e-14 -2.4230416e-14 4.471836e-12 -4.88498e-14
000210 cd 3f 65 a8 56 26 f1 a8 c4 17 6e a8 42 b1 12 a9
       -1.2725888e-14 -2.6773e-14 -1.3216807e-14 -3.257226e-14
000220 16 ae 44 2d 9e 8e 84 a8 ba 66 fe a8 30 e1 6f a8
       1.1179965e-11 -1.4716794e-14 -2.8244215e-14 -1.3315995e-14
000230 04 00 b0 a8 5b 46 11 a9 a8 00 fc a8 98 68 74 a8
       -1.9539932e-14 -3.225749e-14 -2.7977905e-14 -1.3567401e-14
000240 04 00 a0 a8 32 ce 13 a9 a5 ff 9f a8 a4 f1 f7 a8
       -1.7763575e-14 -3.2819403e-14 -1.7763414e-14 -2.7527304e-14
000250 f2 9d ab a8 b8 9c 66 a8 5c 8d 66 a8 32 7b 8a a8
       -1.9053312e-14 -1.2801548e-14 -1.2798217e-14 -1.5374505e-14
000260 06 98 70 a8 ae 7b e3 a8 1e 2a 66 a9 00 4c 85 a8
       -1.3355641e-14 -2.52557e-14 -5.110679e-14 -1.4798926e-14
000270 27 db f0 a8 35 a1 f6 a8 ab 80 5f a9 9b 37 49 a9
       -2.6740395e-14 -2.7381399e-14 -4.962755e-14 -4.4679196e-14
000280 fc ff ef a8 61 8c 67 a8 0e d0 de a8 90 a8 71 a8
       -2.6645346e-14 -1.2853516e-14 -2.473718e-14 -1.3414739e-14
000290 54 0d 89 a8 52 72 e3 2b 3c 39 98 a9 ce c4 7f a8
       -1.5215836e-14 1.616105e-12 -6.7600846e-14 -1.4198019e-14
0002a0 47 24 65 a8 fc ff 27 a9 8c 23 63 a8 4e e0 22 2a
       -1.271992e-14 -3.730348e-14 -1.2608739e-14 1.4466312e-13
0002b0 04 84 a2 a8 a4 0b 8b a8 d9 43 f6 a8 e4 3f d4 a8
       -1.8042866e-14 -1.5437148e-14 -2.734091e-14 -2.3564436e-14
0002c0 27 5d 9b a8 fd e0 24 a9 1b eb fc a8 43 ef 97 a8
       -1.7248855e-14 -3.661046e-14 -2.8079581e-14 -1.6868131e-14
0002d0 10 7b 0b a8 b3 39 45 a9 97 07 e0 a8 aa f9 ac a8
       -7.742735e-15 -4.3792833e-14 -2.4872287e-14 -1.920411e-14
0002e0 6b 58 69 a8 c8 46 08 a9 d9 1f c5 a8 62 03 92 a8
       -1.2953271e-14 -3.025946e-14 -2.1885205e-14 -1.6210723e-14
0002f0 92 25 d7 a8 b7 12 9e a8 43 e8 b3 a8 0b 59 a6 a8
       -2.3886089e-14 -1.754964e-14 -1.997372e-14 -1.8468318e-14
000300 c5 b6 ef a8 7f cb a5 a8 68 1c 72 a9 24 42 67 a8
       -2.6613594e-14 -1.8406932e-14 -5.3759433e-14 -1.2837418e-14
000310 74 78 ff a8 77 27 47 a9 4b 24 1a a9 1d 00 60 a8
       -2.8362925e-14 -4.4221107e-14 -3.4226348e-14 -1.24345224e-14
000320 71 83 fa a8 3c de 51 a9 79 de 4d a9 38 24 67 a9
       -2.781258e-14 -4.660008e-14 -4.5712108e-14 -5.132372e-14
000330 46 53 06 a9 d1 8b 6a a9 a1 f5 1d a9 ee b7 dc a8
       -2.9826205e-14 -5.207971e-14 -3.5074052e-14 -2.4504673e-14
000340 2c 1b 61 a8 5e 51 f0 a8 3f 05 d7 a8 f2 2f 15 a9
       -1.2495901e-14 -2.668064e-14 -2.387207e-14 -3.3126232e-14
000350 4b 00 75 a8 45 53 fe a7 f7 e9 df a8 fc ff 5f a8
       -1.3600296e-14 -7.0589443e-15 -2.485944e-14 -1.24344945e-14
000360 6c 6e 10 2b 44 24 90 a8 04 ee 62 a9 f7 fb d6 a8
       5.131232e-13 -1.600294e-14 -5.0388526e-14 -2.3868045e-14
000370 3b d6 58 a9 b8 0f e4 a8 a8 3a 72 a8 93 ac 6e a8
       -4.814745e-14 -2.5319902e-14 -1.3446418e-14 -1.3249075e-14
000380 d7 a4 3f a9 35 24 3e a9 89 1b 5f a8 d0 64 e8 a8
       -4.2553495e-14 -4.221988e-14 -1.23849575e-14 -2.5800895e-14
000390 1f 66 39 a9 f3 32 f7 a8 92 a3 b5 a8 bc d0 a0 a8
       -4.1166828e-14 -2.7444604e-14 -2.0165974e-14 -1.7854092e-14
0003a0 03 45 be a8 eb a2 6c a8 e8 4c 79 a8 90 2b f9 a8
       -2.1124167e-14 -1.3135959e-14 -1.3838953e-14 -2.7663446e-14
0003b0 03 d9 cd 29 29 d2 ff a8 7d 4f 12 a9 58 63 8d a8
       9.141474e-14 -2.840183e-14 -3.2487457e-14 -1.5697228e-14
0003c0 f2 76 4b a9 d0 c1 e2 a7 58 8b 51 a9 4b e2 e7 a8
       -4.5178223e-14 -6.2937733e-15 -4.6528184e-14 -2.574429e-14
0003d0 6d 10 82 a8 53 5a ee a8 8e c0 f6 a8 16 ca 2a a9
       -1.4440023e-14 -2.646248e-14 -2.7394994e-14 -3.7922864e-14
0003e0 1b fd ef a8 4a b7 0e a9 54 fc df a8 aa b1 e4 a8
       -2.6644097e-14 -3.1689312e-14 -2.4867403e-14 -2.5390134e-14
0003f0 39 a1 06 a6 f0 4c 7b a8 81 aa 1d a9 b9 b7 38 2c
       -4.6709087e-16 -1.3949982e-14 -3.500889e-14 2.624996e-12

exp_avg_sq f4 [10000]
000000 b9 c0 32 12 b9 11 51 12 55 e8 13 12 f4 96 cb 12
       5.6404445e-28 6.5970617e-28 4.6671393e-28 1.2848314e-27
000010 3d a1 47 11 df 60 26 12 2a ba 9a 12 13 a3 5e 12
       1.5748017e-28 5.2499767e-28 9.764659e-28 7.0251853e-28
000020 38 41 3a 12 5a 8d 81 12 34 be 2e 12 dd dd 04 13
       5.877164e-28 8.17589e-28 5.5139162e-28 1.677013e-27
000030 56 91 05 13 0f eb 15 13 1b 03 26 12 6d b6 1a 12
       1.6858616e-27 1.8922337e-27 5.238419e-28 4.881869e-28
000040 25 be 8d 11 86 4c e0 11 ef 45 ba 11 c7 24 da 11
       2.2363063e-28 3.538813e-28 2.9388726e-28 3.4417001e-28
000050 e7 66 f4 12 25 a0 f4 10 15 95 33 12 74 66 a6 12
       1.5423932e-27 9.648777e-29 5.66662e-28 1.0501329e-27
000060 ce 99 d2 11 77 d6 46 12 2f 07 0a 12 dc ca 0d 13
       3.3226947e-28 6.274213e-28 4.3553976e-28 1.789672e-27
000070 9e 78 40 11 36 77 e1 11 69 65 36 12 2d 2a 3e 12
       1.5183297e-28 3.557221e-28 5.755407e-28 6.0005414e-28
000080 72 b8 2f 12 c1 fb 33 12 53 f8 ce 12 6a ea df 12
       5.544761e-28 5.679275e-28 1.3061644e-27 1.4131066e-27
000090 3b 2a 15 13 1d 91 6a 12 7e 58 42 12 df 23 b8 12
       1.8827265e-27 7.4016247e-28 6.132468e-28 1.1620875e-27
0000a0 55 ac 04 12 c9 07 12 12 ce 85 3d 11 2c ea f8 11
       4.186427e-28 4.6079073e-28 1.4950703e-28 3.927182e-28
0000b0 89 93 db 12 8c ef df 11 fc df 49 12 eb 78 35 12
       1.3857213e-27 3.5330829e-28 6.37005e-28 5.7262572e-28
0000c0 8c 33 b6 12 7d 3a f5 11 fa 39 27 12 be ea 1f 13
       1.1498522e-27 3.869023e-28 5.276737e-28 2.0184358e-27
0000d0 b3 16 04 12 73 f6 20 12 ce 5e f0 12 12 5f f8 11
       4.1679835e-28 5.079087e-28 1.5169501e-27 3.9186093e-28
0000e0 80 46 89 12 9e 53 03 13 b6 53 fc 17 b2 fa 33 12
       8.663295e-28 1.6575751e-27 1.630625e-24 5.6791447e-28
0000f0 fa 59 04 12 54 a0 25 12 2b 70 ec 11 68 cf 23 11
       4.176276e-28 5.226244e-28 3.7303364e-28 1.2922345e-28
000100 f5 4e a4 19 25 76 e8 12 d6 f0 14 13 23 a1 9a 18
       1.6989093e-23 1.4670383e-27 1.8798968e-27 3.9970773e-24
000110 00 00 00 00 d0 d4 37 12 eb d6 2e 12 83 7d cc 11
       0.0 5.800693e-28 5.5169626e-28 3.2262878e-28
000120 18 c1 19 13 e4 43 5f 12 17 e8 23 12 8e 91 bb 12
       1.9406518e-27 7.0450074e-28 5.1719804e-28 1.1837241e-27
000130 2f c4 01 12 ef 1d f1 12 eb cc 09 12 38 16 45 12
       4.094704e-28 1.5216617e-27 4.348216e-28 6.2189626e-28
000140 40 19 03 19 93 3a c4 18 63 70 f4 11 a5 75 1f 12
       6.7776405e-24 5.0723957e-24 3.8565676e-28 5.031656e-28
000150 95 a5 c7 11 a3 fd ea 11 22 cf 03 12 25 75 24 12
       3.1498712e-28 3.7075006e-28 4.159162e-28 5.1893667e-28
000160 bb b5 62 11 00 b8 f0 12 55 03 86 12 f1 9b 3a 12
       1.7884256e-28 1.5191489e-27 8.45741e-28 5.8883464e-28
000170 8c 89 fe 12 e9 be fc 11 e2 ce 3f 12 3d 81 82 12
       1.60635615e-27 3.9876247e-28 6.0523976e-28 8.236013e-28
000180 69 c6 2d 12 6c 23 80 12 a7 b7 f3 11 14 9f c5 12
       5.4833734e-28 8.086668e-28 3.8451824e-28 1.2471664e-27
000190 ab 3d 3f 19 97 3c fa 11 ff 2f fb 11 3d a1 ee 11
       9.886922e-24 3.9480387e-28 3.9630397e-28 3.764915e-28
0001a0 c0 14 20 12 8e 06 1f 12 ce a3 88 12 8f 34 f0 11
       5.0512674e-28 5.0179633e-28 8.623188e-28 3.7897715e-28
0001b0 c0 b4 17 13 ad cf 0b 13 4e 70 50 11 99 d5 32 12
       1.9147996e-27 1.7646659e-27 1.6442913e-28 5.6430176e-28
0001c0 da c0 85 12 de 21 ca 12 1e 37 cf 11 f9 59 d2 11
       8.441022e-28 1.2756341e-27 3.269281e-28 3.3187608e-28
0001d0 0f b5 27 13 9d 94 ef 11 c0 3d ff 12 a4 63 13 12
       2.1167632e-27 3.7799141e-28 1.6107985e-27 4.650784e-28
0001e0 52 0d 34 12 67 19 10 12 9d 6a 0c 13 42 e1 ee 11
       5.6814404e-28 4.54697e-28 1.7723049e-27 3.7688605e-28
0001f0 f2 7e 03 12 29 88 8c 12 0d 8c 54 12 6e d9 39 12
       4.1492784e-28 8.868808e-28 6.706803e-28 5.864371e-28
000200 bd 47 ad 12 26 c3 17 13 7d cc c1 19 38 41 09 13
       1.093552e-27 1.9155095e-27 2.0038324e-23 1.7323986e-27
000210 be 18 01 12 a6 dc 33 13 8b 66 e9 11 6c 3b 8e 12
       4.073572e-28 2.2701764e-27 3.6824115e-28 8.9761085e-28
000220 e6 cf 17 1b df 44 06 12 c1 b2 36 12 0e 50 05 12
       1.2557603e-22 4.2367835e-28 5.7649405e-28 4.2066075e-28
000230 0d 92 a5 11 8e ca 31 12 15 7c 03 13 4b 51 e1 11
       2.612242e-28 5.610102e-28 1.6595702e-27 3.5548841e-28
000240 b5 a0 06 12 4a 9c 90 12 26 18 0a 12 b6 97 3f 12
       4.248103e-28 9.126206e-28 4.3574887e-28 6.045597e-28
000250 25 76 46 12 65 83 9d 11 1b d1 f1 11 f7 9c 11 12
       6.262341e-28 2.485121e-28 3.8151967e-28 4.5947407e-28
000260 62 ca 17 11 06 9a 26 12 3b 9a 01 13 72 a8 2e 12
       1.1974164e-28 5.2570213e-28 1.635813e-27 5.5112344e-28
000270 c7 3c 10 13 06 af 2d 12 b4 19 e0 12 ca 62 de 12
       1.820532e-27 5.480491e-28 1.4142724e-27 1.4034523e-27
000280 07 3f 28 12 02 f9 00 12 c2 44 38 12 03 42 ec 11
       5.308914e-28 4.0696604e-28 5.8144913e-28 3.7274918e-28
000290 59 56 12 12 08 e5 49 18 4b 23 1b 13 63 ba ed 11
       4.617591e-28 2.6094272e-24 1.9581151e-27 3.7506877e-28
0002a0 de e4 d7 11 15 f2 b8 12 3e 52 39 11 9c ef c2 14
       3.406207e-28 1.167171e-27 1.461927e-28 1.9683503e-26
0002b0 ed 78 0b 12 7f da 09 12 e5 bb 34 12 9b cf df 11
       4.400972e-28 4.3498895e-28 5.7029583e-28 3.5311143e-28
0002c0 51 95 1e 12 3b c8 2f 13 17 f1 25 12 51 0c 18 12
       5.0040056e-28 2.2186827e-27 5.2361986e-28 4.7977924e-28
0002d0 89 8a 0f 11 dc 00 dc 12 7b 01 45 12 c0 27 18 12
       1.13234e-28 1.3884164e-27 6.2164064e-28 4.801174e-28
0002e0 4a 5a ec 11 c7 ac 27 12 36 c2 dd 11 03 86 1f 12
       3.728988e-28 5.2908873e-28 3.4987344e-28 5.0336736e-28
0002f0 97 da d9 12 35 58 23 12 9d 07 ba 11 8b 72 19 12
       1.3748512e-27 5.1542455e-28 2.9350318e-28 4.8419473e-28
000300 c2 1a 4b 12 f2 73 ac 11 df dd 25 13 f1 77 20 11
       6.4088487e-28 2.7208272e-28 2.0935319e-27 1.2658734e-28
000310 46 bf e2 12 c3 94 bc 12 6a cd 73 12 dd a0 42 11
       1.4309758e-27 1.1901141e-27 7.693047e-28 1.5353471e-28
000320 a6 44 33 12 1b 73 e1 12 f4 73 bd 12 12 4e f0 12
       5.6567057e-28 1.4227872e-27 1.1956162e-27 1.5165375e-27
000330 9d fc 33 12 2e 6a 03 13 0b d6 7e 12 fd 0b c9 11
       5.679381e-28 1.6586875e-27 8.0412096e-28 3.1719597e-28
000340 7a 7b c5 11 6f b0 1e 12 a4 16 1f 12 51 8c ef 12
       3.1157218e-28 5.007348e-28 5.019946e-28 1.5117611e-27
000350 a5 1d 36 11 b8 cd 8c 10 4c 3d 29 12 4b db f4 11
       1.4366403e-28 5.5537223e-29 5.340255e-28 3.8631562e-28
000360 9f a8 a3 16 2c e6 df 11 c8 8b f6 12 bb de 2e 12
       2.6440485e-25 3.532505e-28 1.5559241e-27 5.5179256e-28
000370 aa 98 f5 12 29 fb e9 12 29 77 3f 11 02 81 28 11
       1.5499308e-27 1.4766283e-27 1.5103962e-28 1.3292617e-28
000380 20 a1 ba 12 5e c5 c7 12 c2 5d 2f 11 c9 ab e6 11
       1.1777971e-27 1.260732e-27 1.3833957e-28 3.6393472e-28
000390 96 c9 f8 12 a9 8d 3b 12 c7 a9 fe 11 43 1c 32 12
       1.5700695e-27 5.9181405e-28 4.0178767e-28 5.620173e-28
0003a0 8d 46 cf 11 a9 ef f8 11 67 db ef 11 30 5f 3b 12
       3.2702322e-28 3.9275203e-28 3.7842768e-28 5.9124123e-28
0003b0 f6 23 17 14 5a cc 3b 12 0b 9d 5d 12 5d 98 02 12
       7.630644e-27 5.925868e-28 6.9928874e-28 4.120857e-28
0003c0 5e 3c 28 13 23 de cb 10 33 94 ea 12 0e 35 e4 11
       2.1234344e-27 8.041164e-29 1.480401e-27 3.6004755e-28
0003d0 20 cf 26 12 94 2b 50 12 ab 3a ce 12 fe 9f 11 13
       5.2635665e-28 6.568694e-28 1.30148905e-27 1.8380455e-27
0003e0 ea bf 1e 12 21 f2 98 12 cb 86 ee 11 0c 6f be 12
       5.009256e-28 9.652238e-28 3.7632852e-28 1.2018061e-27
0003f0 70 23 e8 11 bd 6a ff 11 2f 66 8b 12 95 8c 05 19
       3.6624986e-28 4.0297689e-28 8.797323e-28 6.904329e-24
