checkpoints/checkpoint_20000.pth (torch, 604140 bytes, 6 tensors)

W f4 [10000, 2]
000000 06 99 95 b9 d0 6b 71 3b a6 2e 01 bb 74 fe 89 ba
       -0.00028533506 0.0036837943 -0.0019711643 -0.0010528103
000010 2b 3c e2 39 8a 9c 01 bb f1 5e d7 ba 52 6a 65 3a
       0.00043150908 -0.0019777142 -0.0016431493 0.00087514997
000020 3c 90 b4 ba 16 a4 c3 ba 75 d2 98 bc 2f ab 3d bd
       -0.0013775895 -0.0014926221 -0.018655041 -0.04630583
000030 0d 01 0b 39 83 90 84 3b 4b 13 54 bc 36 88 35 3c
       0.00013256464 0.0040455475 -0.012944053 0.0110798385
000040 9f d8 20 bc 25 1f 45 bc b2 f1 72 ba a0 ca bb 37
       -0.0098172715 -0.012031351 -0.0009267583 2.2386492e-05
000050 52 54 f1 b9 e4 d1 0c bb 85 14 0f bb fb 36 ae bb
       -0.00046029926 -0.002148741 -0.00218323 -0.005316613
000060 ba a4 1f bc 9c 04 c2 3a 36 c8 a3 ba 76 dc 16 bb
       -0.009743864 0.0014802399 -0.0012495581 -0.0023019589
000070 72 5c 6d b9 d3 0b 06 bb a8 e9 38 bb bd 7d 6b 3a
       -0.0002263652 -0.0020453825 -0.0028215442 0.0008983275
000080 3d 84 8b bb 8f d7 56 3a 22 c4 92 ba 88 a0 42 bb
       -0.0042577074 0.0008195573 -0.0011197368 -0.0029697735
000090 3a 12 4d bb b3 f1 79 3a 59 d0 d0 3b b1 ff 60 3a
       -0.0031291381 0.0009534612 0.006372493 0.0008583023
0000a0 98 50 0a bb 6f 62 92 3b 83 6b b9 3b 5c 3d 00 3a
       -0.0021105167 0.0044673006 0.0056585683 0.0004891956
0000b0 b4 9c ab 3c 6b c0 ab 3b 02 49 d0 b9 df ea cd 39
       0.020948745 0.005241444 -0.00039727247 0.0003927564
0000c0 20 3d 80 3c ce 9e 88 3b b9 e6 e8 bb 98 63 2f bc
       0.015654147 0.0041693216 -0.0071075824 -0.010704897
0000d0 68 38 fa 39 a9 c4 b5 bb f6 8f 4e bb 05 40 ef 39
       0.00047725742 -0.0055471254 -0.0031518913 0.0004563333
0000e0 98 e9 8e b9 79 03 5a ba c8 71 6f bb 38 ff d2 3a
       -0.00027258391 -0.00083165575 -0.0036536325 0.001609779
0000f0 c1 2d 42 ba f6 e2 e3 3a 4f 56 fe 3b 1f 11 85 3b
       -0.00074073306 0.0017386365 0.0077617536 0.004060879
000100 5e b5 d4 39 16 1b 8d 3a 92 11 8b 3b 08 2d 43 bc
       0.0004057092 0.0010765519 0.004244038 -0.011912592
000110 ef f5 06 3a c2 94 36 b9 5c a4 12 3b 59 b0 b3 3a
       0.00051483413 -0.00017412289 0.0022375798 0.0013709172
000120 25 62 2b 39 2b 43 91 ba 8a 75 16 ba e9 24 bc 39
       0.00016344392 -0.001108264 -0.00057395606 0.00035885655
000130 e1 17 74 ba f3 49 31 3b 8a 24 d3 b9 8e 39 49 3b
       -0.00093114196 0.0027052134 -0.0004027228 0.0030704471
000140 e7 86 8b ba fd 05 83 bb 76 c1 42 bb 69 1d 20 bb
       -0.0010645062 -0.0039985166 -0.0029717362 -0.0024431592
000150 66 62 6a ba d4 ea 6b 39 c0 26 8a bb 38 9b 22 3b
       -0.0008941054 0.00022498827 -0.004216045 0.0024811756
000160 6d f5 87 39 20 d9 43 b9 be 10 df 39 0a e5 1b 3b
       0.00025932063 -0.00018677535 0.00042546348 0.002378764
000170 84 e5 24 bb 0f d1 33 3a cb 30 2c bb 17 00 33 b7
       -0.0025161216 0.000685946 -0.00262742 -1.0669252e-05
000180 8b 91 50 ba 8f 04 a7 3a 27 bb 8f bb e0 a3 be ba
       -0.0007956258 0.0012742447 -0.004386324 -0.0014544688
000190 78 36 3c bc 00 9a 6d 3b e1 88 99 3b 85 4e 10 3b
       -0.011487596 0.0036255121 0.0046855067 0.0022019458
0001a0 7e 78 59 ba ee 49 88 3a 59 30 b9 3a c8 0d 08 3b
       -0.0008295848 0.0010398009 0.0014128789 0.0020760167
0001b0 89 96 8d 39 50 29 ac 3a f8 67 b8 39 4d c2 99 3b
       0.00027005773 0.0013134871 0.00035172678 0.004692352
0001c0 da 23 0c 3a 64 4f db ba 60 fc c3 b8 9e f5 d1 39
       0.00053459185 -0.0016732034 -9.345333e-05 0.00040046585
0001d0 e0 e7 2f 3d 6e 29 00 3c f1 36 4f bb 5b 0c 69 bb
       0.042945743 0.007822378 -0.003161844 -0.0035560343
0001e0 0c d4 aa b8 59 31 0a 3c 9b d3 ce 3a ba 98 eb b9
       -8.1457285e-05 0.008434617 0.0015779616 -0.00044936483
0001f0 92 8c d1 ba ce 8c 81 bb 0b 4b 1e bb 83 15 83 bb
       -0.0015987328 -0.003953553 -0.0024153616 -0.004000367
000200 bb 94 a1 39 e4 15 9c 37 78 37 ba ba 49 14 dd 3a
       0.00030819126 1.8606843e-05 -0.0014207205 0.0016867007
000210 86 87 99 3a b6 44 d1 ba 64 b6 89 3b f4 a3 03 3c
       0.0011713363 -0.0015965912 0.004202651 0.008034695
000220 3d e6 4f ba 14 cf ad ba 53 7e 16 bb e2 71 d6 3a
       -0.00079307315 -0.0013260567 -0.0022963479 0.0016360844
000230 f6 00 58 b8 67 1b e7 bb f9 28 f9 3a 4a a8 32 3c
       -5.1499308e-05 -0.007052827 0.0019009403 0.010904381
000240 64 2c f6 39 7f c0 73 b9 f6 5a 4b 3b 24 89 a9 bb
       0.0004695385 -0.00023245996 0.0031029559 -0.005173819
000250 23 8f 06 bc c9 a0 e7 3a d0 f9 40 ba ee 97 7e bb
       -0.008212837 0.0017671819 -0.0007361444 -0.0038847881
000260 a3 8a b4 bb ed f3 6a bb 50 bc 46 3a 39 45 c5 3b
       -0.005509691 -0.0035850958 0.00075811613 0.006020215
000270 67 fd c4 39 b0 44 64 3b f5 36 0e 3b cc 11 02 bb
       0.00037572833 0.003483098 0.0021700237 -0.0019847034
000280 ca 3b a0 3a ba 2e 3b ba 39 54 cf bb 78 27 96 ba
       0.001222485 -0.00071404467 -0.006327179 -0.0011455854
000290 d1 29 03 b9 03 e9 bb 3b 5e a6 38 3b e2 de 6a b9
       -0.00012508711 0.0057345643 0.0028175334 -0.0002239901
0002a0 da 62 96 3c 3d 95 87 3b 39 18 57 bb 6c d5 70 3b
       0.018357683 0.0041376636 -0.0032820834 0.0036748303
0002b0 ef e6 ea b9 b9 2c e5 b6 4d bc fa b9 80 2e 15 3a
       -0.00044804017 -6.8299382e-06 -0.0004782401 0.0005690828
0002c0 ae 07 06 ba 65 8d 07 bb c7 2a d1 3a 84 fc dd b9
       -0.00051128387 -0.0020683643 0.0015958183 -0.00042340544
0002d0 64 7e 38 3c c8 13 90 bc b1 f9 88 ba b2 88 12 3a
       0.011260603 -0.017587557 -0.001045039 0.0005589827
0002e0 09 e1 b4 3a 27 9b 5d 39 57 65 7a 3c b1 24 6d 3c
       0.0013799976 0.00021134001 0.01528295 0.01447408
0002f0 eb 94 5d ba ed 2b 42 3a 0e 36 8d b9 d0 38 fb 39
       -0.00084526715 0.0007407058 -0.0002693389 0.0004791678
000300 7a 30 77 3b 66 b9 58 3b c7 44 a4 3a 56 50 18 ba
       0.0037718103 0.003306949 0.0012532704 -0.0005810311
000310 0a 3c 6e bb 7d c6 6a ba 62 93 04 3b 61 0b f7 3b
       -0.0036351704 -0.00089559687 0.0020229449 0.0075391983
000320 4c f9 ac 38 14 f1 13 3b 42 10 2c bb 3c 90 e6 3b
       8.248034e-05 0.0022574114 -0.0026254808 0.007036237
000330 d8 d3 f6 ba 2a 9a 9e b9 73 72 bc ba 1e c1 a0 3b
       -0.0018831445 -0.0003025097 -0.001437737 0.004905834
000340 1f 98 37 b9 8c f1 79 3b 68 ad ba ba e8 08 0c 3b
       -0.0001750891 0.0038138358 -0.0014242353 0.0021367613
000350 ab 0c dc bc 3c 08 54 3c d5 3f 11 3c 38 f0 c4 bc
       -0.02686151 0.012941416 0.008865316 -0.024040326
000360 93 5f 30 ba 37 3a 18 3b de a3 11 ba 37 32 9c ba
       -0.0006728109 0.0023228058 -0.0005555729 -0.0011916821
000370 0f 94 a3 ba 40 e1 12 bb 58 a4 ac 39 3d 78 82 b9
       -0.0012480038 -0.0022412091 0.00032928842 -0.00024885117
000380 a2 10 76 b8 fe 08 6e ba f2 dc 16 bb bf db 08 3b
       -5.866646e-05 -0.00090803194 -0.0023019877 0.0020882932
000390 14 e9 ac 39 38 b5 6e 38 74 ea aa b9 97 1b 3d 38
       0.00032980053 5.6912395e-05 -0.00032599608 4.5086806e-05
0003a0 f2 2f de 3b c6 5e 15 ba ff ff 3f b9 3c 10 a8 3a
       0.006780618 -0.0005698021 -0.00018310545 0.0012822221
0003b0 e6 78 04 bc ba b0 a8 3b bd 62 d9 39 e9 e5 2b bb
       -0.008085465 0.0051480206 0.0004146303 -0.0026229566
0003c0 80 5d 8c 3a 86 82 09 b9 01 f2 aa 3b b6 15 30 3b
       0.0010709018 -0.00013113962 0.0052168374 0.002686841
0003d0 46 2d 81 3b 07 bc f0 3a 03 5d 07 3b a7 52 5a bb
       0.0039421646 0.0018366583 0.0020654805 -0.0033313425
0003e0 07 79 ab bb 0f 4f 80 3a 00 91 0b 3c 48 c2 72 bc
       -0.0052329334 0.0009789186 0.008518457 -0.014816828
0003f0 a3 81 5d bb c4 a0 59 bb 71 57 b8 39 22 7e 0a 39
       -0.0033799193 -0.0033207396 0.00035160364 0.00013207694

b f4 [10000]
000000 f3 59 82 39 b1 da 1b 39 bf 5b 8e 39 64 48 0d 39
       0.0002486255 0.00014863421 0.00027152707 0.00013473775
000010 22 f7 83 39 67 41 3c 37 14 c8 b7 39 b9 d4 5a 39
       0.00025170395 1.1220901e-05 0.0003505355 0.00020869345
000020 5f f8 77 39 df 23 1f 39 c4 d0 4e 39 97 19 17 39
       0.00023648281 0.00015176785 0.00019723462 0.00014410015
000030 6a 96 34 39 a3 69 8f 39 4b 6a 36 39 fb a7 a3 39
       0.00017222171 0.0002735379 0.0001739647 0.00031214938
000040 22 4a 8b 39 8e 3b 45 39 ed 08 63 39 1e 70 70 39
       0.0002656738 0.0001880957 0.00021651732 0.0002292995
000050 ee cb 94 39 20 29 50 39 85 47 54 39 4a 8d 95 39
       0.000283807 0.00019851746 0.00020244539 0.00028524763
000060 2f 1c 1a 39 2d 97 4e 39 1c cb 9f 39 a4 dc b4 39
       0.00014697084 0.00019702008 0.00030478172 0.00034496665
000070 b4 81 8c 39 b6 20 9c 39 98 bf ad 39 69 1b ea 39
       0.00026799517 0.0002977901 0.0003313988 0.0004465238
000080 ad 2b 86 39 40 eb 91 39 04 b7 93 39 25 97 cf 39
       0.00025591013 0.0002783183 0.00028174382 0.00039594728
000090 05 83 31 39 e3 69 99 39 f4 24 9c 39 47 60 e1 39
       0.00016928844 0.00029261326 0.0002978217 0.00042987076
0000a0 32 63 7e 39 81 c7 81 39 99 42 8a 39 cb de 7c 39
       0.00024260281 0.0002475344 0.0002637103 0.0002411559
0000b0 66 30 57 39 4b 33 6a 39 94 f6 8d 39 69 62 5d 39
       0.00020522028 0.00022335087 0.0002707733 0.00021112863
0000c0 af 01 c0 39 7e af 91 39 88 07 3b 39 bd f5 c2 39
       0.00036622348 0.00027787307 0.00017836515 0.00037185653
0000d0 60 0f 9a 39 9f d9 46 39 79 55 96 39 a0 ae 90 39
       0.00029384624 0.00018963822 0.00028673912 0.00027595926
0000e0 b7 6c 7e 39 6c 65 4f 39 a3 47 08 39 69 33 95 39
       0.00024263827 0.00019778841 0.00012996657 0.00028457798
0000f0 39 33 8a 39 b5 87 72 39 b1 77 75 39 e8 79 9d 39
       0.00026359575 0.00023129473 0.0002340961 0.000300362
000100 fa a6 0c 39 1c 85 3a 39 29 99 91 39 03 37 c4 39
       0.00013413644 0.0001778793 0.00027770668 0.0003742502
000110 69 f8 50 39 72 f6 77 39 c9 a3 77 39 8e 2c 89 39
       0.00019928966 0.00023647564 0.0002361677 0.00026163872
000120 3c f5 0e 39 8b 6b 41 39 2e b9 0f 39 bc fd be 39
       0.00013633532 0.00018445977 0.00013706528 0.0003642867
000130 39 fb 98 39 11 30 a7 39 28 da 64 39 51 15 8c 39
       0.00029178875 0.00031888534 0.00021825044 0.00026718763
000140 3f ba 60 39 f9 50 8e bb 5a 21 6a 39 97 cd a6 39
       0.00021431687 -0.004343149 0.00022328403 0.00031815164
000150 84 6e 94 39 d7 b5 a8 39 63 5f 89 39 90 f0 25 39
       0.000283111 0.00032178938 0.00026201745 0.00015825243
000160 76 0c 79 39 0e 68 6a 39 cb 32 3a 39 18 db 66 39
       0.00023751133 0.00022354742 0.00017757264 0.00022016128
000170 f7 10 87 39 86 e2 9a 39 53 56 5f 39 b4 0e 37 39
       0.00025761846 0.00029541942 0.00021299096 0.00017457717
000180 df c1 b2 39 1f 91 2f 39 f3 c4 a4 39 7c 00 99 39
       0.0003409525 0.00016743362 0.00031427256 0.00029182795
000190 9d 83 e0 39 06 2a 9f 39 5b e3 89 39 c4 70 80 39
       0.0004282267 0.00030358153 0.0002630007 0.0002449808
0001a0 35 d0 7f 39 56 0d 9d 39 3a 26 ee 38 5b ce 84 39
       0.00024396258 0.0002995531 0.000113558446 0.0002533075
0001b0 3f f7 95 39 d8 78 31 39 db 19 e4 39 15 80 6d 39
       0.00028603707 0.00016925053 0.00043506813 0.00022649796
0001c0 b2 91 b7 39 54 de e2 39 af 24 64 39 54 0e 9c 39
       0.0003501303 0.00043271726 0.0002175744 0.00029765314
0001d0 c0 af bc 39 8f ef 8f 39 97 31 7e 39 e6 fa 50 39
       0.00035989098 0.0002745357 0.00024241801 0.00019929893
0001e0 51 fb 22 39 7a e5 96 39 01 67 35 39 95 b8 4c 39
       0.00015543147 0.00028781203 0.00017299877 0.00019523718
0001f0 83 3f ae 39 d4 93 d7 39 be db b0 39 4f d4 70 39
       0.00033235186 0.00041118136 0.00033733057 0.00022967275
000200 45 10 99 39 96 66 91 39 90 df e3 39 32 8c 91 39
       0.00029194556 0.00027732988 0.0004346338 0.0002776101
000210 c8 78 87 39 57 7a 87 39 be 20 98 39 73 fe 1b 39
       0.00025839196 0.00025840357 0.00029016094 0.00014876742
000220 6a 7e 7c 39 bd 9a aa 39 ac 00 a9 39 6c 44 ab 39
       0.00024079686 0.00032540216 0.00032234692 0.0003266664
000230 49 e5 8a 39 cd e4 be 39 ea 77 11 39 d2 99 96 39
       0.00026492242 0.00036410094 0.00013872949 0.00028724835
000240 07 2d 4c 39 37 cc 30 39 c9 32 8a 39 c6 07 9c 39
       0.0001947173 0.00016860744 0.0002635925 0.0002976043
000250 6f 63 5a 39 dd e3 c6 39 07 80 82 39 8b 35 c0 39
       0.00020827142 0.00037935274 0.0002489092 0.00036660986
000260 ea e1 ae 39 c9 65 60 39 7e 46 4a 39 9c 18 b0 39
       0.00033356185 0.00021400223 0.00019290482 0.0003358767
000270 9a a4 bf 39 79 6d 89 39 53 a4 ad 39 58 ea be 39
       0.00036552997 0.0002621224 0.00033119562 0.00036414224
000280 9b e0 70 39 0f 4e b9 39 0e 92 b9 39 a3 d5 88 39
       0.00022971856 0.00035344108 0.0003539477 0.00026099113
000290 7d 74 be 39 ab 17 b8 39 83 86 d4 38 43 70 c4 39
       0.00036326415 0.0003511285 0.000101340025 0.00037467675
0002a0 e6 68 5f 39 02 86 1c 39 1e c2 80 39 20 ec 98 39
       0.00021306015 0.00014927241 0.0002455869 0.00029167626
0002b0 d4 8a 89 39 c1 0b 4d 39 a4 44 21 39 53 5b c1 38
       0.0002623411 0.00019554702 0.00015379727 9.2199676e-05
0002c0 bf 33 8a 39 30 8e 51 39 87 fb 80 39 db ff 82 39
       0.00026359965 0.00019984762 0.00024601465 0.0002498616
0002d0 85 3c 32 39 bd a4 8a 39 ee f4 0c 39 66 f4 91 39
       0.00016997948 0.0002644415 0.00013442684 0.00027838646
0002e0 91 42 64 39 6d b4 89 39 5e fa 37 39 da 93 9b 39
       0.00021768572 0.00026265104 0.00017545509 0.00029674062
0002f0 9b 12 45 39 22 9c ba 39 a6 be bc 38 74 4b 7e 39
       0.00018794315 0.00035593013 9.0000496e-05 0.00024251436
000300 59 ee 94 39 de bb 62 39 81 fe c9 39 9f a8 66 39
       0.00028406343 0.00021623026 0.00038527328 0.00021997326
000310 6a 6e 8d 39 8e 90 86 39 e6 ef 66 39 9a 91 6a 39
       0.0002697588 0.00025666173 0.00022023878 0.0002237022
000320 fe 9b b7 39 ee 43 30 39 7d f6 85 39 fe b7 6c 39
       0.00035020703 0.00016809974 0.00025551385 0.00022575256
000330 55 f5 b5 39 d3 5a d5 38 b0 56 45 39 43 67 68 39
       0.00034705797 0.00010173549 0.00018819678 0.00022163712
000340 37 e8 ae 39 97 99 9b 39 b1 75 61 39 04 e4 b0 39
       0.0003336088 0.00029678337 0.00021501516 0.0003373922
000350 9b bd c1 39 ab ba 93 39 4d 5a c8 39 4d 0c bb 39
       0.00036953096 0.00028177103 0.00038214252 0.00035676584
000360 38 07 92 39 55 ae c4 39 51 80 9e bc 4d 0b c8 39
       0.00027852668 0.0003751392 -0.019348295 0.00038155392
000370 6a eb a6 39 89 b3 1f 39 cd f6 96 39 36 ed 7d 39
       0.00031837384 0.00015230304 0.0002879411 0.00024216328
000380 5c d3 cc 39 14 26 60 39 4c ff 07 39 6e f8 35 39
       0.00039067387 0.0002137649 0.00012969709 0.00017354052
000390 6a 5c 9a 39 08 3f 7d 39 2f 82 87 39 c0 53 77 39
       0.00029442023 0.00024151441 0.000258462 0.00023586955
0003a0 af 43 a8 39 58 95 03 39 61 ee 53 39 cc 2e 81 39
       0.00032093885 0.00012548768 0.00020211331 0.00024639664
0003b0 da b1 a7 39 a4 81 94 39 40 71 b8 39 52 40 8a 39
       0.00031985232 0.0002832535 0.00035179593 0.00026369334
0003c0 00 91 de 39 80 78 a4 39 d8 5d 9b 39 27 24 6b 39
       0.00042451173 0.00031370297 0.00029633823 0.00022424814
0003d0 f6 da a5 bb 46 ce 81 39 ca 32 6a 39 59 b4 03 39
       -0.0050615026 0.00024758483 0.000223349 0.00012560318
0003e0 6a a5 87 39 2c 27 57 39 23 ea 81 39 66 50 97 39
       0.0002587245 0.0002051859 0.00024779243 0.00028860866
0003f0 8b 64 b8 39 96 0c 4e 39 2d 9b 49 39 95 35 84 39
       0.00035170125 0.0001965038 0.00019226661 0.00025216924

exp_avg f4 [10000, 2]
000000 1a 34 08 29 04 e8 d9 aa bb f3 73 2a a8 aa f4 29
       3.0243257e-14 -3.8707937e-13 2.1667297e-13 1.0865381e-13
000010 ae b8 37 a9 3d 14 81 2a 1b e6 3b 2a 71 f5 cb a9
       -4.0794347e-14 2.2929046e-13 1.668877e-13 -9.057588e-14
000020 7b 91 28 2a 4f 8d 3e 2a cf be 07 2c 02 04 a6 2c
       1.4971871e-13 1.6924416e-13 1.9290574e-12 4.7184487e-12
000030 47 11 d6 a8 92 db fc aa ce b6 b8 2b 93 ca 9e ab
       -2.3766266e-14 -4.491655e-13 1.3124725e-12 -1.1282801e-12
000040 be de 8d 2b 04 84 b1 2b 10 92 c0 29 7e d1 f1 a7
       1.0080476e-12 1.2613248e-12 8.5518506e-14 -6.711807e-15
000050 5c eb 7d 29 04 15 83 2a 37 4b 73 2a fc 88 15 2b
       5.6381427e-14 2.3284857e-13 2.1608831e-13 5.312554e-13
000060 9a 94 8b 2b bb 56 30 aa 1a 60 10 2a 07 37 81 2a
       9.917789e-13 -1.5662031e-13 1.2823111e-13 2.2953186e-13
000070 36 d9 62 28 1d 22 73 2a 0e 39 9e 2a b8 94 c1 a9
       1.259262e-14 2.1594571e-13 2.8106028e-13 -8.5967203e-14
000080 fc 4b f4 2a 45 08 c6 a9 9c 3b df 29 22 0e ab 2a
       4.3395832e-13 -8.794401e-14 9.91353e-14 3.0385509e-13
000090 46 56 ba 2a 1e e1 cc a9 16 8d 31 ab 76 ce c2 a9
       3.3100101e-13 -9.0984715e-14 -6.307883e-13 -8.651146e-14
0000a0 3b 70 61 2a 34 66 00 ab 6e 1d 25 ab 58 d2 66 a9
       2.0022952e-13 -4.561657e-13 -5.866062e-13 -5.1252703e-14
0000b0 ae b0 14 ac 68 c1 1c ab 22 67 4e 29 cb da 58 a9
       -2.1130142e-12 -5.569074e-13 4.5830642e-14 -4.8151407e-14
0000c0 38 40 f7 ab 89 a6 fd aa b7 31 53 2b 95 70 97 2b
       -1.756823e-12 -4.5057385e-13 7.503125e-13 1.0760443e-12
0000d0 fa 1b 20 a9 8b c6 18 2b 48 2b b9 2a f1 9f 64 a9
       -3.5551403e-14 5.427678e-13 3.2892634e-13 -5.0764897e-14
0000e0 57 21 c5 28 14 51 c9 29 fc 01 dd 2a 1b 65 33 aa
       2.1885852e-14 8.940258e-14 3.9258863e-13 -1.5933472e-13
0000f0 03 2f de 29 f3 5b 38 aa 04 80 5b ab 0f 42 f3 aa
       9.866936e-14 -1.6374384e-13 -7.7982087e-13 -4.3211309e-13
000100 09 61 10 a9 e4 80 f6 a9 a7 68 fc aa d7 2a ad 2b
       -3.2058588e-14 -1.09469535e-13 -4.483681e-13 1.230428e-12
000110 d4 02 84 a9 af 52 b7 28 b8 f0 80 aa c6 2a 25 aa
       -5.862468e-14 2.035294e-14 -2.29044e-13 -1.4669784e-13
000120 0e d5 9e a8 48 20 e5 29 f2 77 8f 29 d2 4d 3d a9
       -1.7633922e-14 1.0175243e-13 6.371283e-14 -4.203393e-14
000130 56 00 dd 29 4c 86 9a aa b5 ce 50 29 20 8a a8 aa
       9.81443e-14 -2.7449083e-13 4.6364568e-14 -2.9938638e-13
000140 65 1c e0 29 44 7a f9 2a 35 dd cb 2a a1 df af 2a
       9.952524e-14 4.4316124e-13 3.6213537e-13 3.1241418e-13
000150 a6 38 d0 29 61 eb 06 a9 0f 3c ed 2a 23 b7 8e aa
       9.2468825e-14 -2.9958136e-14 4.214133e-13 -2.5351344e-13
000160 75 a5 0e a9 29 4c 96 28 fd 70 54 a9 f4 cb 89 aa
       -3.1673845e-14 1.6686375e-14 -4.7171458e-14 -2.447761e-13
000170 aa 17 94 2a 81 2b 93 a9 fc d7 8e 2a 70 89 d2 27
       2.6306501e-13 -6.535658e-14 2.5374136e-13 5.843572e-15
000180 64 6c b4 29 14 62 1d aa 53 c2 fc 2a fe fb 2d 2a
       8.0124086e-14 -1.3978429e-13 4.4899032e-13 1.5452914e-13
000190 8c 2b a6 2b 5d 97 d2 aa 9e 0f 02 ab 9e 86 76 aa
       1.1807096e-12 -3.7408523e-13 -4.620695e-13 -2.1895894e-13
0001a0 e1 63 d3 29 c8 0a fa a9 d9 16 1b aa c9 e0 77 aa
       9.3876086e-14 -1.11041005e-13 -1.3774692e-13 -2.2015995e-13
0001b0 58 cf cb a8 0b 99 0e aa 13 61 48 a8 32 a0 01 ab
       -2.2627448e-14 -1.2665231e-13 -1.112328e-14 -4.605232e-13
0001c0 d9 cc 8b a9 fa 0b 40 2a 64 52 0b 28 d0 c7 58 a9
       -6.2083754e-14 1.7057181e-13 7.733916e-15 -4.8134944e-14
0001d0 d8 1e 96 ac af 20 82 ab 43 8f ba 2a 10 ac d4 2a
       -4.2666808e-12 -9.246127e-13 3.3139645e-13 3.7778157e-13
0001e0 72 04 a0 28 62 01 76 ab e9 98 2e aa 49 4e 41 29
       1.7765496e-14 -8.7398676e-13 -1.5507356e-13 4.292251e-14
0001f0 8b f9 2e 2a ea a1 ed 2a cf 94 7b 2a 57 db ea 2a
       1.5540882e-13 4.2212008e-13 2.2344907e-13 4.1718948e-13
000200 54 85 19 a9 6f 36 d4 a7 da 3e 12 2a ef 60 35 aa
       -3.4088468e-14 -5.8900837e-15 1.2989211e-13 -1.610966e-13
000210 9e 66 16 aa e0 e5 49 2a 92 b2 ec aa 2a ee 6b ab
       -1.3358279e-13 1.793214e-13 -4.204593e-13 -8.381929e-13
000220 ec d9 a7 29 bd 49 0b 2a 3d 55 81 2a ed 17 3f aa
       7.454093e-14 1.2371263e-13 2.297415e-13 -1.6972509e-13
000230 10 f3 54 a8 5e d1 4c 2b 97 2f 75 aa 8a fc 9f ab
       -1.182107e-14 7.2765914e-13 -2.1776882e-13 -1.1367723e-12
000240 22 45 80 a9 a2 7e 11 29 e0 98 b4 aa c5 64 12 2b
       -5.6963345e-14 3.2306304e-14 -3.2080501e-13 5.2009466e-13
000250 68 5a 72 2b e4 87 4f aa 3e e5 c1 29 33 ee de 2a
       8.6101135e-13 -1.843244e-13 8.610689e-14 3.9600406e-13
000260 80 6e 1f 2b 9f 8f e8 2a 28 47 9d a9 fc 33 2c ab
       5.6641497e-13 4.1311136e-13 -6.984544e-14 -6.117882e-13
000270 37 78 46 a9 46 ce ca aa 07 ca 5a aa f9 13 7a 2a
       -4.40691e-14 -3.602554e-13 -1.9432382e-13 2.221139e-13
000280 a4 1c 14 aa c1 1a a0 29 a1 d5 46 2b f3 55 08 2a
       -1.3154977e-13 7.1100684e-14 7.06402e-13 1.2109046e-13
000290 ce 61 4d 28 c9 8a 1f ab e4 4b 9a aa 11 6f 00 29
       1.1400994e-14 -5.668075e-13 -2.7408555e-13 2.8518044e-14
0002a0 04 f1 08 ac 1a de 00 ab 99 55 d7 2a e6 89 dd aa
       -1.9460553e-12 -4.5782963e-13 3.8251067e-13 -3.9353172e-13
0002b0 02 a1 66 29 26 9b f0 27 5e 24 64 29 f5 e5 93 a9
       5.120991e-14 6.6781594e-15 5.0657713e-14 -6.5680026e-14
0002c0 6e f8 76 29 34 7a 6f 2a ce 02 42 aa 31 94 0e 29
       5.483845e-14 2.1269862e-13 -1.7231634e-13 3.165887e-14
0002d0 d2 03 9f ab 83 9c 00 2c 8b 57 f2 29 59 86 74 a9
       -1.129869e-12 1.8276775e-12 1.0762145e-13 -5.429541e-14
0002e0 7e d5 14 aa 8e 37 92 a8 5d 00 e2 ab 0a 63 d4 ab
       -1.321911e-13 -1.623335e-14 -1.6058367e-12 -1.5090995e-12
0002f0 9e 69 b9 29 27 19 bc a9 05 70 04 29 2f d9 7a a9
       8.233972e-14 -8.3532404e-14 2.940705e-14 -5.5699528e-14
000300 15 04 cf aa ae b0 c1 aa 05 90 fa a9 35 32 94 29
       -3.677342e-13 -3.4406283e-13 -1.11272137e-13 6.58123e-14
000310 b8 97 d0 2a 66 87 ba 29 8f ac 81 aa 96 65 5f ab
       3.7053498e-13 8.283547e-14 -2.303474e-13 -7.9366494e-13
000320 40 36 c6 a7 06 4a 86 aa 46 60 a4 2a cc 65 4d ab
       -5.5014858e-15 -2.3854546e-13 2.9199055e-13 -7.29719e-13
000330 ec db 69 2a a0 d0 ea 28 02 01 1b 2a 53 30 0f ab
       2.0770858e-13 2.6069695e-14 1.3767115e-13 -5.087087e-13
000340 aa ba 55 28 ab df f6 aa 0a 8c 1e 2a 42 88 74 aa
       1.18643515e-14 -4.385358e-13 1.4081805e-13 -2.1718827e-13
000350 9e 59 44 2c d0 83 b7 ab 04 fd a7 ab 04 ce 54 2c
       2.7903023e-12 -1.3039517e-12 -1.193629e-12 3.0241374e-12
000360 94 7b 92 29 d9 9f 85 aa 62 fd 88 29 4b 56 09 2a
       6.50514e-14 -2.3736463e-13 6.083568e-14 1.2197983e-13
000370 fa 99 0c 2a 97 af 76 2a 80 89 3e a9 58 50 db 28
       1.2487919e-13 2.1910109e-13 -4.2307737e-14 2.4348728e-14
000380 f2 0a c8 28 17 b4 f1 29 01 fe 95 2a 50 fd 76 aa
       2.2209207e-14 1.07337906e-13 2.6643968e-13 -2.1937075e-13
000390 79 c8 13 a9 e8 27 f5 26 df d8 e3 28 e2 41 df a7
       -3.281444e-14 1.7011107e-15 2.5296116e-14 -6.1966364e-15
0003a0 04 e8 3e ab 82 4a 8c 29 dc ac ae 28 08 bb 13 aa
       -6.7823546e-13 6.230174e-14 1.9392846e-14 -1.3121112e-13
0003b0 fe a9 70 2b ff 90 13 ab 68 eb 42 a9 ba 4e 9d 2a
       8.550104e-13 -5.2426114e-13 -4.3280836e-14 2.794343e-13
0003c0 5e 55 fd a9 42 c4 b2 28 1d bd 0b ab dc 9e 93 aa
       -1.1250266e-13 1.9847083e-14 -4.964517e-13 -2.6222676e-13
0003d0 5e 54 f2 aa 4b ac 56 aa d4 33 97 aa 04 8c f3 2a
       -4.3046377e-13 -1.9066794e-13 -2.685895e-13 4.3262627e-13
0003e0 a0 3e 0a 2b c0 c4 de a9 33 d7 7b ab ab d6 dc 2b
       4.911436e-13 -9.892911e-14 -8.947176e-13 1.5691523e-12
0003f0 36 78 c2 2a bc 28 c0 2a 5b cf 23 a9 e4 53 88 a8
       3.4544736e-13 3.4134316e-13 -3.6373123e-14 -1.5135415e-14

exp_avg_sq f4 [10000, 2]
000000 d7 44 a4 12 ad 1f 35 16 df 76 60 15 ff 33 61 14
       1.0366825e-27 1.4631059e-25 4.5330213e-26 1.13698515e-26
000010 cc 1b fe 12 30 08 7b 15 d2 d7 04 15 23 04 1f 14
       1.6036506e-27 5.0695505e-26 2.682744e-26 8.0282644e-27
000020 09 3b dd 14 91 82 09 15 2a da 8d 18 77 9a d4 19
       2.2338583e-26 2.7769928e-26 3.6667935e-24 2.1982674e-23
000030 67 0b 23 12 85 dc 72 16 60 db 01 18 b3 10 c4 17
       5.1447785e-28 1.9618188e-25 1.6783615e-24 1.2670419e-24
000040 6c 03 9e 17 08 6f ee 17 84 69 08 14 5d b9 89 10
       1.0211374e-24 1.5408418e-24 6.8870546e-27 5.432257e-29
000050 6d 59 7e 13 3f 73 82 15 6c 3a 63 15 c2 1f ac 16
       3.2103398e-27 5.268841e-26 4.5888372e-26 2.780814e-25
000060 a5 0f 95 17 29 87 dc 14 99 eb 9d 14 63 ed 7e 15
       9.632849e-25 2.2267634e-26 1.5945876e-26 5.1482157e-26
000070 98 27 48 11 25 df 5f 15 b8 15 bf 15 35 13 0a 14
       1.5789419e-28 4.521052e-26 7.717855e-26 6.9710074e-27
000080 1e f4 63 16 fd 63 16 14 28 f3 4b 14 3c 0d db 15
       1.8413944e-25 7.592784e-27 1.0296835e-26 8.8474276e-26
000090 c7 a6 02 16 2b 16 21 14 d5 ac eb 16 f9 72 10 14
       1.0553942e-25 8.132795e-27 3.807537e-25 7.2928165e-27
0000a0 33 ea 45 15 5f e9 7d 16 d0 be ce 16 e1 6a 56 13
       3.9968584e-26 2.0510816e-25 3.3401515e-25 2.7063293e-27
0000b0 5a 63 aa 18 f2 de b6 16 c2 0f 17 13 55 d9 2c 13
       4.404429e-24 2.9544384e-25 1.9066649e-27 2.1816605e-27
0000c0 dd bc 68 18 ce 96 6e 16 ff f0 2a 17 1e e6 b2 17
       3.0080649e-24 1.9273072e-25 5.523414e-25 1.156107e-24
0000d0 2e 68 c7 12 38 1d b8 16 8d 72 00 16 85 62 48 13
       1.2584348e-27 2.9745243e-25 1.0375904e-25 2.5292123e-27
0000e0 b2 90 15 12 85 cf 11 14 19 6c 3a 16 b2 12 f3 14
       4.719446e-28 7.361555e-27 1.505907e-25 2.4544104e-26
0000f0 7b 81 39 14 32 77 00 15 3a f5 39 17 03 51 5e 16
       9.365649e-27 2.5943423e-26 6.0086243e-25 1.795858e-25
000100 d3 41 a1 12 e9 04 6a 14 98 f1 74 16 a3 c6 e2 17
       1.0176755e-27 1.1814949e-26 1.9786397e-25 1.4655051e-24
000110 60 5a 86 13 17 77 04 12 83 33 7f 15 05 e7 d2 14
       3.3915472e-27 4.1798645e-28 5.1537475e-26 2.1295702e-26
000120 d0 9b d8 11 92 af 51 14 02 45 99 13 1c 7c 0a 13
       3.4174818e-28 1.05864286e-26 3.8690677e-27 1.747924e-27
000130 41 90 3c 14 69 0a b7 15 7f a5 20 13 d6 a0 d4 15
       9.5200235e-27 7.3929536e-26 2.0276435e-27 8.587987e-26
000140 42 3b 59 14 0b 02 6d 16 96 e4 1b 16 c2 86 f1 15
       1.0967387e-26 1.9145352e-25 1.2592929e-25 9.7551735e-26
000150 2e 39 25 14 b0 e9 80 12 55 6c 54 16 f3 80 9c 15
       8.341648e-27 8.135544e-28 1.7159407e-25 6.3211344e-26
000160 c3 15 97 12 22 6b b2 11 2f b8 23 13 d5 60 92 15
       9.534804e-28 2.8149474e-28 2.0664302e-27 5.9121704e-26
000170 0b 06 aa 15 d5 dd a8 13 a2 62 9a 15 21 b4 fe 0f
       6.867199e-26 4.2627906e-27 6.235572e-26 2.5115717e-29
000180 50 cb f8 13 23 ce bd 14 88 e6 77 16 41 89 f0 14
       6.2804483e-27 1.916543e-26 2.0025244e-25 2.4287944e-26
000190 1d 3d d2 17 51 96 2b 16 e2 35 82 16 6a c6 64 15
       1.3586359e-24 1.3860701e-25 2.1036638e-25 4.6200754e-26
0001a0 9d 07 2a 14 9b 41 70 14 bb 6e b9 14 fd c4 68 15
       8.584308e-27 1.2129842e-26 1.8723902e-26 4.7007423e-26
0001b0 d8 b2 10 12 f3 7d 9a 14 40 fe 11 11 38 0b 80 16
       4.565883e-28 1.5599704e-26 1.151683e-28 2.0686595e-25
0001c0 96 87 93 13 66 98 0b 15 a5 e1 8f 10 95 ca 2e 13
       3.7241715e-27 2.8191048e-26 5.6751215e-29 2.2061768e-27
0001d0 67 a0 ad 19 2e e5 76 17 ad 4a 03 16 4c 6e 2c 16
       1.7952567e-23 7.977615e-25 1.0605659e-25 1.3928853e-25
0001e0 e5 74 e1 11 5e ae 64 17 75 bf e4 14 76 cb 19 13
       3.5570783e-28 7.3890856e-25 2.3097633e-26 1.9411629e-27
0001f0 ae 68 e5 14 47 7e 59 16 9d 3b 75 15 3c 5e 54 16
       2.316438e-26 1.7568967e-25 4.9524383e-26 1.7154959e-25
000200 9f ed b1 12 cd 12 22 10 14 d5 a6 14 88 ab f4 14
       1.1228849e-27 3.196335e-29 1.6845761e-26 2.4705361e-26
000210 23 f0 b0 14 10 7d 1d 15 66 56 51 16 a1 1c 54 17
       1.7866176e-26 3.1804554e-26 1.6910148e-25 6.853703e-25
000220 02 2f d0 13 ec b9 9a 14 1e 15 81 15 68 e8 07 15
       5.2552935e-27 1.562336e-26 5.2136e-26 2.744637e-26
000230 d5 de 23 11 0f c5 1e 17 ce 94 54 15 50 98 c4 17
       1.2927098e-28 5.1301276e-25 4.2930445e-26 1.2704652e-24
000240 5c aa 76 13 d2 99 9e 12 6b 5d f4 15 1b 28 a6 16
       3.1133559e-27 1.0009121e-27 9.86982e-26 2.6844057e-25
000250 b9 e3 61 17 ac 81 22 15 89 bb 11 14 93 20 3f 16
       7.2988847e-25 3.2817933e-26 7.357614e-27 1.5439136e-25
000260 67 4b c8 16 e2 66 50 16 15 eb b9 13 0f 75 df 16
       3.2359328e-25 1.683457e-25 4.6932374e-27 3.6101467e-25
000270 47 5b 0e 13 3e 23 1c 16 13 55 37 15 2e be 6a 15
       1.7967923e-27 1.26127e-25 3.7023667e-26 4.740595e-26
000280 2f 62 aa 14 95 2e ca 13 fe df 1c 17 11 34 9c 14
       1.720434e-26 5.1037902e-27 5.0689036e-25 1.5772511e-26
000290 7a 6b 3e 11 9f 91 c2 16 4b b5 ba 15 a7 ac 5c 12
       1.5021476e-28 3.143429e-25 7.541083e-26 6.963257e-28
0002a0 a1 fe 8f 18 15 6e 7b 16 34 ce 2f 16 59 7e 3c 16
       3.7221743e-24 2.0310354e-25 1.4201454e-25 1.5226387e-25
0002b0 19 b3 43 13 27 bf 5c 10 12 fc 4d 13 fb 70 a3 13
       2.4700762e-27 4.3534608e-29 2.5998918e-27 4.1258392e-27
0002c0 29 38 69 13 85 e8 57 15 6c 94 11 15 5a b2 8e 12
       2.9436424e-27 4.360233e-26 2.93996e-26 9.005427e-28
0002d0 c8 fd c2 17 ec 45 7c 18 a3 e2 61 14 45 23 64 13
       1.260102e-24 3.2605538e-24 1.1404293e-26 2.8795035e-27
0002e0 e1 67 af 14 f1 a4 bc 11 51 40 42 18 3b 6f 2c 18
       1.7711457e-26 2.9762823e-28 2.5106384e-24 2.2286636e-24
0002f0 16 de 01 14 c1 fd 04 14 34 72 78 12 bf fb 6c 13
       6.556634e-27 6.714341e-27 7.839577e-28 2.9911508e-27
000300 b4 d3 23 16 93 33 0d 16 d2 e7 71 14 fc 83 a9 13
       1.3233837e-25 1.1406163e-25 1.2213109e-26 4.2791744e-27
000310 79 30 25 16 c9 37 05 14 e8 68 77 15 11 b5 43 17
       1.3343889e-25 6.725786e-27 4.996401e-26 6.3236436e-25
000320 33 c7 df 0f ce 8e 88 15 07 9e cb 15 ed 3a 22 17
       2.2066226e-29 5.515527e-26 8.224037e-26 5.24194e-25
000330 78 58 51 15 7a 9e 57 12 8a e4 bc 14 3c 25 9e 16
       4.2277003e-26 6.8037375e-28 1.9073292e-26 2.5549775e-25
000340 82 94 32 11 57 2d 6a 16 49 ae c8 14 3e 8a 65 15
       1.4087487e-28 1.8916676e-25 2.0263583e-26 4.6355236e-26
000350 3b 81 0f 19 63 7d 01 18 37 f3 d8 17 0c a9 2c 19
       7.419025e-24 1.6736163e-24 1.4020069e-24 8.92633e-24
000360 37 fb a7 13 15 2d 88 15 3b 16 90 13 ff bb 91 14
       4.2404444e-27 5.500109e-26 3.637263e-27 1.471541e-26
000370 dc d4 9b 14 7a 9c 6f 15 e0 97 ea 12 1d c6 2a 12
       1.5734959e-26 4.8389104e-26 1.4804916e-27 5.3886735e-28
000380 9c 08 f9 11 f0 1d 5e 14 1d 91 ab 15 f1 f0 66 15
       3.929058e-28 1.121404e-26 6.92953e-26 4.66382e-26
000390 89 dc a8 12 db 2d da 0e b3 3d 57 12 6f a2 2d 10
       1.0656657e-27 5.3785306e-30 6.791809e-28 3.4243368e-29
0003a0 d0 63 0a 17 88 66 90 13 1f d4 fd 11 0b 73 a3 14
       4.4716186e-25 3.6451814e-27 4.0047092e-28 1.650417e-26
0003b0 c6 24 5b 17 f2 26 ad 16 17 7c 0a 13 2b 67 be 15
       7.080913e-25 2.7974235e-25 1.747923e-27 7.690316e-26
0003c0 0a ea 6e 14 22 c7 f7 11 71 c9 98 16 91 d9 a7 15
       1.2062085e-26 3.9092454e-28 2.4684052e-25 6.779402e-26
0003d0 36 fe 5d 16 0b 27 2e 15 d8 33 ad 15 2f 99 62 16
       1.7932453e-25 3.516982e-26 6.995594e-26 1.8304471e-25
0003e0 7f 00 94 16 62 69 38 14 33 68 73 17 72 f3 39 18
       2.3911003e-25 9.310409e-27 7.8649053e-25 2.4033598e-24
0003f0 17 87 0f 16 6a 91 0c 16 2f 62 d4 12 33 7c 8b 11
       1.1594075e-25 1.1354995e-25 1.3403285e-27 2.2006877e-28

exp_avg f4 [10000]
000000 e2 e7 15 a9 fc ff b7 a8 30 20 e8 a8 30 20 d4 a8
       -3.3285772e-14 -2.0428097e-14 -2.5771133e-14 -2.3550687e-14
000010 fc ff 13 a9 e4 74 ae a6 fc ff 07 a9 b3 f9 93 a8
       -3.2862588e-14 -1.2105359e-15 -3.0198053e-14 -1.6428568e-14
000020 ea 76 87 a8 0c 00 aa a8 3d fd 6f a8 c4 da cf a8
       -1.5039582e-14 -1.8873812e-14 -1.33220774e-14 -2.3076491e-14
000030 1e ca f1 a8 fc ff e7 a8 fc ff 9b a8 35 47 e0 a8
       -2.684403e-14 -2.5757167e-14 -1.7319472e-14 -2.4899877e-14
000040 0e 00 10 a9 04 00 60 a8 5e bf 7b a8 fc ff 7f a8
       -3.197447e-14 -1.2434501e-14 -1.3974795e-14 -1.4210851e-14
000050 bd fe 41 a9 05 00 60 a8 5a e1 56 a8 fc ff ef a8
       -4.307556e-14 -1.2434502e-14 -1.1928252e-14 -2.6645346e-14
000060 63 c5 94 a8 84 f2 83 a8 fc ff 15 a9 e0 ff 3d a9
       -1.6516904e-14 -1.4649096e-14 -3.3306677e-14 -4.2188367e-14
000070 ed 84 ea a8 f6 fd 27 a9 fc ff f7 a8 61 aa d4 a8
       -2.6036866e-14 -3.7301725e-14 -2.7533524e-14 -2.3610618e-14
000080 ff 83 e7 a8 2a 23 38 a9 fc ff db a8 04 00 0c a9
       -2.5703396e-14 -4.0886707e-14 -2.44249e-14 -3.1086258e-14
000090 04 00 64 a8 fc ff df a8 04 00 e8 a8 fc ff 07 a9
       -1.2656546e-14 -2.4868989e-14 -2.5757181e-14 -3.0198053e-14
0000a0 b5 06 80 a8 fc ff 48 a9 fc ff f7 a8 32 42 87 a8
       -1.4213763e-14 -4.4630952e-14 -2.7533524e-14 -1.5016718e-14
0000b0 04 00 88 a8 fc ff 83 a8 d8 72 db a8 49 04 85 a8
       -1.509904e-14 -1.4654937e-14 -2.436369e-14 -1.4767825e-14
0000c0 40 ea 1d a9 33 10 34 a9 dd 1f ef a8 fc ff ef a8
       -3.5064182e-14 -3.998208e-14 -2.6548149e-14 -2.6645346e-14
0000d0 a4 00 ec a8 fc ff 87 a8 a3 a7 f7 a8 cd 89 ef a8
       -2.6201541e-14 -1.5099026e-14 -2.749521e-14 -2.6594092e-14
0000e0 22 fc 7f a8 e3 79 8e a8 30 59 6e a8 eb ff 5b a9
       -1.4210016e-14 -1.5818027e-14 -1.32309934e-14 -4.8849742e-14
0000f0 50 03 34 a9 04 00 90 a8 c0 32 88 a8 04 00 50 a9
       -3.9970902e-14 -1.5987218e-14 -1.5121042e-14 -4.618529e-14
000100 d6 ee 7b a8 04 00 90 a8 98 fe 0e a9 ae 00 e0 a8
       -1.3985088e-14 -1.5987218e-14 -3.175116e-14 -2.486929e-14
000110 9a 62 6b a8 21 4e 88 a8 f0 ff 67 a8 e7 ff 4f a9
       -1.3066501e-14 -1.5132916e-14 -1.28785735e-14 -4.6185193e-14
000120 d8 ff 7f a8 b9 b5 7a a8 9c aa ed a8 04 00 20 a9
       -1.4210821e-14 -1.3917193e-14 -2.6386276e-14 -3.552715e-14
000130 fc ff 3f a9 04 00 52 a9 20 8e 84 a8 04 00 f0 a8
       -4.263255e-14 -4.662938e-14 -1.471658e-14 -2.664536e-14
000140 04 00 b4 a8 72 cc 19 02 84 f3 60 a8 b4 3f f1 a8
       -1.9984021e-14 1.1299338e-37 -1.2487302e-14 -2.6784002e-14
000150 d7 f3 3c a9 fc ff 43 a9 02 07 f7 a8 9a 62 6b a8
       -4.1955883e-14 -4.352073e-14 -2.7425548e-14 -1.3066501e-14
000160 fc ff 6f a8 23 fa 9f a8 31 a9 8f a8 fc ff 77 a8
       -1.3322673e-14 -1.7761026e-14 -1.5949564e-14 -1.3766762e-14
000170 fc ff df a8 38 5e e9 a8 fc ff 67 a8 fc ff 5f a8
       -2.4868989e-14 -2.5909057e-14 -1.2878584e-14 -1.24344945e-14
000180 e7 fa ff a8 64 61 60 a8 f9 ff 45 a9 2d 00 e0 a8
       -2.8419499e-14 -1.2455616e-14 -4.3964808e-14 -2.4869072e-14
000190 e5 20 07 a9 64 33 49 a9 04 00 d8 a8 fc ff 1b a9
       -3.0004553e-14 -4.467554e-14 -2.3980824e-14 -3.4638945e-14
0001a0 fc ff 5f a8 46 53 ee a8 36 29 92 a8 eb 02 28 a9
       -1.24344945e-14 -2.6459422e-14 -1.6227129e-14 -3.7306025e-14
0001b0 4a ff df a8 fc ff 83 a8 fc ff 0b a9 4c ff 83 a8
       -2.4868687e-14 -1.4654937e-14 -3.108623e-14 -1.4654639e-14
0001c0 3e fd 0b a9 fc ff f3 a8 19 ee a6 a8 fc ff db a8
       -3.1083853e-14 -2.7089435e-14 -1.853296e-14 -2.44249e-14
0001d0 68 fa 4c a9 fc ff e1 a8 d9 54 9d a8 16 d9 65 a8
       -4.5514292e-14 -2.5091034e-14 -1.7467298e-14 -1.2759127e-14
0001e0 fc ff 67 a8 18 02 0c a9 d4 cb 8f a8 fc ff 5f a8
       -1.2878584e-14 -3.108806e-14 -1.5964586e-14 -1.24344945e-14
0001f0 04 00 3c a9 06 f0 ea a8 fc ff 53 a9 04 00 94 a8
       -4.17444e-14 -2.6083312e-14 -4.7073443e-14 -1.6431308e-14
000200 4b 04 4c a9 ec fa fb a8 41 89 2f a9 5b 20 dc a8
       -4.5300823e-14 -2.7975418e-14 -3.8976855e-14 -2.4438938e-14
000210 fc ff e7 a8 e7 f3 e7 a8 21 00 e4 a8 10 a1 5d a8
       -2.5757167e-14 -2.5751928e-14 -2.5313141e-14 -1.2302889e-14
000220 04 00 80 a8 04 00 d8 a8 04 00 e0 a8 94 01 f8 a8
       -1.4210861e-14 -2.3980824e-14 -2.4869003e-14 -2.7534215e-14
000230 d5 89 58 a9 8c 2d 2c a9 4a 2b cb a8 fc ff 69 a9
       -4.8081185e-14 -3.8231178e-14 -2.2556301e-14 -5.1958424e-14
000240 fc ff 5f a8 fc ff df a8 fc ff 07 a9 fc ff ef a8
       -1.24344945e-14 -2.4868989e-14 -3.0198053e-14 -2.6645346e-14
000250 72 f5 6f a8 8a e8 0b a9 f5 93 09 a9 1f f8 01 a9
       -1.3320388e-14 -3.1065896e-14 -3.0548443e-14 -2.8858965e-14
000260 91 08 2a a9 fc ff 5f a8 5b c6 b8 a8 f4 2e 14 a9
       -3.7755013e-14 -1.24344945e-14 -2.0514127e-14 -3.2903327e-14
000270 04 00 54 a9 50 ed 3c a9 e1 cd e5 a8 cb de 26 a9
       -4.707347e-14 -4.195022e-14 -2.5513393e-14 -3.7052647e-14
000280 ea ff 6f a8 ad 82 da a8 65 5f 37 a9 fc ff 33 a9
       -1.3322658e-14 -2.4259534e-14 -4.0716904e-14 -3.9968015e-14
000290 fc ff 3f a9 04 00 54 a9 85 8e dc a7 f7 04 28 a9
       -4.263255e-14 -4.707347e-14 -6.1216786e-15 -3.73078e-14
0002a0 e9 e9 91 a8 70 e0 e9 a8 5c 2b 6a a9 39 89 f3 a8
       -1.6199676e-14 -2.596553e-14 -5.1996046e-14 -2.703793e-14
0002b0 33 29 00 a9 04 00 80 a8 95 83 b6 a8 e9 7c fd a7
       -2.8457444e-14 -1.4210861e-14 -2.0263124e-14 -7.0357034e-15
0002c0 fc ff 2b a9 39 e1 85 a8 fc ff eb a8 fc ff db a8
       -3.819166e-14 -1.4863641e-14 -2.6201257e-14 -2.44249e-14
0002d0 04 00 ca a8 99 35 f4 a8 e7 6e df a8 3e 0e 1c a9
       -2.2426512e-14 -2.7112686e-14 -2.480607e-14 -3.465131e-14
0002e0 6a 11 7e a8 d2 ff 33 a9 ae 1d 8a a8 8a fc 1d a9
       -1.41036085e-14 -3.9967873e-14 -1.533395e-14 -3.5080046e-14
0002f0 27 fc 8b a8 77 13 4c a9 cf 72 07 a8 b8 00 6c a8
       -1.5541454e-14 -4.5313982e-14 -7.5189006e-15 -1.31007875e-14
000300 0e 00 e4 a8 61 20 6c a8 85 03 f0 a8 fc ff 5f a8
       -2.5313109e-14 -1.3107653e-14 -2.6646879e-14 -1.24344945e-14
000310 d1 c0 eb a8 06 00 46 a9 6d 2b b6 a8 fc ff 85 a8
       -2.6173862e-14 -4.3964852e-14 -2.0224892e-14 -1.4876982e-14
000320 fc ff 4f a9 dd 88 82 a8 fc ff e7 a8 fc ff 6f a8
       -4.6185264e-14 -1.4492254e-14 -2.5757167e-14 -1.3322673e-14
000330 04 00 54 a9 71 2c 24 a8 55 20 7f a8 fa 54 6b a8
       -4.707347e-14 -9.1134655e-15 -1.41623545e-14 -1.3063547e-14
000340 04 00 e4 a8 fc ff 61 a9 06 00 b4 a8 fc ff db a8
       -2.5313092e-14 -5.0182067e-14 -1.9984025e-14 -2.44249e-14
000350 20 f0 ea a8 be df 5b a9 04 00 08 a9 a8 be 18 a9
       -2.6083356e-14 -4.8821834e-14 -3.019808e-14 -3.3916148e-14
000360 04 00 40 a9 5b 9a 07 a9 cc 5b 1f 2c bd 8d 05 a9
       -4.2632578e-14 -3.0109904e-14 2.2646216e-12 -2.965487e-14
000370 8c f3 ec a8 fc ff 83 a8 6e f8 47 a9 da 90 8b a8
       -2.6306885e-14 -1.4654937e-14 -4.4402355e-14 -1.549492e-14
000380 25 18 da a8 1a ea 8f a8 5e 0a 88 a8 ae d5 77 a8
       -2.4213333e-14 -1.5977715e-14 -1.510353e-14 -1.3757589e-14
000390 04 00 50 a9 04 00 60 a8 ca 45 40 a9 44 7d 65 a8
       -4.618529e-14 -1.2434501e-14 -4.2693097e-14 -1.2739216e-14
0003a0 d4 00 24 a9 63 0e 68 a8 c8 85 83 a8 48 04 ff a8
       -3.6416033e-14 -1.2881707e-14 -1.460194e-14 -2.8312544e-14
0003b0 5c 86 75 a9 17 77 dc a8 e8 7c fd a8 3d fd ef a8
       -5.4517466e-14 -2.4476554e-14 -2.8142812e-14 -2.6644155e-14
0003c0 b5 9e 47 a9 fc ff 0f a9 06 00 d6 a8 5f d3 67 a8
       -4.4324533e-14 -3.197441e-14 -2.3758783e-14 -1.286891e-14
0003d0 92 4e 06 2b 40 fb 6b a9 2a 33 87 a8 ca fd 83 a8
       4.77154e-13 -5.2398407e-14 -1.50102e-14 -1.4653985e-14
0003e0 40 42 f3 a8 e8 7c 7d a8 40 db 50 a9 f4 17 04 a9
       -2.7007151e-14 -1.4071406e-14 -4.6375447e-14 -2.9330664e-14
0003f0 fc ff db a8 04 00 80 a8 fc ff 97 a8 04 00 30 a9
       -2.44249e-14 -1.4210861e-14 -1.6875383e-14 -3.9079864e-14

exp_avg_sq f4 [10000]
000000 46 00 8b 12 1a 57 b4 11 ed fe 1e 12 13 56 e5 11
       8.772201e-28 2.8452673e-28 5.017023e-28 3.6182877e-28
000010 9b b4 6c 12 62 13 55 11 1a 27 8a 12 ae 86 21 12
       7.4691083e-28 1.680871e-28 8.718664e-28 5.096865e-28
000020 ec eb 2c 12 75 bc ab 11 dc b8 c0 11 77 cd e0 11
       5.4564426e-28 2.7095189e-28 3.0406187e-28 3.5467596e-28
000030 9c 0e 09 12 80 89 31 12 bc 8f 9a 11 3b 57 43 12
       4.3247585e-28 5.6020834e-28 2.43855e-28 6.163867e-28
000040 0c 33 7b 12 c5 0a 10 12 74 bb 1f 12 bf 29 25 12
       7.9264555e-28 4.5451663e-28 5.0402607e-28 5.2116276e-28
000050 f5 70 cf 12 35 e7 eb 11 44 77 10 12 e9 3a 63 12
       1.3091383e-27 3.7218955e-28 4.5585394e-28 7.1701183e-28
000060 2d 28 c6 11 7e eb 15 12 37 df 7d 12 93 e9 c4 12
       3.1263652e-28 4.7306376e-28 8.0107857e-28 1.24269195e-27
000070 a5 4e 32 12 4c 95 9a 12 c3 7f 30 12 d3 09 f3 12
       5.6263833e-28 9.755571e-28 5.5693286e-28 1.5337878e-27
000080 4d fd 25 12 48 7f d6 12 ce 75 21 12 3e 38 d3 12
       5.2377037e-28 1.3536676e-27 5.094785e-28 1.3329837e-27
000090 c5 7c 57 11 26 73 1f 12 62 6d 2e 12 7c b3 f8 12
       1.6998957e-28 5.0313485e-28 5.5039544e-28 1.5695247e-27
0000a0 6e a3 13 12 7f ac b5 12 ae f2 1f 12 ca b2 1e 12
       4.6586464e-28 1.1465229e-27 5.047068e-28 5.0076384e-28
0000b0 eb c1 e5 11 34 99 fc 11 95 87 31 12 c2 fc f4 11
       3.624934e-28 3.9853008e-28 5.601847e-28 3.8652186e-28
0000c0 be 81 e8 12 d4 2f a1 12 e0 b9 07 12 bc 66 c6 12
       1.4673242e-27 1.0172319e-27 4.2827598e-28 1.2520883e-27
0000d0 5b 4c 22 12 cb ee e0 11 52 35 2d 12 7a 39 6f 12
       5.12123e-28 3.5488136e-28 5.4654897e-28 7.548595e-28
0000e0 cd 38 03 12 d4 27 c4 11 e8 e7 a5 11 50 c1 e2 12
       4.1406324e-28 3.0947893e-28 2.6175333e-28 1.431026e-27
0000f0 86 9c b0 12 19 71 04 12 77 7c 2d 12 74 7d e0 12
       1.1145748e-27 4.179126e-28 5.474259e-28 1.4167314e-27
000100 c7 11 1d 11 db fb 94 11 b9 81 74 12 65 77 df 12
       1.2390594e-28 2.35055e-28 7.715272e-28 1.4102712e-27
000110 55 5c c9 11 18 f0 00 12 3d 0f 22 12 d8 da d2 12
       3.1769112e-28 4.0685617e-28 5.113697e-28 1.3306812e-27
000120 bf 2f 20 11 a7 da 06 12 54 2c 03 12 76 61 9b 12
       1.2636487e-28 4.2552454e-28 4.139095e-28 9.805901e-28
000130 94 11 c5 12 7a 71 f7 12 a2 5c 02 12 5d 7c 51 12
       1.2436781e-27 1.5615866e-27 4.1134946e-28 6.610206e-28
000140 08 06 0d 12 00 00 00 00 46 62 04 12 22 f7 38 12
       4.449919e-28 0.0 4.1772987e-28 5.8364777e-28
000150 07 28 da 12 c7 39 d0 12 32 05 2b 12 37 29 2e 11
       1.3767602e-27 1.3140889e-27 5.396449e-28 1.373888e-28
000160 c0 09 04 12 7c c1 05 12 75 3f c6 11 23 9f fe 11
       4.1663874e-28 4.220589e-28 3.1278e-28 4.017221e-28
000170 52 2f 1f 12 56 aa 90 12 a4 ea ff 11 59 48 47 11
       5.022988e-28 9.129669e-28 4.0376515e-28 1.5720626e-28
000180 53 99 83 12 02 d5 3c 11 c2 de cd 12 7c b5 47 12
       8.30506e-28 1.4896223e-28 1.2992233e-27 6.3017025e-28
000190 19 40 e5 12 a1 dd ca 12 42 3f 31 12 a3 e2 8e 12
       1.4467733e-27 1.2802628e-27 5.5929323e-28 9.01733e-28
0001a0 ac 30 f8 11 b2 56 24 12 92 5d cc 11 de 67 b9 12
       3.9157497e-28 5.1856136e-28 3.2243192e-28 1.1700747e-27
0001b0 1c c5 2f 12 ab 5b 67 11 0f 2a f1 12 3d c2 f5 11
       5.546322e-28 1.8250934e-28 1.52196065e-27 3.8773893e-28
0001c0 65 c2 3b 12 a7 fd e0 12 63 75 06 12 93 6f 1a 12
       5.9246405e-28 1.4198918e-27 4.2427635e-28 4.873136e-28
0001d0 9f 66 ee 12 de 4d 29 12 b0 66 2e 12 6d 64 c6 11
       1.504521e-27 5.3422976e-28 5.503129e-28 3.1300784e-28
0001e0 cd ef 32 11 03 ed 77 12 f5 9b 93 11 6b 4a e4 11
       1.4115618e-28 7.8231597e-28 2.3288627e-28 3.601792e-28
0001f0 aa 4c b9 12 6f 57 18 13 c1 93 e9 12 4d 11 02 12
       1.1694041e-27 1.9228205e-27 1.4740791e-27 4.104209e-28
000200 2b f8 e0 12 3c 18 23 12 48 2b 30 13 d7 96 1a 12
       1.4197566e-27 5.14636e-28 2.2235662e-27 4.8779756e-28
000210 6b 2c 38 12 43 0e 1a 12 b6 2c 51 12 d4 a0 15 11
       5.811491e-28 4.861141e-28 6.600388e-28 1.1803586e-28
000220 f6 26 fd 11 3b 1f 51 12 af 71 2f 12 7a f8 44 12
       3.9940373e-28 6.5987266e-28 5.536039e-28 6.2152966e-28
000230 c3 b7 ef 12 a8 e0 c5 12 c7 45 e3 11 14 b6 fb 12
       1.5128321e-27 1.248783e-27 3.5857289e-28 1.5885213e-27
000240 c3 33 d1 11 67 17 00 12 65 59 56 12 48 95 50 12
       3.3006286e-28 4.0418524e-28 6.763668e-28 6.581723e-28
000250 34 d5 13 12 fd 61 ea 12 ab 9c 2d 12 c7 5e dc 12
       4.6647814e-28 1.4791632e-27 5.4782283e-28 1.3907316e-27
000260 38 e6 b3 12 d6 26 15 12 9a ad fe 11 fb ad 8f 12
       1.1353241e-27 4.706398e-28 4.0181124e-28 9.067458e-28
000270 39 8f f1 12 2a ae b8 12 e3 7c 4b 12 13 d1 a0 12
       1.5244545e-27 1.1654967e-27 6.420944e-28 1.014896e-27
000280 56 c9 f5 11 83 75 3a 12 55 b2 df 12 7e 72 a4 12
       3.8778267e-28 5.8836096e-28 1.4117241e-27 1.037808e-27
000290 a3 04 d0 12 ac 5b e0 12 a6 6c 0a 11 32 f6 ec 12
       1.31277885e-27 1.4158986e-27 1.091976e-28 1.4954386e-27
0002a0 da ed ea 11 0e b2 f7 11 65 41 f6 12 4b e1 27 12
       3.7065278e-28 3.9079463e-28 1.5540904e-27 5.2973603e-28
0002b0 3a 39 27 12 4a 0f d2 11 6a f7 ac 11 74 78 d4 10
       5.2766446e-28 3.314158e-28 2.7289296e-28 8.3804843e-29
0002c0 e7 72 9a 12 fa d7 d1 11 2f 20 1f 12 9b d5 27 12
       9.747092e-28 3.3107492e-28 5.0211223e-28 5.2959198e-28
0002d0 d6 d9 e2 11 c7 1e 48 12 97 5e f5 11 19 ce 86 12
       3.5790765e-28 6.314681e-28 3.871248e-28 8.507396e-28
0002e0 0d 43 1a 12 d1 d8 9f 12 a5 7a 30 11 58 93 80 12
       4.867648e-28 1.008776e-27 1.3921745e-28 8.114259e-28
0002f0 54 4b ce 11 ca c8 e1 12 5c ba 76 10 fe ee 03 12
       3.2547494e-28 1.4248995e-27 4.8658512e-29 4.163089e-28
000300 07 08 22 12 bc b4 f2 11 60 a7 0c 13 97 72 29 12
       5.112808e-28 3.8292254e-28 1.7753007e-27 5.346824e-28
000310 0b a9 1e 12 0a d1 cf 12 d2 cc 0c 12 93 bd 26 12
       5.006437e-28 1.3115069e-27 4.442867e-28 5.261403e-28
000320 4d 5d e8 12 f6 78 37 11 90 6c 18 12 cb e6 1a 12
       1.4664259e-27 1.4473429e-28 4.8096557e-28 4.8878306e-28
000330 3f 21 fb 12 ee e9 44 11 72 85 c9 11 bb f6 0f 12
       1.5848523e-27 1.5533759e-28 3.179445e-28 4.5426963e-28
000340 5a e7 54 12 e4 26 00 13 7f 41 0e 12 36 bf 40 12
       6.7180568e-28 1.6175046e-27 4.488803e-28 6.0820203e-28
000350 ba 02 d9 12 c5 69 f7 12 99 b5 d0 12 7e e7 9e 12
       1.3695297e-27 1.5613966e-27 1.3171413e-27 1.0028269e-27
000360 25 96 b5 12 53 aa cf 12 7b f1 c6 18 4e 88 0d 13
       1.1459719e-27 1.3105525e-27 5.1425633e-24 1.7863905e-27
000370 a3 c3 55 12 2b b9 4b 11 2d 8b cc 12 6b e2 03 12
       6.745209e-28 1.6070936e-28 1.2908519e-27 4.1615393e-28
000380 8a bd f2 12 87 da 29 12 8a 63 c5 11 0d b8 2f 11
       1.5319072e-27 5.3596353e-28 3.1142465e-28 1.3861781e-28
000390 c8 cc e6 12 85 4b f5 11 6b 13 c4 12 c1 0b 07 12
       1.4565523e-27 3.8700727e-28 1.2374126e-27 4.2612977e-28
0003a0 f9 25 99 12 5c 6b 34 11 22 37 0b 12 54 67 53 12
       9.665018e-28 1.4232579e-28 4.3928623e-28 6.670722e-28
0003b0 e2 aa 08 13 b5 72 24 12 da 5f 42 12 f5 d3 22 12
       1.7249865e-27 5.1890663e-28 6.1333752e-28 5.1379444e-28
0003c0 03 67 15 13 c4 ed 85 12 b0 14 1e 12 21 61 0f 12
       1.8857233e-27 8.452094e-28 4.988151e-28 4.5242564e-28
0003d0 1c 63 8d 16 83 be fe 12 18 c0 00 12 2d e3 1d 11
       2.2842325e-25 1.6076618e-27 4.062645e-28 1.245512e-28
0003e0 d1 db 45 12 1b 62 f4 11 dd 68 d7 12 1a 78 28 12
       6.2433184e-28 3.8556874e-28 1.3594258e-27 5.315949e-28
0003f0 98 56 31 12 06 b5 d2 11 64 58 dc 11 9a 2e a6 12
       5.5958087e-28 3.3243722e-28 3.4764355e-28 1.0487561e-27
