checkpoints/checkpoint_10.pth (torch, 363720 bytes, 6 tensors)

W f4 [10000, 2]
000000 3b 65 f3 b9 e5 d5 bf bb a4 a9 07 3b d7 25 65 ba
       -0.00046423994 -0.0058543556 0.002070048 -0.00087412953
000010 db 42 b5 3a 85 f2 aa 3b cb 37 d5 3b 84 88 95 bb
       0.0013829129 0.005216899 0.006506895 -0.004563393
000020 fb fb 34 ba bb ad 12 bc b2 bd 15 3b d8 02 f3 b9
       -0.0006904003 -0.008952553 0.0022848663 -0.0004635069
000030 11 bf 6a ba d3 21 9d 3b 42 e4 b0 ba 98 b4 b0 3a
       -0.0008954863 0.004795292 -0.001349576 0.0013481556
000040 96 2a 4e 3b 41 14 04 3a a6 a3 09 bb 18 82 7f b9
       0.0031458489 0.00050384185 -0.0021002083 -0.00024367159
000050 f9 40 7f 3b ee a9 b9 bb 6e a1 cd 3a 05 ee c1 3b
       0.0038948639 -0.005666009 0.0015688369 0.0059182667
000060 37 7c 1f 3a f7 68 16 3b 07 15 51 3b 5e 84 75 b9
       0.0006083878 0.0022950748 0.0031903402 -0.00023414331
000070 0d 91 d6 3b 5a 3c 7b bb 32 33 ab b8 38 27 82 ba
       0.006548053 -0.0038335533 -8.163451e-05 -0.0009929901
000080 c1 5e bb b9 1f 9f 91 bb f4 08 45 3b d2 a3 fc 39
       -0.00035738017 -0.0044440175 0.003006515 0.0004818724
000090 49 cd 3d 3a d9 99 8d ba 07 78 af 39 1a 7c a5 3a
       0.00072403677 -0.0010803296 0.00033468028 0.0012625486
0000a0 5c 6f b9 bb 84 d4 03 b5 cf 1f c8 3a 66 16 c9 bb
       -0.005659027 -4.9110554e-07 0.0015268269 -0.0061367033
0000b0 ac cf d9 3a 22 e7 8c 39 00 72 f1 3b a7 e2 cb bb
       0.0016617677 0.00026875088 0.007368326 -0.0062220874
0000c0 68 cd a9 39 8d 5d 24 bc 7f c8 24 ba 4d c9 04 bc
       0.00032387231 -0.01003207 -0.000628598 -0.0081046345
0000d0 40 e0 9b bb 0f 98 81 ba a2 2e d4 3b e4 19 30 3b
       -0.0047569573 -0.0009887236 0.0064752856 0.00268709
0000e0 1e 98 b9 3b f9 ab 12 bb ad e0 6d ba 42 04 1c bc
       0.0056638857 -0.0022380336 -0.0009074312 -0.0095224995
0000f0 bd 79 54 bb a5 57 16 3b 67 2e 81 ba 38 e1 ad 3b
       -0.0032421194 0.0022940424 -0.0009855748 0.005306389
000100 80 39 68 bb 1c 17 20 bc d4 1a 52 3a 44 26 46 3b
       -0.0035434663 -0.009771135 0.0008014862 0.003023521
000110 ff 32 b0 ba 7a 4b 1f 3b bb 0a 6c bb 41 d3 09 b7
       -0.0013442932 0.0024306462 -0.0036017138 -8.215023e-06
000120 59 91 96 3a fd ff 8d 3b 8b eb 99 3b 15 95 04 bb
       0.0011487409 0.0043334947 0.0046972684 -0.0020230461
000130 6b 32 f7 3a 85 4d 21 3b f4 0d 57 38 4b d1 4a 39
       0.001885963 0.0024612856 5.127299e-05 0.00019342189
000140 85 ce f3 ba 0f 37 e1 3a 44 1c 6d 3b c5 e0 cb ba
       -0.0018600976 0.0017182546 0.0036180178 -0.0015554657
000150 61 65 0c 3b 65 35 37 3b 57 af 30 3b e2 8d a2 3a
       0.0021422731 0.002795541 0.002695998 0.0012401904
000160 15 ce 47 bb 37 0a 28 b7 74 55 cb 3b a4 6d 2a bc
       -0.0030487825 -1.0015959e-05 0.006205255 -0.010402117
000170 8d 80 27 3b 11 7f 2e 3b 8c 13 4c 3a c7 76 40 3b
       0.00255588 0.002662603 0.0007784895 0.0029367672
000180 03 76 bc 3a 73 45 62 bb c4 72 8d b9 ae c3 59 bb
       0.0014378432 -0.0034526258 -0.00026979123 -0.0033228206
000190 e7 a9 c0 bb 62 e2 02 bc 98 5f 98 bb f9 c8 5e b6
       -0.005879629 -0.007988544 -0.0046500675 -3.319756e-06
0001a0 13 3b b6 b9 fa 08 64 bb 7a bb 98 3b c4 b9 2e bb
       -0.0003475776 -0.003479539 0.004661021 -0.0026661018
0001b0 f7 c8 0e bb 20 eb 1b b7 32 a5 98 3b 87 1a 1d bb
       -0.0021787265 -9.293464e-06 0.0046583647 -0.002397211
0001c0 85 e0 95 bb 46 06 20 bc 50 98 2b bb c5 da 96 3a
       -0.004573884 -0.009767121 -0.0026183315 0.001150929
0001d0 5b 21 a4 3b 2e ed 50 3a e2 40 92 3b fe d5 43 bb
       0.005008859 0.0007969913 0.004463301 -0.0029882188
0001e0 11 6b 1d bb d8 cc 1e bc 14 67 2d 3a 3a 89 23 3b
       -0.0024020115 -0.009692393 0.0006614786 0.002495362
0001f0 74 99 af b8 02 90 85 ba 42 93 e2 ba 46 74 d1 bb
       -8.373233e-05 -0.0010190012 -0.0017286318 -0.0063920347
000200 aa dc 32 39 1e 7d c2 39 e6 73 98 3b de 46 42 3a
       0.00017057607 0.00037095783 0.004652488 0.0007411073
000210 86 ce c9 3b 7a 1b 48 bb 63 9d 7f ba b9 e0 ec bb
       0.0061586527 -0.0030533955 -0.00097509305 -0.0072289375
000220 e0 5c c0 39 c2 6a b5 3a de a2 fc ba 37 1c 39 b6
       0.0003669029 0.001384102 -0.0019274612 -2.7583571e-06
000230 8a a9 70 3b 08 5a 3a bc 84 2e bf ba 2a b0 22 ba
       0.0036722147 -0.011374004 -0.0014586006 -0.000620606
000240 74 58 02 ba 99 0b 2a 3b 85 16 17 3b 74 ec 52 ba
       -0.0004972287 0.0025946854 0.0023054194 -0.00080460985
000250 b8 04 51 3b b3 ed 03 bb a6 14 38 3a 35 9b 2d 3b
       0.0031893682 -0.0020130693 0.000702212 0.0026490216
000260 92 11 70 bb 30 45 d6 b9 96 9b d5 b9 09 38 a7 bb
       -0.0036631566 -0.0004086881 -0.00040742446 -0.0051031155
000270 18 13 de 3a e8 51 e7 3a 32 6b f8 3a 8a 48 ea 3b
       0.0016942946 0.0017648311 0.0018952845 0.0071497606
000280 2b 49 b2 ba 82 36 05 bc 8d d9 1b bb be 38 49 39
       -0.0013602128 -0.008130671 -0.0023780793 0.00019189992
000290 6a ed f6 3f fd bb 04 c0 e5 4d c9 39 ea a2 19 bb
       1.9291203 -2.073974 0.00038395743 -0.0023443052
0002a0 7e 5b 6f bb 83 40 4e ba 67 3f 9a bb 4f e2 e8 3a
       -0.003652304 -0.00078678894 -0.004707265 0.001776764
0002b0 42 40 ed ba 6e 00 e5 3a 2f 2d eb ba fb 29 a8 3a
       -0.0018100815 0.0017471442 -0.0017942543 0.0012829894
0002c0 44 11 3c 3a dd 33 32 bb 13 8f 14 3b 0a 0c 79 bb
       0.00071742036 -0.0027191557 0.0022668287 -0.003800156
0002d0 86 cc f5 ba 1a b4 0b ba 17 42 4a ba c0 f6 87 3b
       -0.0018752969 -0.00053292664 -0.00077155366 0.004149288
0002e0 0d 59 b4 39 06 16 aa 3a 32 d2 b6 ba d8 46 e6 3a
       0.00034398623 0.0012976534 -0.0013948141 0.001756872
0002f0 a1 e0 05 3b 1c e7 8f bb f8 2f 9b ba 4c cd c6 3a
       0.0020428079 -0.004391564 -0.0011839857 0.0015167384
000300 89 4e b3 3a ad 1a a9 3b 43 95 7e bb 08 cc c7 b6
       0.0013680022 0.0051606507 -0.003884629 -5.9544145e-06
000310 d0 99 87 bb d6 fc cc b6 91 a3 da bb b7 b4 f0 bb
       -0.004138209 -6.1091077e-06 -0.0066723307 -0.0073457616
000320 36 28 c0 bb 86 db 91 bb e0 df 12 bb 36 91 4e bb
       -0.0058641685 -0.004451218 -0.0022411272 -0.0031519658
000330 0f a6 80 ba 19 8a 32 bb 4f 4d 85 3a 3a da 06 bc
       -0.0009815114 -0.0027242957 0.0010170134 -0.00823074
000340 c9 75 25 bb 5a 6e 2e 39 d2 9e 99 ba 59 cb bb 3a
       -0.0025247207 0.00016635042 -0.0011720306 0.001432757
000350 c5 a8 64 39 87 d4 81 ba 1d 34 58 3b 05 ee a3 39
       0.00021806646 -0.0009905257 0.0032990046 0.0003126712
000360 23 5b d9 bb 99 0b 02 3a d2 0c c2 39 1f 02 b7 3a
       -0.006633179 0.00049608346 0.00037012115 0.0013962424
000370 90 8d 60 ba ae 2d 34 3a 66 99 cb bb ad 41 a9 bb
       -0.00085660163 0.0006873262 -0.006213355 -0.0051653
000380 87 7c a6 bb 38 34 1c 39 02 74 8d 3a d0 b5 80 3b
       -0.005080763 0.00014896772 0.0010792019 0.0039279237
000390 37 f0 de 3b df 7e 81 bb 6a 35 25 bb ec 73 a3 39
       0.006803538 -0.003951892 -0.002520884 0.0003117615
0003a0 cd ca 5d ba 1d 83 39 bc 53 ff 4c 3a 26 55 41 3b
       -0.00084607006 -0.011322764 0.00078200287 0.0029500215
0003b0 ee d8 6d 3b 84 18 18 3a 38 3c 72 3a a2 73 64 3b
       0.003629263 0.0005801993 0.00092405407 0.0034858962
0003c0 8b a8 8b bb b0 21 dd b6 bb b3 65 bb c9 43 87 b7
       -0.0042620352 -6.590235e-06 -0.0035049755 -1.6124819e-05
0003d0 94 43 95 bb a3 82 07 3a 54 18 3e 3a 5f c1 e3 bb
       -0.004555175 0.00051693077 0.000725155 -0.006950542
0003e0 fe a5 97 3a c5 a0 b6 3a 3b 65 fe ba fd b5 2b bb
       0.0011569855 0.0013933411 -0.0019408831 -0.0026201003
0003f0 fe 04 c8 3a d1 22 0d 3b 0d 47 0b ba b5 74 dc bb
       0.0015260277 0.0021535645 -0.00053130166 -0.0067277797

b f4 [10000]
000000 11 7c 36 bc 05 c8 c8 bb b9 55 af bc 67 1a 96 bc
       -0.011137978 -0.00612736 -0.02140318 -0.018323136
000010 fc 82 8b bc 81 f2 f7 bb 87 66 a0 bc b6 38 f8 bb
       -0.017030232 -0.0075667505 -0.019580139 -0.00757512
000020 54 56 4a bc 48 6b d2 bb 81 3c 5e bc 3c e8 c6 bc
       -0.012349684 -0.0064214803 -0.01356423 -0.02428066
000030 40 45 1a bc 81 8c 38 bc bf 23 96 bc 6b bc f7 ba
       -0.009415925 -0.0112639675 -0.018327592 -0.0018900757
000040 f3 88 0a bc 93 62 41 bc 6d ce 27 bb 6a bb a9 bb
       -0.008455503 -0.011803287 -0.0025605217 -0.005179812
000050 64 fb 99 bc 39 1e 3a bc f4 e8 d5 bb 6f f2 ac bc
       -0.01879663 -0.011359745 -0.0065280143 -0.021111695
000060 be ef 9a bc 86 94 7c bc 75 c8 64 bc f7 1a e7 bc
       -0.018913146 -0.01541627 -0.013963808 -0.0282111
000070 08 db 8a bc 13 f3 03 3d 25 09 83 bc 29 73 b1 bc
       -0.016950145 0.032214236 -0.015995571 -0.021661358
000080 3e e3 9b bc 36 3c 4b bc 93 1f 36 bc cb b5 43 bc
       -0.019029256 -0.012404492 -0.011115926 -0.011945198
000090 04 a5 91 bc 41 1f 63 bc a2 d6 4a bc e9 05 50 ba
       -0.01777888 -0.013862432 -0.012380274 -0.0007935451
0000a0 bf 5d 25 bc 29 f8 2e bc c7 64 66 bc aa ce 43 bc
       -0.010093152 -0.010679283 -0.014062113 -0.011951128
0000b0 f6 8c 25 bc 57 7f c1 bc df 7d 73 bc 5f 67 45 bc
       -0.0101044085 -0.02362029 -0.014861553 -0.012048571
0000c0 2f 62 e5 bb c7 38 cf bb fb 45 97 bc dc f2 7c bc
       -0.00700023 -0.006323907 -0.018465986 -0.015438762
0000d0 b6 4f d9 bb 63 20 56 bc 3d 74 ec bb df 90 5a bc
       -0.0066318167 -0.013069245 -0.007216005 -0.013340204
0000e0 33 25 9d bc d3 74 39 bc 69 02 a1 bc 83 56 4d bc
       -0.019182777 -0.011319357 -0.01965447 -0.012532833
0000f0 18 2e 99 bc bd bb 27 bc e8 27 fe ba a7 5e 4a bc
       -0.018698737 -0.010237631 -0.0019390555 -0.012351668
000100 25 89 d7 ba b5 90 95 bc b4 77 91 bc c4 5a 62 bc
       -0.001644407 -0.018257478 -0.017757274 -0.0138155855
000110 c2 12 ba bb 5f 97 d1 bb a9 19 b1 bc 52 01 88 bb
       -0.0056785056 -0.0063962187 -0.021618681 -0.004150548
000120 a9 cd 2d bc 49 81 e7 bb 94 83 12 bc e3 0f 32 bc
       -0.010608115 -0.0070649725 -0.0089425035 -0.0108680455
000130 5b 1c 38 bc 12 18 1f bc a3 66 21 bc e7 4b f0 bc
       -0.011237229 -0.009710329 -0.009851131 -0.029333068
000140 f5 47 7f bc d8 95 08 bc 63 b1 62 c0 c9 34 8f bb
       -0.015581121 -0.008336507 -3.5420768 -0.004370306
000150 56 55 2f bc 43 40 a1 bc f3 b8 23 bc 5a 89 11 bc
       -0.010701498 -0.019683963 -0.009992826 -0.008882845
000160 d8 b3 a4 bb 15 61 0d bc f8 62 b1 bb 66 c3 8a bc
       -0.005026322 -0.008629103 -0.0054134093 -0.016938876
000170 91 73 ae bb 1f d2 13 bc 13 a3 16 bc 69 b0 fd bb
       -0.005323835 -0.009022265 -0.009194153 -0.007741977
000180 c5 71 ad bc 11 31 53 bc ea fc 60 bc 3e a0 9c bc
       -0.021172414 -0.012890116 -0.013732174 -0.019119378
000190 6e 55 84 bc 50 0a eb bb 13 c9 ad bb 05 37 7c bc
       -0.016154017 -0.00717286 -0.005303511 -0.015393977
0001a0 c5 9c 0f bc f2 bd f3 bb 08 ef f0 ba ca 35 4e bc
       -0.008765404 -0.0074384147 -0.0018381784 -0.0125860665
0001b0 ee c1 bd bc 94 b4 bb bb fa 8b 90 bb 1f 37 8b bc
       -0.023163762 -0.0057283137 -0.0044112178 -0.016994057
0001c0 28 09 8d bc 8b 8a 84 bc bc fe 9b bc be d4 14 bc
       -0.01721628 -0.016179344 -0.019042365 -0.009083925
0001d0 e8 6c b0 bc 71 4b 46 bc 7b 66 69 bc ac 50 6a bc
       -0.021536306 -0.012102948 -0.014245625 -0.01430146
0001e0 7c b5 67 bc 6d 26 3e bc cd 99 85 bc c1 4e 55 bc
       -0.01414239 -0.011605841 -0.01630869 -0.013019265
0001f0 0d fe ed bb b2 04 c7 bb 8a af 2b bc 96 c0 51 bc
       -0.007262951 -0.006073558 -0.0104788635 -0.012802264
000200 a5 94 f9 bb eb 39 57 bc 60 68 2e bc 50 29 69 bb
       -0.0076165968 -0.013136367 -0.010645002 -0.0035577603
000210 cc 8a 57 bb e4 9c 87 bc 95 14 c9 bb 69 32 91 bb
       -0.0032889126 -0.016554303 -0.006136487 -0.004431058
000220 f7 c8 b6 bc 5b ea 51 bc 8c 8c 97 bc 56 8b 3e bc
       -0.022312624 -0.012812222 -0.018499635 -0.0116299
000230 e5 ee 57 bc c9 d9 7a bc 94 39 bd bb 4c a2 6f bc
       -0.0131795155 -0.015310713 -0.005774686 -0.014626097
000240 ad 25 9a bc b8 3a 60 bc 4f f7 34 bc 13 0e b5 bc
       -0.018816793 -0.013685875 -0.011045291 -0.022101438
000250 03 4e 2e bc 08 61 4f bc ad 02 54 bc cd 46 85 bc
       -0.010638717 -0.012657411 -0.012940091 -0.016269112
000260 84 01 ad bc 28 9e 1f bc 6f a4 09 bc 19 b9 d1 bc
       -0.021118887 -0.009742297 -0.00840102 -0.025600957
000270 9d 62 3d bc 3d 4b 51 bc 99 ea 5c bc d2 ea 7f bc
       -0.011559156 -0.012774286 -0.013483667 -0.01561995
000280 4e 7f 05 bc be 72 90 bc fb e9 55 c0 06 72 df bb
       -0.008148028 -0.017632838 -3.342406 -0.0068190126
000290 3b 41 ee bc 3d e9 b0 bc 43 9d a0 bc 30 66 e9 bb
       -0.029083839 -0.021595592 -0.019606238 -0.0071227774
0002a0 ab a9 2a bc 7f 9e 9c bc 7e e9 c2 bb 50 49 d2 ba
       -0.010416429 -0.019118546 -0.0059482446 -0.0016043577
0002b0 9e 68 63 bc 05 14 03 bc ce d1 3d bc 3d 03 8c bb
       -0.013879923 -0.0080003785 -0.011585666 -0.004272847
0002c0 21 e7 2a bc b4 64 34 bc d3 b9 d0 bc f0 ec 43 bc
       -0.010431082 -0.011010338 -0.025479233 -0.011958346
0002d0 08 49 ea bb 2c d9 b4 bb 14 d4 8a bc f2 bf c2 bb
       -0.0071498193 -0.005519053 -0.01694683 -0.005943292
0002e0 b8 11 23 bc f8 71 71 bc 96 0f 22 bc 25 20 d4 bc
       -0.009952955 -0.014736645 -0.009891411 -0.025894234
0002f0 c5 b7 04 bc ac 24 15 bc db ae de bc e6 cd a4 bc
       -0.008100455 -0.009102982 -0.027182987 -0.020117711
000300 6b cb c3 bb e3 40 83 bc 62 15 23 bc bf 91 4a bc
       -0.005975177 -0.016022151 -0.0099538285 -0.01236385
000310 0b fa 52 bc d4 21 87 bc 05 38 a2 bc 95 1b a0 bc
       -0.012876998 -0.016495623 -0.019802103 -0.019544402
000320 c3 5e 6c bc a5 db 87 bc 38 46 e4 bb 7c c4 8b bc
       -0.01442689 -0.016584227 -0.0069663785 -0.017061464
000330 bb ef 62 bb 03 83 11 bc 6c 45 3c bc 4e ca aa bc
       -0.0034627754 -0.008881333 -0.011491161 -0.02084842
000340 5b 93 a9 bc a2 fd 04 bc a5 13 88 bc eb ba 4c bc
       -0.020700147 -0.008117111 -0.01661093 -0.012495737
000350 28 97 c6 bb bb 34 cd bc b7 b2 fb bb e2 1e 33 bc
       -0.0060604997 -0.025049558 -0.0076812166 -0.010932656
000360 9c e0 ea bc 30 2a 53 bc b8 9f 99 bc 42 51 85 bc
       -0.028671555 -0.012888476 -0.018752918 -0.016274098
000370 6b b5 b9 bb bf 1a 48 bc 0a 85 7c bc b9 af 7a c0
       -0.0056673787 -0.012213408 -0.015412578 -3.9169753
000380 c4 98 a1 bc 00 cc 19 bc f0 90 5c bc 46 ec 72 bc
       -0.019726165 -0.009387016 -0.01346229 -0.01482684
000390 69 5f 05 bc c1 50 da bb a3 ae ca bb 4b fc 71 bc
       -0.008140423 -0.0066624586 -0.006185369 -0.014769624
0003a0 8e 3e ed bb c9 c6 84 bc 9f 37 66 bc b4 f9 42 bc
       -0.007240123 -0.01620807 -0.014051347 -0.011900354
0003b0 27 1d 00 bd 71 09 a6 bc 89 96 86 bc e5 4f ee bb
       -0.0312778 -0.020268174 -0.016429203 -0.0072727078
0003c0 61 59 a7 bc 83 da 0f bc 2c 09 2c bc 11 c4 7a bc
       -0.020428361 -0.008780125 -0.010500234 -0.015305535
0003d0 c0 7e ad bc f0 83 21 bc f7 50 4c bc e6 0f 78 c0
       -0.021178603 -0.0098581165 -0.012470475 -3.8759704
0003e0 bd d0 c1 bb 6b 08 a4 bc 35 7d 5d bc 63 73 02 bc
       -0.005914776 -0.020023545 -0.013518621 -0.007962081
0003f0 6d fe 42 bc 4e 7e 47 bc ff 45 1c bc a0 60 26 bc
       -0.01190148 -0.0121761095 -0.009538173 -0.010154873

exp_avg f4 [10000, 2]
000000 e3 39 17 82 54 01 11 82 a8 af 1c 02 20 ba 18 02
       -1.1110341e-37 -1.0653299e-37 1.1511481e-37 1.1220612e-37
000010 16 f0 da 2a 3c b1 8f 2b d8 3e 1a 02 37 ef 15 82
       3.8891172e-13 1.0209954e-12 1.1332168e-37 -1.1015442e-37
000020 3e 4c 1e 82 69 cb 17 82 15 26 4f 03 96 b6 bf 02
       -1.1629887e-37 -1.1152104e-37 6.087555e-37 2.8169727e-37
000030 e7 c2 97 aa db 96 8a 2b 8f 1c d5 a9 86 d9 15 2a
       -2.695823e-13 9.847361e-13 -9.464054e-14 1.3309327e-13
000040 26 90 7e 2a c4 a2 eb 29 16 ac 1d 82 ee f9 13 02
       2.2609743e-13 1.0464332e-13 -1.1583925e-37 1.0871581e-37
000050 3d c2 10 02 0b e5 1c 82 61 35 fb 2a dd 81 8f 2b
       1.0635193e-37 -1.1526802e-37 4.4623596e-13 1.0196805e-12
000060 2a 82 e3 29 60 d7 76 2a 38 92 6c 2a 4b fb da 29
       1.0103405e-13 2.1923912e-13 2.101174e-13 9.724737e-14
000070 a6 5a 1d 02 f1 41 10 82 66 98 10 82 e2 10 1a 82
       1.1560553e-37 -1.0598373e-37 -1.0623185e-37 -1.1318978e-37
000080 84 41 1e 82 4f c2 17 82 67 60 5e 2a a6 d7 cd 29
       -1.1626809e-37 -1.1149492e-37 1.9751007e-13 9.141238e-14
000090 3d ce 12 02 a6 1c 1f 82 aa 6b b1 29 35 a9 72 2a
       1.0785573e-37 -1.1689697e-37 7.879056e-14 2.1552623e-13
0000a0 76 f8 a4 aa 49 48 62 2a 7e 9b 12 82 62 70 1c 82
       -2.9304657e-13 2.0097911e-13 -1.077101e-37 -1.1493322e-37
0000b0 6c b8 d8 29 53 9b 48 29 04 f0 10 02 13 f5 16 82
       9.624319e-14 4.4543643e-14 1.064833e-37 -1.1090592e-37
0000c0 c7 df 19 82 c8 a7 13 82 30 d4 1d 82 05 61 17 82
       -1.1304886e-37 -1.0848005e-37 -1.1595433e-37 -1.1121571e-37
0000d0 b3 15 15 82 32 db 13 02 f4 3b 9d 2b 23 8b 11 2b
       -1.0953019e-37 1.086276e-37 1.1172161e-12 5.170744e-13
0000e0 b1 83 1f 02 c9 39 17 02 d1 ba 74 2a e2 5b 1f 2c
       1.1719269e-37 1.1110311e-37 2.1736368e-13 2.2646264e-12
0000f0 b7 1b 49 ab e7 ec 09 2b 2f c9 b1 aa e3 5a a2 2b
       -7.1448007e-13 4.9000945e-13 -3.1581115e-13 1.1536018e-12
000100 60 d2 15 82 89 65 1f 82 8d 0d 7d 2a b5 99 12 2b
       -1.1007166e-37 -1.1710614e-37 2.2475615e-13 5.208293e-13
000110 d3 48 a1 aa 99 d0 e2 2a 6b e2 53 aa e8 50 11 2a
       -2.8649877e-13 4.0290408e-13 -1.8819119e-13 1.2906657e-13
000120 48 83 5c 2a 28 03 ee 2a b0 3c 12 02 f6 5b 1e 02
       1.9585473e-13 4.2279483e-13 1.0743802e-37 1.1634398e-37
000130 c0 b3 eb 2a d2 a9 eb 2a 02 d7 80 28 b1 1f 16 29
       4.1869112e-13 4.1862222e-13 1.43041e-14 3.333418e-14
000140 a6 06 ef aa 2e ee a3 2a 3c c4 1c 02 f3 c5 18 02
       -4.2459542e-13 2.9119887e-13 1.1517386e-37 1.1224005e-37
000150 5a f7 4e 2a a3 ee 4e 2a 34 fc a3 2a dd ca 17 2a
       1.8382293e-13 1.8379269e-13 2.9129618e-13 1.3481876e-13
000160 16 70 59 aa eb 1f 15 2a 9f 40 1a 02 a4 78 16 82
       -1.931236e-13 1.3244932e-13 1.1332678e-37 -1.1054882e-37
000170 20 1d 5e 2a c4 13 5e 2a aa 83 7b 2a ca a4 11 2b
       1.9727666e-13 1.9724418e-13 2.2338958e-13 5.174304e-13
000180 9c 25 16 02 03 7a 12 82 ef 45 18 82 43 0e 12 82
       1.1031053e-37 -1.0761402e-37 -1.1187266e-37 -1.0730479e-37
000190 58 00 16 82 50 32 12 82 e3 ca b6 92 7d b5 7a 12
       -1.1020358e-37 -1.0740825e-37 -1.153583e-27 7.910979e-28
0001a0 24 35 12 82 50 c6 1b 82 6d 6c 1c 02 8f 70 18 02
       -1.0741637e-37 -1.1444514e-37 1.1492187e-37 1.1199499e-37
0001b0 a9 8a bd 87 d6 f9 81 07 55 86 10 02 53 82 1c 02
       -2.8519056e-34 1.9556603e-34 1.0618e-37 1.1498471e-37
0001c0 c5 7b 11 82 2a b3 1a 82 c0 3e 31 aa 68 1e f3 29
       -1.0688438e-37 -1.1365551e-37 -1.5742529e-13 1.07966424e-13
0001d0 47 2c ec 2a ec 9c 5a 2a 8f 46 1a 02 ca 1f 1e 82
       4.1952745e-13 1.9416733e-13 1.1334382e-37 -1.161713e-37
0001e0 bc 72 15 82 8c 1f 1f 82 b0 8a 1e 2a 8f b5 c5 2a
       -1.0979718e-37 -1.1690529e-37 1.4081336e-13 3.512021e-13
0001f0 2d 8b 1e 82 50 07 18 82 6e d2 13 82 e1 5f 1d 82
       -1.1647948e-37 -1.1169295e-37 -1.0860245e-37 -1.1562054e-37
000200 0d 50 07 29 54 c4 91 29 4e 75 d4 2a 54 a9 44 2a
       3.0045455e-14 6.473351e-14 3.7740161e-13 1.7467045e-13
000210 69 33 18 02 21 58 14 02 ee d8 18 82 31 8e 12 82
       1.118195e-37 1.0898615e-37 -1.1229452e-37 -1.0767193e-37
000220 88 97 ea 29 00 69 88 2a 9b d3 aa a9 96 50 6a 29
       1.0417974e-13 2.4231311e-13 -7.586224e-14 5.2028335e-14
000230 08 24 11 02 b6 56 1d 82 ba cc 10 82 f4 ee 16 02
       1.0663258e-37 -1.1559423e-37 -1.0638203e-37 1.1088836e-37
000240 0e a2 2e aa d2 79 1f 2b 07 4a 08 03 51 44 7c 02
       -1.5510529e-13 5.6657207e-13 4.0051787e-37 1.8533642e-37
000250 90 9f 1f 02 b2 90 17 82 4e a7 47 2a 2a a5 ea 2a
       1.1727267e-37 -1.1135253e-37 1.7732796e-13 4.1681356e-13
000260 4e 06 18 82 e3 bf 1e 02 04 a5 17 82 06 6c 11 82
       -1.1169006e-37 1.1663076e-37 -1.1141085e-37 -1.0683919e-37
000270 6a fb d3 2a 7c f2 d3 2a 39 51 08 2b e8 91 9c 2b
       3.7655583e-13 3.7649387e-13 4.8429625e-13 1.1124964e-12
000280 d9 f4 12 82 d1 87 1c 82 2a 7d 1a aa b7 e7 d3 29
       -1.0796654e-37 -1.1500047e-37 -1.3721373e-13 9.4104784e-14
000290 1c 4c 49 30 34 44 90 b0 30 02 13 82 50 cf 1c 82
       7.323153e-10 -1.0496763e-09 -1.0800482e-37 -1.1520566e-37
0002a0 8f 22 1f 82 a4 6f 17 02 c4 fa c7 aa bc 26 89 2a
       -1.1691393e-37 1.1125767e-37 -3.5523505e-13 2.4362966e-13
0002b0 91 4e f6 aa 80 ec a8 2a 92 df d9 aa 5f 6c 95 2a
       -4.3752895e-13 3.00069e-13 -3.8702076e-13 2.6542914e-13
0002c0 75 18 17 82 06 11 11 82 83 1a 16 02 2a 6b 12 82
       -1.1100747e-37 -1.0657803e-37 1.1027868e-37 -1.075714e-37
0002d0 8d b6 10 82 c6 fa 17 02 a8 82 f7 a9 21 07 e2 2a
       -1.0631839e-37 1.1165696e-37 -1.0991669e-13 4.015061e-13
0002e0 d8 d4 e5 29 75 95 9c 2a ef 76 a0 aa 6d a9 e1 2a
       1.02065654e-13 2.7814873e-13 -2.8504236e-13 4.0085592e-13
0002f0 34 61 16 02 21 b4 12 82 ee 0c c5 a9 68 8e 0a 2a
       1.1048155e-37 -1.077808e-37 -8.7508004e-14 1.2306269e-13
000300 61 b8 ce 2a 05 ee 87 2b 26 96 51 aa 74 bd 0f 2a
       3.672089e-13 9.658391e-13 -1.8615022e-13 1.2766681e-13
000310 8e 12 c7 87 e8 82 88 07 55 7d 1d 82 b6 56 1d 82
       -2.9953098e-34 2.0539945e-34 -1.1570507e-37 -1.1559423e-37
000320 36 45 11 82 96 17 16 02 c8 07 1a 82 bc 23 16 82
       -1.067278e-37 1.1027028e-37 -1.1316366e-37 -1.1030515e-37
000330 67 43 14 82 27 c7 1d 82 f2 e0 11 82 28 9a 1b 82
       -1.0892666e-37 -1.1591692e-37 -1.0717474e-37 -1.1431842e-37
000340 7f a3 57 aa 0a e4 13 2a 6c 7c dd a9 fc bc 1b 2a
       -1.915256e-13 1.313534e-13 -9.835955e-14 1.3832333e-13
000350 bc e1 11 82 07 9b 1b 82 cf c1 49 2a 82 c1 ba 29
       -1.07177e-37 -1.1432092e-37 1.7919627e-13 8.2936276e-14
000360 d6 eb b3 aa 1e ca 76 2a da 56 f8 29 77 10 94 2a
       -3.1960431e-13 2.1919313e-13 1.1028479e-13 2.6301506e-13
000370 c1 73 5e aa 49 90 18 2a db 6f 17 82 6c a1 1b 02
       -1.9757721e-13 1.3550371e-13 -1.1125829e-37 1.1433927e-37
000380 d7 af bc aa 0f 68 81 2a f4 90 60 2a 88 ea f1 2a
       -3.3517522e-13 2.2987208e-13 1.9945487e-13 4.2972939e-13
000390 47 51 1c 02 67 d8 10 82 66 b9 3e aa c2 cd 02 2a
       1.1484395e-37 -1.0641554e-37 -1.6939713e-13 1.1617706e-13
0003a0 61 84 14 82 21 45 1e 82 76 7c 84 2a 63 ed 1a 2b
       -1.0911314e-37 -1.1627846e-37 2.3534272e-13 5.504123e-13
0003b0 18 9c 62 2a bf c2 d1 29 33 a6 8b 2a e5 2b 23 2b
       2.0126988e-13 9.3152475e-14 2.4806684e-13 5.797015e-13
0003c0 ec 29 38 88 7f 93 fc 07 16 3f 55 aa 08 40 12 2a
       -5.5419765e-34 3.8003436e-34 -1.8940088e-13 1.298962e-13
0003d0 23 3c bd aa 46 c8 81 2a 8a eb 1f 82 87 81 19 82
       -3.3614872e-13 2.305397e-13 -1.1749072e-37 -1.1277837e-37
0003e0 ad 27 d8 29 92 1e d8 29 b1 5e 14 82 bd 9c 10 82
       9.5992096e-14 9.59763e-14 -1.0900498e-37 -1.0624431e-37
0003f0 f9 54 94 2a b9 4e 94 2a 0f b4 1b 82 74 53 15 82
       2.6349043e-13 2.6344706e-13 -1.1439276e-37 -1.0970741e-37

exp_avg_sq f4 [10000, 2]
000000 00 00 00 00 00 00 00 00 aa fb 98 04 ed 0e d9 02
       0.0 0.0 3.5966145e-36 3.1893851e-37
000010 cd 23 2c 16 9a f2 84 17 00 00 00 00 00 00 00 00
       1.3905346e-25 8.591541e-25 0.0 0.0
000020 00 00 00 00 00 00 00 00 36 5c 25 14 7c 73 0d 13
       0.0 0.0 8.3485566e-27 1.785364e-27
000030 dc 58 93 15 95 97 75 17 ac 82 07 15 38 e4 85 15
       5.951302e-26 7.9355093e-25 2.7366115e-26 5.407834e-26
000040 d3 31 0a 16 88 7c ec 14 46 6d 76 10 75 09 e6 0f
       1.1163273e-25 2.3879029e-26 4.8599127e-29 2.2683394e-29
000050 00 00 00 00 00 00 00 00 a0 84 54 16 a6 40 9d 17
       0.0 0.0 1.7167073e-25 1.0162207e-24
000060 b5 3e 04 15 8c 7a 51 16 c2 0f 17 15 26 39 01 14
       2.6706655e-26 1.6921555e-25 3.0506638e-26 6.524106e-27
000070 f3 dc c7 00 00 00 00 00 00 00 00 00 00 00 00 00
       1.8354525e-38 0.0 0.0 0.0
000080 00 00 00 00 00 00 00 00 f3 65 00 16 81 b9 db 14
       0.0 0.0 1.0371927e-25 2.2186517e-26
000090 00 00 00 00 00 00 00 00 09 c9 23 14 ee b2 7b 15
       0.0 0.0 8.269044e-27 5.0830197e-26
0000a0 c4 07 ba 15 fb e2 2e 15 00 00 00 00 00 00 00 00
       7.5137054e-26 3.5318076e-26 0.0 0.0
0000b0 68 60 25 15 8a 83 0d 14 00 00 00 00 00 00 00 00
       3.3397536e-26 7.144622e-27 0.0 0.0
0000c0 00 00 00 00 00 00 00 00 00 00 00 00 00 00 00 00
       0.0 0.0 0.0 0.0
0000d0 d0 f6 b3 01 00 00 00 00 3a 93 ac 17 4f ac 93 16
       6.6108374e-38 0.0 1.1152405e-24 2.3857873e-25
0000e0 fd 3f 56 06 aa 5b a5 04 73 88 fd 15 9e 0b 68 18
       4.0295938e-35 3.8875494e-36 1.02401165e-25 2.9991162e-24
0000f0 75 73 06 17 57 b8 7c 16 bf 3b a3 15 46 08 88 17
       4.344346e-25 2.0414565e-25 6.592944e-26 8.790883e-25
000100 00 00 00 00 00 00 00 00 80 87 5d 15 c7 f7 a3 16
       0.0 0.0 4.4737485e-26 2.649044e-25
000110 17 3d d3 15 6a b8 50 16 57 c0 d1 14 ac 2c 45 14
       8.5318604e-26 1.6860297e-25 2.1179472e-26 9.954768e-27
000120 43 5b ea 15 df da 43 17 68 14 cc 05 55 a0 10 04
       9.465583e-26 6.328415e-25 1.9191564e-35 1.700074e-36
000130 65 d8 71 16 31 a3 71 16 5a c1 5f 11 08 1b ae 12
       1.9536107e-25 1.9519319e-25 1.7651179e-28 1.09876075e-27
000140 4c 53 66 16 60 77 d8 15 e1 09 60 05 a7 fa 9e 03
       1.8605536e-25 8.7430046e-26 1.0534244e-35 9.343952e-37
000150 c5 e2 87 16 f2 c0 87 16 18 72 ab 16 be bd 92 15
       2.1953538e-25 2.1932192e-25 2.7698543e-25 5.926829e-26
000160 06 5b 67 14 63 6a d9 13 00 00 00 00 00 00 00 00
       1.1680471e-26 5.4883407e-27 0.0 0.0
000170 bb 7f 80 16 13 5f 80 16 59 04 51 15 3c fa 99 16
       2.0760125e-25 2.0739516e-25 4.2210644e-26 2.4876403e-25
000180 00 00 00 00 00 00 00 00 00 00 00 00 00 00 00 00
       0.0 0.0 0.0 0.0
000190 00 00 00 00 00 00 00 00 04 31 fe 14 be d4 6e 14
       0.0 0.0 2.5666779e-26 1.2057885e-26
0001a0 00 00 00 00 00 00 00 00 c9 62 9f 04 fd b7 ec 02
       0.0 0.0 3.747144e-36 3.4782687e-37
0001b0 f3 ab f5 13 37 d3 66 13 15 32 a0 05 23 eb e4 03
       6.201625e-27 2.9134218e-27 1.5064725e-35 1.345462e-36
0001c0 00 00 00 00 00 00 00 00 e9 b8 d7 15 48 af 4a 15
       0.0 0.0 8.7129545e-26 4.0931848e-26
0001d0 4d 29 b5 16 93 02 9b 15 00 00 00 00 00 00 00 00
       2.9268192e-25 6.260806e-26 0.0 0.0
0001e0 00 00 00 00 00 00 00 00 d6 bb 1d 15 54 f2 73 16
       0.0 0.0 3.1854074e-26 1.9705849e-25
0001f0 00 00 00 00 00 00 00 00 00 00 00 00 00 00 00 00
       0.0 0.0 0.0 0.0
000200 25 2c 8c 12 94 9b a2 13 a1 cd 93 16 fb ea 7c 15
       8.846125e-28 4.104796e-27 2.38789e-25 5.1076362e-26
000210 9f 3a f2 05 5c 61 2c 04 00 00 00 00 00 00 00 00
       2.2779105e-35 2.0263208e-36 0.0 0.0
000220 80 52 1f 14 5d 91 91 15 3e 28 df 13 48 c4 51 13
       8.043719e-27 5.8794376e-26 5.6332796e-27 2.6476283e-27
000230 00 00 00 00 00 00 00 00 00 00 00 00 00 00 00 00
       0.0 0.0 0.0 0.0
000240 e2 0c 9d 14 91 e1 82 16 ce 30 ac 13 c4 6b 93 12
       1.585803e-26 2.1144985e-25 4.346703e-27 9.303571e-28
000250 00 00 00 00 00 00 00 00 d7 42 30 15 f9 2c 87 16
       0.0 0.0 3.5595644e-26 2.1838808e-25
000260 94 c2 00 11 c9 bc 70 10 00 00 00 00 00 00 00 00
       1.0157379e-28 4.747709e-29 0.0 0.0
000270 19 29 02 16 fc 0c 02 16 bb 65 95 16 e6 2d de 17
       1.0514285e-25 1.0505414e-25 2.413645e-25 1.4358e-24
000280 00 00 00 00 00 00 00 00 6a c2 d6 14 5b d8 49 14
       0.0 0.0 2.168516e-26 1.0190575e-26
000290 22 0c 22 21 ba 8b b0 21 00 00 00 00 00 00 00 00
       5.4903793e-19 1.1963209e-18 0.0 0.0
0002a0 2b 56 8e 01 00 00 00 00 73 e0 94 16 f9 df 0b 16
       5.2286207e-38 0.0 2.4052337e-25 1.1299004e-25
0002b0 6c 94 6a 16 99 79 dc 15 37 05 18 16 ef e0 8e 15
       1.8949203e-25 8.904914e-26 1.2280108e-25 5.7708226e-26
0002c0 00 00 00 00 00 00 00 00 00 00 00 00 00 00 00 00
       0.0 0.0 0.0 0.0
0002d0 00 00 00 00 00 00 00 00 58 27 5f 15 52 fa 39 17
       0.0 0.0 4.5065528e-26 6.0092673e-25
0002e0 e4 e3 2c 14 11 6b 84 15 4a d9 85 15 43 46 04 16
       8.728724e-27 5.3483296e-26 5.4061094e-26 1.0685046e-25
0002f0 00 00 00 00 00 00 00 00 5b d7 10 15 b6 1a 8f 15
       0.0 0.0 2.9250454e-26 5.779938e-26
000300 f3 f6 29 16 91 f0 82 17 ea b8 e2 14 4a 1e 55 14
       1.3729635e-25 8.461781e-25 2.2893104e-26 1.0759725e-26
000310 d8 a8 e8 14 cd 9e 5a 14 00 00 00 00 00 00 00 00
       2.349261e-26 1.1037505e-26 0.0 0.0
000320 32 2f bd 01 00 00 00 00 00 00 00 00 00 00 00 00
       6.9495357e-38 0.0 0.0 0.0
000330 00 00 00 00 00 00 00 00 00 00 00 00 00 00 00 00
       0.0 0.0 0.0 0.0
000340 27 3c d0 14 21 bc 43 14 9e 3d 17 15 d4 6e 95 15
       2.1026359e-26 9.882086e-27 3.0542815e-26 6.0355477e-26
000350 00 00 00 00 00 00 00 00 18 25 e0 15 08 cb bf 14
       0.0 0.0 9.0531403e-26 1.9366153e-26
000360 31 c5 c1 15 3f 14 36 15 55 ad 22 14 d1 2d 95 15
       7.826319e-26 3.677058e-26 8.2130936e-27 6.0252906e-26
000370 27 bf 25 15 d0 c6 9b 14 13 b7 b6 00 00 00 00 00
       3.3472277e-26 1.5729418e-26 1.6779735e-38 0.0
000380 04 e3 bf 15 66 62 34 15 ce 05 e8 15 65 94 06 17
       7.7502453e-26 3.6428333e-26 9.371321e-26 4.3485035e-25
000390 45 d7 d7 00 00 00 00 00 ee 0c f4 14 9e 5c 65 14
       1.9821856e-38 0.0 2.4642804e-26 1.1579811e-26
0003a0 00 00 00 00 00 00 00 00 75 c3 53 15 6a 5c 9c 16
       0.0 0.0 4.27653e-26 2.526148e-25
0003b0 40 9e 56 16 18 ad 37 15 16 bf 8f 15 51 6a d7 16
       1.7336717e-25 3.7093103e-26 5.805872e-26 3.4802218e-25
0003c0 f4 bf ee 14 f5 55 60 14 46 42 7b 14 da 28 ec 13
       2.4107571e-26 1.1326062e-26 1.2685332e-26 5.961506e-27
0003d0 e6 bc d9 15 da a2 4c 15 00 00 00 00 00 00 00 00
       8.794363e-26 4.132594e-26 0.0 0.0
0003e0 8d c9 8e 15 6c a6 8e 15 00 00 00 00 00 00 00 00
       5.7671334e-26 5.761591e-26 0.0 0.0
0003f0 f0 38 00 16 25 18 00 16 00 00 00 00 00 00 00 00
       1.0357724e-25 1.0347376e-25 0.0 0.0

exp_avg f4 [10000]
000000 4e 5c 10 02 7c ec 12 02 28 3e 9a 2a 97 77 1a 02
       1.0605939e-37 1.0794254e-37 2.7399025e-13 1.1348454e-37
000010 a8 1e 17 02 d2 b8 62 02 c3 b4 8e 2a 8e 9c 36 29
       1.1102526e-37 1.6656899e-37 2.5349696e-13 4.0547908e-14
000020 c4 4d 8b 29 e3 4b 17 02 0f f2 12 02 c2 25 9c 2a
       6.18633e-14 1.1115506e-37 1.0795853e-37 2.7737366e-13
000030 3d 08 87 29 46 75 81 29 19 d6 14 02 86 61 19 02
       5.9966334e-14 5.7490945e-14 1.0934766e-37 1.1268653e-37
000040 a2 15 17 02 84 61 73 29 ad 05 15 02 0b c2 81 29
       1.1099936e-37 5.404142e-14 1.094842e-37 5.762412e-14
000050 03 a8 c6 29 99 bf 1b 02 c3 30 ed 28 02 d4 13 02
       8.822112e-14 1.1442587e-37 2.6333433e-14 1.0860698e-37
000060 0b 00 13 02 cb b4 16 02 e6 65 18 02 e9 15 ac 2a
       1.0799867e-37 1.1072145e-37 1.119644e-37 3.056854e-13
000070 63 31 11 02 66 f7 7d ad 4a 2c 72 2a 86 2d a7 2a
       1.0667091e-37 -1.44363185e-11 2.1509284e-13 2.9696747e-13
000080 a7 b0 1e 02 4d 48 1f 2a ac 33 0a 2a 4e 26 7f 29
       1.1658703e-37 1.4147121e-13 1.227479e-13 5.6654598e-14
000090 b2 46 02 2a 15 60 18 02 da 83 25 2a 3d 04 23 28
       1.1570847e-13 1.119477e-37 1.4700689e-13 9.049237e-15
0000a0 a9 ea 0f 2a d3 04 13 02 0a 56 91 29 68 79 b3 29
       1.2782365e-13 1.0801239e-37 6.454219e-14 7.9702575e-14
0000b0 22 eb 82 29 2d 96 1c 02 17 f9 9b 29 0f 40 1e 2a
       5.813949e-14 1.1504168e-37 6.926593e-14 1.4055444e-13
0000c0 43 6d 18 02 16 68 11 02 d0 91 1f 02 76 1e dc 11
       1.1198553e-37 1.0682789e-37 1.1723321e-37 3.4728653e-28
0000d0 fb 14 1b 02 5f b2 12 02 6e 3f e4 06 88 96 16 02
       1.1393623e-37 1.0777576e-37 8.585727e-35 1.106346e-37
0000e0 21 04 1a 02 ed 6f 55 29 7f 3d 01 2a 8a 6b 12 02
       1.1315318e-37 4.739258e-14 1.1478837e-13 1.0757248e-37
0000f0 89 6a 1e 02 e0 3f d5 29 4f 5a 17 02 df ac 1c 02
       1.1638581e-37 9.470181e-14 1.1119645e-37 1.1510681e-37
000100 ea 9a 9f 28 96 86 e8 29 3c 95 1e 02 58 e7 11 02
       1.771973e-14 1.03262166e-13 1.1650835e-37 1.071931e-37
000110 83 27 94 29 42 b5 cd 28 d1 5a 13 02 29 c8 1b 02
       6.5793745e-14 2.283818e-14 1.0825917e-37 1.1445045e-37
000120 8e 36 24 2a b2 2a 15 02 0d 23 17 02 e9 92 fe 29
       1.4585054e-13 1.0959044e-37 1.1103787e-37 1.1305351e-13
000130 67 db 11 02 80 c6 10 02 bd db 14 2a 86 44 aa 2a
       1.0715883e-37 1.0636416e-37 1.3221278e-13 3.0245614e-13
000140 a0 d5 1b 02 ce 08 3a 29 dd b4 36 b1 9b 1d 1c 02
       1.1448909e-37 4.1307933e-14 -2.6587295e-09 1.1469566e-37
000150 4a c9 12 02 57 d0 f0 29 ea 4c 14 2a 42 2e 03 2a
       1.0784153e-37 1.0694282e-13 1.3171726e-13 1.1651186e-13
000160 b1 6c 10 02 fa 5e 18 02 d3 14 1b 02 f7 bd e8 29
       1.0610642e-37 1.1194453e-37 1.1393578e-37 1.0335823e-13
000170 fd 83 a7 29 d1 7f 09 2a bb a9 18 02 5f d9 28 29
       7.439186e-14 1.221239e-13 1.1215907e-37 3.7492033e-14
000180 97 e2 91 2a e9 61 7c 29 aa b9 ef 06 70 fa 1e 02
       2.5914402e-13 5.6040164e-14 9.0174617e-35 1.1679879e-37
000190 81 5e 1c 02 bf 7a 13 02 eb 13 1d 02 d0 e9 1a 02
       1.1488191e-37 1.0835081e-37 1.1540254e-37 1.1381234e-37
0001a0 d1 d5 81 29 98 c9 3d 29 ae ea 1a 02 56 d0 5c 29
       5.765842e-14 4.2141285e-14 1.1381483e-37 4.9030516e-14
0001b0 e5 a8 d8 29 b5 67 a0 29 07 f0 85 29 e3 c7 12 02
       9.6216255e-14 7.1234177e-14 5.9480246e-14 1.0783751e-37
0001c0 1e 37 e3 29 ec 70 04 2a ad e6 13 02 2d ab 65 29
       1.00903864e-13 1.1763133e-13 1.0866055e-37 5.0996686e-14
0001d0 17 91 1d 02 ca 2b 28 2a 8f 03 78 29 74 22 31 2a
       1.1576177e-37 1.493659e-13 5.507015e-14 1.5732711e-13
0001e0 87 c5 5d 07 15 65 80 29 0f e0 e3 29 76 d3 18 02
       1.668424e-34 5.701877e-14 1.0119693e-13 1.1227883e-37
0001f0 e4 c9 17 29 7f d6 1d 02 dc 52 d0 29 7b a9 14 02
       3.3703848e-14 1.1596096e-37 9.2514294e-14 1.0921961e-37
000200 a0 25 1d 02 69 56 72 29 7b 3c 1b 02 d4 e3 2c 29
       1.1545336e-37 5.3809743e-14 1.1404959e-37 3.838928e-14
000210 a2 a3 b8 28 c7 a1 07 2a e2 50 70 29 95 8e e6 28
       2.0499068e-14 1.2046536e-13 5.336086e-14 2.5596965e-14
000220 67 1e 92 2a f4 8a 9e 29 e1 86 18 02 d2 84 9b 29
       2.5955906e-13 7.040714e-14 1.1205905e-37 6.9064234e-14
000230 d9 f4 b0 29 32 24 1e 02 70 fa a7 29 82 e7 2a 2a
       7.8584444e-14 1.1618394e-37 7.459734e-14 1.5179354e-13
000240 c0 20 dd 29 14 cb 19 02 42 e8 1d 02 4e 25 a8 2a
       9.820053e-14 1.1298945e-37 1.1601193e-37 2.986868e-13
000250 37 97 65 29 a1 eb 1e 02 c2 68 2c 2a 54 5f 87 2a
       5.0979372e-14 1.1675629e-37 1.5313014e-13 2.4046965e-13
000260 0a f6 e8 29 8e 8a 12 02 c2 52 5d 29 f6 56 12 02
       1.03455506e-13 1.0766149e-37 4.914364e-14 1.0751343e-37
000270 e9 47 14 02 a4 ef 0b 03 37 b2 1b 02 22 84 13 02
       1.089396e-37 4.1123523e-37 1.1438747e-37 1.0837775e-37
000280 eb ea 1b 02 0b eb 06 2a 28 44 02 31 9d 25 14 02
       1.145502e-37 1.1983138e-13 1.8956232e-09 1.0884117e-37
000290 d0 44 77 08 e2 a9 ec 29 62 98 17 02 9d 10 a8 29
       7.4409747e-34 1.0509975e-13 1.113746e-37 7.463581e-14
0002a0 8d 61 5c 29 ea 5e 20 2a 56 db 9f 29 b6 32 12 02
       4.8934425e-14 1.4243785e-13 7.099067e-14 1.0740939e-37
0002b0 17 77 6b 29 34 7c 06 2a cf 17 16 02 9a 69 15 02
       5.2283776e-14 1.1944682e-13 1.1027092e-37 1.0977097e-37
0002c0 d8 38 16 02 55 70 75 29 a2 76 a5 2a e6 d3 5c 29
       1.1036573e-37 5.449836e-14 2.9392206e-13 4.9033606e-14
0002d0 4e 38 b4 29 5f 13 fd 28 06 df 90 2a a2 ec 19 02
       8.003373e-14 2.8097043e-14 2.5734292e-13 1.1308575e-37
0002e0 fa 8f 14 02 df 38 11 02 00 6f 81 29 bf 27 ab 2a
       1.0914642e-37 1.0669239e-37 5.748006e-14 3.040328e-13
0002f0 8b f6 1d 02 99 99 50 29 84 41 1e 02 98 34 12 02
       1.1605293e-37 4.6318503e-14 1.1626809e-37 1.074148e-37
000300 e1 f5 1e 02 da 62 1f 02 95 59 ac 29 e4 bd e7 29
       1.167857e-37 1.1709844e-37 7.6538744e-14 1.02914015e-13
000310 e9 41 15 02 7e e7 11 02 87 a0 16 02 26 42 13 02
       1.0965706e-37 1.0719353e-37 1.1066329e-37 1.0818838e-37
000320 e4 d8 31 2a d2 12 11 02 49 c5 a4 29 fd 2e eb 29
       1.5796007e-13 1.0658319e-37 7.3172866e-14 1.04442476e-13
000330 6f 4c 2c 29 bb ce 82 29 91 8b 1a 02 b4 a0 fb 29
       3.8257968e-14 5.809022e-14 1.1354187e-37 1.1174517e-13
000340 4d da 19 02 56 01 17 02 ff 28 93 2a bf c8 22 2a
       1.1303314e-37 1.1094111e-37 2.6140892e-13 1.4458138e-13
000350 df 7e 1a 29 fe ba 12 02 20 26 e8 28 c1 f8 1e 2a
       3.4304912e-14 1.078005e-37 2.5773708e-14 1.4119523e-13
000360 cc 0f e4 29 d3 f0 4c 29 1b 16 97 2a 44 46 ec 29
       1.0127974e-13 4.550598e-14 2.6838327e-13 1.04926945e-13
000370 ea a0 d4 28 24 78 73 29 94 ac 1c 11 37 ba 1a 31
       2.3606513e-14 5.4061044e-14 1.235941e-28 2.25158e-09
000380 4c eb fa 29 b2 76 5b 29 24 45 2a 2a c3 de 25 2a
       1.1143048e-13 4.873072e-14 1.5123021e-13 1.473223e-13
000390 22 d7 73 29 12 35 2e 06 7c 4e 1f 29 f6 ab b5 29
       5.4143437e-14 3.2764753e-35 3.5373167e-14 8.067845e-14
0003a0 a9 4d 1c 02 d7 e8 12 02 83 be 6c 29 3f 5e 11 02
       1.1483357e-37 1.0793208e-37 5.256777e-14 1.0679965e-37
0003b0 a9 73 7f 2a 0c 42 df 29 26 5d a1 2a e8 d4 1f 02
       2.2688677e-13 9.914647e-14 2.866398e-13 1.1742576e-37
0003c0 1e c1 60 2a 77 e7 14 02 6c cc 1e 02 52 5f 10 02
       1.9962198e-13 1.093975e-37 1.1666673e-37 1.0606805e-37
0003d0 7e 02 1f 02 db 41 13 02 36 aa 10 02 27 66 0e 31
       1.168219e-37 1.0818754e-37 1.0628297e-37 2.0721787e-09
0003e0 33 4f 07 29 eb e6 16 02 98 81 df 06 ae ad 67 29
       3.0044716e-14 1.108653e-37 8.40737e-35 5.1442947e-14
0003f0 ca 7a f0 29 7c be 23 2a e5 53 04 2a 9f 62 82 29
       1.06794415e-13 1.4543396e-13 1.1753062e-13 5.790268e-14

exp_avg_sq f4 [10000]
000000 00 00 00 00 79 0d da 02 44 a5 9a 15 00 00 00 00
       0.0 3.2039954e-37 6.246085e-26 0.0
000010 00 00 00 00 2b 23 46 12 f3 42 82 15 e9 fd c6 13
       0.0 6.252113e-28 5.261221e-26 5.02326e-27
000020 26 94 25 14 e4 ce b2 0e 00 00 00 00 2e b5 b7 15
       8.359588e-27 4.4079616e-30 0.0 7.419896e-26
000030 2a 05 73 14 cf 00 35 13 00 00 00 00 00 00 00 00
       1.2269383e-26 2.284581e-27 0.0 0.0
000040 00 00 00 00 27 d7 19 14 00 00 00 00 b7 73 92 13
       0.0 7.766957e-27 0.0 3.6969685e-27
000050 e3 e3 06 14 00 00 00 00 ff 24 46 13 00 00 00 00
       6.810214e-27 0.0 2.5009354e-27 0.0
000060 00 00 00 00 00 00 00 00 00 00 00 00 8e c5 ce 15
       0.0 0.0 0.0 8.3514424e-26
000070 8f 49 96 04 73 00 18 1b fb fb 42 15 a7 4d 90 15
       3.5332383e-36 1.257329e-22 3.9376766e-26 5.828365e-26
000080 00 00 00 00 65 8a bf 14 40 18 9b 14 47 17 18 13
       0.0 1.9340658e-26 1.5660565e-26 1.9196574e-27
000090 d1 04 62 15 ad 84 11 04 9f 8c ee 14 54 52 ca 10
       4.5644136e-26 1.710559e-36 2.4087324e-26 7.98018e-29
0000a0 f1 02 a7 14 48 ae 9f 03 4b 09 06 15 5f 68 cd 14
       1.6863851e-26 9.385193e-37 2.7068415e-26 2.0740877e-26
0000b0 b3 c2 a7 12 00 00 00 00 1f 80 fd 14 41 f8 b3 14
       1.0587179e-27 0.0 2.5597006e-26 1.81723e-26
0000c0 00 00 00 00 00 00 00 00 00 00 00 00 90 52 38 13
       0.0 0.0 0.0 2.3264772e-27
0000d0 00 00 00 00 29 54 df 02 04 25 32 12 08 b7 e3 03
       0.0 3.281521e-37 5.621252e-28 1.3383883e-36
0000e0 00 00 00 00 7c 6d 1c 14 06 0f d9 14 00 00 00 00
       0.0 7.897579e-27 2.1917326e-26 0.0
0000f0 00 00 00 00 d0 da 8d 14 00 00 00 00 00 00 00 00
       0.0 1.4323668e-26 0.0 0.0
000100 86 0d c3 11 c0 17 b1 14 1f 86 2c 04 00 00 00 00
       3.077391e-28 1.78818e-26 2.0280088e-36 0.0
000110 63 6d a6 13 bd cf 21 12 00 00 00 00 00 00 00 00
       4.2012155e-27 5.10587e-28 0.0 0.0
000120 6e d6 8a 14 47 49 ce 11 00 00 00 00 4e 59 9d 14
       1.4019017e-26 3.254623e-28 0.0 1.5888173e-26
000130 c0 d4 3a 0f 00 00 00 00 ba 62 80 14 d5 b0 01 16
       9.211482e-30 0.0 1.2963638e-26 1.0476335e-25
000140 00 00 00 00 99 b9 1b 13 40 95 ff 22 00 00 00 00
       0.0 1.9655257e-27 6.9275913e-18 0.0
000150 00 00 00 00 5b e9 d7 14 56 19 aa 14 6c 76 5c 14
       0.0 2.1801495e-26 1.7175607e-26 1.1130516e-26
000160 00 00 00 00 00 00 00 00 00 00 00 00 2b 48 45 15
       0.0 0.0 0.0 3.9840764e-26
000170 95 23 9a 13 9f 8d 44 14 00 00 00 00 44 b1 d4 13
       3.8910152e-27 9.923401e-27 0.0 5.369112e-27
000180 49 58 98 15 96 65 24 13 06 b5 28 13 00 00 00 00
       6.15316e-26 2.0749796e-27 2.1293833e-27 0.0
000190 00 00 00 00 00 00 00 00 00 00 00 00 00 00 00 00
       0.0 0.0 0.0 0.0
0001a0 38 fe 16 13 13 17 de 13 00 00 00 00 54 47 06 14
       1.9058001e-27 5.606343e-27 0.0 6.779338e-27
0001b0 1e 82 0c 14 8f 81 aa 13 90 5e 70 13 00 00 00 00
       7.093855e-27 4.3041788e-27 3.0338882e-27 0.0
0001c0 2b 23 0b 14 75 6e 21 15 00 00 00 00 ec f6 30 13
       7.024642e-27 3.2600826e-26 0.0 2.2336065e-27
0001d0 00 00 00 00 5f b5 b6 14 2b 91 80 14 1e 4b fb 14
       0.0 1.8448842e-26 1.2981956e-26 2.5374152e-26
0001e0 bf 1f 2d 13 70 30 b6 12 8b e2 1d 14 00 00 00 00
       2.1851322e-27 1.1497756e-27 7.971152e-27 0.0
0001f0 e4 d7 0c 14 00 00 00 00 9a f3 7c 14 00 00 00 00
       7.110771e-27 0.0 1.2770791e-26 0.0
000200 00 00 00 00 f0 e6 48 14 00 00 00 00 0c 92 00 13
       0.0 1.0142964e-26 0.0 1.6227878e-27
000210 ae 2d b1 12 65 10 2d 15 62 35 d5 13 7a d2 ae 12
       1.1181531e-27 3.4950005e-26 5.38214e-27 1.103283e-27
000220 c8 1b a6 15 f3 d6 12 14 00 00 00 00 87 7f 9a 14
       6.70907e-26 7.4135076e-27 0.0 1.5600327e-26
000230 50 75 0f 15 00 00 00 00 29 a8 a5 13 39 1b 02 15
       2.8971163e-26 0.0 4.1817675e-27 2.6274766e-26
000240 a5 93 c2 14 00 00 00 00 f0 dd 4c 0f 41 81 a5 15
       1.964723e-26 0.0 1.010072e-29 6.6846896e-26
000250 e2 eb f8 13 00 00 00 00 82 26 d6 14 7b 16 49 15
       6.28366e-27 0.0 2.1623667e-26 4.060936e-26
000260 77 0f 49 15 00 00 00 00 fa 06 12 14 00 00 00 00
       4.0603826e-26 0.0 7.372492e-27 0.0
000270 00 00 00 00 0c ad 41 12 00 00 00 00 00 00 00 00
       0.0 6.111336e-28 0.0 0.0
000280 00 00 00 00 0e c7 3e 14 9b 0f 85 22 31 63 3e 11
       0.0 9.631805e-27 3.6066245e-18 1.5018923e-28
000290 bc f9 34 14 19 05 fb 14 00 00 00 00 73 01 f9 13
       9.136929e-27 2.5346534e-26 0.0 6.2857866e-27
0002a0 8a 88 b2 12 b9 b6 7f 15 10 9b ec 13 00 00 00 00
       1.1267039e-27 5.1640983e-26 5.972768e-27 0.0
0002b0 51 50 71 14 fb 76 42 14 00 00 00 00 00 00 00 00
       1.218323e-26 9.817962e-27 0.0 0.0
0002c0 00 00 00 00 db 5e 02 14 9d ea be 15 2b 2e 1f 14
       0.0 6.58203e-27 7.7110543e-26 8.0365536e-27
0002d0 b2 ad 04 14 f5 10 45 13 06 b9 7b 15 00 00 00 00
       6.698552e-27 2.4873256e-27 5.0835004e-26 0.0
0002e0 00 00 00 00 00 00 00 00 e0 64 18 14 26 4a d5 15
       0.0 0.0 7.693933e-27 8.6147e-26
0002f0 00 00 00 00 0b 26 b2 13 ff 36 8c 01 00 00 00 00
       0.0 4.497103e-27 5.1506793e-38 0.0
000300 00 00 00 00 00 00 00 00 44 b3 79 14 74 49 d6 14
       0.0 0.0 1.2606641e-26 2.163745e-26
000310 00 00 00 00 00 00 00 00 00 00 00 00 de 8d 8e 04
       0.0 0.0 0.0 3.3514324e-36
000320 d6 c8 f6 14 00 00 00 00 92 81 f3 13 70 ae de 13
       2.4918868e-26 0.0 6.146959e-27 5.6212687e-27
000330 30 b3 ce 12 ca 9f f3 12 00 00 00 00 c3 9b f2 14
       1.3044601e-27 1.5374847e-27 0.0 2.4497193e-26
000340 00 00 00 00 00 00 00 00 5b 23 4b 15 ad 61 ca 14
       0.0 0.0 4.1023414e-26 2.0435314e-26
000350 9c f6 1d 13 00 00 00 00 85 39 96 13 63 c7 a1 14
       1.9937774e-27 0.0 3.7922042e-27 1.633549e-26
000360 7d 81 36 15 ac 5a 26 13 9c 3e a0 15 d9 ac 27 15
       3.6856756e-26 2.099685e-27 6.4722266e-26 3.3861734e-26
000370 7d 40 ac 11 95 69 58 14 3e 8d 38 13 df a5 be 22
       2.717656e-28 1.09260355e-26 2.3293703e-27 5.1675226e-18
000380 3f 24 97 14 cf 84 06 13 29 e6 d0 14 6d 51 06 15
       1.52614e-26 1.6978658e-27 2.1093415e-26 2.7125318e-26
000390 57 c0 00 13 5c de 22 12 ce 73 d8 13 c8 e9 c6 14
       1.6250702e-27 5.1392266e-28 5.4640258e-27 2.0085101e-26
0003a0 00 00 00 00 00 00 00 00 a5 e0 79 14 00 00 00 00
       0.0 0.0 1.2615591e-26 0.0
0003b0 e9 90 88 15 f2 c5 52 14 2e f5 78 15 00 00 00 00
       5.515859e-26 1.06413284e-26 5.0276614e-26 0.0
0003c0 f6 a5 84 15 00 00 00 00 9e d5 a0 10 00 00 00 00
       5.3576216e-26 0.0 6.3438e-29 0.0
0003d0 00 00 00 00 00 00 00 00 00 00 00 00 a6 fe a1 22
       0.0 0.0 0.0 4.3908757e-18
0003e0 a3 f6 17 13 00 00 00 00 4b 17 24 13 2e 9d 8c 13
       1.918048e-27 0.0 2.0711194e-27 3.549596e-27
0003f0 25 77 a6 14 4c fd b8 14 53 ae 7a 14 ac db 50 14
       1.680871e-26 1.867916e-26 1.2656154e-26 1.0544639e-26
