checkpoints/checkpoint_2000.pth (torch, 387488 bytes, 6 tensors)

W f4 [10000, 2]
0.55716467 0.23766136 0.92993045 -0.4200715 0.5069474 -0.13609776 -0.00039563884 -0.00026064043
-0.0010161089 -0.0017585021 -0.0042274403 -0.0008437683 -0.0004532027 -0.0004710281 -0.00061989867 -0.00057034683
-0.0007621141 -0.00072189845 -0.0015552788 -0.0019429486 0.0011268867 0.0005993711 0.015613762 0.027484875
0.08988101 -0.053709242 0.44177142 -0.2972537 0.08601161 0.031002576 -1.2548806e-05 -6.585157e-05
-0.012421269 -0.013644898 -0.010648744 -0.0021297818 -0.019352892 0.0074778623 -0.0036939632 -0.0014397027
-0.00840158 -0.0014970787 5.745138e-05 -0.00048103573 0.003709346 0.0017879584 0.014002006 0.013839391
1.1794435 0.08598702 0.003603468 -0.0060142935 0.0013949035 0.0036307282 -0.014820035 -0.01298157
0.0014885003 0.0053916476 -0.00033466084 -0.00020760314 0.00015990301 -0.00032752156 0.0018535035 0.020470554
-0.0030664229 -0.0011880535 0.0024240075 0.005311252 -0.001342272 -0.0023634622 0.005734138 0.00787737
-0.067741856 0.15443349 1.06398 -0.2685698 -0.000571889 0.0024096146 0.0066470797 0.0015993074
-0.0019749885 0.0051353974 0.0030847497 -0.020658486 0.00018876867 -0.0030060683 0.09723515 -0.09331009
-0.005696192 -0.025509546 -0.005089869 0.01463263 -0.001581804 0.0015091256 0.00052716286 0.0026120695
0.0007926924 0.0010452243 -0.00013148681 -0.00019226353 0.0012555459 6.120937e-05 0.23461738 1.0118092
-0.030334553 0.10436939 0.00048178583 0.0009435835 -0.00016783668 -0.000102522055 -0.037691895 0.004984489
0.10762618 -0.36746812 -0.00015672736 -0.00016604774 -0.0037855215 -0.11369965 5.4923363e-05 -0.005013132
-0.00063092186 -0.0001065803 -0.00045641698 -0.00033943797 0.00022873601 -0.00024128854 3.0051251e-05 -0.00015985577
0.15598044 -0.22255242 0.06340504 0.31263664 8.1566315e-05 -0.00016825029 0.0007100789 0.0013955168
-0.0066564465 0.014970699 0.0004516216 -0.00028025566 0.016858252 -0.006189611 -0.0002914569 0.00017711449
-0.0015682998 0.17161158 0.0025434175 0.0023127361 0.013343044 -0.0004417082 0.0006044057 0.003757554
0.097417414 0.20759127 -0.01955819 0.060667817 -0.00022125391 -0.0011351737 -0.00035899103 -0.00038177182
0.0022025649 0.0010006393 0.064493276 0.09965672 0.035008103 0.039185777 0.00031092495 -0.00075388636
-0.00018902968 -0.00014157477 0.0003724031 0.00024500873 -0.00041521547 -0.00067761476 -0.0026170802 0.0012468105
0.00015606273 0.00013488968 0.07529605 0.019474743 -0.00035565975 0.00031409814 -0.005219628 -0.0073465537
0.00043551956 0.0010581604 -0.010804592 -0.002141227 0.00412978 -0.00047351784 0.28368163 -0.35424998
-0.00048909057 -0.0020638348 0.00013644429 0.0007003087 9.501425e-05 -0.00051409344 0.016330946 0.022812247
-0.0031766447 0.0048655486 -0.00043458992 -0.0001674573 -0.00024230959 -0.000138802 0.05913238 0.055132505
0.021868613 0.0547483 0.040069707 -0.56326264 0.0044139083 -0.0057703364 0.0001457353 -0.00063286454
0.011614196 0.014951086 -0.76471895 0.40059257 0.0005671786 -0.00013372365 0.009273614 0.0028409564
-0.0004312729 -0.0004371099 -0.00022875225 -0.000308945 -0.00035630434 -0.00044228704 -0.0009708775 -0.00026073583
-0.0018662657 0.017780816 -0.0028880397 0.0020642981 0.02307468 0.0090460405 0.0034928608 -0.0025684994
-0.0004607856 -8.300409e-05 -0.00055315666 -0.0018878288 0.0076837596 -0.011019525 0.00017535503 1.5533835e-05
0.0006582775 -0.01618844 -0.0003255089 3.4144567e-05 0.008547212 -0.0045248764 0.13989842 -0.10905441
00000000: 58a2 0e3f 805d 733e ec0f 6e3f 9d13 d7be
00000010: 4ec7 013f 365d 0bbe bf6d cfb9 91a6 88b9
00000020: f52e 85ba 8a7d e6ba 5786 8abb 5530 5dba
00000030: d69b edb9 52f4 f6b9 b280 22ba 5483 15ba
00000040: 9dc8 47ba c93d 3dba 7fda cbba 89aa feba
00000050: 0bb4 933a 1d1f 1d3a ddd0 7f3c f627 e13c
00000060: 8913 b83d 39fe 5bbd dd2f e23e a331 98be
00000070: db26 b03d 1df9 fd3c b688 52b7 cb19 8ab8
00000080: 9482 4bbc da8e 5fbc 1278 2ebc cf93 0bbb
00000090: f589 9ebc db08 f53b 6b16 72bb 68b4 bcba
000000a0: c8a6 09bc a039 c4ba f3f7 7038 8633 fcb9
000000b0: 8018 733b ee59 ea3a ab68 653c 9dbe 623c
000000c0: 01f8 963f f619 b03d 2928 6c3b 8d13 c5bb
000000d0: 32d5 b63a 83f1 6d3b bbcf 72bc a7b0 54bc
000000e0: c819 c33a 6bac b03b 6b75 afb9 0bb0 59b9
000000f0: a3ab 2739 33b7 abb9 42f1 f23a ddb1 a73c
00000100: 0af6 48bb 76b8 9bba 19dc 1e3b 030a ae3b
00000110: 2def afba 51e4 1abb 70e5 bb3b 1610 013c
00000120: 3ebc 8abd d023 1e3e 7f30 883f fb81 89be
00000130: d2ea 15ba a0ea 1d3b bfcf d93b da9f d13a
00000140: cf6e 01bb d646 a83b 8329 4a3b fc3b a9bc
00000150: 34f0 4539 7501 45bb 3923 c73d 5c19 bfbd
00000160: 1fa7 babb 65f9 d0bc eac8 a6bb b3bd 6f3c
00000170: 8954 cfba dacd c53a 4d31 0a3a 412f 2b3b
00000180: b0cc 4f3a e8ff 883a b9df 09b9 599a 49b9
00000190: 2191 a43a 885d 8038 8a3f 703e f782 813f
000001a0: 2b80 f8bc 9ebf d53d 3398 fc39 d15a 773a
000001b0: 51fd 2fb9 1c01 d7b8 d162 1abd ed54 a33b
000001c0: 1d6b dc3d c824 bcbe 2e57 24b9 1a1d 2eb9
000001d0: 8316 78bb 5ddb e8bd 835d 6638 3345 a4bb
000001e0: 7364 25ba dd83 dfb8 404b efb9 98f6 b1b9
000001f0: dbd8 6f39 6602 7db9 9216 fc37 f59e 27b9
00000200: 56b9 1f3e c8e4 63be 80da 813d e911 a03e
00000210: 950e ab38 586c 30b9 9724 3a3a c6e9 b63a
00000220: 521e dabb aa47 753c a0c7 ec39 47ef 92b9
00000230: 511a 8a3c 38d2 cabb afce 98b9 cfb7 3939
00000240: 698f cdba f2ba 2f3e 77af 263b 4691 173b
00000250: c89c 5a3c 1295 e7b9 fb70 1e3a 4c41 763b
00000260: c882 c73d ce92 543e 7f38 a0bc d17e 783d
00000270: 6500 68b9 1cca 94ba f636 bcb9 8c28 c8b9
00000280: e858 103b e227 833a 0d15 843d d318 cc3d
00000290: a864 0f3d 4481 203d a403 a339 75a0 45ba
000002a0: 4536 46b9 b073 14b9 193f c339 8474 8039
000002b0: 47b1 d9b9 f5a1 31ba 5283 2bbb 056c a33a
000002c0: c5a4 2339 2c71 0d39 d134 9a3d 7f89 9f3c
000002d0: d877 bab9 8aad a439 6a09 abbb 5cbb f0bb
000002e0: 7256 e439 f9b1 8a3a be05 31bc d453 0cbb
000002f0: 1b53 873b 7d42 f8b9 b83e 913e 4160 b5be
00000300: 5036 00ba 6741 07bb 7c12 0f39 ec94 373a
00000310: 6342 c738 3ac4 06ba 7ac8 853c c0e0 ba3c
00000320: 412f 50bb 2e6f 9f3b acd9 e3b9 7a97 2fb9
00000330: 7c14 7eb9 618b 11b9 cb34 723d 9fd2 613d
00000340: ce25 b33c c13f 603d 2220 243d fb31 10bf
00000350: 8ca2 903b 1715 bdbb 86d0 1839 d2e6 25ba
00000360: 7849 3e3c 66f5 743c 9fc4 43bf 781a cd3e
00000370: b6ae 143a 2b38 0cb9 5bf0 173c 572f 3a3b
00000380: 781c e2b9 e62b e5b9 37dd 6fb9 e5f9 a1b9
00000390: 5cce bab9 c3e2 e7b9 7c82 7eba 5fb3 88b9
000003a0: 7c9d f4ba 13a9 913c 4445 3dbb 2d49 073b
000003b0: 1c07 bd3c d835 143c 7be8 643b 4554 28bb
000003c0: 9995 f1b9 7b12 aeb8 b701 11ba 0671 f7ba
000003d0: 0cc8 fb3b 3d8b 34bc 82df 3739 a84e 8237
000003e0: 4190 2c3a 9f9d 84bc 11a9 aab9 7336 0f38
000003f0: 9b09 0c3c 6a45 94bb 8841 0f3e eb57 dfbd

b f4 [10000]
-0.44274753 -0.5277907 -0.42832413 0.00044647785 0.0004809447 -0.0040057185 0.00049993966 0.0005023707
0.00042100056 -0.0022759142 0.00041794125 -0.023928476 -0.08906636 -0.4507467 -0.06710187 5.2160183e-05
-0.01701098 -0.010089621 -0.0028962358 0.00037720476 8.6202335e-06 0.000361857 9.3361865e-05 -0.0140903145
-0.83717453 0.0001300485 -0.0029515617 -0.018215558 -0.004199153 0.0003007983 0.000103018036 -0.0147624435
0.00035871408 0.0008537315 -0.0029601809 -0.0072986903 -0.14059111 -0.8902001 0.0002584727 -0.004996057
0.00028273102 -0.00063114654 0.00017746682 -0.11145109 -0.024499496 5.363232e-05 0.0006915226 6.116064e-05
0.00046326395 0.00023208125 0.00026115312 -0.7723456 -0.0599103 0.00014232223 0.0002782121 -0.038879283
-0.3706212 0.00017089405 -0.11104541 -0.004928685 0.00029857745 0.00034620686 0.00028214682 0.0003315958
-0.2368037 -0.23588009 0.00029810032 1.8211635e-05 -0.01370559 0.00035370598 -0.004811832 0.00022640268
-0.12776285 0.00046742425 -0.0016239079 0.0002762259 -0.11380729 -0.05246808 0.00011656263 0.0005469653
3.069877e-05 -0.089516975 -0.03836203 0.00027969977 0.00019997364 0.00020088407 0.0004167979 0.0003832991
0.00015664421 -0.056833915 0.00020027439 -0.008151581 0.00030632518 -0.010242393 6.397806e-05 -0.38157272
0.00069896324 0.0004071826 0.00040441693 -0.0043042004 0.0003998387 0.00031571844 0.00047894605 -0.05732625
-0.044694524 -0.55492127 0.00012327806 0.00022952854 -0.014098133 -0.86525047 0.00032456347 -0.007123324
0.0005305842 0.00032185615 0.0004576954 0.00056255073 -0.013927463 -0.003416245 -0.008547431 0.00059116073
0.0002493258 0.0007476681 -0.0021336987 0.00048954744 0.00037820678 0.0002950277 -0.008220632 -0.149315
0.00018405182 -0.00036685207 -0.2701235 -0.014543978 0.0006263914 0.00062075816 -0.0038815562 -0.03124711
0.00024422095 -0.007085724 0.0003504825 0.00011981686 0.0003280147 -0.21614823 -0.0033679497 -0.080490984
-0.04627622 -0.33835775 -0.07568808 0.00051012955 -0.11953621 -0.040254366 -0.0019820016 -0.010951463
0.0004653762 -0.004904661 -0.39819366 0.0005863645 -0.0074362247 0.0005961859 0.000561875 0.00018523005
-0.010553451 0.00064570794 0.0003869806 -0.011951251 0.0006054264 -0.057785016 0.0007180211 0.0003446563
0.00050596934 -0.0036198928 0.00022187468 -0.004715028 0.0002269562 0.00044540138 -0.037266128 0.00029182967
-0.09641577 -0.037264716 0.0003763641 0.00010747994 -0.33403108 0.0004004741 0.00038854216 4.2627653e-05
-0.025384456 0.00020864244 0.0004621712 0.00011067506 -0.0065454734 0.00020450937 0.00088165916 0.00026460004
0.00034556503 -0.007259208 -0.004805286 -0.012127678 -0.007201835 -0.008786084 -0.0073924367 0.00032408506
0.00014695083 -0.012138553 0.00037881598 0.0007400044 0.00037028562 0.00016402522 0.0005877099 -0.018733034
-0.013395499 0.0006603974 0.0006059109 0.00021864352 -0.0067564705 0.0010190083 0.00043675918 6.327215e-05
0.000108721324 0.00034992245 0.0004975438 -0.11258495 0.00051960704 -0.0006747496 3.4686178e-05 0.0003041118
0.0003760821 -0.009675841 -0.00023655982 -0.0164401 0.0004096595 0.00031593433 0.00020935092 -0.46956214
0.00067503925 -0.013098361 0.0003930271 0.00023454239 0.00025631022 -0.00012529657 -0.08208222 0.00039785003
-0.1322509 0.00038919927 0.00019456685 0.00057489245 0.00025456573 -0.0048851557 0.0003279554 -0.055722766
0.0005312402 -0.46288332 -0.071086496 -0.087856576 -0.046397835 0.00016877097 0.00028332963 0.00028668685
00000000: ceaf e2be 4b1d 07bf 4d4d dbbe 3e15 ea39
00000010: 4e27 fc39 6742 83bb 620e 033a 87b1 033a
00000020: bdb9 dc39 8127 15bb 201f db39 a705 c4bc
00000030: 6c68 b6bd 45c8 e6be b56c 89bd 92c6 5a38
00000040: 9c5a 8bbc f04e 25bc c6ce 3dbb 91c3 c539
00000050: 9f9f 1037 a0b7 bd39 45cb c338 10db 66bc
00000060: 1251 56bf a15d 0839 fd6e 41bb cb38 95bc
00000070: 0c99 89bb 77b4 9d39 630b d838 2dde 71bc
00000080: ca11 bc39 f3cc 5f3a 98ff 41bb da29 efbb
00000090: 1ef7 0fbe 27e4 63bf 9e83 8739 f7b5 a3bb
000000a0: 843b 9439 8773 25ba 6316 3a39 7840 e4bd
000000b0: 2bb3 c8bc 44f3 6038 4c47 353a 5e43 8038
000000c0: 3ce2 f239 d65a 7339 61eb 8839 71b8 45bf
000000d0: 8164 75bd 553c 1539 ffdc 9139 e23f 1fbd
000000e0: 10c2 bdbe 0632 3339 c76b e3bd ce80 a1bb
000000f0: 638a 9c39 1983 b539 1bed 9339 09da ad39
00000100: ab7c 72be 8d8a 71be 594a 9c39 30c5 9837
00000110: 698d 60bc 9d71 b939 93ac 9dbb 8266 6d39
00000120: 44d4 02be 9f10 f539 4fd9 d4ba 6ad2 9039
00000130: cc13 e9bd c5e8 56bd 1673 f438 3862 0f3a
00000140: 8ec2 0038 ad54 b7bd 8121 1dbd aba4 9239
00000150: 04b0 5139 68a4 5239 ab85 da39 89f5 c839
00000160: dc40 2439 aeca 68bd bf00 5239 358e 05bc
00000170: 459a a039 b6cf 27bc f62b 8638 805d c3be
00000180: a13a 373a 207b d539 ec07 d439 400a 8dbb
00000190: 71a1 d139 0387 a539 0d1b fb39 eece 6abd
000001a0: 9b11 37bd 520f 0ebf 3444 0139 99ad 7039
000001b0: dbfb 66bc 0e81 5dbf 2c2a aa39 c66a e9bb
000001c0: e716 0b3a cdbe a839 d6f6 ef39 2478 133a
000001d0: 0430 64bc 15e3 5fbb 860a 0cbc 20f8 1a3a
000001e0: f1b7 8239 28ff 433a 86d5 0bbb f954 003a
000001f0: 0e4a c639 f3ad 9a39 d4af 06bc 08e6 18be
00000200: 09fe 4039 0d56 c0b9 a14d 8abe dd49 6ebc
00000210: 6a34 243a 60ba 223a b561 7ebb f0f9 ffbc
00000220: c80a 8039 5c2f e8bb f7c0 b739 3046 fb38
00000230: 63f9 ab39 f655 5dbe d2b8 5cbb 75d8 a4bd
00000240: 228c 3dbd 3a3d adbe 5a02 9bbd 37ba 053a
00000250: 67cf f4bd c3e1 24bd 78e4 01bb c46d 33bc
00000260: bcfd f339 47b7 a0bb 0ae0 cbbe 41b6 193a
00000270: 93ab f3bb 5c49 1c3a cb4a 133a 503a 4239
00000280: 62e8 2cbc ba44 293a a8e3 ca39 2ecf 43bc
00000290: 7ab5 1e3a fbaf 6cbd 9539 3c3a fcb2 b439
000002a0: 07a3 043a b93b 6dbb 08a7 6839 8680 9abb
000002b0: 17fb 6d39 c384 e939 5ea4 18bd b700 9939
000002c0: a275 c5bd e3a2 18bd bc52 c539 da66 e138
000002d0: 1f06 abbe b9f6 d139 3fb5 cb39 18cb 3238
000002e0: 10f3 cfbc 07c7 5a39 924f f239 381a e838
000002f0: 697b d6bb 9171 5639 251f 673a 04ba 8a39
00000300: f42c b539 a6de edbb a975 9dbb 2bb3 46bc
00000310: 5ffd ebbb 82f3 0fbc 413c f2bb f6e9 a939
00000320: d016 1a39 c8e0 46bc d29b c639 dbfc 413a
00000330: e522 c239 2ffe 2b39 8b10 1a3a 0576 99bc
00000340: cc78 5bbc 851e 2d3a fed5 1e3a ac43 6539
00000350: 6265 ddbb 3f90 853a d3fc e439 fab0 8438
00000360: 5101 e438 cc75 b739 996d 023a f092 e6bd
00000370: 3d36 083a aee1 30ba 007c 1138 3271 9f39
00000380: e32c c539 6b87 1ebc 0b0d 78b9 63ad 86bc
00000390: 91c7 d639 fda3 a539 3685 5b39 736a f0be
000003a0: 1ef5 303a 829a 56bc 340f ce39 7eef 7539
000003b0: 6061 8639 0b62 03b9 b91a a8bd 8796 d039
000003c0: c86c 07be 710d cc39 a404 4c39 61b4 163a
000003d0: 3c77 8539 a813 a0bb 6ef1 ab39 8e3d 64bd
000003e0: ed42 0b3a 0bff ecbe cc95 91bd 26ee b3bd
000003f0: a80b 3ebd 1df8 3039 dc8b 9439 754e 9639

exp_avg f4 [10000, 2]
-2.8216465e-10 -1.4701124e-10 -2.4029417e-10 3.6296594e-11 -1.09256874e-10 1.1152921e-10 6.0916265e-14 -2.313778e-14
-2.7236815e-13 -4.8517337e-13 -1.8817038e-13 4.84472e-14 -2.2075796e-14 -2.3487471e-14 -2.0606969e-13 1.4148475e-13
-1.3735345e-13 8.202827e-15 -6.202288e-14 -5.6246488e-14 2.530917e-13 1.2474834e-13 -7.1735317e-12 -7.646349e-12
3.4517833e-12 1.391366e-11 -1.4756825e-10 1.5321905e-10 -1.3929241e-11 -2.2521876e-12 1.3269829e-14 -1.2545772e-14
-5.061743e-13 -4.5903266e-13 -4.2319045e-13 1.08956545e-13 9.298847e-13 5.5200034e-13 -4.1791294e-13 -3.7727222e-13
7.56096e-13 -3.3196433e-13 -3.4981678e-14 -2.221253e-14 8.195846e-13 -4.897424e-13 -1.1033909e-11 -1.4239568e-12
-5.48628e-10 8.187109e-11 1.4298044e-13 7.0336987e-13 5.7527645e-14 1.2634493e-13 3.5361317e-12 -2.7883392e-13
9.070415e-14 1.9920879e-13 -2.1193627e-14 7.665747e-15 2.6793185e-14 -6.3267046e-14 3.092266e-13 7.0719656e-13
6.503569e-14 -1.2981683e-13 3.2261398e-14 2.2832636e-13 -9.930832e-13 4.48711e-12 1.5144075e-13 3.075831e-13
3.947224e-12 -4.9527132e-11 -4.2045795e-10 1.9561369e-10 -1.5099053e-14 1.0875315e-13 -7.1967004e-13 5.8381934e-13
6.807724e-13 3.5834348e-13 2.9375111e-12 -3.5896897e-12 -1.7199642e-13 -5.184935e-13 -3.1275527e-11 2.5573661e-11
-2.654997e-12 4.397021e-12 -4.1856964e-13 2.5636281e-12 2.6906754e-13 2.8386912e-13 1.735184e-13 1.8331403e-13
-2.385879e-13 -1.6906558e-13 1.1801895e-14 -3.4094577e-14 -2.0125079e-13 6.7088105e-15 -1.9805003e-11 -3.7644532e-10
-1.0330009e-11 -4.9656942e-11 -7.398078e-14 -2.472831e-13 -1.1441652e-14 -6.779699e-15 8.9027275e-12 7.34223e-12
-6.320422e-11 1.2944955e-10 -1.1656296e-14 -1.5118024e-14 -2.3793639e-11 2.6964393e-11 -5.9614363e-13 -1.2186224e-13
-2.0580881e-13 2.108272e-14 -6.722867e-14 -6.4422405e-14 3.3395257e-14 3.5159067e-14 3.421978e-14 2.7203542e-14
-4.1585728e-11 5.3314565e-11 4.2808795e-12 -1.0285914e-10 6.3792525e-14 -5.392279e-14 -1.6034441e-13 3.1897804e-14
-2.5342386e-13 4.841378e-13 -3.7349328e-14 -8.259265e-14 -9.980136e-12 2.5872152e-12 6.946269e-14 5.539017e-14
3.8952973e-12 -3.580762e-11 5.4854304e-13 3.7900106e-13 -3.3637652e-12 -4.7559444e-13 4.4341223e-14 -1.8829671e-13
-5.6533424e-13 -5.586927e-11 1.8172028e-11 -1.4197767e-11 -2.1685167e-13 -1.7525944e-13 -2.1243395e-14 -2.3537048e-14
-2.814511e-15 1.08008187e-13 5.308561e-12 -1.5950548e-11 1.0811526e-11 -2.1659419e-11 -7.9652105e-14 -3.6628354e-14
-1.1058353e-14 3.1405491e-15 6.508292e-14 -2.701135e-14 1.1242517e-14 -4.5907607e-14 -1.6431467e-13 2.2684583e-13
9.334313e-15 4.1173e-14 -2.8522167e-11 -4.7030964e-12 -5.976672e-14 8.124562e-14 -2.4952374e-13 -2.2628478e-13
2.46368e-13 1.4747646e-13 -4.2610116e-13 1.0970596e-13 2.187315e-13 -6.170597e-14 -9.940839e-11 8.844138e-11
-1.8574264e-13 -2.6567268e-13 -1.3610356e-13 -5.4555664e-14 8.939988e-14 -4.7060446e-14 -4.937738e-12 -4.2813127e-12
-1.8118262e-13 -3.7723012e-13 2.3702091e-14 3.4409372e-14 3.549183e-14 1.1708952e-14 -1.3859604e-11 -1.0621772e-11
-6.5921617e-12 -9.088882e-12 -2.44736e-12 1.8727735e-10 -8.2761456e-13 -4.0331784e-13 1.1799016e-13 -1.8055743e-13
2.9546217e-13 6.0009723e-13 2.827074e-10 -1.2059416e-10 -7.9518886e-15 -1.2649713e-13 5.9363186e-13 2.0393187e-13
2.8531315e-14 4.2645588e-14 1.1820411e-14 -2.6458683e-14 -1.39031065e-14 -3.1519753e-14 -4.6931805e-14 4.5680192e-14
5.2933536e-13 -1.8885487e-13 -1.0623257e-13 2.735112e-14 3.652466e-11 1.33883425e-11 8.5932867e-13 6.64064e-13
6.6034174e-14 -2.5797176e-14 1.3367062e-13 -2.050863e-13 -3.0505429e-12 4.062618e-12 1.6097465e-13 2.4626053e-14
1.8414844e-12 -4.0280682e-12 1.1623725e-13 -1.1539872e-14 3.3102587e-13 -1.9880923e-13 -5.5128152e-11 2.5013202e-11
00000000: 251f 9baf fca3 21af 661a 84af 55a2 1f2e
00000010: 2742 f0ae 5d41 f52e d62b 8929 1768 d0a8
00000020: 6354 99aa 6d90 08ab 6bdc 53aa d22f 5a29
00000030: 52d7 c6a8 6c8e d3a8 8b03 68aa 344c 1f2a
00000040: 70a5 1aaa ddc4 1328 c2a9 8ba9 c94f 7da9
00000050: 5c7a 8e2a 4374 0c2a 6e65 fcac 1884 06ad
00000060: cde5 722c 8ec5 742d c540 22af 5477 282f
00000070: b90b 75ad ce7b 1eac 490c 6f28 2901 62a8
00000080: b479 0eab ca34 01ab 2c3c eeaa 2c59 f529
00000090: a1de 822b d15f 1b2b 9a43 ebaa a862 d4aa
000000a0: 75d2 542b 1ae1 baaa 218b 1da9 9b12 c8a8
000000b0: 4bb1 662b a9d9 09ab 4f1c 42ad 7367 c8ab
000000c0: 43ce 16b0 5409 b42e 4efb 202a 24fb 452b
000000d0: 6e8a 8129 7240 0e2a 49d5 782c 34f8 9caa
000000e0: 623f cc29 064a 602a 2de5 bea8 0518 0a28
000000f0: e154 f128 f876 8ea9 4014 ae2a e20e 472b
00000100: 8672 9229 2729 12aa dc4a 1129 4c89 802a
00000110: 98c3 8bab 4be0 9d2c d381 2a2a 6527 ad2a
00000120: 6fe1 8a2c 98d2 59ae 3226 e7af 5c14 572f
00000130: 0c00 88a8 ece3 f429 b191 4aab 9e54 242b
00000140: d29e 3f2b bdba c92a 7fb5 4e2c 1a9a 7cac
00000150: 98a6 41aa 65f1 11ab 1d8d 09ae c4f2 e02d
00000160: 2dd4 3aac d8b4 9a2c 3ea2 ebaa 3866 342c
00000170: b878 972a dacd 9f2a 465d 432a ac64 4e2a
00000180: 2450 86aa d659 3eaa a29a 5428 5f8c 19a9
00000190: 9796 62aa dbb5 f127 e734 aead f8f3 ceaf
000001a0: 3aba 35ad bf64 5aae 0497 a6a9 4035 8baa
000001b0: 4e1d 4ea8 b043 f4a7 529e 1c2d 772a 012d
000001c0: d0fc 8aae cf54 0e2f 2dfb 51a8 ca2b 88a8
000001d0: 834a d1ad 6a2e ed2d adcc 27ab 6634 09aa
000001e0: 5ab8 67aa 71e5 bd28 b162 97a9 fd10 91a9
000001f0: 1c66 1629 a557 1e29 b81c 1a29 1907 f528
00000200: 5ee5 36ae dd7a 6a2e bc9e 962c 8c30 e2ae
00000210: e3a5 8f29 bfd8 72a9 2188 34aa aaa7 0f29
00000220: 3aaa 8eaa ce45 082b d834 28a9 6cfb b9a9
00000230: 8992 2fad 200f 362c 846a 9c29 8574 7929
00000240: b80d 892c cc7b 1dae b166 1a2b cf5b d52a
00000250: 35b4 6cac 31de 05ab f3b1 4729 d500 54aa
00000260: a020 1fab 35b7 75ae c5d7 9f2d 0fc5 79ad
00000270: 3d27 74aa 1853 45aa ef57 bfa8 bd00 d4a8
00000280: 90ce 4aa7 7b36 f329 44c7 ba2c 714d 8cad
00000290: c932 3e2d ad84 bead 505c b3a9 9ef5 24a9
000002a0: a735 47a8 e84c 6227 c08d 9229 ef4b f3a8
000002b0: f586 4a28 debf 4ea9 7b00 39aa dc67 7f2a
000002c0: ec26 2828 3d6d 3929 36e2 faad ba79 a5ac
000002d0: 2b95 86a9 e9f2 b629 2978 8caa 26c6 7eaa
000002e0: 5fb1 8a2a 320b 262a a6df efaa 2e09 f729
000002f0: 1045 762a 12f3 8aa9 f399 daae 127c c22e
00000300: ac20 51aa 788f 95aa 2e3d 19aa 66b2 75a9
00000310: 864f c929 00f1 53a9 31bb adac a3a2 96ac
00000320: 56fe 4baa 975c d4aa 4d7d d528 4ef7 1a29
00000330: 4bd7 1f29 03ee 5228 1bd2 73ad 35dc 3aad
00000340: eaf0 e7ac b0e4 1fad b837 2cac e3e9 4d2f
00000350: eaf3 68ab 3a0c e3aa 59d8 042a 234a 4baa
00000360: 9654 a62a 90e9 282b 886b 9b2f 3d98 04af
00000370: 9d3f 0fa8 516c 0eaa af17 272b 5c9b 652a
00000380: 5e7e 0029 040f 4029 06f0 5428 9251 eea8
00000390: c374 7aa8 cdf3 0da9 b05c 53a9 adb9 4d29
000003a0: a2fe 142b b6a1 54aa e836 efa9 645b f628
000003b0: 1ca3 202e bc87 6b2d 28e1 712b dbea 3a2b
000003c0: 1cb2 9429 3d5c e8a8 ef7f 162a 1ae8 66aa
000003d0: b2a9 56ac cff0 8e2c c93d 352a d0cf dd28
000003e0: 3c95 012c 9db9 8dac 1bdf 022a 44e2 4fa8
000003f0: db59 ba2a dcd6 5faa c874 72ae b904 dc2d

exp_avg_sq f4 [10000, 2]
7.920813e-20 2.1559976e-20 5.826089e-20 1.3281906e-21 1.1866367e-20 1.2408874e-20 2.8896803e-27 2.3744682e-27
1.0606611e-25 2.4820167e-25 3.1546822e-26 2.0917785e-27 2.899614e-28 1.0163109e-27 4.5421304e-26 1.0200118e-26
2.4075289e-26 3.8867464e-28 3.3247198e-27 2.7347639e-27 8.0605086e-26 1.3756854e-26 5.148441e-23 5.8539317e-23
1.1541603e-23 1.9424467e-22 2.1743583e-20 2.3408213e-20 1.9621956e-22 5.1981555e-24 1.6562998e-28 2.1110949e-28
2.253557e-25 1.8536654e-25 1.6732201e-25 1.1094815e-26 3.876943e-25 3.0837939e-25 2.3568368e-25 1.5304885e-25
2.9600019e-25 1.2777036e-25 1.1317797e-27 3.5681088e-28 8.1647513e-25 2.5240502e-25 1.2160924e-22 1.9869738e-24
3.001038e-19 6.7531898e-21 1.4500396e-26 3.3633297e-25 3.3611002e-27 1.6210796e-26 1.26360655e-23 7.0445495e-26
7.793573e-27 3.7589093e-26 1.31441435e-27 2.9968725e-29 8.493033e-28 3.8215692e-27 9.5381394e-26 4.98816e-25
3.0488569e-27 2.751525e-26 7.331954e-27 7.853273e-26 9.868002e-25 2.013303e-23 2.3465114e-26 9.6789936e-26
1.5484357e-23 2.447201e-21 1.7573161e-19 3.8021877e-20 5.0952253e-28 1.3689673e-26 5.0037945e-25 3.4675609e-25
3.8261773e-25 2.1199062e-25 1.045103e-23 1.9047962e-23 2.7614828e-26 3.4082464e-25 9.77395e-22 6.5508055e-22
7.024713e-24 1.9346443e-23 2.632963e-25 7.689696e-24 5.232768e-26 1.0300041e-25 3.9501433e-26 4.021626e-26
7.875016e-26 2.3548781e-26 4.0969462e-29 1.43183695e-27 2.8394808e-26 4.160381e-28 3.677845e-22 1.4059165e-19
1.0177559e-22 2.3829866e-21 2.6106504e-27 6.7139674e-26 3.1314441e-28 3.0727432e-28 7.744236e-23 5.4202614e-23
3.9876717e-21 1.6588474e-20 3.1304024e-28 5.6691525e-28 5.655824e-22 7.243965e-22 3.5569415e-25 1.4796385e-26
4.6364307e-26 5.1606602e-28 4.655286e-27 5.897701e-27 1.23315195e-27 1.1415323e-27 1.1249551e-27 4.74124e-28
1.7244317e-21 2.7854352e-21 2.1012282e-23 1.0445365e-20 5.228233e-27 3.696688e-27 2.0874303e-26 3.932451e-27
6.528129e-26 2.383739e-25 1.956398e-27 8.465073e-27 9.5121296e-23 6.5862395e-24 2.5013086e-27 4.736853e-27
1.5428198e-23 1.2881872e-21 3.7293557e-25 1.4581766e-25 1.0480048e-23 2.1358932e-25 4.6262582e-27 1.0816446e-26
3.295185e-25 2.9644754e-21 3.297082e-22 2.0191901e-22 4.7032312e-26 4.0989333e-26 4.879973e-28 1.017604e-27
4.4736086e-27 1.9822007e-26 2.917498e-23 2.4852867e-22 1.1719064e-22 4.674181e-22 1.7651117e-27 7.06625e-27
1.112884e-28 2.2554918e-29 6.215776e-27 1.6017877e-28 1.1028113e-28 5.568258e-27 6.7046194e-26 5.5369007e-26
2.459476e-28 3.0490743e-27 8.077822e-22 2.152354e-23 4.617574e-27 8.53118e-27 5.139158e-26 4.2271876e-26
6.514941e-26 3.712641e-26 1.7052545e-25 1.1307282e-26 4.5407798e-26 3.9318272e-27 9.874204e-21 7.8197204e-21
3.5973586e-26 1.3515932e-25 1.5632343e-26 1.8741479e-27 6.753246e-27 5.5489393e-27 2.1678084e-23 1.4474506e-23
7.2427286e-26 4.963234e-26 7.452294e-28 5.9882564e-28 1.2579033e-27 9.970145e-29 1.9149477e-22 1.1173024e-22
4.306282e-23 8.142247e-23 5.6460617e-24 3.488915e-20 4.5246074e-25 3.1132186e-25 1.6276686e-26 4.0510516e-26
8.9382477e-26 3.6868824e-25 7.835106e-20 1.4381695e-20 6.399236e-28 1.8141833e-26 3.5961445e-25 4.240816e-26
1.531266e-27 1.4618928e-27 1.1375982e-28 2.1350476e-27 2.0340146e-28 1.7733281e-27 2.7711986e-27 1.3363274e-27
2.6986015e-25 2.8973444e-26 9.26396e-27 6.1422884e-28 1.3896586e-21 1.8760186e-22 1.2878102e-24 2.1945975e-25
3.4384606e-27 1.2428151e-27 9.321668e-27 4.9088204e-26 9.0245364e-24 1.6124255e-23 2.6789442e-26 5.460002e-28
3.5063936e-24 2.0358876e-23 1.1709915e-26 2.2643233e-28 9.5204584e-26 3.4323813e-26 3.0302962e-21 6.2369464e-22
00000000: 6006 bb1f d3a0 cb1e 8c90 891f e3b5 c81c
00000010: 3b26 601e a265 6a1e aef1 6413 f01f 3c13
00000020: b14d 0316 20a1 9916 5936 1c15 4fba 2513
00000030: edc8 b711 780a a112 58ea 6015 be08 4a14
00000040: 1c6e ee14 115a f611 aab4 8313 9aab 5813
00000050: 8b91 c715 c53d 8814 9df6 781a 158a 8d1a
00000060: 403f 5f19 d0d3 6a1b c25c cd1e 9615 dd1e
00000070: 0337 6d1b 0a18 c918 00f6 5111 79ce 8511
00000080: 097d 8b16 0079 6516 7622 4f16 65c1 5b14
00000090: 9df8 ef16 aae0 be16 92e1 9116 1e77 3d16
000000a0: 1a37 b716 0b2c 1e16 7056 b312 e027 e211
000000b0: d3af 7c17 2c3b 9c16 3d04 131b 12bc 1918
000000c0: 6726 b120 d820 ff1d df9a 8f14 162e d016
000000d0: 9b25 8513 408b a014 c46a 7419 236a ae15
000000e0: 1c5e 1a14 d621 3a15 fb46 d012 a1f5 1710
000000f0: d693 8612 5163 9713 2427 ec15 4660 1a17
00000100: 2a8e 7113 b93f 0815 6c39 1114 0870 c215
00000110: 2fb3 9817 f8b6 c219 2263 e814 e9a3 ef15
00000120: 69c1 9519 c0e7 381d 9f77 4f20 a18d 331f
00000130: 6179 2112 7293 8714 25dc 1a17 b2a1 d616
00000140: 33d4 ec16 4137 8316 fe26 4a19 7838 b819
00000150: f4bd 0815 d2f5 d216 23b3 931c 67fc 451c
00000160: b2e0 0719 791b bb19 f7f8 a216 88bd 1419
00000170: 9c8e 8115 4404 ff15 049a 4315 2b24 4715
00000180: d8f9 c215 4137 e914 67bd 4f10 35e2 e212
00000190: b29a 0c15 05d9 0312 e54f de1b 38fb 2520
000001a0: 0a14 f61a aa0d 341d 48d6 4e13 d33a a615
000001b0: 967a c611 1cc2 c211 803e bb1a cb0d 831a
000001c0: 65a6 961d 78ac 9c1e af69 c611 a1a9 3312
000001d0: d2ef 2a1c 77ef 5a1c fd29 dc16 4b89 9214
000001e0: be95 6515 408c 2312 356a b813 cba1 e913
000001f0: 9666 c312 0de2 b412 9a41 b212 8241 1612
00000200: 5c4b 021d 2776 521d e437 cb19 b04e 451e
00000210: 951c cf13 df70 9213 a5ba ce14 cac7 9b13
00000220: efa0 a115 da8b 9316 7700 1b13 05ab 2714
00000230: 3bfd e51a f5ca fe18 912c 4613 65a5 bb13
00000240: 5e36 9519 54aa c21c 00d6 e616 7683 3416
00000250: afb6 4a19 9434 8416 d543 b713 e63d 5614
00000260: 4af6 cb16 4bfd 5f1d df4b c71b e81a 741b
00000270: 8ae4 6815 27f8 4a15 0ba7 1a12 ec3e a112
00000280: c837 b113 c24e c414 e014 0d1a f339 961b
00000290: bfac 0d1b b944 0d1c b8d8 0b13 25f6 0b14
000002a0: 2713 0d11 eabb e40f 753b f613 fc0c 4b11
000002b0: 46cc 0b11 d894 dc13 93ff a515 4716 8915
000002c0: 48e3 9b11 9392 7113 1f23 741c b429 d019
000002d0: c3eb b613 39fa 2814 917a 7e15 f851 5115
000002e0: 584d a115 51d7 3715 ac19 5316 bbf6 5f14
000002f0: 39d9 6015 77c1 9b13 b884 3a1e d9b5 131e
00000300: f021 3215 b351 2716 b3d0 9a14 3c7c 1413
00000310: 06c3 0514 eed0 db13 56a8 d119 24fd 8b19
00000320: 3f52 b315 77c4 7515 312c 6c12 82c6 3d12
00000330: 9f52 c712 f1c5 fc10 c380 671b d612 071b
00000340: 303d 501a 11de c41a e36b da18 65c2 241f
00000350: a207 0c17 ebb2 c016 4d32 a114 2e99 4815
00000360: e04c dd15 fc34 e416 4f00 b91f ced4 871e
00000370: c5cc 4a12 03ab b314 2f97 de16 bbfe 5115
00000380: 87a3 f212 6ba5 e712 2c35 1011 e927 2913
00000390: c6eb 8011 5e7f 0c13 968e 5b13 e1bf d312
000003a0: 0c09 a716 3478 0f15 dc7d 3714 2aa8 4212
000003b0: d0ff d11c f7cb 621b 6b47 c717 c9d6 8716
000003c0: 2236 8813 92ee c412 79a2 3814 b112 7315
000003d0: 578f 2e19 b9f1 9b19 a7a7 0415 cc08 2d12
000003e0: a4a5 8718 23e6 c419 53f0 6714 bf84 8f11
000003f0: 13b7 eb15 9af6 2915 74f6 641d 0980 3c1c

exp_avg f4 [10000]
3.2052352e-10 2.407316e-10 1.5145878e-10 -6.346101e-14 -6.4219666e-14 1.8829239e-13 -1.3348658e-13 -1.1488323e-13
-5.4614604e-14 9.036596e-14 -6.8970274e-14 9.890919e-12 1.14710064e-11 2.1738511e-10 2.3624519e-11 -8.361297e-15
7.374846e-13 4.2346484e-13 4.646392e-13 -6.4878536e-14 2.786838e-14 -4.377495e-14 -2.0141026e-14 6.0263916e-12
5.034107e-10 1.3191808e-14 1.8249206e-13 3.6325172e-12 2.8773628e-13 -5.8578054e-14 -1.7326882e-14 1.0187672e-12
-2.7466976e-14 -5.4095495e-14 1.1432481e-37 4.5067e-13 4.997236e-11 4.4578144e-10 -2.6854348e-14 1.2019295e-12
-2.8037604e-14 -3.3255977e-13 -3.410784e-14 4.6580368e-11 6.8931774e-12 -1.4477415e-13 -1.4035695e-13 -1.1543488e-14
-2.2088048e-14 -1.5556678e-14 -2.4269595e-14 3.3559214e-10 3.5846884e-11 -1.4729442e-14 -2.4064914e-14 9.017382e-12
1.5152955e-10 -1.28715745e-14 3.6921136e-11 3.3042246e-13 -6.070965e-14 -2.6109658e-14 -6.689294e-14 -6.846377e-14
6.525044e-11 9.438393e-11 -5.6350266e-14 5.742499e-15 6.5159813e-13 -2.4338103e-14 5.14959e-12 -3.4640287e-14
3.5457012e-11 -6.9039745e-14 1.210013e-12 -2.297598e-14 4.7607952e-11 2.148867e-11 -1.7761552e-14 -1.1856367e-13
-1.4729635e-14 1.7092393e-11 1.4627063e-11 -2.5093944e-14 -3.1785928e-14 -2.062019e-14 -5.2030273e-14 -7.115104e-14
-3.4036955e-14 3.1333092e-11 -3.529091e-14 3.6355055e-13 -6.7057145e-14 4.2637747e-13 -1.7415682e-14 1.1217584e-10
-5.265592e-14 -2.4276254e-14 -4.77719e-14 2.6521513e-12 -2.3192306e-14 -6.864709e-14 -6.807647e-14 1.7235297e-11
1.2307031e-11 2.2209799e-10 -1.22178065e-14 -3.1562155e-14 8.79261e-13 3.5276243e-10 -2.613798e-14 8.531413e-13
-1.392227e-13 -4.967696e-14 -6.8765184e-14 -1.3964986e-13 9.545396e-13 1.06301456e-13 -1.690545e-11 -1.3895059e-13
-6.893303e-14 -1.3887861e-13 2.409425e-12 -1.3758477e-13 -1.6956349e-13 -6.8925226e-14 4.5335686e-13 6.575561e-11
-4.0066275e-14 -1.4594009e-15 1.3698583e-10 4.513745e-12 -1.3521768e-13 -4.9325195e-14 1.5875144e-13 1.0082888e-11
-7.0604804e-14 3.2754376e-13 -2.5959937e-14 -1.1781273e-13 -6.622415e-14 7.723214e-11 1.211592e-13 1.7576777e-11
1.20725045e-11 1.5006169e-10 2.1654612e-11 -4.9113518e-14 6.592273e-11 1.009373e-11 8.8899884e-13 1.3718163e-12
-6.501223e-14 2.5861895e-13 1.9227413e-10 -5.179969e-14 2.1939477e-13 -4.955266e-14 -1.3715183e-13 -1.9810759e-14
5.3241135e-13 -1.233284e-13 -2.921614e-14 1.110212e-37 -4.8907747e-14 2.7106588e-11 -1.392787e-13 -1.7458268e-13
-1.2815472e-13 4.5803823e-13 -3.566464e-14 3.9570946e-12 -3.3033787e-14 -6.9179885e-14 6.8333785e-12 -2.9419e-14
2.7801959e-11 1.1513725e-11 -7.0039155e-14 -6.3488927e-15 1.734527e-10 -5.0045915e-14 -5.5911188e-14 -9.630894e-15
1.6696873e-11 -2.8910715e-14 -7.063642e-14 5.7193782e-15 1.1259332e-37 -1.19267796e-14 -4.9944298e-14 -6.981824e-14
-6.9849454e-14 2.2760984e-13 3.0905728e-13 4.3720837e-13 2.5898183e-13 2.2533841e-12 1.1163471e-37 -6.704573e-14
-2.8480737e-14 4.449664e-13 -2.3112398e-14 -5.511861e-14 -7.0447764e-14 -3.348771e-14 -1.334701e-13 1.1736554e-12
6.9544853e-13 -6.206868e-14 -1.3601061e-13 -3.1036995e-14 2.6335718e-13 -9.6405184e-14 -6.741089e-14 -1.6921934e-14
7.9529337e-16 -2.623837e-14 -5.552077e-14 2.3399078e-11 -1.2374813e-13 5.500331e-13 -5.686133e-15 -6.810786e-14
-6.971711e-14 6.2471724e-13 1.8428378e-13 1.1434817e-37 -7.124663e-14 -7.027762e-14 -3.061677e-14 1.6820532e-10
-1.3329897e-13 1.4773497e-12 -2.7423933e-14 -3.3150085e-14 -6.890996e-14 -1.7891703e-13 2.4222697e-11 -2.5067747e-14
5.0690823e-11 -6.6912486e-14 -2.969091e-14 -1.3388037e-13 -2.3432548e-14 2.30605e-13 -6.7695564e-14 6.8281552e-12
-5.3986323e-14 2.194301e-10 4.4872762e-11 3.5696623e-11 8.836219e-12 -3.5087256e-14 -6.9637784e-14 -6.695322e-14
00000000: ad35 b02f f657 842f db87 262f c8e6 8ea9
00000010: 1e9c 90a9 96ff 532a e34a 16aa d658 01aa
00000020: 5af6 75a9 6e7c cb29 a84e 9ba9 bd00 2e2d
00000030: d2cc 492d 7804 6f2f b0cd cf2d ad9f 16a8
00000040: 5e95 4f2b b763 ee2a c8c8 022b ee17 92a9
00000050: 1c04 fb28 1525 45a9 0b6a b5a8 e908 d42c
00000060: 6160 0a30 7aa4 6d28 c177 4d2a 9d9d 7f2c
00000070: 2bfb a12a f3e7 83a9 1211 9ca8 f560 8f2b
00000080: 8966 f7a8 dc9f 73a9 629c 1b02 64b4 fd2a
00000090: e0c7 5b2e 2912 f52f e9e1 f1a8 1328 a92b
000000a0: 508a fca8 ea36 bbaa aa9b 19a9 d5dc 4c2e
000000b0: 3988 f22c 4f00 23aa 2307 1eaa f1f2 4fa8
000000c0: 92f3 c6a8 421f 8ca8 e099 daa8 657e b82f
000000d0: 01a8 1d2e c8ab 84a8 eac1 d8a8 aea2 1e2d
000000e0: c79b 262f a9df 67a8 8161 222e e502 ba2a
000000f0: bbb4 88a9 c62c eba8 28a1 96a9 ad2a 9aa9
00000100: bb7c 8f2e 6e8d cf2e 6fc7 7da9 34e5 ce27
00000110: 9868 372b d837 dba8 622f b52c 8801 1ca9
00000120: 0cf1 1b2e b476 9ba9 504b aa2b 01f3 cea8
00000130: ca61 512e 2f04 bd2d 5afb 9fa8 a77d 05aa
00000140: 3aac 84a8 a658 962d 38a9 802d b206 e2a8
00000150: ae26 0fa9 ecba b9a8 d252 6aa9 c837 a0a9
00000160: f049 19a9 edcd 092e a6ef 1ea9 28a9 cc2a
00000170: d0ff 96a9 7807 f02a d4dd 9ca8 62ad f62e
00000180: 2424 6da9 3ba9 daa8 4025 57a9 e9a0 3a2c
00000190: d1e5 d0a8 5a94 9aa9 6a4b 99a9 709a 972d
000001a0: f181 582d 0733 742f b018 5ca8 b024 0ea9
000001b0: 6f7d 772b e6ee c12f 146e eba8 4f23 702b
000001c0: 36c0 1caa a3b9 5fa9 6ed8 9aa9 553b 1daa
000001d0: ea56 862b 9e5e ef29 b0b3 94ad c871 1caa
000001e0: 3039 9ba9 095d 1caa 588c 292c 1ce8 1aaa
000001f0: 59e9 3eaa b034 9ba9 9c37 ff2a 1e99 902e
00000200: 4571 34a9 6452 d2a6 159e 162f 33d0 9e2c
00000210: d83d 18aa 1424 5ea9 fdbc 322a 4a61 312d
00000220: e6fc 9ea9 0864 b82a 8ad3 e9a8 35a5 04aa
00000230: a01f 95a9 d4d5 a92e c369 082a 629b 9a2d
00000240: ba61 542d 9cfe 242f da79 be2d 0830 5da9
00000250: 33f7 902e 1e92 312d 1e3b 7a2b e410 c12b
00000260: 0065 92a9 eb96 912a 5b68 532f fa48 69a9
00000270: 3d04 772a 542a 5fa9 536b 1aaa 8070 b2a8
00000280: 48dc 152b feda 0aaa eb93 03a9 3e1d 1702
00000290: cb42 5ca9 9c6e ee2d 5ad0 1caa 0890 44aa
000002a0: 154a 10aa 22ed 002b 889e 20a9 573a 8b2c
000002b0: 5dc5 14a9 7dc7 9ba9 9a6d f02c cc7d 04a9
000002c0: 728c f42d 358d 4a2d d3b6 9da9 33be e4a7
000002d0: 98b6 3e2f 0363 61a9 36cd 7ba9 a97e 2da8
000002e0: 04de 922d c933 02a9 200f 9fa9 f40f ce27
000002f0: 0c41 1902 90da 56a8 dbed 60a9 7a37 9da9
00000300: 7849 9da9 0922 802a d9fb ad2a 5e20 f62a
00000310: 37cb 912a 5c91 1e2c 05f3 1702 3bf9 96a9
00000320: 0e44 00a9 6b7e fa2a 902d d0a8 6e3b 78a9
00000330: 5fa2 9ea9 b3d0 16a9 2346 16aa 642d a52b
00000340: 59c0 432b 28c4 8ba9 6422 19aa 38c7 0ba9
00000350: c541 942a ce15 d9a9 bbcb 97a9 536b 98a8
00000360: 4b3a 6526 9055 eca8 170b 7aa9 0ad2 cd2d
00000370: f853 0baa 10d2 1a2b 52dd cca7 825d 99a9
00000380: 2dfd 9ca9 9fd7 2f2b 2f7c 4f2a 86a4 1b02
00000390: e36e a0a9 4a40 9ea9 bce2 09a9 97f1 382f
000003a0: d014 16aa 22eb cf2b 4903 f7a8 724b 15a9
000003b0: e32b 9ba9 5371 49aa aa10 d52d 4aca e1a8
000003c0: cbf0 5e2e 6cac 96a9 4ab7 05a9 64bc 16aa
000003d0: c70f d3a8 afd1 812a d66f 98a9 8e3e f02c
000003e0: fe21 73a9 1544 712f 3d5a 452e d3fe 1c2e
000003f0: cb72 1b2d da04 1ea9 73cf 9ca9 e7c3 96a9

exp_avg_sq f4 [10000]
1.03754977e-19 5.4531e-20 2.3099876e-20 3.2558697e-27 3.3927016e-27 3.1591932e-26 8.3236165e-27 7.928897e-27
2.8742673e-27 7.059561e-27 3.5259313e-27 9.769394e-23 1.3033992e-22 4.7342642e-20 5.5411514e-22 4.544966e-29
4.785044e-25 1.6756223e-25 5.0428076e-25 3.301699e-27 2.256455e-27 1.2402047e-27 3.5909486e-28 3.6620368e-23
2.549015e-19 5.9188334e-28 3.382914e-26 1.3030168e-23 7.84402e-26 1.8950789e-27 2.0880725e-28 1.0354174e-24
8.103347e-28 4.7159904e-27 0.0 2.0783978e-25 2.5056036e-21 1.9980982e-19 4.1264075e-28 1.4913153e-24
1.0877127e-27 1.3136029e-25 6.014074e-28 2.170872e-21 4.7534313e-23 1.0087897e-26 9.082625e-27 1.2177993e-28
1.1614038e-27 4.399868e-28 3.8919633e-28 1.1417074e-19 1.3289977e-21 6.025108e-29 5.741364e-28 8.3223267e-23
2.3190721e-20 2.1500875e-28 1.3685038e-21 1.0900206e-25 1.8985796e-27 6.1589545e-28 2.1794534e-27 2.1700065e-27
4.3354075e-21 9.09775e-21 1.7565614e-27 9.35845e-29 4.318344e-25 5.1367864e-28 2.9443205e-23 8.91153e-28
1.251453e-21 3.9494394e-27 1.7812716e-24 3.05274e-28 2.4609433e-21 4.618017e-22 2.1757938e-28 7.488966e-27
5.040185e-29 3.0246674e-22 2.157185e-22 6.504393e-28 7.463212e-28 5.8519343e-28 3.0371068e-27 3.2853387e-27
5.31608e-28 9.906098e-22 8.053095e-28 1.0912036e-25 2.380357e-27 1.7077062e-25 8.240819e-29 1.2598647e-20
2.670395e-27 1.2072614e-27 2.291845e-27 8.849458e-24 6.2270765e-28 2.2141219e-27 3.408903e-27 2.997357e-22
1.5402252e-22 4.9588305e-20 5.031822e-28 8.878807e-28 7.916957e-25 1.2651163e-19 5.188482e-28 7.4304884e-25
8.913776e-27 1.7821142e-27 3.2456653e-27 8.708713e-27 9.63453e-25 9.276935e-27 2.9266732e-22 9.728588e-27
2.1230313e-27 1.1593738e-26 5.8259496e-24 8.7511275e-27 3.5319296e-26 2.220406e-27 1.7858557e-25 4.34018e-21
1.0236599e-27 1.5313878e-26 1.8928157e-20 2.0505917e-23 8.8246095e-27 1.8961189e-27 2.5798015e-26 1.024877e-22
2.3017679e-27 1.0863147e-25 1.0322924e-27 6.83854e-27 2.2955184e-27 5.9700404e-21 1.4508773e-26 3.3013932e-22
1.480064e-22 2.2833948e-20 4.739857e-22 1.3573063e-27 4.452717e-21 1.025593e-22 5.158573e-25 1.9957784e-24
3.471781e-27 6.2317053e-26 3.7177545e-20 1.7434317e-27 5.062058e-26 2.0892867e-27 8.740046e-27 3.7465226e-28
2.6498516e-25 8.1245624e-27 1.3123033e-27 0.0 1.713629e-27 7.3789236e-22 9.280224e-27 9.21578e-27
8.121959e-27 2.2334814e-25 8.729412e-28 1.4728128e-23 8.691673e-28 3.651814e-27 4.6288603e-23 4.545432e-28
7.7338055e-22 1.3136306e-22 3.24324e-27 1.8447076e-29 3.0285263e-20 2.8668205e-27 2.318472e-27 7.107873e-29
2.7876355e-22 7.7683246e-28 3.4173474e-27 6.48298e-29 0.0 3.3563858e-28 2.6792e-27 2.0827863e-27
2.5182145e-27 5.1143307e-26 8.769797e-26 1.5349246e-25 6.8129165e-26 7.387527e-24 0.0 2.207214e-27
3.8809816e-28 1.6138043e-25 4.480998e-27 8.379035e-27 3.2602192e-27 4.9350207e-28 7.5917115e-27 1.4050065e-24
5.159722e-25 3.979814e-27 8.6252934e-27 8.378856e-28 6.77746e-26 7.210089e-27 3.2076296e-27 1.3239139e-28
9.667157e-29 5.1507297e-28 1.7624691e-27 5.616342e-22 7.822586e-27 5.284563e-25 2.1833707e-29 1.3954882e-27
3.1363453e-27 3.6465795e-25 4.8931772e-26 0.0 4.043481e-27 2.3345275e-27 8.366882e-28 2.8965765e-20
9.025927e-27 2.1508709e-24 1.2711378e-27 8.405632e-28 2.1244552e-27 8.87268e-27 5.8973474e-22 9.16896e-28
2.5773563e-21 3.0901155e-27 7.5394866e-28 8.9237355e-27 3.8547158e-28 4.8824392e-26 2.3466255e-27 4.7158155e-23
2.2292223e-27 4.8458712e-20 2.0184007e-21 1.2871488e-21 8.2277246e-23 6.09792e-28 2.1751391e-27 2.0324795e-27
00000000: 09fc f41f f8c1 801f 132c da1e 71fa 8013
00000010: 1566 8613 886f 1c15 c0dd 2414 490c 1d14
00000020: 11b9 6313 3ad4 0b14 31ad 8b13 9f35 ec1a
00000030: 4092 1d1b be91 5f1f 9578 271c 0875 6610
00000040: 0617 1417 976e 4f16 3d11 1c17 35cb 8213
00000050: 58c6 3213 ae84 c412 799a e311 d215 311a
00000060: a077 9620 4893 3b12 8883 2715 440a 7c19
00000070: 6235 c215 c424 1613 ea58 8411 1c39 a017
00000080: 1567 8012 d3d1 ba13 0000 0000 87a5 8016
00000090: 6c51 3d1d d0e4 6b20 65c5 0212 16c5 e617
000000a0: de5a ac12 bd9d 2216 f797 3e12 c506 241d
000000b0: a1dc 651a b7cf 4714 61e6 3314 d95f 1a11
000000c0: 2308 b812 f86f 0b12 b7ae f611 fdc9 0620
000000d0: 1cd5 c81c 30c1 9810 7bf3 3512 b538 c91a
000000e0: b907 db1e 2a47 8811 6dcd ce1c 22f0 0616
000000f0: c56b 1613 602f 4312 91ac 2c13 f6ec 2b13
00000100: 7dc9 a31d 05da 2b1e 4c2b 0b13 d043 ed10
00000110: 72a5 0517 90ca 2212 ec60 0e1a 7635 8d12
00000120: 3e1d bd1c 1374 9c13 b8d1 0918 8a7d c111
00000130: 91f1 391d 2d92 0b1c 46e8 8911 9255 1414
00000140: 5891 7f10 76d4 b61b d264 821b e821 4e12
00000150: c584 6c12 8874 3912 d89f 7013 4b25 8213
00000160: 2a79 2812 5cb2 951c 7836 7f12 9f15 0716
00000170: 6097 3c13 5f67 5316 f9ed d010 52fb 6d1e
00000180: 0c92 5313 574c bf12 2494 3513 652c 2b19
00000190: 0c58 4512 ba6b 2f13 620a 8713 da2d b51b
000001a0: a933 3a1b 952c 6a1f fd76 1f12 b8b0 8c12
000001b0: 9804 7517 cb5b 1520 f86d 2412 65f6 6517
000001c0: 378e 3014 9231 0d13 f592 8013 6c7e 2c14
000001d0: 4e16 9517 a6bf 3714 13e8 b01b cdb1 4014
000001e0: 3134 2813 3ca3 6514 6961 e118 7d55 2d14
000001f0: 87e4 2e15 2feb 2f13 0714 5d16 a5f7 a31d
00000200: 9434 a212 4ba9 9714 7ac5 b21e 3152 c619
00000210: 16ca 2e14 dc39 1613 bd7d ff14 d0cc f71a
00000220: 665d 3613 b07a 0616 c192 a312 8473 0714
00000230: a5de 3513 b08a e11d 1cb0 8f14 968e c71b
00000240: c3ed 321b 19a9 d71e de40 0f1c e212 d712
00000250: 0938 a81d 22f9 f71a 6da6 1f17 776a 1a18
00000260: 0b88 8913 204a 9a15 e590 2f1f ff20 0a13
00000270: 35a9 7a15 c587 2513 4c1d 2d14 ce76 ed11
00000280: 9304 a416 6dec 2014 59f1 cf12 0000 0000
00000290: 86c4 0713 a803 5f1c 53d0 3714 8e89 3614
000002a0: 3adf 2014 ed3e 8a16 b452 8a12 1471 8e19
000002b0: 9db9 8912 cba9 9013 84d6 5f1a ed0c 1012
000002c0: 6cbd 691c e6ce 1e1b 5c7a 8013 5913 bb0f
000002d0: a304 0f1f 0722 6313 33b0 3713 bc34 b410
000002e0: 9280 a81b 2330 7612 0560 8713 f25c a410
000002f0: 0000 0000 79bc d411 a244 5413 ed03 2513
00000300: 7583 4713 d83f 7d15 3121 d915 b403 3e16
00000310: fdad a815 43e5 0e19 0000 0000 9edf 2e13
00000320: 87fc f511 80c7 4716 b882 b113 c1f6 2514
00000330: 8d26 8113 a565 1c12 8d5e 1614 0b6a d917
00000340: 88af 1f17 1ca8 9d13 6fd7 2a14 aec4 8412
00000350: 42cd a715 7fcf 0e14 7522 7e13 76d3 2711
00000360: 7017 f510 af3b 2312 1fa3 0b13 57be 291c
00000370: 39f1 1a14 9f8c 2317 8b6b dd0f ba1f dd12
00000380: a47c 7813 5cb6 e116 644c 7215 0000 0000
00000390: c52d a013 d8f5 3813 1b94 8412 76c9 081f
000003a0: e3c6 3214 636a 2618 7a6b c912 4b31 8512
000003b0: 1251 2813 d5bd 2f14 843c 321c b849 9112
000003c0: 52bd 421d fdd2 7413 95ef 6e12 b7c0 3014
000003d0: 5752 f411 45c4 7115 38eb 3913 f80a 641a
000003e0: 009e 3013 fdd6 641f 8c81 181d 2882 c21c
000003f0: 26ef c61a 3440 4112 1055 2c13 9507 2113
