checkpoints/checkpoint_500.pth (torch, 369684 bytes, 6 tensors)

W f4 [10000, 2]
0.0039109224 0.004959623 -0.0020798692 -0.0044496832 -0.48938757 0.2310249 0.0052300855 0.0064215674
-0.002780847 -0.00013120478 0.3947129 0.8880195 0.006222575 0.008665725 0.0046575265 -0.009233426
0.0055848677 0.0074482993 0.004533553 0.0047192085 -0.0015042335 -0.007948913 0.0018212217 -0.0003706307
0.004211176 -0.0017821502 -0.005675983 0.0013032274 -0.0033222977 -0.0017287367 -0.0025160436 0.000105838815
-0.0054835766 0.0010126425 0.06968036 0.013101161 -0.08855596 0.96158594 -0.0028832047 -0.0020836447
-4.4940258e-05 -4.2157142e-05 -0.79728407 -0.26078886 0.6391427 -0.129639 -9.933871e-05 -4.836979e-06
0.0104931 -0.006851371 -0.0019104022 -0.0023351752 0.51420784 0.015389064 0.00021324867 -1.736478e-05
-0.0026548195 -0.0009287905 0.0017236948 0.0017952302 -0.004672867 -0.0022083302 0.0007169094 -0.0017135808
0.004428324 -0.007944316 0.007901611 0.0034152824 0.0035210513 0.0019963402 -1.9380888e-05 -2.1934184e-05
-0.0012449633 0.0019125202 -0.16380693 0.047172017 0.12926766 0.18120465 0.44630727 0.41322058
-0.000677356 0.0025978815 0.0026271446 -0.0022957628 -0.3383344 -0.20192114 -0.00061267253 0.00047109183
0.37878558 -0.552901 -0.00017200336 0.010795935 0.028875832 0.24141799 -0.00034507265 -0.00023548857
-0.0053400104 -0.00018811617 -0.0014735286 0.0010191214 0.0028237677 -0.0013175446 0.00018661951 -3.11648e-05
0.0046877656 -0.014283809 -0.010661787 -0.0003756414 0.057730667 -0.018511692 0.00070435955 -0.0008265899
0.5030277 0.45955348 -0.0027310217 -9.622721e-05 -0.003226797 -0.005395285 -0.005348791 0.0015977189
4.043514e-05 -0.00017746564 0.00599135 3.6775724e-05 -0.49710822 0.43590856 0.0009896089 -0.0017176109
9.347123e-05 -4.902446e-05 9.586245e-05 -4.084433e-05 0.0072096996 -0.0016577994 -0.009851164 -0.00077692355
1.0245222 -0.55278283 0.0012787142 0.0038373566 0.0013778274 -0.003224155 -9.897065e-05 -7.5761396e-05
0.0009883175 -0.007876164 -0.0024241155 0.0044058748 0.004501733 0.006196458 0.0014940806 0.0023728153
0.004287864 0.005121801 -0.0032996554 -0.0074406313 -0.00022206163 -1.2157061e-05 -0.001459047 -0.002074302
0.14562707 0.04132465 -0.003998282 0.0012631548 0.055700682 -0.09741647 0.0010010529 0.00044233652
-0.37469685 0.15420982 -1.9325731e-05 5.0713024e-05 -0.0018437319 0.0027204156 -0.0016049445 0.001369742
0.22015719 -0.19584441 -0.0010726646 0.011298052 -0.0045968248 -0.00014444489 -0.001278728 0.0020474072
0.006587634 0.0023505474 0.3050921 0.1744521 -0.0036691553 -0.007765604 0.046456166 -0.036682453
-0.6414494 0.30491734 -0.004693553 0.00046700158 1.1405374 -1.6686387 0.00047888927 -0.0012235447
-1.6476017e-05 -1.9215116e-05 0.002514812 0.0033802015 0.40082553 -0.21819231 0.16482358 -0.41608772
-0.0025382207 -0.0040513487 -0.0024787656 0.00544023 0.49832883 0.7019445 0.16339129 0.22847424
1.2745352 0.20720191 -0.003527344 -0.002438661 0.0050170864 -0.011586911 0.0047849645 -0.0026110548
-0.0012359569 0.0020711448 -0.0026901143 0.0055740885 0.12990478 0.03626342 -6.6399516e-05 -4.0384002e-05
0.008021207 0.008333013 -0.0126283765 -0.018423676 0.061068453 0.05232619 -0.0061490843 -0.001592423
-0.04699286 0.05749514 -0.002632683 0.01139853 -0.06288833 -0.064205505 -0.000436205 -0.004888351
0.0017211888 -0.0020714796 -0.0016538935 0.001936504 0.3982023 0.003660824 -0.006593136 0.0029757146
00000000: 3227 803b 5584 a23b 6a4e 08bb a6ce 91bb
00000010: 0291 fabe cb91 6c3e 2361 ab3b 036c d23b
00000020: df3e 36bb 0494 09b9 cf17 ca3e 3f55 633f
00000030: bee6 cb3b affa 0d3c 2a9e 983b cc47 17bc
00000040: 4401 b73b dd10 f43b 338e 943b 97a3 9a3b
00000050: b329 c5ba 283c 02bc 0fb6 ee3a 3651 c2b9
00000060: e8fd 893b 0a97 e9ba 99fd b9bb 0ed1 aa3a
00000070: e8ba 59bb c796 e2ba 35e4 24bb c8f5 dd38
00000080: 93af b3bb a5ba 843a 94b4 8e3d 41a6 563c
00000090: d45c b5bd 7f2a 763f 26f4 3cbb c28d 08bb
000000a0: 3c7e 3cb8 e3d1 30b8 cf1a 4cbf 1e86 85be
000000b0: db9e 233f 16c0 04be 1054 d0b8 554d a2b6
000000c0: 40eb 2b3c 7781 e0bb 7666 faba bd09 19bb
000000d0: 20a3 033f 6a22 7c3c 819b 5f39 95aa 91b7
000000e0: 7bfc 2dbb 137a 73ba 9aed e13a ee4d eb3a
000000f0: d91e 99bb a2b9 10bb faee 3b3a 3b9a e0ba
00000100: 791b 913b e028 02bc c275 013c eed2 5f3b
00000110: 70c1 663b 08d5 023b 2494 a2b7 4dff b7b7
00000120: 092e a3ba 87ad fa3a 01bd 27be 7237 413d
00000130: be5e 043e b68d 393e 6382 e43e a691 d33e
00000140: 9790 31ba 3841 2a3b 2c2c 2c3b 8274 16bb
00000150: 2b3a adbe 6ac4 4ebe c29b 20ba e0fc f639
00000160: 2ff0 c13e ec8a 0dbf cd5b 34b9 6fe1 303c
00000170: 028d ec3c 4736 773e deea b4b9 7bed 76b9
00000180: 41fb aebb 0d41 45b9 6a23 c1ba 0a94 853a
00000190: f60e 393b 76b1 acba 4baf 4339 f3b6 02b8
000001a0: d49b 993b a306 6abc c7ae 2ebc bcf1 c4b9
000001b0: fe76 6c3d d5a5 97bc c5a4 383a 82af 58ba
000001c0: 6cc6 003f 984a eb3e f1fa 32bb 97cd c9b8
000001d0: ac78 53bb eeca b0bb e944 afbb 8d6a d13a
000001e0: e798 2938 1216 3ab9 1653 c43b a23f 1a38
000001f0: f884 febe 682f df3e c4b5 813a 7521 e1ba
00000200: fc05 c438 9d9f 4db8 c309 c938 4450 2bb8
00000210: 583f ec3b 844a d9ba c766 21bc 75aa 4bba
00000220: 8b23 833f 2d83 0dbf 879a a73a 297c 7b3b
00000230: 3798 b43a 584c 53bb 778e cfb8 17e2 9eb8
00000240: 6f8a 813a 070b 01bc e9dd 1ebb 285f 903b
00000250: 4683 933b a80b cb3b 07d5 c33a 3c81 1b3b
00000260: 3681 8c3b c8d4 a73b 083f 58bb 8ad0 f3bb
00000270: 37d9 68b9 2ef6 4bb7 7e3d bfba 03f1 07bb
00000280: 431f 153e 0944 293d 0504 83bb 7190 a53a
00000290: 6626 643d 4982 c7bd c335 833a 67e9 e739
000002a0: 44d8 bfbe 2ee9 1d3e b11d a2b7 b2b4 5438
000002b0: 60a9 f1ba 0049 323b 005d d2ba ea88 b33a
000002c0: e370 613e 708b 48be a798 8cba 771b 393c
000002d0: f6a0 96bb 2176 17b9 fe9a a7ba cb2d 063b
000002e0: 14dd d73b a40b 1a3b 0835 9c3e 92a3 323e
000002f0: 3676 70bb 9c76 febb d248 3e3d 5740 16bd
00000300: 0736 24bf 201e 9c3e 60cc 99bb e4d7 f439
00000310: 21fd 913f f495 d5bf 6e13 fb39 595f a0ba
00000320: fa35 8ab7 2630 a1b7 8bcf 243b 5f86 5d3b
00000330: 0139 cd3e ce6d 5fbe 83c7 283e 7309 d5be
00000340: 4758 26bb 2dc1 84bb c972 22bb f543 b23b
00000350: f524 ff3e a2b2 333f 0c50 273e 27f5 693e
00000360: f823 a33f bd2c 543e 032b 67bb f1d1 1fbb
00000370: 5f66 a43b 07d7 3dbc 31cb 9c3b 3b1e 2bbb
00000380: d5ff a1ba 0bbc 073b a14c 30bb d8a6 b63b
00000390: c205 053e f488 143d f83f 8bb8 fe61 29b8
000003a0: 616b 033c 3187 083c 40e7 4ebc 40ed 96bc
000003b0: ea22 7a3d fd53 563d 427e c9bb d9b8 d0ba
000003c0: 967b 40bd 0680 6b3d 1789 2cbb e6c0 3a3c
000003d0: 99cb 80bd 2d7e 83bd 72b2 e4b9 762e a0bb
000003e0: 8399 e13a a9c1 07bb 75c7 d8ba 4bd2 fd3a
000003f0: 2ce1 cb3e 6fea 6f3b 3c0b d8bb 3504 433b

b f4 [10000]
-0.01187948 -0.00959038 -1.0048395 -0.015565277 -0.0053335736 -1.7880487 -0.020081792 -0.019655284
-0.017521417 -0.012304452 -0.015804894 -0.003558213 -0.008670694 -0.0111657875 -0.00712733 -0.004793374
-0.010699565 -0.1347147 -1.7645748 -0.0067600086 0.00080158596 -1.5579487 -1.1834744 0.0008960322
-0.023791365 -0.0058184434 -0.94633317 0.00050793914 -0.0053564045 -0.004679399 -0.00980613 -0.0035465583
-0.017297972 -0.016220255 -0.0076704137 0.00022538396 -0.0043538045 -0.3256089 -0.40974587 -1.1207399
-0.005085559 -0.0066779293 -0.7313893 -0.0014814044 -1.243712 -0.020489655 -0.46202055 0.0013997129
-0.01023169 -0.0034207704 -0.0059247403 0.0006175133 -0.028691195 -0.02042845 -0.11595127 -0.002062179
-1.2834629 -0.005232756 -0.012238323 -0.010654852 0.0007298681 -0.011423011 -1.2204237 -0.0037745668
0.00064480293 0.00090121524 -0.014176542 -0.018950848 -2.162357 -0.0076084654 -0.0066926996 0.0005902602
-0.015354064 -0.009544443 -0.014417404 -0.00526695 -0.012543144 -0.015882032 0.0016311841 -0.004894321
-0.2881998 -0.007989999 -0.20314375 -0.0020641827 -0.7776379 0.00082884217 -0.0062720426 -0.0040501026
-0.5454502 -0.021625647 -0.0088052675 -0.0046023247 -0.013275267 -0.6439448 -0.016770639 -0.11304237
-1.3132147 -0.009015749 -3.7350037 -0.0025097926 0.00018312645 -0.0079298075 -0.8414801 -0.8319058
-0.009289572 -0.011386608 -1.5845938 -0.516839 -2.4489357 -0.008158121 -0.024096668 -0.010382829
-0.0045931754 -0.011771307 -0.24662085 0.00042894317 -0.021748897 -0.043173242 -0.15140092 -0.012076492
-0.14120547 -0.022135867 -0.1657492 -0.009566655 0.0007704168 -0.0048353244 -0.7362596 -0.013902197
-0.10753946 -0.27058256 0.0012437088 -0.14500302 -0.003551768 -0.021275323 -0.023438798 -0.0091820005
-0.008795798 -0.28004867 -0.017596463 -0.78303975 -0.010576417 -0.25300977 -0.23687524 -0.005276266
-0.013107159 -0.0076156682 0.000567327 -1.2155496 -1.6713345 -0.0049761073 -0.017923702 0.0007594093
-0.016255049 -0.0055952803 -0.010553072 -0.044824217 -0.005009938 -0.017782276 -0.011487913 -0.01595192
-0.0023797692 0.0008555027 -0.00426812 -0.014831027 -2.0165808 -0.005583015 0.0006292624 -0.005439997
-0.00969711 -0.007873645 -0.008986149 -0.13040492 0.0006418024 -0.019070694 -0.009755757 -0.007814953
-0.0051575857 -1.0608474 -0.018827965 -0.021335997 -0.011438615 -0.018549562 -1.9951419 -0.010107134
-0.016361944 0.00014972525 -1.5979823 0.00081667234 -0.00692009 -0.013558674 -0.1503496 -0.009248956
-0.011372977 -0.01725779 -0.01681666 -1.6350255 -0.011940852 -0.003518964 -0.0080643175 0.00012065178
-0.00548674 -0.0399891 -0.09218101 -0.008396459 -0.0005888782 -0.0038432404 -0.02483797 -1.3345194
-0.043532077 -0.027004385 -0.018074574 -0.012734022 -0.00295981 -0.0070632594 -0.27497095 -0.011474226
-0.041431006 -0.005591369 -0.013340162 -0.0021875675 -0.00374626 -0.012459539 -0.012262486 0.0012355798
-0.024306245 -0.0023704884 -0.005694113 0.0007247437 -0.0031729394 -0.22607455 -0.0092643285 -0.13032995
-0.015784524 -0.009136564 -0.7869363 -1.0690573 -0.22451189 -0.054961525 -0.004204344 -0.020496197
-0.025653021 -0.0044349344 -0.0140129225 -0.0068989904 -0.008957538 -0.017264163 -0.10272412 -0.014134408
-0.0038587225 -0.07660031 -0.0071558645 -0.014636229 -0.012683474 -0.013719593 -0.013705941 -0.006346402
00000000: 27a2 42bc f820 1dbc 959e 80bf 8105 7fbc
00000010: 42c5 aebb c8de e4bf 9282 a4bc 1e04 a1bc
00000020: 1389 8fbc 9d98 49bc 4479 81bc e830 69bb
00000030: 870f 0ebc b5f0 36bc 618c e9bb bc11 9dbb
00000040: 3a4d 2fbc a6f2 09be 96dd e1bf 1083 ddbb
00000050: 8621 523a dd6a c7bf 177c 97bf b4e3 6a3a
00000060: 1ce6 c2bc a4a8 bebb e442 72bf 3827 053a
00000070: c784 afbb a555 99bb e4a9 20bc 606d 68bb
00000080: 7ab4 8dbc 57e0 84bc 1858 fbbb 0c55 6c39
00000090: 5caa 8ebb 36b6 a6be 36ca d1be 6874 8fbf
000000a0: c3a4 a6bb 88d2 dabb 543c 3bbf af2b c2ba
000000b0: f431 9fbf ecd9 a7bc f58d ecbe 9276 b73a
000000c0: d1a2 27bc 012f 60bb 5324 c2bb 9ee0 213a
000000d0: cc09 ebbc 9159 a7bc dc77 edbd 9f25 07bb
000000e0: 8348 a4bf 8a77 abbb 3f83 48bc b091 2ebc
000000f0: 9e54 3f3a 9527 3bbc d836 9cbf b95e 77bb
00000100: fe07 293a 883f 6c3a ba44 68bc cf3e 9bbc
00000110: 0f64 0ac0 6f50 f9bb 6f4e dbbb b1bb 1a3a
00000120: 9d8f 7bbc 4c60 1cbc fa36 6cbc 6196 acbb
00000130: c281 4dbc 091b 82bc 75cd d53a 8a60 a0bb
00000140: ed8e 93be 7ce8 02bc ea04 50be 3d47 07bb
00000150: 4713 47bf a846 593a b585 cdbb b9b6 84bb
00000160: a0a2 0bbf 4528 b1bc f843 10bc 19cf 96bb
00000170: 8180 59bc 91d9 24bf 9462 89bc c282 e7bd
00000180: 6b17 a8bf cbb6 13bc 4d0a 6fc0 557b 24bb
00000190: a205 4039 06ec 01bc 3d6b 57bf c7f7 54bf
000001a0: 4a33 18bc e58e 3abc f8d3 cabf 904f 04bf
000001b0: 5dbb 1cc0 a4a9 05bc 6066 c5bc be1c 2abc
000001c0: 5982 96bb 71dc 40bc 2d8a 7cbe c7e3 e039
000001d0: be2a b2bc 6dd6 30bd d808 1bbe 7bdc 45bc
000001e0: 2b98 10be 4756 b5bc 29ba 29be 76bd 1cbc
000001f0: ccf5 493a a471 9ebb 827b 3cbf 0ac6 63bc
00000200: a63d dcbd cc89 8abe f103 a33a ac7b 14be
00000210: c7c4 68bb 9649 aebc b902 c0bc 1a70 16bc
00000220: 401c 10bc 8a62 8fbe 7526 90bc 4b75 48bf
00000230: b548 2dbc 7f8a 81be 6c8f 72be 87e4 acbb
00000240: 69bf 56bc db8c f9bb acb8 143a 2197 9bbf
00000250: 4aee d5bf 9d0e a3bb bad4 92bc 1813 473a
00000260: 4f29 85bc 9d58 b7bb cbe6 2cbc 9999 37bd
00000270: 682a a4bb 23ac 91bc cd37 3cbc 9aad 82bc
00000280: e7f5 1bbb d043 603a 96db 8bbb d6fd 72bc
00000290: a90f 01c0 b9f1 b6bb 16f5 243a 0142 b2bb
000002a0: a1e0 1ebc 7600 01bc a43a 13bc de88 05be
000002b0: a13e 283a 253a 9cbc 9cd6 1fbc 4a0a 00bc
000002c0: f700 a9bb d9c9 87bf 1b3d 9abc d4c8 aebc
000002d0: 0769 3bbc 40f5 97bc cf60 ffbf 6498 25bc
000002e0: 7c09 86bc 91ff 1c39 af8a ccbf f415 563a
000002f0: ecc1 e2bb 3325 5ebc 3ff5 19be ef88 17bc
00000300: b955 3abc 3560 8dbc 18c3 89bc 8448 d1bf
00000310: 90a3 43bc 6b9e 66bb 3320 04bc 6e06 fd38
00000320: 1cca b3bb 9ccb 23bd 66c9 bcbd 4d91 09bc
00000330: f25e 1aba e0de 7bbb 0079 cbbc 88d1 aabf
00000340: b14e 32bd 4d38 ddbc 2111 94bc 5ca2 50bc
00000350: 5ff9 41bb ea72 e7bb fec8 8cbe 64fe 3bbc
00000360: 8fb3 29bd cd37 b7bb b290 5abc 4b5d 0fbb
00000370: d083 75bb 1823 4cbc 98e8 48bc 2ef3 a13a
00000380: e41d c7bc 325a 1bbb af95 babb bafc 3d3a
00000390: 17f1 4fbb 1680 67be 69c9 17bc 3775 05be
000003a0: 8c4e 81bc 87b1 15bc a874 49bf dfd6 88bf
000003b0: 72e6 65be 561f 61bd 98c4 89bb a4e7 a7bc
000003c0: 4926 d2bc ed52 91bb 7596 65bc ed10 e2bb
000003d0: a3c2 12bc 936d 8dbc 0661 d2bd 0194 67bc
000003e0: 9fe2 7cbb a0e0 9cbd be7b eabb cbcc 6fbc
000003f0: 59ce 4fbc 25c8 60bc e28e 60bc 7bf5 cfbb

exp_avg f4 [10000, 2]
3.7546789e-13 5.178273e-13 -1.8216652e-13 -3.6877093e-13 1.00528974e-10 -5.1827747e-11 3.6207376e-13 4.993548e-13
-2.8539218e-13 -2.7094665e-14 -7.9651466e-11 -1.5852689e-10 5.2624794e-13 7.25776e-13 3.2001908e-13 -8.236057e-13
6.5766457e-13 9.070195e-13 3.773222e-13 3.4853666e-13 -1.2181665e-13 -7.517241e-13 1.8840426e-13 -4.8221745e-14
3.735542e-13 -2.015009e-13 -5.670394e-13 1.070878e-13 -3.0802547e-13 -1.8453545e-13 -2.5894778e-13 -1.9137276e-14
-5.294987e-13 9.999809e-14 -1.3282988e-11 7.0533874e-12 2.022881e-11 -2.459768e-10 -2.4375586e-13 -2.5420348e-13
8.125452e-15 2.0771326e-14 1.4673243e-10 1.3776034e-11 -1.4681391e-10 1.8898216e-11 6.4202743e-15 2.1558854e-14
1.2305663e-12 -6.6800504e-13 -1.673258e-13 -1.7730102e-13 -1.4667867e-10 -1.9814395e-11 -2.1537944e-13 -1.387657e-14
-2.4128017e-13 -7.864373e-14 2.2916494e-13 2.1140715e-13 -3.6860583e-13 -2.2082865e-13 6.438345e-14 -1.6800821e-13
4.4604237e-13 -6.547709e-13 7.7750106e-13 -1.5678684e-12 2.6113186e-13 1.4716537e-13 1.8672424e-15 4.389486e-15
-1.5150411e-13 2.1918205e-13 1.2086054e-11 1.7426134e-12 -3.6157466e-11 -4.5522343e-11 -7.3052744e-11 -7.315055e-11
-9.6694666e-14 2.4771195e-13 2.5860406e-13 -2.3188268e-13 7.32472e-11 2.2726938e-11 -6.935521e-14 5.9425114e-14
-1.2220754e-10 1.1637679e-10 -1.2186168e-13 1.1262438e-12 -8.195188e-12 -2.4981062e-11 2.4578228e-14 3.250684e-14
-5.403529e-13 -3.9934242e-14 -9.247739e-14 7.923672e-14 3.4007064e-13 -1.8343935e-13 -1.0334634e-14 1.4317557e-14
4.8115087e-13 -1.2894703e-12 -1.0780769e-12 -7.967419e-14 -1.0115108e-11 3.4240694e-12 7.71672e-14 -1.126808e-13
-5.075142e-11 -4.593226e-11 -2.776434e-13 -2.0518956e-14 -2.874694e-13 -5.8159456e-13 -5.432325e-13 1.0623339e-13
1.39011956e-14 1.1713164e-14 3.7805257e-13 1.8730572e-16 7.3045556e-11 -9.6995925e-11 7.891592e-14 -1.1584515e-13
1.8786107e-14 2.5506006e-15 7.324636e-15 8.775921e-15 7.4676707e-13 -1.9113374e-13 -9.727343e-13 -9.234981e-14
-2.9683922e-10 1.0245007e-10 6.422155e-14 3.7745192e-13 -4.805768e-14 -3.6186898e-13 -5.810954e-15 1.7822468e-14
6.22987e-14 -5.839936e-13 1.64597e-12 6.007133e-13 3.353815e-13 4.6254217e-13 1.3254133e-13 1.8279467e-13
3.9271082e-13 5.4160794e-13 -4.925154e-13 -9.970294e-13 1.1666969e-14 3.3967587e-14 -9.3434395e-14 -1.8890185e-13
-1.2102246e-11 1.1889194e-11 -3.7319247e-13 7.298073e-14 -1.1420873e-11 7.328752e-12 9.396488e-14 5.2955544e-14
8.651732e-11 -2.7128032e-11 1.1610478e-14 3.5990765e-14 -2.1632904e-13 3.1296474e-13 -1.9303308e-13 1.653951e-13
-5.69602e-11 3.6320228e-11 -1.2663739e-13 1.1703806e-12 -4.4776498e-13 -3.3091626e-14 -1.165184e-13 1.6856796e-13
6.359611e-13 1.6863903e-13 -7.0713685e-11 -4.7913076e-11 -5.5076245e-13 -1.1148299e-12 2.1093396e-12 9.913606e-12
1.4647777e-10 -9.0102675e-11 -4.3139594e-13 8.147096e-14 -3.2368655e-10 3.005704e-10 4.2844214e-14 -1.11801695e-13
1.4297707e-15 4.4654527e-15 2.9863267e-13 4.1185984e-13 -7.2330905e-11 2.3984714e-11 -6.0819835e-11 8.3514334e-11
-1.866672e-13 -3.775972e-13 -1.9058397e-13 4.8547706e-13 -9.168008e-11 -1.2969051e-10 -3.641376e-11 -5.1345622e-11
-2.9817204e-10 -3.7813096e-11 -4.403916e-13 -2.638349e-13 5.3111085e-13 -1.3859303e-12 3.7025848e-13 -2.0091807e-13
-1.1657193e-13 1.6864544e-13 -2.7220357e-13 6.9338784e-13 -3.6405403e-11 -1.303278e-11 7.58311e-15 9.027701e-15
7.5202377e-13 6.942076e-13 1.4472063e-12 3.746085e-12 -6.937095e-12 5.577213e-12 -6.185042e-13 -2.0159749e-13
3.6239607e-12 -5.194703e-12 -1.2625383e-13 1.1668358e-12 1.8208983e-11 1.5654625e-11 -8.3849804e-14 -5.174327e-13
-1.8388902e-12 1.8683139e-12 -1.355072e-13 1.9603922e-13 -7.309914e-11 -8.504236e-12 -5.5678926e-13 2.6372687e-13
00000000: a05e d32a 64c1 112b ed19 4daa 7e99 cfaa
00000010: c810 dd2e dbf0 63ae 54d4 cb2a 4e8e 0c2b
00000020: 59a9 a0aa 0b0c f4a8 ca27 afae 5a4d 2eaf
00000030: 2920 142b ac49 4c2b 9c27 b42a 0cd3 67ab
00000040: ba1d 392b a54d 7f2b dc69 d42a 6d35 c42a
00000050: 4227 09aa 6e97 53ab d51f 542a e32b 59a9
00000060: d54a d22a aede 62aa 7f9b 1fab ea23 f129
00000070: 2667 adaa b9c4 4faa 4fc6 91aa 8e5f aca8
00000080: 670a 15ab f92c e129 43ad 69ad 442b f82c
00000090: 3bef b12d 283a 87af ec38 89aa 951a 8faa
000000a0: 0960 1228 6b17 bb28 8255 212f be59 722d
000000b0: 716c 21af 003b a62d 9450 e727 552f c228
000000c0: d32f ad2b d606 3cab 6164 3caa 8a9f 47aa
000000d0: 6046 21af 0d4a aead e67e 72aa 62fa 79a8
000000e0: 23d4 87aa 0617 b1a9 2602 812a f605 6e2a
000000f0: b381 cfaa 86a1 78aa 88fa 9029 1229 3daa
00000100: 7b19 fb2a 374d 38ab dbd8 5a2b 6aa8 dcab
00000110: 1101 932a 88b1 252a 8b8c 0627 dd25 9e27
00000120: 1694 2aaa edc6 762a c09e 542d 4440 f52b
00000130: b005 1fae 9a35 48ae 0aa5 a0ae 19dc a0ae
00000140: aebc d9a9 0e73 8b2a c694 912a d189 82aa
00000150: 8212 a12e 84e8 c72d 8e2c 9ca9 3fd0 8529
00000160: 5d5e 06af 4fea ff2e 3d34 09aa 3681 9e2b
00000170: d82b 10ad 5abc dbad 8961 dd28 d665 1229
00000180: 8818 18ab 0cd9 33a9 963d d0a9 dc6c b229
00000190: 5871 bf2a cb88 4eaa 162c 3aa8 0af6 8028
000001a0: 936e 072b 107a b5ab d0b9 97ab 0b69 b3a9
000001b0: 66f2 31ad 8df2 702c ddc3 ad29 0fbc fda9
000001c0: 0535 5fae 2103 4aae a14c 9caa 7ed1 b8a8
000001d0: b5d4 a1aa 4eb4 23ab 07e8 18ab 6137 ef29
000001e0: f36b 7a28 6f01 5328 1ed3 d42a e4f2 5725
000001f0: fea0 a02e da4b d5ae eeb3 b129 176e 02aa
00000200: d035 a928 47ca 3727 ecf2 0328 cb17 1e28
00000210: 3d32 522b 8d32 57aa 72e6 88ab 0af4 cfa9
00000220: 6830 a3af 434a e12e 349d 9029 8e7c d42a
00000230: bc6e 58a9 d1b6 cbaa 975c d1a7 d087 a028
00000240: c148 8c29 2c61 24ab 52a6 e72b f515 292b
00000250: 91cd bc2a ad31 022b 703a 152a face 4d2a
00000260: 9813 dd2a f772 182b 7aa1 0aab c551 8cab
00000270: 662c 5228 f6f9 1829 4365 d2a9 40af 54aa
00000280: ace7 54ad 2b28 512d b416 d2aa 8756 a429
00000290: 0aeb 48ad c4ed 002d 1197 d329 967d 6e29
000002a0: ec40 be2e e69e eead e127 5128 8716 2229
000002b0: 9a90 73aa f92e b02a ff55 59aa e437 3a2a
000002c0: 7c83 7aae f1bc 1f2e be94 0eaa 68b7 a42b
000002d0: bc11 fcaa 0c08 15a9 2430 03aa 68ca 3d2a
000002e0: d401 332b e4de 3d2a 4480 9bae 54b9 52ae
000002f0: 9e06 1bab fbe5 9cab 7c6e 142c ea66 2e2d
00000300: d40d 212f 4c23 c6ae b5da f2aa d074 b729
00000310: d5f2 b1af 863d a52f 04f4 4029 4ac1 fba9
00000320: 3a0d ce26 88e2 a027 811d a82a 42db e72a
00000330: ae0e 9fae c6f8 d22d 86be 85ae 64a6 b72e
00000340: 282b 52aa 7e91 d4aa 1794 56aa 4fa6 082b
00000350: 4c9b c9ae a298 0eaf 4026 20ae 08d2 61ae
00000360: fceb a3af c34d 26ae 1eeb f7aa 9e86 94aa
00000370: 927e 152b 670d c3ab df6f d02a b136 62aa
00000380: 923f 03aa bde0 3d2a ab3c 99aa dc2b 432b
00000390: d71c 20ae 6c46 65ad ec9a 0828 eca0 2228
000003a0: 06ad 532b ee66 432b 1aad cb2b bccd 832c
000003b0: cc13 f4ac 123b c42c ed17 2eab 85fa 62aa
000003c0: 7903 7f2c bac5 b6ac 3026 0eaa b137 a42b
000003d0: fc2a a02d 15b3 892d 1fd0 bca9 f5a4 11ab
000003e0: 8066 01ac 8d78 032c 4b91 18aa 75b8 5c2a
000003f0: 28bf a0ae ad9b 15ad e5b8 1cab 0c77 942a

exp_avg_sq f4 [10000, 2]
1.7079478e-25 3.248603e-25 4.2617012e-26 1.7467138e-25 7.0004085e-21 1.780149e-21 1.6479656e-25 3.134509e-25
7.8938507e-26 7.118524e-28 6.1505794e-21 2.8652638e-20 2.5541366e-25 4.8581077e-25 1.4709221e-25 9.745407e-25
2.971571e-25 5.6521026e-25 2.4418792e-25 2.0795717e-25 1.9076772e-26 7.2648385e-25 2.8151833e-26 1.8445794e-27
1.5764011e-25 4.5875177e-26 3.2796845e-25 1.1694887e-26 8.645744e-26 3.1037514e-26 7.1278593e-26 3.8953796e-28
3.0120423e-25 1.0740569e-26 1.5027475e-22 5.8235915e-23 1.3188968e-22 4.195488e-20 7.2851884e-26 7.9235864e-26
1.8869499e-29 2.7935046e-28 2.9257937e-20 5.745099e-22 1.7771087e-20 1.6058732e-22 2.6704355e-29 5.016182e-28
1.5587026e-24 4.593761e-25 2.3918463e-26 2.686132e-26 1.8587023e-20 3.5374235e-22 2.2382549e-26 2.4493014e-28
6.740966e-26 7.165801e-27 2.817188e-26 2.4012837e-26 1.7812681e-25 6.3946526e-26 3.8195293e-27 2.6017924e-26
2.0304361e-25 4.3763395e-25 7.8700373e-25 2.3141217e-24 7.557859e-26 2.4001467e-26 1.7605178e-30 1.4902414e-29
1.6751836e-26 3.505827e-26 2.3459327e-22 1.4270851e-24 8.3401737e-22 1.3214459e-21 7.8888845e-21 7.9268775e-21
1.0309845e-26 6.765604e-26 7.8983046e-26 6.3510803e-26 6.4346154e-21 8.091958e-22 4.8144847e-27 3.5343056e-27
1.1813912e-20 9.901387e-21 1.4749255e-26 1.2596476e-24 6.094964e-23 5.16672e-22 2.4739868e-28 8.370701e-28
3.0870814e-25 1.6875025e-27 1.2550076e-26 9.2124286e-27 1.0175132e-25 2.9609888e-26 1.0376405e-28 1.6033124e-28
2.2458335e-25 1.6134928e-24 1.2327487e-24 6.738722e-27 9.31653e-23 1.0908076e-23 4.3884875e-27 9.359063e-27
9.363078e-22 8.859824e-22 7.9054315e-26 4.3207497e-28 9.9590565e-26 4.0768655e-25 3.080245e-25 1.1777445e-26
1.5732582e-28 5.987563e-29 1.4244154e-25 3.2136446e-32 5.2748007e-21 8.612218e-21 8.291194e-27 1.7870761e-26
3.2792648e-28 6.9502034e-30 1.4104582e-28 1.0969815e-28 4.428567e-25 2.9017117e-26 1.0573895e-24 9.535295e-27
6.270773e-20 5.8051257e-21 3.4930934e-27 1.2067545e-25 2.8045504e-27 1.2392556e-25 5.017072e-29 2.3779406e-28
3.6761034e-27 3.2338288e-25 2.701754e-24 3.6512284e-25 1.4806218e-25 2.8162167e-25 1.706875e-26 3.2465706e-26
1.7914368e-25 3.4074083e-25 1.6224999e-25 6.6499047e-25 7.2603394e-29 1.3834241e-27 1.2762509e-26 5.218717e-26
8.8189304e-23 1.5960987e-22 1.968545e-25 7.5277815e-27 2.3595011e-22 2.1069418e-22 7.384575e-27 2.3451219e-27
6.3179304e-21 6.1988867e-22 1.4383468e-28 1.1511e-27 4.3484996e-26 9.1006575e-26 3.0891944e-26 2.2677152e-26
2.5419509e-21 7.7796953e-22 1.5260066e-26 1.3032812e-24 2.516438e-25 1.3752887e-27 1.5058524e-26 3.151364e-26
3.7399267e-25 2.629365e-26 2.3236574e-21 1.2767894e-21 1.8071677e-25 7.4065746e-25 5.3104203e-24 1.1344753e-22
1.4252362e-20 5.3785368e-21 2.4183268e-25 8.623447e-27 1.0047482e-19 9.551966e-20 2.236178e-27 1.5232222e-26
1.2083546e-30 1.0180666e-29 6.577831e-26 1.2511426e-25 7.094202e-21 8.868223e-22 3.1187985e-21 5.1611736e-21
4.4109912e-26 1.8052676e-25 4.278477e-26 2.7759419e-25 6.4409767e-21 1.433073e-20 7.482326e-22 1.8152519e-21
8.253968e-20 1.3743822e-21 1.4501709e-25 5.2058564e-26 2.654657e-25 1.80819e-24 2.021709e-25 5.951312e-26
1.5148431e-26 3.170175e-26 6.5878914e-26 4.274426e-25 7.321515e-22 1.04069497e-22 2.3036465e-29 5.709309e-29
3.4706833e-25 2.9610856e-25 1.4596091e-24 1.06081976e-23 5.5104844e-23 2.7478483e-23 3.495047e-25 3.7138826e-26
2.6983356e-23 5.576551e-23 1.530192e-26 1.306845e-24 2.2577924e-22 1.5473035e-22 7.16581e-27 2.7288705e-25
4.317693e-25 3.7806894e-25 1.3705367e-26 2.868198e-26 7.5881026e-21 3.5611106e-23 3.638352e-25 8.162236e-26
00000000: 076f 5316 2b14 c916 7b07 5315 923b 5816
00000010: e63b 041e 1781 061d 1d02 4c16 4704 c216
00000020: 3971 c315 5498 6112 c15c e81d ea4e 071f
00000030: e917 9e16 e559 1617 6217 3616 89cd 9617
00000040: 6cee b716 92ec 2e17 1f25 9716 21b8 8016
00000050: 5ded bc14 fbd5 6017 b066 0b15 8424 1213
00000060: 2526 4316 b229 6315 ad00 cb16 1fa4 6714
00000070: ea0e d615 b9b0 1915 2d7a b015 26e6 f611
00000080: b76f ba16 28bd 5414 c8ab 351b 49ce 8c1a
00000090: e171 1f1b 5620 461f 5e5f b415 b22d c415
000000a0: 055c bf0f 340f b111 ad2a 0a1f 8da2 2d1c
000000b0: dad7 a71e 5e23 421b 3c68 0710 1af8 1e12
000000c0: 9232 f117 862b 0e17 82e0 ec14 c502 0515
000000d0: aa8c af1e fad2 d51b 81aa dd14 303e 9b11
000000e0: f3e5 a615 eeee 0d14 1a80 0b15 c6cf ed14
000000f0: a482 5c16 ed52 9e15 a14e 9713 a3d5 0015
00000100: 175b 7b16 ef70 0717 dc90 7317 e70b 3318
00000110: 9f1f bb15 f3b2 ed14 86d4 0e0e e120 970f
00000120: f3e6 a514 a399 2d15 8dcd 8d1b aad4 dc17
00000130: f810 7c1c f6b0 c71c 4e04 151e 07bc 151e
00000140: 2035 4c14 1c82 a715 748d c315 c13e 9d15
00000150: c817 f31d 7e90 741c adb8 be13 1e02 8c13
00000160: 9328 5f1e 2b08 3b1e ce11 9214 c8eb c217
00000170: 005e 931a 8f27 1c1c bbce 9c11 99a3 8412
00000180: c214 bf16 9eb2 0513 7294 7814 9078 3614
00000190: 90ec fb15 fe9e 1215 5c89 0311 763e 4b11
000001a0: a702 8b16 09ad f917 35c2 be17 6179 0514
000001b0: 8742 e11a 2dfe 5219 8dd8 ad13 1660 3914
000001c0: a77d 8d1c c9e2 851c a0ba c315 16ee 0812
000001d0: 0593 f615 8358 fc16 6ea8 be16 be46 6914
000001e0: 266f 4711 81cd 9710 8755 3016 aadc 260b
000001f0: be46 c71d 21ae 221e 5939 2414 c3fb b014
00000200: 1dd9 cf11 85f7 0c0f fccb 3211 160f 0b11
00000210: b90e 0917 91af 0f15 839f a317 b1dd 3c14
00000220: 7f10 941f bb4f db1d 2d60 8a13 9463 1516
00000230: 0a33 5e13 9469 1916 5165 7e10 4bb8 9611
00000240: 1ea0 9113 102a c816 c009 5118 0600 e216
00000250: c74a 3716 bc50 ae16 6c0a a914 2cc3 2015
00000260: e6c4 5d16 8ae8 d216 13db 4816 f9cd 4d17
00000270: 4c12 b810 5936 db12 9cc9 7c14 8c35 8115
00000280: 893a d51a ddf4 401b aeb1 7316 631a 1514
00000290: 839f 8e1b b1b6 7e1b 3e44 1214 b9cc 3913
000002a0: 46af ee1d 9059 3b1c 0655 3611 2a66 b612
000002b0: c853 5715 4552 e115 31f8 1815 6995 e014
000002c0: 7b10 401d 7a20 6b1c dd20 9714 4aac c917
000002d0: 8dc2 9b16 56ec d912 e521 9514 490c 1c15
000002e0: 817d e716 2933 0215 1292 2f1d 66f1 c01c
000002f0: 6eb7 5f16 ee38 6517 db6f cd18 4f26 091b
00000300: 199c 861e 0432 cb1d ebaf 9516 12ce 2a14
00000310: 4d3d ed1f 178a e11f 142b 3113 45da 9614
00000320: 1611 c40d 0a7d 4e0f f5db a215 4be2 1a16
00000330: 7501 061e 4703 861c 56a6 6b1d cffb c21d
00000340: f56b 5a15 377b 5f16 24dc 5315 8ed2 ab16
00000350: 4e55 f31d 9459 871e b223 621c 1428 091d
00000360: 2de4 c21f d6b0 cf1c c085 3316 09e4 8015
00000370: b850 a416 e5e6 0b18 8446 7a16 ec58 9315
00000380: d605 9614 befa 1c15 b91b a315 7e49 0417
00000390: 7b47 5d1c e69f fb1a 159e e90f 89bf 9010
000003a0: 2cd3 d616 4648 b716 13dd e117 4031 4d19
000003b0: 3f3c 851a b7e0 041a 3b55 d816 0ee7 3715
000003c0: c77b 021a 2ed5 861a fa8a 9714 7739 ca17
000003d0: a579 881b b90e 3b1b f9ee 0d14 aee8 a816
000003e0: 4aa0 0517 6a03 ea16 3cbb 8714 bb06 0e15
000003f0: d055 0f1e 6a34 2c1a fd33 e116 5116 ca15

exp_avg f4 [10000]
3.3977666e-13 2.1059494e-13 3.1559386e-10 3.276558e-13 1.4945547e-13 5.364855e-10 4.762238e-13 4.627089e-13
5.951483e-13 2.7268633e-13 3.8964199e-13 1.01447815e-13 2.2282913e-13 3.00726e-13 1.8832828e-13 1.3548979e-13
2.8081652e-13 3.0158775e-11 5.1838994e-10 1.8230544e-13 -1.2911068e-13 5.0688487e-10 3.8570208e-10 -1.4130025e-13
7.3507617e-13 1.2609025e-13 3.3050485e-10 -5.4719873e-14 1.332153e-13 1.655111e-13 2.2536741e-13 9.41845e-14
4.1487514e-13 1.2691253e-12 1.5816474e-13 -3.5245254e-14 1.3959253e-13 6.181055e-11 1.2218042e-10 3.9166873e-10
1.3940944e-13 1.8144203e-13 2.3265588e-10 4.757723e-14 3.930813e-10 5.943947e-13 8.556802e-11 -2.7824203e-13
2.827299e-13 6.343891e-14 2.0285583e-13 -5.752249e-14 7.2052726e-13 5.6408437e-13 2.9144877e-11 7.151732e-14
1.6280408e-10 1.4527188e-13 3.321802e-13 2.8861614e-13 -1.3202738e-13 1.9828e-13 3.6674408e-10 7.340166e-14
-9.7441694e-14 -1.2726007e-13 4.021028e-13 5.09406e-13 7.69633e-10 2.0114941e-13 1.9387187e-13 -1.411478e-13
3.035661e-13 1.7765878e-12 3.035008e-13 1.1994222e-13 3.5538047e-13 5.693761e-13 -2.7472244e-13 1.0790991e-13
3.6415468e-11 1.9827491e-13 5.450357e-11 5.691352e-14 2.4029806e-10 -1.3944992e-13 1.9932081e-13 1.3241947e-13
1.6436803e-10 6.176886e-13 2.3428498e-13 1.07357476e-13 3.454227e-13 1.5754362e-10 6.366641e-13 2.0186576e-11
3.964211e-10 2.287883e-13 1.264391e-09 6.267543e-14 -3.3960587e-14 2.7024522e-13 2.4531516e-10 2.4989447e-10
2.1567433e-13 2.7342085e-13 4.5447926e-10 1.561287e-10 8.05291e-10 2.6925757e-13 7.7694513e-13 2.2114973e-13
1.0740682e-13 3.9051623e-13 6.899278e-11 -6.932141e-14 5.433105e-13 9.974677e-12 1.8186681e-11 3.4148777e-13
3.1294703e-11 6.158177e-13 4.8528525e-11 2.6820145e-13 8.1498523e-13 1.2485335e-13 2.3270591e-10 3.2049884e-13
1.790307e-11 7.504685e-11 -2.6157386e-13 3.0415944e-11 8.802369e-14 6.094153e-13 8.034832e-13 2.1109858e-13
2.4778164e-13 7.313598e-11 4.353373e-13 2.5806662e-10 2.794227e-13 3.317759e-11 1.1123276e-37 1.2397802e-13
3.7145005e-13 1.6962422e-13 -1.2397955e-13 2.9864478e-10 7.1363593e-10 1.09716876e-13 4.1330025e-13 -1.3876164e-13
3.9693747e-13 1.2781804e-13 2.0868871e-13 2.7380101e-12 1.09081364e-13 4.617799e-13 2.4908884e-13 4.0163307e-13
8.135176e-14 -1.3054445e-13 9.9915146e-14 3.9377488e-13 6.2105415e-10 1.2576824e-13 -1.325676e-13 1.2751494e-13
2.1671736e-13 3.3373724e-13 3.1216444e-13 3.772831e-11 -6.5671325e-14 6.896496e-13 2.7286154e-13 1.9621295e-13
1.4797073e-13 3.013775e-10 4.3186982e-13 5.6080726e-13 2.4906365e-13 4.394482e-13 7.8975393e-10 2.5995043e-13
3.9568931e-13 -2.856393e-14 5.381429e-10 -1.394722e-13 1.744085e-13 3.956975e-13 1.2092527e-11 2.3107961e-13
1.9652571e-13 4.0580798e-13 4.1709618e-13 5.7385935e-10 3.6800155e-13 6.8943535e-14 2.0077883e-13 -9.853903e-15
1.3249888e-13 1.3466893e-11 3.1993297e-11 3.2330302e-13 1.627949e-14 1.136648e-13 4.910811e-12 4.1132706e-10
1.2712159e-12 5.8498957e-12 4.1066087e-13 3.426655e-13 8.2798846e-14 2.2213354e-13 2.3212546e-11 2.2588334e-13
1.0848166e-11 1.5824142e-13 3.6074686e-13 5.634004e-14 9.758228e-14 3.1093387e-13 3.3191405e-13 -2.723933e-13
5.436196e-13 6.188716e-14 1.4105907e-13 -1.4138576e-13 8.0473246e-14 7.033521e-11 2.3971949e-13 2.6340256e-11
6.2534884e-13 3.1577857e-13 2.4747798e-10 3.1562397e-10 6.379833e-11 1.9790523e-11 1.0337338e-13 4.51292e-13
5.6077094e-13 1.4479935e-13 2.539305e-13 1.993671e-13 2.4942738e-13 4.3474743e-13 7.141538e-12 4.2025384e-13
7.777492e-14 2.117054e-11 2.3658254e-13 3.896436e-13 3.1832276e-13 3.9911856e-13 3.6023547e-13 1.7678042e-13
00000000: fa46 bf2a dc1b 6d2a e37f ad2f 2d74 b82a
00000010: 9b45 282a d077 1330 8b0b 062b b13d 022b
00000020: f484 272b 3e82 992a 5459 db2a af70 e429
00000030: 20e2 7a2a 2f4b a92a ee09 542a 468c 182a
00000040: ed15 9e2a c3a3 042e 737e 0e30 f741 4d2a
00000050: 9f5d 11aa da54 0b30 be0a d42f 0617 1faa
00000060: d2e7 4e2b 0af7 0d2a 6cb2 b52f b86f 76a9
00000070: b2fc 152a 5459 3a2a bcbd 7d2a ab15 d429
00000080: cf8d e92a 0f9d b22b e213 322a 03bb 1ea9
00000090: cf2a 1d2a 3fec 872e bb56 062f 7952 d72f
000000a0: 09f6 1c2a 1b49 4c2a cfce 7f2f d044 5629
000000b0: 4619 d82f a74e 272b 832a bc2e e7a2 9caa
000000c0: ac29 9f2a 0bda 8e29 3665 642a 7587 81a9
000000d0: 76cf 4a2b 90c6 1e2b 372e 002e ee0a a129
000000e0: 4601 332f c58f 232a 3600 bb2a f879 a22a
000000f0: 4da6 14aa 523e 5f2a a49e c92f 2d49 a529
00000100: 506b dba9 3848 0faa 1f5d e22a 9262 0f2b
00000110: 1c8e 5330 5f79 622a c347 5a2a 15eb 1eaa
00000120: 7ce4 aa2a 5208 fa2b 13db aa2a fe0a 072a
00000130: b90f c82a df43 202b ada7 9aaa d4fd f229
00000140: 2c28 202e da3c 5f2a 90b5 6f2e 6928 8029
00000150: f21a 842f b401 1daa 506a 602a 5017 152a
00000160: 7db9 342f 28dd 2d2b 06e4 832a 5fbf f129
00000170: a874 c22a 9638 2d2f 7c34 332b 2190 b12d
00000180: 4fef d92f decb 802a cec6 ad30 ed21 8d29
00000190: e4f1 18a9 7122 982a 0add 862f 8561 892f
000001a0: e5d3 722a 19ec 992a 45da f92f 52aa 2b2f
000001b0: 515b 5d30 1b94 972a ccb0 5a2b 12fe 782a
000001c0: d1db f129 52d7 db2a 7bb7 972e 1219 9ca9
000001d0: a6ed 182b f479 2f2d c4f8 9f2d 933d c02a
000001e0: b4a2 092e 5856 2d2b 436e 552e e7fb 962a
000001f0: e065 652b 8792 0c2a e4dc 7f2f c06c b42a
00000200: 217a 9d2d 9f07 a52e c440 93aa 4fc5 052e
00000210: 3436 c629 0089 2b2b 1129 622b 06ad 6d2a
00000220: 197d 8b2a e6d3 a02e b812 f52a a6df 8d2f
00000230: 0e4d 9d2a a5ea 112e f666 1702 3b96 0b2a
00000240: 981b d12a dafa 3e2a ac96 0baa 842e a42f
00000250: aa29 4430 790f f729 d8aa e82a 523b 1caa
00000260: b874 df2a 0be9 0f2a 6df6 6a2a 9bab 402c
00000270: 20a1 f529 c0fa 012b 7c39 8c2a 6d19 e22a
00000280: 1930 b729 e0fa 12aa 29fd e029 f1ac dd2a
00000290: cdb6 2a30 3a9a 0d2a 0242 15aa ae91 0f2a
000002a0: 8700 742a 9be0 bb2a a3bb af2a 4dee 252e
000002b0: f1e0 93a9 7e1e 422b 7e9b 992a 88ea 5c2a
000002c0: a999 262a 1daf a52f 001f f32a 6cda 1d2b
000002d0: db35 8c2a 2963 f72a fe15 5930 ce56 922a
000002e0: d7c0 de2a f8a3 00a9 71ec 1330 2008 1daa
000002f0: d45d 442a 05c2 de2a e6bb 542d 1516 822a
00000300: ae44 5d2a 1873 e42a e5cd ea2a c3bd 1d30
00000310: 9d2a cf2a 3e3f 9b29 8f0e 622a 1b83 31a8
00000320: 342e 152a 7fe9 6c2d 40b5 0c2e e000 b62a
00000330: f3a1 9228 4cf3 ff29 a7c8 ac2c 2321 e22f
00000340: 61e8 b22b 2dd3 cd2c 782e e72a 4ee7 c02a
00000350: 4972 ba29 a219 7a2a 022e cc2d 7152 7e2a
00000360: ccd7 3e2d fc29 322a 1a15 cb2a a5bb 7d29
00000370: 5bbc db29 4b0a af2a dbd9 ba2a 0358 99aa
00000380: ec03 192b 855b 8b29 82d1 1e2a ac2f 1faa
00000390: ab35 b529 34ab 9a2e 38f3 862a fcb0 e72d
000003a0: 2205 302b 7dc4 b12a 6e0d 882f 2084 ad2f
000003b0: 444b 8c2e 4c14 ae2d b2c6 e829 080e fe2a
000003c0: ced7 1d2b 9207 232a 3ef3 8e2a a777 602a
000003d0: 466a 8c2a b5bd f42a 4145 fb2c f694 ec2a
000003e0: 3022 af29 d137 ba2d 232f 852a 9059 db2a
000003f0: 2533 b32a 0caf e02a 67cb ca2a 7d09 472a

exp_avg_sq f4 [10000]
1.3988779e-25 5.6974795e-26 1.0098938e-19 1.349842e-25 2.1652254e-26 3.1207508e-19 2.0921378e-25 3.0764148e-25
2.4338938e-25 1.2744031e-25 1.9522387e-25 8.163877e-27 5.6106056e-26 9.226135e-26 3.2327988e-26 1.9517314e-26
8.473192e-26 9.311126e-22 3.1981457e-19 4.075836e-26 1.14519616e-26 2.3023257e-19 1.4281655e-19 1.2779573e-26
5.562847e-25 1.3587305e-26 1.1375293e-19 4.6128484e-27 2.0553856e-26 1.4709088e-26 6.660486e-26 8.177835e-27
1.7572412e-25 1.7730106e-24 2.7731878e-26 8.234301e-28 1.4222946e-26 3.6230967e-21 1.6264402e-20 1.4008924e-19
2.143284e-26 3.8889228e-26 4.6187096e-20 2.2658887e-27 1.5366609e-19 3.509201e-25 7.539903e-21 3.6611247e-26
8.453074e-26 5.906825e-27 3.6211908e-26 3.3501705e-27 5.0386395e-25 3.375525e-25 8.649828e-22 3.7706057e-27
2.884681e-20 2.1646613e-26 1.3301215e-25 8.6962245e-26 9.099603e-27 3.919559e-26 1.2744953e-19 7.175739e-27
6.9846315e-27 1.2736752e-26 1.2842637e-25 2.9003307e-25 5.3384117e-19 3.4277935e-26 3.5479488e-26 8.731155e-27
8.740228e-26 3.1660944e-24 1.2127798e-25 1.3981236e-26 1.4672645e-25 2.16903e-25 4.6759527e-26 1.7032102e-26
1.4407882e-21 5.557712e-26 3.2936212e-21 2.7095893e-27 6.099684e-20 1.2690675e-26 3.6919784e-26 1.4539418e-26
2.854687e-20 3.6307266e-25 6.890501e-26 1.27856896e-26 1.1035253e-25 3.0167274e-20 2.4158375e-25 3.8035667e-22
1.5612799e-19 6.803029e-26 1.6129455e-18 4.7876866e-27 7.498545e-28 5.387699e-26 6.579111e-20 6.496805e-20
5.8905187e-26 8.8069504e-26 2.2244613e-19 2.5585872e-20 6.498235e-19 5.4222484e-26 5.683194e-25 7.213472e-26
1.2862021e-26 1.356034e-25 5.125047e-21 3.2120076e-27 1.8130401e-25 1.0530027e-22 3.2002847e-22 1.0656239e-25
8.944551e-22 3.640695e-25 2.2990063e-21 7.332949e-26 1.0316078e-25 1.16367006e-26 4.9022846e-20 1.2057467e-25
2.3276769e-22 6.3015362e-21 3.415296e-26 8.640994e-22 7.769592e-27 3.5644887e-25 5.1698527e-25 5.0996526e-26
7.3479065e-26 5.7397602e-21 2.6243033e-25 6.8113477e-20 7.986479e-26 7.6495123e-22 1.2907996e-38 1.16525e-26
1.4522334e-25 2.1674702e-26 8.512072e-27 8.5655205e-20 5.247629e-19 1.7156165e-26 2.4414e-25 1.1948761e-26
2.35691e-25 1.5799821e-26 7.1285323e-26 8.8228736e-24 1.4227137e-26 2.7502832e-25 8.404444e-26 1.9047516e-25
3.8106616e-27 1.315341e-26 1.3918472e-26 1.7085687e-25 4.43034e-19 1.1725583e-26 8.625744e-27 2.0633546e-26
5.809871e-26 5.9875023e-26 6.4609144e-26 1.4555515e-21 2.761239e-27 2.4697132e-25 7.8212687e-26 5.645703e-26
2.2075827e-26 1.0121872e-19 2.0869875e-25 3.44584e-25 8.001102e-26 2.448902e-25 6.3854636e-19 7.3988164e-26
2.3848643e-25 4.5573357e-28 2.7385032e-19 1.3059167e-26 3.23575e-26 1.2694059e-25 1.3220545e-22 4.609774e-26
3.9303084e-26 2.2841795e-25 2.4022898e-25 3.3887891e-19 1.3911006e-25 6.844563e-27 5.5333545e-26 1.0362857e-28
2.1885444e-26 6.442417e-23 9.803033e-22 6.130349e-26 2.9245973e-28 9.639563e-27 2.5048621e-23 1.6467371e-19
1.3727292e-24 3.532487e-23 2.268697e-25 1.1327759e-25 6.413163e-27 3.883712e-26 5.29132e-22 6.51744e-26
1.2244419e-22 2.3554393e-26 1.1734912e-25 3.323565e-27 1.07121356e-26 1.0622268e-25 1.3299029e-25 3.5248638e-26
4.8995653e-25 2.8905395e-27 1.5909848e-26 9.197847e-27 6.791534e-27 5.122168e-21 7.3196696e-26 6.7951464e-22
2.19997e-25 9.879644e-26 5.5483224e-20 1.0348251e-19 4.206779e-21 3.9434059e-22 1.3553505e-26 2.8427005e-25
4.844478e-25 1.3568825e-26 1.0453047e-25 3.2466008e-26 7.2267695e-26 1.8937487e-25 5.2241256e-23 1.3079749e-25
5.1192982e-27 5.5153464e-22 3.825547e-26 1.6891372e-25 1.0661528e-25 1.3274626e-25 1.1952934e-25 3.4759476e-26
00000000: 362c 2d16 1110 8d15 5674 ee1f 331a 2716
00000010: fc6e d614 7437 b820 3f7f 8116 bd6b be16
00000020: 96a6 9616 72c3 1d16 eaac 7116 c6b3 2114
00000030: 70e9 8a15 946d e415 9814 2015 454a c114
00000040: 3cc9 d115 adb4 8c1c 03c9 bc20 5cd3 4915
00000050: 58d4 6214 c3e7 8720 a79b 2820 2220 7d14
00000060: 6a29 2c17 e98f 8614 b74b 0620 d7bb b613
00000070: 378e cb14 f8ab 9114 d8e7 a415 8dfa 2114
00000080: 3289 5916 182e 0918 5552 0915 4b7a 8212
00000090: 74db 8c14 71e0 881d e99c 991e 6063 2520
000000a0: b442 d414 f491 4015 c61c 5a1f af85 3313
000000b0: ba6a 3520 8235 d916 bc6c 0e1e 454a 3515
000000c0: b949 d115 52fe e913 0c50 3315 c4b6 8413
000000d0: 37f0 1b17 54ef d016 67b6 821c 7c5e 9513
000000e0: a739 081f af60 d614 3ca9 2416 df4e d715
000000f0: 783c 3414 5016 4215 4277 1620 5221 0e14
00000100: 4a58 0a14 0147 7c14 f1fb 1e16 9385 b316
00000110: e68f 1d21 72bc 2915 98af 2f15 37f0 2c14
00000120: c765 d815 f6f6 7418 8722 1616 a576 8a14
00000130: 78a3 3516 a741 8616 be8a 6715 82ad a814
00000140: cbb9 d91c 2f9a 8915 e6db 781d 00ad 5613
00000150: 5406 901f 5e5d 7b14 63d1 3615 cefd 8f14
00000160: 0ccf 061f 29bb e016 bd99 aa15 263f 7d14
00000170: 1d9c 0816 ff75 0e1f 7988 9516 58e9 e51b
00000180: ca52 3820 526f a815 5c07 ee21 e9a8 bd13
00000190: 6da3 6d12 9964 8515 4958 9b1f c766 991f
000001a0: 99d7 9115 ae0c da15 1c4f 8320 d8a6 f11e
000001b0: 47cb 3f21 953f 8615 e7e2 2f17 d098 b215
000001c0: 32c2 7e14 6fde 2716 6a9e c11d 417b 7e13
000001d0: 8971 6016 b699 fe1a 0272 c11b f8ea 0316
000001e0: 8e2a 871c 1d59 e116 40b5 2d1d 168e b515
000001f0: ea69 ff15 157d 6614 fc80 671f a343 1516
00000200: 0eb3 8c1b b810 ee1d 051e 2915 3a94 821c
00000210: 83e4 1914 94a1 dc16 cbff 1f17 c785 7c15
00000220: e4ec b515 8ed7 d81d bf6f a216 12d4 a01f
00000230: 53bc c515 3c31 671c 3e8e 8c00 32cd 6614
00000240: 1dc7 3316 e6a7 d614 5599 2814 653f ca1f
00000250: f7e1 1a21 0ce8 a914 871d 9716 6bab 6c14
00000260: bbe2 9116 4e79 9c14 717e b015 c1a8 2a19
00000270: 14e6 8c14 fa3b aa16 7e15 d015 fdcb 6b16
00000280: b3f4 9613 db43 8214 85d7 8914 b482 5316
00000290: b4c2 0221 c53f 6814 b8d9 2a14 4158 cc14
000002a0: 6fd8 8f15 4e3e 9415 e9f6 9f15 ecf4 db1c
000002b0: 95c4 5a13 2bde 9816 2ea5 c115 e5c7 8b15
000002c0: dfa0 da14 f6fe ee1f a32d 8116 8449 d516
000002d0: 0219 c615 6794 9716 3377 3c21 922f b715
000002e0: af9d 9316 806d 1012 17a7 a120 ec54 8114
000002f0: 013a 2015 1425 1d16 9bd3 1f1b d443 6415
00000300: 949e 4215 4562 8d16 cdb1 9416 ef09 c820
00000310: bd35 2c16 0f92 0714 cdff 8815 655d 0311
00000320: 31be d814 a1c4 9b1a a623 941c b4c7 9715
00000330: 4e5e b911 64ee 3e14 6241 f219 9369 4220
00000340: 686b d417 12d2 2a1a f06c 8c16 1a3b 0c16
00000350: 330d fe13 e64f 4015 9beb 1f1c 2f5d a115
00000360: a406 141b 7b45 e914 6c45 1116 f4a8 8313
00000370: fb2c 5414 507f 0316 4ea2 2416 f58a 2e15
00000380: 5ba2 1717 1b03 6513 4290 9d14 a02e 3614
00000390: 2b85 0614 9282 c11d eb39 b515 e65e 4d1c
000003a0: eb2b 8816 af9b f415 8d01 831f 5757 f41f
000003b0: 78ed 9e1d 405d ee1b 383a 8614 63f4 af16
000003c0: e9ed 1517 0f61 8614 0767 0116 8ec3 2015
000003d0: 18ed b215 4b6f 6a16 8b9f 7c1a 61eb 2116
000003e0: dacb ca13 edb0 261c 926e 3d15 e51a 5116
000003f0: bbfb 0316 f854 2416 5cf8 1316 df1e 2c15
