checkpoints/checkpoint_5000.pth (torch, 423776 bytes, 6 tensors)

W f4 [10000, 2]
0.003088534 0.0034430085 0.08755989 -0.16838421 -0.0028083436 0.0007914015 0.000557572 -0.0007656592
0.005979325 -0.0012535382 0.00011002869 0.00011943956 0.0012736355 0.001112687 -0.0014029924 -0.0015111931
0.0026396187 0.028247945 -0.00012582862 0.0020749215 0.0026447885 0.0013008334 0.03895574 0.033180285
-0.0063500563 -0.0066275015 -0.0007148355 -0.00025033814 0.058728088 -0.031030048 0.0033959493 -0.0019870833
0.0005755245 -4.7540507e-05 0.0412786 0.03597079 -0.0021474764 0.00035844598 0.0022546083 0.0019458995
-0.0024417432 -0.0009294512 0.3382095 -0.21394096 -0.0007927597 -0.00058667327 -0.10480257 -0.0065348404
0.005201398 0.004540954 0.00401531 -0.0026409396 -0.0053546834 0.0051306826 -0.00020210301 0.000900962
-0.011479955 -0.045093637 0.00019399263 -0.00040088315 0.00012594413 -0.0011734811 -0.0047475235 -8.7812405e-05
-0.09160183 -0.0067396006 0.00088059186 -0.0006850388 -0.00037452142 0.00014665921 -0.0022264556 -0.012082466
-0.0044107614 7.800639e-05 0.0051493286 -0.0027474626 0.018147439 0.016610498 -0.0835939 0.21792145
0.00022908994 5.3900236e-05 -9.968003e-05 -0.0036114468 -0.0010218603 0.0005262756 -0.004442194 0.008593725
-0.034872666 0.06105352 0.011896908 0.035348266 -4.7329813e-05 0.0003057678 -0.0015090563 0.0022896444
-0.00024210404 0.00093626283 -7.7265075e-05 -0.0007831256 0.0009050529 -0.0021936311 -0.08347372 -0.0337992
-0.12886949 -0.11941031 -0.0008728934 -0.008723342 -0.00010267055 0.00070069486 0.0050926437 0.00031785102
-0.0020287542 0.0014433166 -0.00160507 0.004080099 0.0020321296 0.0033156206 0.0027277807 -0.0018285671
-0.00023960831 0.0004759055 0.0010092792 -0.001451405 0.0016160221 -0.0027246287 0.011321631 0.0095579075
-0.0013667704 0.00016864273 0.0027239658 -0.0026163112 -0.0014014114 -0.0040877885 -0.004778115 -0.0020715445
0.0044394755 -0.0014937979 0.000665508 0.007571942 -0.01571017 -0.0024910406 0.00017958831 -0.0004999843
-0.00033474513 -0.00021746515 0.0018001334 -0.000324335 0.0004788094 -0.001256521 -0.0015116446 0.0035961363
-0.0010910693 -0.0005125718 -0.0020570226 -0.0014720149 -0.0024090537 -0.0054365667 -0.001948368 -0.00038002184
-0.0075178277 0.018687531 0.00056972186 0.0011374123 0.0025922866 -0.0008422606 0.07243668 0.0011521287
0.0031181911 0.002994677 -0.0005955096 0.00014045747 0.004285673 -0.0025644982 0.0018769028 0.0008246848
0.02652033 -0.014355084 0.0032830988 0.0012626748 -0.0020030208 -2.2505046e-05 0.0010109497 0.0003472203
-0.009895002 -0.0020819854 0.011895986 -0.03182491 4.8209808e-05 0.0023977414 -0.00119993 0.0059596254
0.012626307 0.009563071 0.016503945 -0.0018265914 0.0028248972 -0.0049719065 -0.0015858475 0.0011685459
0.05860591 0.04881837 -0.00045314527 -0.0005904739 0.00010420954 -0.00018173753 -0.0002001042 -0.0011217495
-0.0056684082 0.014231343 9.5982374e-05 0.00033161332 -0.0044567836 0.007879185 -0.0018823681 0.00016965704
-0.00092430477 -0.002400027 -0.00029501147 0.0018836635 0.0042703752 -0.0006431857 -0.0014056865 0.00088514225
0.07366096 -0.060762864 0.0011129585 -0.0047122496 0.0006250579 -0.0014935877 -0.02737033 -0.037467394
-0.0011158882 -0.0012399888 -0.0019454581 0.0052360035 0.0007865189 -0.0009787444 0.00067816913 0.001391041
-0.0014147664 0.0024267116 -0.0025151325 -0.018076604 0.0045357 -0.009377652 -0.0025169526 0.00084120024
-0.01806217 0.02114963 0.03637781 0.032685217 -0.0004881889 -9.762336e-05 -0.0060567847 0.00096615637
00000000: 0169 4a3b 19a4 613b 9952 b33d e96c 2cbe
00000010: 300c 38bb 0e76 4f3a 062a 123a 85b6 48ba
00000020: 37ee c33b c34d a4ba 34bf e638 a07b fa38
00000030: 1ef0 a63a 95d7 913a 9de4 b7ba 3a13 c6ba
00000040: 74fd 2c3b 3c68 e73c ddf0 03b9 68fb 073b
00000050: 3054 2d3b ba80 aa3a 0e90 1f3d 0de8 073d
00000060: 2214 d0bb 832b d9bb cc63 3bba d13f 83b9
00000070: dd8c 703d ba32 febc 938e 5e3b ba39 02bb
00000080: ccde 163a 3b66 47b8 c013 293d 1b56 133d
00000090: adbc 0cbb ceed bb39 0dc2 133b 8d0d ff3a
000000a0: a705 20bb 6aa6 73ba cc29 ad3e 5713 5bbe
000000b0: 34d1 4fba faca 19ba bba2 d6bd 3722 d6bb
000000c0: 7d70 aa3b 48cc 943b dd92 833b 9d13 2dbb
000000d0: 5776 afbb 491f a83b 9deb 53b9 892e 6c3a
000000e0: 6c16 3cbc 1bb4 38bd 806a 4b39 a02d d2b9
000000f0: df0f 0439 7ecf 99ba 1d91 9bbb ed27 b8b8
00000100: be99 bbbd ded7 dcbb 85d7 663a 2d94 33ba
00000110: 6a5b c4b9 88c8 1939 bae9 11bb 89f5 45bc
00000120: 2688 90bb 5d97 a338 b3bb a83b c60e 34bb
00000130: f0a9 943c bd12 883c 4733 abbd cd26 5f3e
00000140: dd37 7039 f012 6238 4f0b d1b8 06ae 6cbb
00000150: f1ef 85ba c2f5 093a d38f 91bb b2cc 0c3c
00000160: a4d6 0ebd 4113 7a3d 40eb 423c 58c9 103d
00000170: 0084 46b8 764f a039 87cb c5ba dc0d 163b
00000180: 4fdd 7db9 896f 753a 5f09 a2b8 ab4a 4dba
00000190: 1241 6d3a 06c3 0fbb 45f4 aabd 0871 0abd
000001a0: 5df6 03be 658d f4bd e2d2 64ba 59ec 0ebc
000001b0: d550 d7b8 d6ae 373a 31e0 a63b 3ea5 a639
000001c0: d9f4 04bb ab2d bd3a 3661 d2ba 5ab2 853b
000001d0: 7a2d 053b e24a 593b 91c4 323b 88ac efba
000001e0: 5e3f 7bb9 f482 f939 ca49 843a 123d beba
000001f0: b4d0 d33a af8f 32bb 5d7e 393c c598 1c3c
00000200: 3425 b3ba b0d5 3039 9084 323b 6b76 2bbb
00000210: 90af b7ba dbf2 85bb bc91 9cbb c0c2 07bb
00000220: 0579 913b 8acb c3ba 7c75 2e3a 0e1e f83b
00000230: 9db2 80bc ba40 23bb df4f 3c39 6111 03ba
00000240: bb80 afb9 5b07 64b9 74f2 eb3a 820b aab9
00000250: b608 fb39 d9b1 a4ba 6022 c6ba 28ad 6b3b
00000260: 3602 8fba 1c5e 06ba 1dcf 06bb a0f0 c0ba
00000270: 37e1 1dbb 3a25 b2bb 6260 ffba ab3d c7b9
00000280: 1c58 f6bb 9816 993c 6359 153a 3915 953a
00000290: 5ae3 293b 27cb 5cba af59 943d 0603 973a
000002a0: 915a 4c3b 5842 443b f91b 1cba c447 1339
000002b0: d56e 8c3b 2411 28bb 6802 f63a a92f 583a
000002c0: 2a41 d93c 9631 6bbc 4229 573b 5680 a53a
000002d0: 1d45 03bb 38c9 bcb7 d881 843a 1f0b b639
000002e0: a51e 22bc eb71 08bb 62e7 423c d65a 02bd
000002f0: e334 4a38 6d23 1d3b f846 9dba f648 c33b
00000300: 92de 4e3c 6dae 1c3c 4833 873c 3d6a efba
00000310: e921 393b 60eb a2bb 36dc cfba e529 993a
00000320: c00c 703d c5f5 473d 2194 edb9 08ca 1aba
00000330: 128b da38 cc90 3eb9 10d3 51b9 ab07 93ba
00000340: 0ebe b9bb 942a 693c 254a c938 63dc ad39
00000350: 360a 92bb b217 013c cbb9 f6ba f7e5 3139
00000360: 0b4d 72ba c549 1dbb c5ab 9ab9 42e5 f63a
00000370: 81ee 8b3b 769b 28ba 033f b8ba e408 683a
00000380: 8fdb 963d 7be2 78bd b1e0 913a 3769 9abb
00000390: edda 233a 7dc4 c3ba be37 e0bc 6977 19bd
000003a0: ff42 92ba 1f87 a2ba befe feba c892 ab3b
000003b0: 642e 4e3a 3649 80ba 29c7 313a 9753 b63a
000003c0: af6f b9ba 7709 1f3b ecd4 24bb 6315 94bc
000003d0: 36a0 943b b9a4 19bc 75f3 24bb fe83 5c3a
000003e0: 1ef7 93bc fd41 ad3c e600 153d efe0 053d
000003f0: 9bf3 ffb9 24bb ccb8 fe77 c6bb a845 7d3a

b f4 [10000]
0.00056207576 -0.117850736 0.00010693567 0.00019253281 0.0003951039 6.4500804e-05 0.00041965293 0.0002461989
-0.017499141 0.00018575974 0.00024849104 0.00021567926 0.0002770155 0.00018107587 -0.047124375 0.00016645767
0.00047594655 -0.04266831 0.00025941065 0.00045600077 0.00019387886 -0.034024972 0.00027870655 -0.0969915
0.0005194802 0.00013634791 0.0003643901 6.579747e-05 -0.00026129346 0.00012570426 6.8807654e-05 0.00029319202
-0.015704634 0.00016198521 0.00014484755 0.00016157255 0.00020684232 0.00031368696 0.00021967721 -0.16595958
0.0001042069 0.00061806594 0.0003733522 0.00046637486 -0.022032944 -0.025300477 0.00019859587 0.00035013235
0.00043412703 0.00011227604 0.00026868313 -0.07913644 -0.1268987 0.000334476 0.00031056465 0.00030290888
0.00045327624 5.7295274e-05 0.00020155987 0.0002535751 0.00021785563 0.0002164742 0.00023604142 0.00019777955
0.00023811567 0.00021009092 0.0002472337 0.00035200783 0.0004023665 0.00030214488 6.18692e-05 9.031888e-05
0.00030590128 0.0001695561 0.0003134645 0.00033894784 0.00027281806 0.00020045567 0.0003384366 0.00043123914
-0.01590114 0.00022106737 0.00019772135 -0.043273736 0.00021023881 0.00039412107 0.0001675188 0.00028796046
0.00011965711 0.00045429493 0.00014255228 0.000100316574 0.00014850053 -0.05831015 0.0005069489 0.0002837947
7.7554854e-05 -0.012461473 -0.003837202 0.00020943818 -0.0023804123 0.00021281469 0.00048577628 0.0005677903
0.00021706388 0.00013639123 0.00037262074 0.00016890142 0.00034553686 0.00027872834 0.00023359765 0.0003071067
-0.06764855 0.000187676 0.00017581602 -0.036404576 0.00014705518 8.4854204e-05 0.0004950148 0.0003937877
0.0002929919 -0.014997638 0.0007749447 0.00025927916 -0.018803982 1.3808561e-05 0.00022895465 0.0005897396
-0.14516781 0.00024327158 -0.074599564 0.00023992694 0.00015333302 0.00029741257 0.00015057369 0.00012781587
0.00036130977 0.00039118846 0.00013187349 0.00028658498 -0.027895022 0.00015416568 0.00045936336 0.00017785297
0.00029663133 0.0004900518 0.00021707722 0.00027164986 0.00028188853 4.3382483e-05 0.00021918051 0.00017951969
0.00025662797 0.00015943444 0.00027976258 0.00034465315 -0.05596796 0.00051096495 -0.03553667 0.0005022486
8.2910585e-05 0.00034082064 0.00021561526 0.00034707808 0.00026025574 0.00033568134 0.00052022614 0.00029634946
0.00039069765 0.0005701759 0.00021472204 0.0005019019 5.8654878e-05 -0.04698765 -0.14267719 0.0003210422
-0.00031723778 0.000205232 -0.015727209 0.000289876 9.434813e-05 0.0002293714 0.0004378531 0.0002784858
-0.087065786 0.0001761478 0.00015891631 3.0254741e-05 0.0001318427 -0.0022757424 0.00033173917 -0.031813495
0.00025892872 0.000103789265 0.00020754103 0.0002861601 0.00022444391 -0.00044541058 0.0002713879 4.6357847e-05
0.00013205974 0.00025210113 0.00026457603 0.0006761674 0.00033286106 0.00044364284 0.00033263167 0.00042478563
0.00031807763 0.0002447819 0.0002685976 0.0005130792 0.00027810942 5.9795355e-05 0.00043318016 0.00029490655
0.00038298205 0.00011569819 0.00017393916 -0.034813747 0.0002733756 0.0005649932 0.00039183552 0.00016410562
0.00018578226 0.00020698611 6.257647e-05 0.00039424337 0.00030422243 0.0001291689 0.00036870662 -0.012959596
0.00029657048 -0.017471204 0.00041049183 0.00018834793 0.00022495886 -0.009873121 -0.00010897232 -0.044644758
-0.022405498 0.00024706798 0.00034276865 0.00065153255 -0.00038572558 0.00024143043 0.00021048161 0.00029724732
0.00048533545 0.00046395208 8.7618115e-05 -0.008408194 0.00024476444 0.0001487046 0.00013982014 0.00022280308
00000000: 4458 133a ba5b f1bd a742 e038 a2e2 4939
00000010: f325 cf39 9b44 8738 dd04 dc39 4214 8139
00000020: 5c5a 8fbc 80c8 4239 e747 8239 f627 6239
00000030: 643c 9139 2fdf 3d39 7d05 41bd 248b 2e39
00000040: 7788 f939 f7c4 2ebd 8201 8839 6313 ef39
00000050: f64b 4b39 c55d 0bbd 5c1f 9239 7ba3 c6bd
00000060: ba2d 083a 9df8 0e39 9c0b bf39 bffc 8938
00000070: 37fe 88b9 7bcf 0339 d44c 9038 91b7 9939
00000080: 01a7 80bc 93da 2939 38e2 1739 cd6b 2939
00000090: d0e3 5839 5a76 a439 2759 6639 4ff1 29be
000000a0: a789 da38 b405 223a 7cbe c339 c683 f439
000000b0: 6f7e b4bc f242 cfbc 2c3e 5039 f891 b739
000000c0: 8b9b e339 bd75 eb38 0ade 8c39 4912 a2bd
000000d0: bcf1 01be 9c5c af39 48d3 a239 becf 9e39
000000e0: b5a5 ed39 5550 7038 d159 5339 46f2 8439
000000f0: 2d70 6439 5afd 6239 e381 7739 0b63 4f39
00000100: b0ae 7939 da4b 5c39 259f 8139 b18d b839
00000110: b8f4 d239 3369 9e39 c6bf 8138 9469 bd38
00000120: 6061 a039 deca 3139 7e58 a439 cfb4 b139
00000130: 0509 8f39 6931 5239 3170 b139 f017 e239
00000140: 1c43 82bc 52ce 6739 6c53 4f39 cd3f 31bd
00000150: 8d73 5c39 09a2 ce39 fca7 2f39 66f9 9639
00000160: 6cf0 fa38 6f2e ee39 167a 1539 0d61 d238
00000170: cfb6 1b39 a0d6 6ebd c4e4 043a 48ca 9439
00000180: f2a4 a238 352b 4cbc 9179 7bbb a29c 5b39
00000190: b100 1cbb 0227 5f39 caaf fe39 c3d7 143a
000001a0: a49b 6339 3e04 0f39 4f5c c339 211b 3139
000001b0: 2c29 b539 4922 9239 e4f1 7439 2a03 a139
000001c0: 538b 8abd e5ca 4439 415b 3839 f71c 15bd
000001d0: d332 1a39 c1f3 b138 e2c3 013a 4a75 ce39
000001e0: b59c 9939 a7b8 75bc a925 4b3a dcef 8739
000001f0: cf0a 9abc 51ab 6737 8c13 7039 c198 1a3a
00000200: dfa6 14be b816 7f39 a8c7 98bd e694 7b39
00000210: 05c8 2039 0aee 9b39 51e3 1d39 5006 0639
00000220: 2d6e bd39 6d18 cd39 8547 0a39 c940 9639
00000230: 1a84 e4bc 89a7 2139 b5d6 f039 0b7e 3a39
00000240: 2f85 9b39 d276 003a 399f 6339 3a6c 8e39
00000250: 70ca 9339 96f5 3538 d2d3 6539 733d 3c39
00000260: 068c 8639 db2d 2739 19ad 9239 90b2 b439
00000270: a93e 65bd 47f2 053a e68e 11bd 55a9 033a
00000280: 48e0 ad38 2cb0 b239 c816 6239 08f8 b539
00000290: ef72 8839 63fe af39 c95f 083a 5a5f 9b39
000002a0: 8dd6 cc39 db77 153a 0227 6139 1192 033a
000002b0: 3204 7638 1f76 40bd f819 12be 8e51 a839
000002c0: ef52 a6b9 8c33 5739 59d6 80bc 80fa 9739
000002d0: c4dc c538 6b83 7039 a68f e539 bb01 9239
000002e0: 8c4f b2bd 51b4 3839 c6a2 2639 90cb fd37
000002f0: 413f 0a39 9f24 15bb 47ed ad39 de4e 02bd
00000300: d3c0 8739 70a9 d938 5f9f 5939 c207 9639
00000310: b458 6b39 ff85 e9b9 1149 8e39 5c70 4238
00000320: 8479 0a39 712c 8439 cbb6 8a39 d340 313a
00000330: db83 ae39 bc98 e839 1165 ae39 c3b5 de39
00000340: a8c3 a639 1256 8039 8fd2 8c39 2a80 063a
00000350: 37cf 9139 c6cc 7a38 751c e339 b09d 9a39
00000360: fbca c839 fea2 f238 7063 3639 dc98 0ebd
00000370: da53 8f39 0d1c 143a 466f cd39 c413 2c39
00000380: 8cce 4239 690a 5939 7d3b 8338 73b2 ce39
00000390: 0b80 9f39 8371 0739 f74e c139 7c54 54bc
000003a0: 047d 9b39 c51f 8fbc 4837 d739 437f 4539
000003b0: efe2 6b39 dfc2 21bc 1288 e4b8 6cdd 36bd
000003c0: bc8b b7bc e788 8139 a1b5 b339 9ccb 2a3a
000003d0: 363b cab9 7d28 7d39 bab4 5c39 dcd7 9b39
000003e0: 9f74 fe39 983e f339 9ebf b738 86c2 09bc
000003f0: ba53 8039 96ed 1b39 af9c 1239 3fa0 6939

exp_avg f4 [10000, 2]
-4.027008e-13 -2.2157895e-13 -2.153325e-11 4.70562e-11 -6.321384e-13 4.576252e-13 3.6361454e-14 -1.9415364e-14
-9.279243e-13 5.930645e-13 2.3853722e-14 -4.846164e-15 -1.2440816e-13 -1.7158447e-13 2.8270455e-13 5.56885e-13
-3.5946634e-12 -1.0638837e-11 -2.995494e-13 2.9064687e-13 -3.7119328e-13 -1.4852282e-13 -1.2637498e-12 -8.7828475e-13
-6.1013434e-13 7.078781e-13 2.3785528e-13 -3.013775e-13 -2.6325952e-11 1.7697642e-11 1.516409e-13 -3.4800277e-13
-1.3357197e-13 -1.3794654e-13 -2.5069016e-11 -1.0122504e-11 1.3686208e-13 -5.4508224e-14 -7.25165e-13 7.0661917e-13
7.760596e-13 -4.5139952e-13 -5.935717e-11 4.0945285e-11 5.814174e-14 -2.4941498e-14 3.979894e-11 6.854884e-12
-5.0992706e-13 -3.3359977e-13 -2.0959422e-13 1.5284983e-13 9.773903e-13 -9.399349e-13 -2.2229299e-14 6.630218e-15
3.1013476e-13 2.089715e-12 -1.29128275e-14 -4.109176e-15 3.2199747e-14 1.4210767e-13 4.2365682e-13 7.742635e-14
1.2990895e-11 -2.8606566e-13 -2.535535e-13 1.8069784e-13 -1.2206604e-13 3.6356833e-14 2.0947755e-13 1.332732e-12
9.634244e-13 9.60416e-14 -8.160065e-13 2.8697495e-13 -1.7679569e-12 -1.6777523e-12 2.2763332e-12 8.057647e-12
-3.8658574e-14 1.8256943e-13 -4.3334455e-13 -9.430039e-13 -7.851479e-14 8.461554e-14 -1.9672042e-12 2.7946586e-12
1.2876518e-11 -1.6946706e-11 -9.906884e-12 -4.1512184e-12 -1.240012e-13 -2.1150426e-14 -7.7915186e-14 -9.509154e-14
-7.839318e-14 -3.8105624e-13 5.0338975e-14 3.4204974e-13 1.6588927e-13 2.495604e-13 2.9805103e-11 1.5255538e-11
3.2015664e-11 2.9994437e-11 3.3458045e-14 8.606251e-13 -1.6972087e-13 -3.4394108e-14 -1.472665e-12 5.0543505e-13
-4.2951992e-13 1.6100477e-13 -6.644122e-13 1.4148593e-12 -5.69491e-14 -1.5681839e-13 -4.001515e-13 1.06618456e-13
-4.3485747e-13 7.9636676e-14 -7.1136554e-13 3.9001227e-13 4.5217226e-13 -5.820459e-13 -8.5523147e-13 -8.7852414e-13
1.0653432e-13 -1.5157923e-13 -2.3774076e-13 3.661794e-13 7.9503746e-14 8.295076e-13 5.008604e-13 3.3286365e-13
-1.0759971e-12 4.4869935e-13 5.1797846e-13 -1.2250725e-12 1.1350445e-12 3.167811e-13 -1.4606716e-13 2.7394997e-14
-2.5584195e-13 -3.008313e-14 1.7610737e-14 -2.3835037e-15 5.713741e-14 -1.865425e-13 4.912544e-13 -8.878228e-13
-3.8087975e-14 3.7775506e-13 5.9713324e-13 1.8254292e-13 -1.06183833e-13 -2.774445e-13 3.1763876e-13 -4.4200751e-13
-1.2300535e-12 1.5450431e-12 -2.1157231e-13 -4.605741e-14 2.2410479e-13 -6.671177e-14 -1.8981896e-11 9.082797e-13
-2.6472647e-13 3.1731123e-13 -3.1374623e-13 -1.8792754e-13 -3.141823e-13 2.938445e-14 -1.315242e-13 -2.5222516e-13
-2.3543693e-12 1.0114176e-12 -6.9782125e-13 1.5045983e-13 -3.3878114e-13 2.1012453e-13 -1.6575702e-13 6.094613e-14
-4.3288487e-13 3.5181257e-13 3.488186e-11 4.193871e-11 -3.539142e-13 6.899049e-13 -1.3904176e-13 -5.2897858e-14
-8.616319e-13 -2.7888897e-13 2.9030068e-12 -9.234083e-13 1.063084e-37 -1.142211e-37 6.980524e-14 3.9821344e-13
-6.277575e-12 -6.3519515e-12 -6.276386e-14 6.361729e-13 -1.244043e-13 8.9395044e-14 5.1178284e-13 9.921725e-13
1.4192397e-12 -3.6005372e-12 -1.2876884e-13 -2.1578785e-13 6.5282767e-13 -6.479482e-13 2.2202677e-15 -3.0346026e-14
6.401694e-14 8.2244937e-13 -1.0224276e-13 2.6106108e-13 -4.137838e-13 4.9128385e-14 4.232525e-14 -5.800009e-14
-2.7047836e-11 2.67588e-11 1.1603965e-13 1.0639242e-12 -1.08534966e-13 1.8774886e-13 6.044056e-12 2.0802896e-11
-1.6955014e-13 2.3053738e-13 -4.030022e-13 9.50573e-13 -3.2012508e-13 4.488632e-13 1.2363493e-13 -2.1125201e-13
-2.8403305e-13 4.599674e-13 -1.1360349e-11 2.1187965e-11 7.777497e-13 2.664825e-12 2.6223983e-13 7.407179e-14
7.1017463e-12 -3.5063445e-12 -3.613614e-12 -2.8387021e-12 7.739665e-15 1.8273028e-13 1.8823935e-12 4.1268112e-13
00000000: 4db3 e2aa c979 79aa 9168 bdad 92f4 4e2e
00000010: 5fee 31ab 5fcf 002b e7c1 2329 c8e0 aea8
00000020: ff97 82ab cdee 262b f0da d628 f999 aea7
00000030: 3612 0caa db2f 41aa 0526 9f2a cbbf 1c2b
00000040: b3f3 7cac 1029 3bad 9ea1 a8aa a19e a32a
00000050: 97f6 d0aa ca38 27aa 63db b1ab 1637 77ab
00000060: d0bc 2bab fe3f 472b 8fe6 852a 13a9 a9aa
00000070: c690 e7ad 8cab 9b2d 83bb 2a2a 7ce8 c3aa
00000080: 8063 16aa 6250 1baa 6882 dcad b513 32ad
00000090: cf17 1a2a b47b 75a9 a51d 4cab 47e5 462b
000000a0: fd70 5a2b 871d feaa 1e87 82ae 4b14 342e
000000b0: 6eec 8229 2ea7 e0a8 9f09 2f2e 4e2f f12c
000000c0: 1e88 0fab cbcc bbaa 6cfb 6baa f717 2c2a
000000d0: 328e 892b b948 84ab 4639 c8a8 f8e0 ee27
000000e0: 2197 ae2a f50c 132c e89d 68a8 760c 94a7
000000f0: c803 1129 bfff 1f2a 627f ee2a 4159 ae29
00000100: ca89 642d 680a a1aa e9bc 8eaa 9b72 4b2a
00000110: 246f 09aa 93bc 2329 cbd9 6b2a bb90 bb2b
00000120: 0697 872b 3744 d829 77af 65ab 738d a12a
00000130: 5cd1 f8ab 661f ecab c62e 202c 6bc0 0d2d
00000140: 4d1a 2ea9 0e8e 4d2a 88f3 f3aa 4cb7 84ab
00000150: b2cc b0a9 8a89 be29 006e 0aac 18a8 442c
00000160: af86 622d 9710 95ad a448 2ead da0e 92ac
00000170: ea9c 0baa 9081 bea8 0c73 afa9 8a20 d6a9
00000180: 9786 b0a9 fe83 d6aa e3b4 6229 908e c02a
00000190: 54c6 3a2a 727d 8c2a 9015 032e 6b30 862d
000001a0: 6fce 0c2e bcea 032e 80ae 1629 933e 722b
000001b0: b616 3faa b5e5 1aa9 5942 cfab 6f44 0e2b
000001c0: 58cc f1aa 7746 352a f203 3bab ae1f c72b
000001d0: ec3c 80a9 d38f 30aa e943 e1aa 5b15 f029
000001e0: 91cd f4aa 6b53 b329 4a3b 48ab b18e db2a
000001f0: e48c fe2a d4d4 23ab ecb9 70ab 5648 77ab
00000200: dbe4 ef29 bda9 2aaa 0ed6 85aa 0324 ce2a
00000210: ca06 b329 527c 692b ccfa 0c2b b562 bb2a
00000220: e26e 97ab 6498 fc2a 48cc 112b e369 acab
00000230: 4abe 9f2b f854 b22a fe74 24aa 90c0 f628
00000240: b606 90aa 7d7b 07a9 989f 9e28 e2bf 2ba7
00000250: 79a9 8029 3707 52aa 9c46 0a2b 60e6 79ab
00000260: 7288 2ba9 3ea8 d42a fc13 282b 6a86 4d2a
00000270: d01a efa9 f72f 9caa 92d0 b22a ffd3 f8aa
00000280: 591d adab 0b72 d92b 9135 6eaa 946c 4fa9
00000290: cf51 7c2a b838 96a9 6ef7 a6ad 73a8 7f2b
000002a0: 1b07 95aa 5ea1 b22a 999f b0aa 6d96 53aa
000002b0: 71de b0aa f755 0429 4515 14aa 7afd 8daa
000002c0: 8cac 25ac 2958 8e2b 526b 44ab 1867 292a
000002d0: 82b7 beaa 4694 6c2a 35a0 3aaa 0d3d 8929
000002e0: 49b1 f3aa 890d c62a 7c69 192e ca72 382e
000002f0: 693c c7aa e330 422b 0f8c 1caa 143b 6ea9
00000300: 1f87 72ab 2300 9daa ec47 4c2c 4af5 81ab
00000310: 12b3 1002 3f78 1b82 fb2f 9d29 9b2c e02a
00000320: 5edf dcac 4b7d dfac e754 8da9 1711 332b
00000330: 1911 0caa bc4c c929 d70d 102b c8a2 8b2b
00000340: 80bd c72b 835d 7dac 17fb 10aa 9df4 72aa
00000350: 31c1 372b 9761 36ab b6fc 1f27 96aa 08a9
00000360: 4127 9029 b97f 672b f03a e6a9 def6 922a
00000370: 88f0 e8aa 2c41 5d29 b19d 3e29 c79a 82a9
00000380: 50ea edad 765f eb2d 27a6 022a e9bb 952b
00000390: 2666 f4a9 ed62 532a 04a8 d42c f5fb b62d
000003a0: 80e5 3eaa f0c7 812a bdde e2aa 00c8 852b
000003b0: e336 b4aa 01b0 fc2a 5833 0b2a 3fd9 6daa
000003c0: 7ae5 9faa 2578 012b 77da 47ad 0e5f ba2d
000003d0: c6ea 5a2b 3885 3b2c bea0 932a 7bcb a629
000003e0: d8de f92c b0bc 76ac 1549 7eac 83c1 47ac
000003f0: e86c 0b28 6bbc 4d2a 3076 042c 9e51 e82a

exp_avg_sq f4 [10000, 2]
1.4951764e-25 4.320918e-26 4.610579e-22 2.2204654e-21 4.0395168e-25 2.1430752e-25 1.4524221e-27 1.7042756e-27
8.485927e-25 3.4857463e-25 5.342424e-28 2.8040794e-29 1.7267848e-26 2.8249368e-26 8.314622e-26 3.068304e-25
1.2921082e-23 1.1338799e-22 8.6584436e-26 7.5216507e-26 1.4248276e-25 2.3749873e-26 1.3865585e-24 5.563197e-25
3.8602356e-25 4.8698977e-25 5.802428e-26 9.311193e-26 6.9444796e-22 3.138156e-22 2.5367771e-26 1.4347616e-25
1.4552952e-26 1.7253941e-26 6.2816416e-22 1.0228467e-22 1.4883326e-26 3.0421067e-27 5.228002e-25 5.1678805e-25
6.071583e-25 1.7938782e-25 3.5685808e-21 1.6429272e-21 2.9461416e-27 6.580643e-28 1.5863709e-21 4.6972745e-23
2.7366647e-25 1.1049067e-25 3.2285165e-26 2.2177667e-26 9.142893e-25 8.813299e-25 5.9708345e-28 9.8629846e-29
1.1323121e-25 4.126851e-24 1.6785535e-28 4.088031e-29 1.2144695e-27 1.9571776e-26 1.9152544e-25 4.7401797e-27
1.6873065e-22 3.1668602e-26 6.5378216e-26 3.2780178e-26 1.5636577e-26 1.2682411e-27 4.4491703e-26 1.6868952e-24
9.007617e-25 9.121113e-27 6.5908135e-25 8.0733646e-26 3.0650861e-24 2.7540099e-24 5.1469486e-24 6.507726e-23
1.3615429e-27 3.316273e-26 1.8567354e-25 9.133455e-25 8.469133e-27 6.655052e-27 3.9915845e-24 7.953789e-24
1.6235448e-22 2.8101477e-22 9.8298045e-23 1.7169641e-23 1.5708128e-26 5.198604e-28 7.436381e-27 7.629639e-27
6.320301e-27 1.4983942e-25 2.4447787e-27 1.1393733e-25 2.9184843e-26 6.241885e-26 8.895265e-22 2.3269195e-22
1.026774e-21 9.062078e-22 7.3564207e-28 7.1480664e-25 2.87658e-26 1.4319875e-27 2.1929176e-24 2.4873388e-25
2.0022626e-25 2.349572e-26 4.5260135e-25 2.0591039e-24 2.9516781e-27 2.1481769e-26 1.6121238e-25 1.22101994e-26
1.9468387e-25 5.840347e-27 5.0233593e-25 1.5219662e-25 2.1683353e-25 2.5555388e-25 7.8300435e-25 7.558153e-25
1.2302505e-26 2.3243785e-26 6.1515564e-26 1.308709e-25 7.005202e-27 6.570499e-25 2.38972e-25 1.029977e-25
1.1395369e-24 2.1159498e-25 2.6293064e-25 1.5094549e-24 1.1359263e-24 1.0254335e-25 2.1802331e-26 4.6590166e-28
6.4204976e-26 6.3185996e-28 1.9657258e-28 3.7864953e-29 3.366651e-27 3.4932406e-26 2.323108e-25 8.0376495e-25
1.300245e-27 1.4339111e-25 3.4907812e-25 2.8437163e-26 8.555885e-27 7.898973e-26 1.0489034e-25 2.1074629e-25
1.510592e-24 2.4069773e-24 4.617653e-26 1.5685279e-27 5.3419966e-26 4.321222e-27 3.6045077e-22 8.319169e-25
7.4457746e-26 1.0577003e-25 9.9855104e-26 3.6476078e-26 8.4043916e-26 1.091055e-27 2.0020821e-26 6.010794e-26
5.4490405e-24 1.0055148e-24 4.7940093e-25 2.0187139e-26 1.1862964e-25 4.326848e-26 2.5791117e-26 3.6003966e-27
1.7340811e-25 1.1725642e-25 1.2180125e-21 1.760226e-21 1.2196518e-25 4.7507196e-25 2.2264081e-26 1.9203829e-27
7.626719e-25 5.0004685e-26 8.433952e-24 8.491845e-25 0.0 0.0 3.2131878e-27 1.5752895e-25
3.987003e-23 3.862705e-23 4.179972e-27 4.0109862e-25 1.4962212e-26 7.583706e-27 2.599773e-25 9.65866e-25
2.0255173e-24 1.2818485e-23 1.6693136e-26 4.743748e-26 4.0482227e-25 3.7504025e-25 2.5697187e-29 9.061288e-28
4.7729112e-27 6.4919234e-25 1.08785105e-26 6.6824007e-26 1.7585439e-25 2.1610898e-27 1.4912359e-27 3.5462183e-27
7.3377787e-22 7.1784767e-22 1.324587e-26 1.1050853e-24 1.1392005e-26 3.245423e-26 3.6553262e-23 4.3321055e-22
2.8790862e-26 5.1619215e-26 1.6362751e-25 9.111527e-25 1.0094787e-25 1.9328305e-25 1.6122357e-26 4.6107604e-26
8.220305e-26 2.0938543e-25 1.291712e-22 4.4824536e-22 6.205268e-25 6.9512735e-24 6.754593e-26 5.9561533e-27
5.05069e-23 1.2271204e-23 1.3021818e-23 7.710162e-24 5.988691e-29 3.3624583e-26 3.4364165e-24 1.6587981e-25
00000000: 0818 3916 25f6 5515 a158 0b1c 0cc6 271d
00000010: b308 fa16 62a6 8416 3d25 e612 d106 0713
00000020: 3850 8317 dbc1 d716 e54e 2912 082f 0e10
00000030: 3203 ab14 54e2 0b15 2edc cd15 38eb bd16
00000040: 19ee 7919 e213 091b 685f d615 203a ba15
00000050: 9762 3016 1535 eb14 3e8f d617 302c 2c17
00000060: e0ef ee16 4eb7 1617 42a9 8f15 b288 e615
00000070: 4fe2 511c 9db0 bd1b f13a fb14 699d 3116
00000080: 1e20 9014 f0df aa14 d9d9 3d1c 254f f71a
00000090: b765 9314 4105 7113 80cc 2117 2bf0 1f17
000000a0: 09e8 3b17 4512 5e16 32d1 861d ab45 f81c
000000b0: da6a 6913 858c 5012 c0b9 ef1c 7125 631a
000000c0: 2f64 a916 e4c7 0816 4fde 1f15 11a3 db14
000000d0: bb7a 8d17 1361 8817 2a39 3d12 6e0e fa10
000000e0: 672c 0c16 5aa6 9f18 2dc8 5411 ad49 4f10
000000f0: bc70 c012 59d4 c114 d618 6d16 22c7 bb13
00000100: 9bfb 4b1b b9d0 1c15 5ede a115 d051 2215
00000110: 6fdb 9a14 f9f5 c812 ef4f 5c15 6784 0218
00000120: d962 8b17 8aa9 3414 cef9 4b17 07e3 c715
00000130: 4926 6d18 c914 5518 e91c c718 df58 9d1a
00000140: bebe d712 c136 2415 4bda 6516 5855 8d17
00000150: 9bbf 2714 1fd1 0314 bd6a 9a18 41d9 1919
00000160: 4746 441b eedc a91b 8bab ed1a f90d a619
00000170: d690 9b14 16c0 2412 ee4a 1314 de1e 1714
00000180: 785f fa13 027e 3916 01b2 4113 2e0c 0d16
00000190: 2f84 1015 a58a 9a15 e46b 861c 56a7 8c1b
000001a0: 6529 9b1c 37f1 881c 6022 6912 d138 5d17
000001b0: fc70 0e15 50e8 e212 35ab 2918 75f5 9916
000001c0: 3cde 7716 bab0 e814 c612 0c17 c150 1f18
000001d0: 25db 6913 c1be d414 3e92 4716 11d9 7114
000001e0: c801 7116 285c e713 2777 1b17 0969 3c16
000001f0: a536 8616 212e 9e16 ff53 7217 dbe9 6917
00000200: 1dad 7314 ff31 e614 1f4e 9815 a502 2216
00000210: 98c0 0a14 db58 4b17 a0ea 9316 8c02 ff15
00000220: b555 b017 90f8 8216 06bf a216 ab93 e917
00000230: adc6 af17 92e2 fd15 7aeb d714 6fa6 1312
00000240: bdf6 9e15 923e 4812 732f 7911 85ff 3f10
00000250: e65d 8513 16fa 2c15 1ecb 8f16 d2c0 7817
00000260: 3408 ce12 7582 3116 a311 d816 63d0 0c15
00000270: 7e77 2914 b091 c315 13d9 0116 1572 8216
00000280: b7c0 e917 193b 3a18 b5a7 6415 0d8b f812
00000290: ed42 8415 662e ab13 0ee1 d91b a0bb 8017
000002a0: 3459 b815 dcef 0216 b13a f715 ec9e 3415
000002b0: 2915 d015 73e2 ac12 d046 c614 efd1 9415
000002c0: afcc d218 8c98 9b17 0e5e 1417 7aec c714
000002d0: 3cdb 1216 5141 5615 406c ff14 5ca0 8e13
000002e0: 39ab 5616 0b28 1116 940f b81c b9ff 041d
000002f0: 4ffc 1616 1407 1317 277e dc14 fe25 1813
00000300: 1809 6c17 789c 7715 e822 2319 aa67 8317
00000310: 0000 0000 0000 0000 3193 7e13 eb02 4316
00000320: b5cc 401a f9c9 3a1a f495 a513 9d44 f816
00000330: b72d 9414 f535 1614 0ceb a016 e575 9517
00000340: 81b7 1c18 10f2 7719 2152 a514 26e6 6a15
00000350: a692 fa16 8023 e816 db4c 0210 f394 8f12
00000360: 1213 bd13 51ea 4817 9a78 5714 bf72 a515
00000370: 7bb2 5916 1c38 2b13 b74b ec12 ed7a 8c13
00000380: 50c5 5d1c c6f4 581c 452e 8314 f000 ab17
00000390: 54a4 6114 a0b4 2015 bfc2 301a 0bee 021c
000003a0: c190 0e15 219b 7f15 a18f 4a16 7afe 8c17
000003b0: 50ef f915 d845 6f16 08ab 9f14 5550 6415
000003c0: 5f86 cb15 729a 8116 8d28 1c1b 4e79 071c
000003d0: 330b 4017 0a75 0619 523c a715 92f2 eb13
000003e0: 843c 741a 0f5c 6d19 ebe0 7b19 df22 1519
000003f0: d4d4 9710 3980 2615 9ff0 8418 6959 4d16

exp_avg f4 [10000]
-1.3421225e-13 3.058041e-11 -1.7357543e-14 -2.7590169e-14 -2.7865968e-14 -1.5795765e-14 -6.6678434e-14 -2.3911249e-14
6.6126423e-12 -3.4811482e-14 -6.5641896e-14 -1.3339357e-13 -3.9846287e-14 -1.4485077e-14 2.181948e-11 -3.536154e-14
-4.7627545e-14 2.0306144e-11 -2.5322133e-14 -6.707583e-14 -1.2161425e-14 1.107221e-11 -2.5415303e-14 3.9345645e-11
-1.369945e-13 -3.501231e-14 -2.63677e-14 -1.7212023e-14 -7.212411e-14 -2.9478813e-14 -6.484344e-15 -2.5540715e-14
4.2227073e-12 -1.1927867e-14 -1.2049327e-14 -1.2665263e-14 -1.38051784e-14 -3.1989226e-14 -1.2580097e-14 1.1206325e-37
-6.4151544e-15 -1.3930477e-13 -2.863998e-14 -7.166828e-14 9.993278e-12 8.487607e-12 -1.4229755e-14 -7.066599e-14
-3.1153004e-14 -6.083781e-15 -2.6029343e-14 3.0100904e-11 3.371731e-11 -2.5764203e-14 -2.5847475e-14 -2.5804476e-14
-5.068245e-14 -2.6478179e-14 -3.4782317e-14 -2.9752923e-14 -1.30552815e-14 -1.3881122e-14 -3.5711543e-14 -1.5742072e-14
-1.4875523e-14 -1.2605431e-14 -3.2546726e-14 -2.3855372e-14 -2.9354164e-14 -2.9681278e-14 -4.3436402e-14 -7.931564e-15
-2.3852587e-14 -3.4841057e-14 -6.7139104e-14 -2.700212e-14 -2.6177064e-14 -1.20561545e-14 -5.8165685e-14 -2.7032501e-14
1.1239049e-37 -3.127227e-14 -3.4770923e-14 1.074139e-11 -3.51638e-14 -2.4047931e-14 -3.5702483e-14 -6.927346e-14
-6.408349e-15 -6.839818e-14 -3.53417e-14 -1.7408933e-14 -3.5534906e-14 1.1539987e-37 -1.30138e-13 -7.072592e-14
-1.8222865e-14 1.0806735e-37 1.086504e-37 -3.458905e-14 5.444384e-13 -1.2112415e-14 -4.2217132e-14 -4.9792977e-14
-1.3071617e-14 -1.205925e-14 -6.991684e-14 -1.5260911e-14 -2.6287363e-14 -7.0398955e-14 -3.5370863e-14 -2.7947442e-14
2.5370693e-11 -1.3429028e-14 -1.4716954e-14 1.8545032e-11 -1.5777164e-14 -2.7393855e-14 -5.5609014e-14 -6.727101e-14
-6.7630594e-14 1.4577017e-11 -5.082966e-14 -2.404188e-14 4.6868416e-12 -6.987508e-14 -1.190118e-14 -4.8953246e-14
5.2060068e-11 -3.2656247e-14 2.3357042e-11 -1.4143391e-14 -1.3481015e-14 -5.6964e-14 -2.9847588e-14 -1.2024386e-14
-2.6271303e-14 -4.5157617e-14 -1.1980099e-14 -7.044537e-14 4.6503847e-12 -1.3440238e-14 -7.0198106e-14 -3.3374755e-14
-3.8803464e-14 -1.3806569e-13 -1.426537e-14 -2.682158e-14 -6.929644e-14 -1.4408112e-14 -1.2972043e-14 -1.34357366e-14
-2.9289254e-14 -1.3728735e-14 -2.7426292e-14 -2.3921886e-14 1.1081178e-11 -5.4833718e-14 1.1421372e-11 -1.409854e-13
-8.826707e-15 -6.684128e-14 -1.894824e-14 -2.5672271e-14 -2.8029376e-14 -4.6102973e-14 -1.1297134e-13 -2.4901298e-14
-6.4473695e-14 -5.506261e-14 -1.6481442e-14 -1.3916671e-13 -8.642357e-15 6.2941453e-12 5.458867e-11 -6.921261e-14
2.104822e-13 -2.8812185e-14 8.523741e-13 -6.1096026e-14 -6.0034604e-15 -3.4835338e-14 -6.5764045e-14 -2.8243717e-14
1.1722626e-11 -1.37715665e-14 -1.41872886e-14 -1.741752e-15 -1.28738894e-14 6.154038e-13 -3.0778413e-14 5.077289e-12
-6.9275816e-14 -6.1396205e-15 -5.859623e-14 -2.450525e-14 -1.4221073e-14 6.9767e-14 -5.551806e-14 -2.5368711e-14
-1.4160474e-14 -6.984497e-14 -2.9823895e-14 -8.6687513e-14 -7.093055e-14 -6.973295e-14 -3.2087427e-14 -6.94897e-14
-2.7420454e-14 -5.2627316e-14 -6.983088e-14 -5.3275394e-14 -2.9190006e-14 2.031695e-15 -2.3198515e-14 -6.693508e-14
-6.87614e-14 -1.8005281e-14 -1.2290863e-14 9.316528e-12 -3.7387164e-14 -6.860804e-14 -5.4775564e-14 -3.554587e-14
-3.4185938e-14 -1.3290164e-14 -1.7348336e-14 -2.710571e-14 -6.8911965e-14 -1.28830535e-14 -2.3795148e-14 1.1048388e-37
-6.930948e-14 5.3591628e-12 -6.9708027e-14 -1.7548896e-14 -1.22624765e-14 1.1219632e-37 1.5368796e-14 1.8843703e-11
1.1706992e-37 -6.641189e-14 -6.509556e-14 -1.3934183e-13 -2.1756455e-13 -3.1594857e-14 -8.215528e-14 -2.4370681e-14
-7.193103e-14 -3.8737934e-14 -9.601156e-15 5.0212563e-13 -6.6705186e-14 -2.934436e-14 -3.0914765e-14 -1.6894894e-14
00000000: 0c1c 17aa 7b7e 062e c557 9ca8 9982 f8a8
00000010: 8cfe faa8 8e46 8ea8 8025 96a9 965f d7a8
00000020: 63a9 e82c e8c6 1ca9 facf 93a9 1430 16aa
00000030: a473 33a9 5078 82a8 1aed bf2d 1441 1fa9
00000040: d27e 56a9 5f9d b22d dd14 e4a8 950a 97a9
00000050: ac14 5ba8 cdc8 422d b3eb e4a8 420b 2d2e
00000060: fa3d 1aaa 72ae 1da9 c77f eda8 3908 9ba8
00000070: b868 a2a9 c2c2 04a9 849f e9a7 e10c e6a8
00000080: c492 942c 94df 56a8 b60f 59a8 3728 64a8
00000090: 26b1 78a8 1111 10a9 759f 62a8 5888 1802
000000a0: 5b21 e7a7 ded7 1caa a6fb 00a9 f361 a1a9
000000b0: b9cd 2f2d c950 152d 952b 80a8 2b20 9fa9
000000c0: f84c 0ca9 fa30 dba7 9473 eaa8 9b62 042e
000000d0: 514a 142e 3510 e8a8 38d0 e8a8 126d e8a8
000000e0: e340 64a9 867e eea8 48a5 1ca9 c9fe 05a9
000000f0: dc2e 6ba8 600f 7aa8 9bd4 20a9 bfca 8da8
00000100: 9ffc 85a8 4a14 63a8 d293 12a9 bede d6a8
00000110: 0c33 04a9 2fac 05a9 c39e 43a9 e2e1 0ea8
00000120: 52d8 d6a8 01e9 1ca9 0f2f 97a9 a636 f3a8
00000130: 33c8 eba8 332f 59a8 3cfa 82a9 b47c f3a8
00000140: 5ffa 1802 79d6 0ca9 2598 1ca9 ecf6 3c2d
00000150: 1a5d 1ea9 c19a d8a8 29ca 20a9 6efd 9ba9
00000160: 96e2 e6a7 de04 9aa9 352a 1fa9 44ce 9ca8
00000170: f508 20a9 fc12 1d02 ba85 12aa b842 9fa9
00000180: 1123 a4a8 fa17 1302 24e3 1302 76c6 1ba9
00000190: ec3e 192b a832 5aa8 0a21 3ea9 653f 60a9
000001a0: 317a 6ba8 7a3d 59a8 5070 9da9 4475 89a8
000001b0: 88c6 eca8 3c86 9ea9 d44b 1fa9 6aba fba8
000001c0: b929 df2d 76ea 71a8 fc8e 84a8 b31f a32d
000001d0: aa1b 8ea8 eebd f6a8 d470 7aa9 197b 97a9
000001e0: 624a 98a9 8638 802d 9cea 64a9 cd8c d8a8
000001f0: 51e7 a42c 3e58 9da9 8164 56a8 4077 5ca9
00000200: 6df6 642e 1712 13a9 6273 cd2d e1c8 7ea8
00000210: 35da 72a8 8345 80a9 ed6b 06a9 b19c 58a8
00000220: 80a1 eca8 305f 4ba9 74d0 57a8 fea0 9ea9
00000230: f19e a32c 281e 72a8 7412 9ea9 794e 16a9
00000240: 59c1 2ea9 ba72 1baa b47d 80a8 5a96 f1a8
00000250: ae0a 9ca9 d8c6 81a8 fdae 69a8 6609 72a8
00000260: 36e8 03a9 9e50 77a8 b908 f7a8 1d78 d7a8
00000270: 30f1 422d f9f2 76a9 49ed 482d 46bc 1eaa
00000280: 0002 1fa8 6083 96a9 abab aaa8 3a3c e7a8
00000290: 5777 fca8 1ca1 4fa9 8b63 fea9 7c4a e0a8
000002a0: 8e2e 91a9 defa 77a9 9e73 94a8 13b0 1caa
000002b0: d6af 1ba8 9f74 dd2c 6115 702e 5ada 9ba9
000002c0: 5dfb 6c2a 30c2 01a9 07ec 6f2b 7693 89a9
000002d0: 264c d8a7 69e2 1ca9 6416 94a9 9465 fea8
000002e0: 043a 4e2d 2416 78a8 5293 7fa8 4f03 fba6
000002f0: 56ea 67a8 8438 2d2b 189d 0aa9 27a4 b22c
00000300: cafe 9ba9 0134 dda7 6df2 83a9 42b9 dca8
00000310: 9017 80a8 f019 9d29 f707 7aa9 4480 e4a8
00000320: a917 7fa8 e246 9da9 9c50 06a9 f333 c3a9
00000330: aeb8 9fa9 4f06 9da9 4982 10a9 167a 9ca9
00000340: 43fb f6a8 2a03 6da9 c33e 9da9 59ee 6fa9
00000350: c975 03a9 2866 1227 22f4 d0a8 72b9 96a9
00000360: 40d6 9aa9 5a2d a2a8 9a69 5da8 e9e5 232d
00000370: 7760 28a9 d87d 9aa9 edaf 76a9 9915 20a9
00000380: b4f5 19a9 106a 6fa8 8a42 9ca8 8325 f4a8
00000390: 0b2d 9ba9 9914 68a8 e053 d6a8 0362 1602
000003a0: 3212 9ca9 0c8f bc2c f1f7 9ca9 0011 9ea8
000003b0: b1e6 5ca8 b6b6 1802 086e 8a28 3fc0 a52d
000003c0: ea58 1f02 d98b 95a9 0995 92a9 8ce2 1caa
000003d0: b6f4 74aa 644a 0ea9 4bff b8a9 f782 dba8
000003e0: 6af9 a1a9 cc75 2ea9 84f5 2ca8 f755 0d2b
000003f0: ec34 96a9 be27 04a9 4c3a 0ba9 f92c 98a8

exp_avg_sq f4 [10000]
8.755649e-27 9.329895e-22 2.4490626e-28 6.2054175e-28 1.1120996e-27 1.208798e-28 3.0592351e-27 4.127393e-28
4.3591226e-23 8.192798e-28 2.1467811e-27 7.65844e-27 8.349416e-28 1.4730227e-28 4.743542e-22 6.09475e-28
2.527072e-27 4.1299405e-22 4.6615863e-28 3.3265298e-27 2.586709e-28 1.3135767e-22 4.5522007e-28 1.5479063e-21
8.8960946e-27 5.6993953e-28 4.89985e-28 1.345072e-28 6.311056e-27 4.634506e-28 2.6991827e-29 4.2620536e-28
1.9339015e-23 1.2285603e-28 1.2866212e-28 1.4513708e-28 2.8897587e-28 5.1373055e-28 3.364256e-28 3.5176323e-33
9.9209545e-29 9.138983e-27 1.1421863e-27 4.332587e-27 9.930785e-23 7.225557e-23 3.3223592e-28 2.171371e-27
1.5992204e-27 8.246807e-29 8.205365e-28 9.049041e-22 1.1329734e-21 5.0488114e-28 5.849118e-28 4.365012e-28
2.5145146e-27 5.7440384e-28 8.237088e-28 5.107636e-28 3.7645604e-28 3.0914565e-28 9.299451e-28 3.0479173e-28
3.6110363e-28 3.3812344e-28 4.3340843e-28 4.9405293e-28 1.0776961e-27 4.8972763e-28 4.7474313e-28 4.0163653e-29
5.1557458e-28 5.7746356e-28 2.1293648e-27 4.9874036e-28 4.604336e-28 2.6350535e-28 1.5403374e-27 1.3474679e-27
1.8393046e-37 7.805914e-28 8.380136e-28 1.1547381e-22 8.957787e-28 1.3223826e-27 5.0363862e-28 2.1807904e-27
3.347759e-28 3.22134e-27 5.3984067e-28 1.9498487e-28 5.7134296e-28 7.865144e-36 8.733526e-27 2.27527e-27
2.5736544e-28 4.033342e-38 0.0 8.07811e-28 2.0884385e-25 3.068976e-28 1.9172057e-27 1.782286e-27
9.8243155e-29 1.4168271e-28 2.0471004e-27 1.4862648e-28 5.099882e-28 2.1878456e-27 6.8154005e-28 5.2671184e-28
6.409023e-22 2.4835964e-28 1.384181e-28 3.4376342e-22 1.1923769e-28 4.4746816e-28 1.7976416e-27 2.6881034e-27
2.1978331e-27 2.1250206e-22 4.2118154e-27 4.7220875e-28 2.1917413e-23 8.611257e-28 3.407252e-28 1.6665524e-27
2.7124597e-21 7.8292606e-28 5.4475054e-22 5.0570004e-28 1.1697318e-28 1.7394965e-27 4.9038784e-28 1.0256126e-28
5.015095e-28 1.7826013e-27 7.757834e-29 2.1386283e-27 2.0781536e-23 3.370361e-28 3.0865082e-27 5.2290375e-28
9.780666e-28 8.68696e-27 3.2378554e-28 4.9594285e-28 2.284547e-27 8.252202e-29 2.3397355e-28 1.2083803e-28
5.9267167e-28 1.2849669e-28 4.569145e-28 4.8546194e-28 1.2222714e-22 2.0565475e-27 1.3042587e-22 9.131234e-27
6.567355e-29 2.1746118e-27 3.8483793e-28 5.681325e-28 4.5445813e-28 1.2191984e-27 6.516517e-27 4.36044e-28
3.0736124e-27 1.7716142e-27 4.0937615e-28 8.6820606e-27 5.906855e-29 3.9547005e-23 2.9737377e-21 2.2813742e-27
5.1449786e-26 7.3890565e-28 6.8971726e-25 1.9596048e-27 5.3857957e-29 9.034209e-28 3.4513435e-27 4.4727994e-28
1.3859596e-22 1.5219706e-28 1.26066e-28 5.9445727e-30 1.0749623e-28 4.7174395e-25 5.1585817e-28 2.5436533e-23
2.2398814e-27 8.821913e-29 1.0451348e-27 5.2166673e-28 4.158955e-28 6.2066178e-27 1.41771295e-27 1.9267542e-28
1.2047131e-28 2.184102e-27 7.026841e-28 2.3273561e-27 2.3590487e-27 2.725907e-27 5.915057e-28 3.479527e-27
4.803602e-28 1.7365823e-27 2.1532297e-27 1.9324496e-27 4.699059e-28 9.902026e-28 1.0612858e-27 2.0852148e-27
2.229107e-27 1.3325743e-28 1.66256e-28 8.69926e-23 8.559729e-28 4.1107315e-27 1.6433987e-27 4.3066447e-28
8.419215e-28 3.0955465e-28 1.3953769e-28 1.2576881e-27 2.3109382e-27 1.0585037e-28 1.02661e-27 8.053397e-38
2.2096187e-27 2.8575615e-23 3.4184775e-27 2.8886766e-28 3.0745507e-28 0.0 1.3333749e-27 3.5642339e-22
0.0 1.327863e-27 2.3575559e-27 6.864551e-27 1.4417222e-26 6.9693545e-28 3.444423e-27 4.180826e-28
3.5428876e-27 1.9481184e-27 4.6389775e-29 2.5296077e-25 2.146017e-27 4.8773227e-28 1.7002633e-28 3.434333e-28
00000000: 6a6c 2d14 48fd 8c1c 503a 9b11 54a8 4412
00000010: 1f38 b012 bd3b 1911 a960 7213 64cd 0212
00000020: 53cb 521a f0d1 8112 e515 2a13 e7b0 1714
00000030: 414d 8412 52ba 3a11 615d 0f1c 7d26 4112
00000040: 1c37 4813 bca3 f91b 48bb 1312 05c7 8313
00000050: c1f3 a311 3bcd 1e1b d743 1012 b9e9 e91c
00000060: 8f34 3014 fd9e 3412 4e48 1b12 1582 2a11
00000070: b601 fa13 94df 1212 65dd 0810 e311 0712
00000080: 1509 bb19 10bd 1b11 3f19 2311 adfb 3711
00000090: 0429 b711 c6ce 2212 2d3c d511 e21d 9209
000000a0: ad86 fb10 2604 3514 95fc b412 a7a1 ab13
000000b0: 951c f01a 08b4 ae1a 5c94 d211 a308 2c13
000000c0: 1668 fd12 d614 d110 ea04 8212 c8be 881c
000000d0: c935 ab1c d300 2012 af5d 3912 2f55 0a12
000000e0: 6a38 4713 2d09 3612 9985 8212 11de 2112
000000f0: 7c9b ee11 c0f1 c311 0e5b 9312 492f c111
00000100: 6ae0 e411 aa4f d611 455a 0912 5692 1c12
00000110: 8cc4 aa12 6d33 1b12 bd73 1612 67a7 4b10
00000120: 6164 2312 6901 3712 a6b4 2813 a00e 1e12
00000130: d0ea 1112 3004 a711 8213 f412 cb83 d512
00000140: 695a 7a02 1961 7712 dfc9 8412 6a99 0b1b
00000150: 1af1 8d12 368a d112 059c 1f12 afc7 2c13
00000160: 7f30 d411 8a38 7f13 1415 2b12 352c 7711
00000170: d910 3512 eb45 2705 3dfc 2c14 f543 3413
00000180: ee1f a311 9598 5b01 0000 0000 b500 8012
00000190: a144 8116 fc84 c211 8de5 1713 0e35 0d13
000001a0: 7413 f910 ab9a 3311 2130 2213 0d68 3c11
000001b0: 299f 2112 c856 2d13 19fd 5712 f1eb 2612
000001c0: 6ab3 411c a86a 9d11 3e77 2f11 d0ca cf1b
000001d0: d826 1711 eece 0d12 816c 0e13 37f9 5413
000001e0: 5a21 2e13 1a73 801b e2d8 a613 20a6 1512
000001f0: e3f8 d319 6973 8812 d3f5 d711 b309 0413
00000200: 9af2 4c1d 821e 7812 08a4 241c 4343 2012
00000210: f847 1411 2ed1 0913 fd68 1b12 0803 0211
00000220: 49ef 1e12 733b 0d13 39af c410 8970 2913
00000230: 97fc c819 3c9f d511 d389 7413 feb6 2512
00000240: 18fb 9a12 1f10 2c14 3539 cd11 aa2b 1d12
00000250: 1e00 3513 da37 d110 614c 9411 2f2e 1911
00000260: 3dd3 3b12 8fe3 2211 4fcd 1012 5ad9 1912
00000270: 78c3 131b bdef 2213 daac 1d1b dbdc 3414
00000280: 9280 a610 5e4a 2c13 86eb f311 620c 3412
00000290: 0606 1012 9030 c112 ab12 0114 1830 0a12
000002a0: 4484 7313 9b5c 0c13 8abc 0112 47f7 2b14
000002b0: aec1 9510 d23c 3f1a 74b0 601d c4bf 3413
000002c0: 5ac4 7e15 262b 6a12 0875 5517 8241 1b13
000002d0: d08b 8810 1b27 8f12 c8b8 8813 a9bf 0d12
000002e0: 5f8d 271b c5ee 4011 c2ce 1f11 f923 f10e
000002f0: 8544 0811 68ff 1117 637b 2312 ce01 f619
00000300: 3176 3113 7da9 df10 b49b a512 a252 2512
00000310: 74cd 0312 95de f513 45a5 e012 c03e 7411
00000320: 2db7 1811 da0a 2d13 82b0 5e12 6464 3813
00000330: 31e7 3a13 f6f7 5713 a574 3b12 99d6 8913
00000340: 733b 1812 1396 0913 b098 2a13 bc1a 1913
00000350: 4ceb 1412 64e7 9c12 de2a a812 2e35 2513
00000360: a99b 3013 82ec 2811 28c1 5211 d055 d21a
00000370: 63a2 8712 c5d7 a213 1634 0213 a77b 0812
00000380: 6568 8512 1d34 c411 92e2 3011 e449 c712
00000390: 6517 3713 692e 0611 40ac a212 fc3b db01
000003a0: 6410 2f13 e62e 0a1a 7b6b 8713 7517 b711
000003b0: 70df c211 0000 0000 1d48 d312 d971 d71b
000003c0: 0000 0000 8668 d212 eac8 3a13 69f7 0714
000003d0: 00c8 8e14 1fde 5c12 9972 8813 e47e 0412
000003e0: 2659 8c13 8958 1a13 5f39 6b10 3c93 9c16
000003f0: 6506 2a13 8b91 1a12 b388 5711 3dad d911
