checkpoints/checkpoint_3.pth (torch, 363644 bytes, 6 tensors)

W f4 [10000, 2]
000000 b1 2e 00 3c 73 37 ea bb 6b 77 db 39 2e d8 9a 3a
       0.007823632 -0.0071477233 0.00041859908 0.0011813694
000010 7b 7d 94 bc 59 65 52 bc d1 24 96 3b 5a a8 05 3c
       -0.01812624 -0.012841546 0.0045820256 0.008157814
000020 35 c6 48 bc 3e 60 30 bc 04 9e 0e bb 92 5f c8 bb
       -0.0122542875 -0.010765133 -0.0021761665 -0.0061149085
000030 e2 41 e7 3b 2f 26 36 bb 53 69 2e bc aa 97 99 bc
       0.0070574144 -0.0027793755 -0.010645228 -0.018749077
000040 0e 04 26 bc e4 a3 2e bc cf 83 19 bc db 27 48 3b
       -0.010132803 -0.010659192 -0.0093698045 0.0030541334
000050 1d 2c 72 3c 44 5f 7e 39 bd 73 07 bc 52 3b 65 b9
       0.014781025 0.00024258817 -0.00826734 -0.0002186124
000060 03 a0 13 39 27 d7 91 3b 5b 68 fa 3b 40 40 35 3c
       0.00014078621 0.004450697 0.0076418347 0.011062682
000070 33 4c 9f 3a 1b 5b 31 3b e1 82 08 3c 8e b8 15 3c
       0.0012153446 0.002706236 0.008331985 0.00913824
000080 d3 20 0b bc 23 bb 97 3b 06 b6 04 b9 c1 27 1d 3c
       -0.008491713 0.0046304627 -0.0001265631 0.009591998
000090 8e e2 04 bc 72 7f e9 bb 5b ec 35 3c 27 31 90 bb
       -0.0081106555 -0.0071257884 0.011103715 -0.0044003907
0000a0 56 48 23 3b 64 f8 15 bb 7d 08 80 3c 39 61 9a 37
       0.0024914942 -0.0022883648 0.015629048 1.8403503e-05
0000b0 de be c7 3b cf 64 a5 3a 78 c4 4f bc 28 1a 25 bc
       0.006095751 0.0012618544 -0.012681119 -0.010077037
0000c0 c5 38 59 bc c8 6d 91 bb 5f 96 c9 bb f6 14 b1 bb
       -0.013258164 -0.004438136 -0.006151959 -0.00540411
0000d0 79 5e 61 bb fb 16 67 3a c0 26 83 3b a5 c9 d2 3b
       -0.0034388585 0.0008815375 0.004002422 0.0064327293
0000e0 71 11 a9 3b 24 c0 01 bb aa 21 62 bb 5a ac 46 bb
       0.00515955 -0.0019798363 -0.0034504929 -0.0030315132
0000f0 87 d6 4a bc 7d 42 db bb de f3 4e bc ad de 09 3c
       -0.012380249 -0.0066912756 -0.012631385 0.008414906
000100 d9 a2 21 3c 49 49 59 ba a2 da 96 bc 98 81 84 bc
       0.009865486 -0.00082888134 -0.0184148 -0.016175076
000110 fb 8c 06 bc 63 8a d5 3b 8e 6f 01 bc f0 69 b1 bb
       -0.008212323 0.006516741 -0.007900132 -0.00541424
000120 db ee 82 ba 14 26 32 3c d8 36 8f ba 5d 69 5d 3c
       -0.0009989397 0.010873336 -0.0010926379 0.01351389
000130 e3 54 82 bb 46 11 10 3b c0 4d 57 3c ec 3a 3e bb
       -0.0039774044 0.0021982952 0.013141096 -0.002902682
000140 f7 a6 06 ba b2 c6 2a 3b e0 7c 31 bc 27 c4 19 bc
       -0.0005136574 0.0026058373 -0.010832995 -0.009385145
000150 1c c2 d5 bb 7c 45 95 3b d7 d3 7f bb 52 12 55 3c
       -0.006523384 0.0045554023 -0.0039036178 0.013004856
000160 04 37 72 bb 1e 81 cd 3a 7c 8b 08 bc d7 78 99 3a
       -0.0036959061 0.0015678739 -0.008334037 0.0011708987
000170 83 67 f8 3a dc 75 5a ba 17 c5 14 3c c6 85 65 3c
       0.0018951747 -0.00083336025 0.009080193 0.014008945
000180 f6 a4 5f 3c b2 34 e2 38 23 9f fd 39 0c 66 22 3c
       0.01365017 0.00010786335 0.00048374487 0.009912025
000190 a3 10 2f 3c 7b c8 9f 3c c3 4e 16 ba 0a d0 e8 3b
       0.010685119 0.019504776 -0.00057337823 0.0071048783
0001a0 d8 b6 cc bb 30 57 69 bb da 58 3f bc de 6c 2e bc
       -0.0062473826 -0.0035604946 -0.011678899 -0.010646073
0001b0 a3 d0 5f bc 59 0c 08 3b 79 63 08 bc 56 d7 26 3a
       -0.013660583 0.0020759313 -0.008324497 0.0006364485
0001c0 d9 92 83 ba 83 33 b3 3b 0f f8 05 bc b6 5f eb bb
       -0.0010038271 0.005468787 -0.008176818 -0.0071830405
0001d0 c9 7f 86 bc 47 4a 85 bc 77 79 18 bb d8 6a 74 ba
       -0.016418355 -0.01627077 -0.0023265758 -0.0009323782
0001e0 78 b4 ac 39 05 1d 47 bc f5 db 9d ba 19 9c 73 3c
       0.00032940856 -0.012152915 -0.0012043702 0.01486876
0001f0 19 ca 04 bb 07 ac 6f bb 53 65 d9 39 9f 26 c3 3b
       -0.002026206 -0.0036571042 0.00041464958 0.0059555317
000200 05 f2 2d bc cd ca 18 bc 09 2c 62 3c a4 bd 21 bc
       -0.010616784 -0.009325695 0.013804444 -0.009871874
000210 a8 b1 1c bc 24 6e 40 b9 ae de e4 3b 42 af ac 3a
       -0.009563841 -0.00018351577 0.0069845533 0.001317479
000220 18 ef 39 bc 58 a5 43 bc 23 bf 81 bb 9a 01 1c bc
       -0.011348508 -0.0119412765 -0.003959553 -0.009521866
000230 d7 e6 1b 3c 23 4e e7 bb 35 07 59 bc 73 54 bd 3a
       0.009515486 -0.007058875 -0.013246347 0.0014444723
000240 02 8d 3a 3c b1 2e cf ba 07 ad b5 bb cc 36 d6 bb
       0.011386158 -0.0015806762 -0.005544308 -0.006537294
000250 8a 22 e8 3a 0a 2c ca ba 7a ec c3 bb f5 82 2c bc
       0.0017710489 -0.0015424502 -0.005979118 -0.010529269
000260 09 35 97 ba 3f 76 e4 3a 80 24 b2 bb f4 7a 9c bb
       -0.0011536191 0.001743026 -0.00543648 -0.0047753993
000270 a8 96 2e 3c ea 99 19 3c 40 d3 da bb fc 58 fd 3b
       0.010656036 0.009375075 -0.006678015 0.007731555
000280 3a a9 19 bc 63 43 b2 3b 8a da 39 bb ba 9a 06 3c
       -0.009378726 0.005440162 -0.002835902 0.008215601
000290 70 db af 3b 70 9d 82 bb a7 27 07 bc ac 77 ed bb
       0.005366735 -0.003986053 -0.0082492 -0.007246932
0002a0 f7 64 0a bb 4f e0 bd b9 16 e7 a0 3c 31 c6 11 38
       -0.0021117309 -0.00036216012 0.01964144 3.4755274e-05
0002b0 04 ff 21 ba 09 f0 fa 3b cc 0a 98 bb d3 4e 58 3c
       -0.0006179663 0.007658009 -0.004639959 0.013202387
0002c0 6d 48 f2 ba 32 3b d3 bb 71 1e 33 3b af 6e 66 3b
       -0.0018484719 -0.0064462656 0.0027331377 0.0035161187
0002d0 6f 3c f8 bb c8 07 81 3b d4 4d d2 3b 74 a5 d0 39
       -0.0075755636 0.003937695 0.0064179692 0.00039796124
0002e0 13 59 59 3c d5 a9 97 bb 4f 2a 8b bc 8b 99 ab 39
       0.013265866 -0.0046284 -0.016987948 0.0003273006
0002f0 18 f6 1c 3b 2e 8d 0c 3b 7c be 07 bc 5d fd d8 3b
       0.0023950394 0.0021446454 -0.008285161 0.006622
000300 09 6b 6d bb 10 f2 6b bb 30 81 3f 3b 6e 28 1a 3b
       -0.0036227128 -0.0036002435 0.002922129 0.0023522633
000310 05 21 ca bb 4a 0d 21 3c 9a 09 12 bc a6 df 02 3b
       -0.006168487 0.0098298285 -0.008913422 0.001996973
000320 8d e3 c0 bb 68 00 06 3a 8d 23 fd 3a 6c be 04 3c
       -0.005886501 0.0005111755 0.0019312963 0.008102041
000330 4d 78 8e bb e8 46 7a bb f1 df 0b 3b ea 09 9e 3a
       -0.004347837 -0.0038189236 0.0021343196 0.0012057398
000340 4d 17 a6 3a f5 19 f0 3a 61 7e 29 bc e2 22 1f bc
       0.0012671739 0.0018318283 -0.0103450725 -0.009712907
000350 96 9e e9 3b f2 67 69 b9 8a 91 43 bb d6 2f c3 ba
       0.0071295006 -0.00022259334 -0.0029841387 -0.0014891576
000360 97 f8 41 3c 0f c3 86 bb d9 8a e8 bb ef e3 7f bb
       0.011839054 -0.0041126083 -0.00709663 -0.003904577
000370 a1 c6 8d 3b 1a 43 57 39 2b 67 09 b9 10 47 d5 3a
       0.004326657 0.00020528995 -0.00013103771 0.0016271789
000380 d7 ad da bb f2 ae bf bb bc a9 c3 3a c7 53 64 3b
       -0.0066735554 -0.0058497125 0.0014927904 0.0034839974
000390 3e 57 d7 3b e6 4b 0a ba fe 85 4f bc c7 d1 3e bc
       0.0065716794 -0.0005275592 -0.012666224 -0.0116466945
0003a0 e5 e7 21 3b 56 ab e6 3a 12 c8 dc bb 8a 2b 02 3b
       0.002470487 0.001759867 -0.0067377174 0.0019862377
0003b0 ec 50 e0 bb 88 ae a2 3b 90 ee 76 bb a9 77 04 bc
       -0.006845584 0.0049646534 -0.0037678815 -0.00808517
0003c0 3c 4c cd bb 19 a8 24 3b a4 f0 c3 3c 08 14 6f 3a
       -0.0062651914 0.0025124608 0.023918457 0.00091201114
0003d0 da 6b 01 bc 68 43 ef 3a b3 c2 41 bc bc b8 c3 3a
       -0.007899249 0.0018254342 -0.011826205 0.0014932374
0003e0 3a a3 15 3c ae 43 83 3b 79 60 ce ba cb 06 2d bc
       0.0091331545 0.004005871 -0.0015745304 -0.010560702
0003f0 21 81 67 3a b6 35 04 bc 90 30 4e 3c 7a f0 ab bb
       0.00088311924 -0.008069446 0.01258482 -0.005247173

b f4 [10000]
000000 41 8e 13 bc dd 1f 83 ba 39 98 f9 bb e8 4b 04 bc
       -0.009006084 -0.0010004003 -0.0076170233 -0.008074738
000010 1b 1c 8a bb 53 21 89 bb 7c 05 b0 bb 1f df 39 bc
       -0.004214776 -0.0041848808 -0.0053717475 -0.0113447
000020 f4 49 a1 bb 4c 1b 0b bc d4 43 2a bc 5c a7 c8 bb
       -0.004922146 -0.008490395 -0.010392148 -0.0061234664
000030 44 46 36 bb 02 90 43 bc 3f c6 21 bb fb 5f 38 bc
       -0.0027812878 -0.01193619 -0.0024684814 -0.011253352
000040 28 6a 0c bc e8 c3 ba bb 0c dc 36 bb 8f c7 0a bc
       -0.0085702315 -0.0056996234 -0.0027902154 -0.00847043
000050 82 94 3c bb c3 c6 31 bc 45 26 a3 bb 5c d8 9d bb
       -0.002877504 -0.010850611 -0.0049789273 -0.004817052
000060 53 64 01 bc c9 a7 0a bb 75 d8 44 bb ad 77 d9 bb
       -0.007897454 -0.0021157137 -0.0030036245 -0.006636581
000070 fe ed 7e bb 7d 97 9b ba 4d 87 ca bb 2d ba 5c bc
       -0.0038899179 -0.0011870709 -0.00618068 -0.013472122
000080 f6 f1 cf bb 7e 7e cf bb 3c bd 17 bc f7 47 5f bb
       -0.0063459827 -0.0063322177 -0.009261426 -0.0034069994
000090 68 de c3 bb fc 96 f2 bb d7 fe 83 bb 2c 19 0a bc
       -0.0059774406 -0.0074032526 -0.004028182 -0.008428853
0000a0 cb 7a d6 ba a8 c6 75 bb 33 4c e7 bb c3 2d 16 bc
       -0.00163635 -0.0037502442 -0.007058644 -0.009166184
0000b0 dc ac 66 bb 82 a9 df bb 72 2d c5 ba 3c df 70 bc
       -0.0035198247 -0.006825627 -0.0015043451 -0.014701661
0000c0 ef 1f 1c bc a6 cd ce bb e6 9e 9c bc 3c 11 7f bb
       -0.009529098 -0.0063111363 -0.019118737 -0.0038920185
0000d0 cb be 46 bb 02 fa 8d bb ea 8b 38 bc 20 2f d7 bb
       -0.0030326124 -0.004332782 -0.011263827 -0.006566897
0000e0 45 6d 5d bb e6 4d 38 bb a7 8a ea bb 1b 40 ac ba
       -0.0033787054 -0.0028122603 -0.007157642 -0.0013141664
0000f0 b5 e1 25 bc 6b 73 05 bc 16 3f 12 bb a5 19 7e bb
       -0.0101246135 -0.008145194 -0.0022315434 -0.003877261
000100 c5 43 6f bb 51 76 61 bc 2d 31 e9 bb 16 7a b8 bb
       -0.00365089 -0.013761119 -0.007116458 -0.005629788
000110 ca bd b4 bb 85 87 ce bb 3d 92 1e bc c4 8a 2e bc
       -0.0055157887 -0.0063027763 -0.009678421 -0.0106532015
000120 9f c5 e3 bb c0 46 56 bb d6 aa 01 bb f6 bf d0 bb
       -0.0069510485 -0.003269598 -0.0019785664 -0.00637054
000130 23 a5 de ba ce 0a f5 ba e2 ee 54 bc 18 88 0e bc
       -0.001698647 -0.0018695237 -0.012996407 -0.0086994395
000140 13 96 1d bc dc c5 c6 bb 3e ff b2 bb c1 f3 39 bb
       -0.0096183 -0.006066067 -0.005462556 -0.0028374048
000150 40 2e ba ba 44 6b 5f bc e9 82 89 bb 35 b9 20 bc
       -0.0014204457 -0.013636414 -0.004196514 -0.009809782
000160 da 06 96 bb d3 27 83 bb af 8c f7 bb 34 97 99 bb
       -0.0045784535 -0.00400255 -0.0075546126 -0.0046872143
000170 3e 8d 1e bc a9 24 54 bc 30 ee 40 bb 96 76 19 bc
       -0.009677229 -0.012948194 -0.0029438846 -0.009366652
000180 6b 15 d0 ba ad fe 60 bb 78 d3 18 bc 3a a0 fa bb
       -0.0015875524 -0.0034331486 -0.009327762 -0.007648495
000190 2c 25 99 bb 1f b0 cb bb 3a f2 c3 ba 29 2d 10 bb
       -0.0046736207 -0.0062160636 -0.0014949508 -0.0021999574
0001a0 7b 95 01 bb cc 55 85 bb bb 9a 9d bb 1e dc ca ba
       -0.0019772935 -0.0040690657 -0.004809705 -0.0015476977
0001b0 6e 47 0d bc f0 0a 66 bb 10 99 4c bb cb cb 69 ba
       -0.008622987 -0.0035101734 -0.0031219162 -0.0008918612
0001c0 a8 bc 15 bb 16 0c 4d bb 03 ff 8a bb ad ac 9c bb
       -0.0022848044 -0.0031287721 -0.0042418255 -0.0047813267
0001d0 11 32 35 bb ca da c4 bb 8b 98 f5 bb ef 66 aa bb
       -0.002764825 -0.006007527 -0.007494991 -0.005200259
0001e0 4b 43 c1 bb ba 4d 8c bc a8 05 df bb 88 69 1d bc
       -0.0058979145 -0.017126907 -0.006806094 -0.00960768
0001f0 81 f3 0e bc ca 07 04 bc da e9 e4 bb 6a 4e 20 bc
       -0.008725048 -0.008058498 -0.006985885 -0.00978432
000200 2a 2c ab bb 93 51 50 bb 30 d5 44 bc 78 05 03 bc
       -0.0052237706 -0.0031786903 -0.0120137185 -0.007996909
000210 8b 7c 9c bb 5c 23 d8 bb c9 e3 fa bb 55 43 a8 bb
       -0.004775589 -0.006596012 -0.0076565486 -0.0051349797
000220 af 85 36 bc 8c ef 34 bb c8 85 9d bb 01 a9 b7 bb
       -0.011140271 -0.0027608601 -0.0048072077 -0.0056048636
000230 fb b5 41 bb 54 85 3a bb 25 1c d2 bb b1 24 84 bb
       -0.0029557932 -0.0028460817 -0.0064120465 -0.0040326943
000240 ae fb 1b bc 9a 11 6f bc 5e 0c ca bb fb c3 11 bc
       -0.009520454 -0.014591599 -0.006166025 -0.008896823
000250 51 e9 5a bb d7 ae 05 bc 5f f7 05 bc 24 66 a0 bb
       -0.0033403228 -0.008159361 -0.008176654 -0.0048949886
000260 42 bf 81 bb 62 f0 80 bb 6d b6 46 bc 63 74 98 bb
       -0.0039595673 -0.003934906 -0.012128455 -0.0046525463
000270 80 c8 09 bc cd 2e dc bb 39 ec 58 ba 24 7a 88 bc
       -0.008409619 -0.0067194463 -0.0008274946 -0.016659804
000280 74 89 12 bc 56 42 50 bc 03 38 bf bb 03 d1 36 bb
       -0.008943904 -0.012711128 -0.0058355345 -0.0027895577
000290 7e 91 96 bb a4 70 33 bb cb 02 2f bb 0a fc 48 bc
       -0.0045949807 -0.0027380371 -0.0026704546 -0.012267122
0002a0 8b 6e 12 bb c8 38 e5 bb ad 5a 0e bc bb 33 5e bc
       -0.002234372 -0.0069952942 -0.008688611 -0.013562138
0002b0 01 fa a5 bb 61 86 04 bc 2d f6 f3 bb cd a5 47 bb
       -0.005065203 -0.008088679 -0.007445118 -0.0030463815
0002c0 a3 49 3f bc 77 b4 88 bb 4d e4 98 bb 8d 8f 5f bb
       -0.011675271 -0.0041719037 -0.0046658874 -0.0034112663
0002d0 6e e2 af bb c1 f3 27 bb 79 1c 5a bb ea a9 d8 bb
       -0.0053675687 -0.0025627466 -0.0033281131 -0.006612052
0002e0 2c 2a 3b bc b4 99 1b bb 5c 20 54 bb 3d 30 67 bc
       -0.011423629 -0.0023742737 -0.003236792 -0.014110622
0002f0 db 03 7d bb 5c 79 82 bb 7a 2e 14 bc 56 08 88 bb
       -0.0038607034 -0.0039817523 -0.009044284 -0.0041513843
000300 94 78 f5 bb 53 64 ee bb d5 43 37 bc fc f1 84 bc
       -0.0074911807 -0.007275143 -0.011185606 -0.016228668
000310 66 61 2a bb af 1c 5b bc 9d 65 02 bc dd f8 20 bc
       -0.0025997995 -0.013373538 -0.007958797 -0.009824959
000320 41 b5 c7 bb cd 79 04 bc 31 56 48 bc e5 cb 0e bc
       -0.006094605 -0.00808568 -0.012227581 -0.008715604
000330 62 6d 0f bc 30 8f fc bb ef 25 2f bc 55 d7 6d bb
       -0.008754106 -0.007707499 -0.010690196 -0.0036291678
000340 ff 8d 2d bc 78 8a 12 bc 91 1e fb bb ed 11 cf bb
       -0.010592937 -0.008944146 -0.007663556 -0.0063192756
000350 4f 13 48 bc 3a 12 28 bc e3 4c 33 bb 15 20 e2 bb
       -0.012211635 -0.010258252 -0.002735906 -0.006900797
000360 5b d6 a4 bc 48 a4 a9 bb aa b1 aa bb 31 af dc bb
       -0.020121744 -0.0051770546 -0.0052091675 -0.0067347516
000370 21 5a d0 bb 64 9b 8a bb 6c 1d cf bb 59 d7 31 bc
       -0.0063584005 -0.00422995 -0.006320646 -0.010854566
000380 89 59 42 bb 53 62 28 bb 4f a2 ba bb 16 ab 1e bc
       -0.0029655418 -0.0025693371 -0.005695618 -0.009684345
000390 b9 c7 3e bc f1 42 9c ba d9 3b 17 bc f2 19 32 bb
       -0.011644297 -0.0011921806 -0.009230577 -0.002717611
0003a0 4c 01 b1 bb c9 8e b7 ba e2 eb 27 bc 3b f7 75 bb
       -0.005401766 -0.0014004345 -0.01024911 -0.0037531394
0003b0 49 ae 4e bb 26 59 a7 bb 44 2c 92 bb 17 a2 fb bb
       -0.0031536988 -0.005107063 -0.0044608433 -0.0076792347
0003c0 34 17 b3 bb 8a e5 4c bb 4f bc a8 bb a9 fd d3 bb
       -0.0054654125 -0.0031264746 -0.0051494013 -0.0064694476
0003d0 e7 29 d0 bb 7d 14 41 bc 83 89 04 bb 6f 1f 79 bb
       -0.0063526514 -0.01178467 -0.0020223565 -0.003801312
0003e0 9b 25 15 bc 45 70 fa bb f3 40 4d bb b1 52 46 bb
       -0.009103204 -0.007642778 -0.003131923 -0.003026169
0003f0 e6 25 0e bc 35 ad 14 bb 6d 61 c9 bb da 4e 0d bc
       -0.008676028 -0.0022686247 -0.0061456473 -0.008624757

exp_avg f4 [10000, 2]
000000 b6 1f 18 02 0e be 15 82 82 86 16 02 b0 84 12 02
       1.1176297e-37 -1.1001334e-37 1.1058861e-37 1.0764465e-37
000010 88 e1 1e 82 24 04 17 02 5e 4f 1d 02 68 ee 18 02
       -1.1672731e-37 1.1094916e-37 1.1557316e-37 1.1235616e-37
000020 76 72 1f 2a 1a 27 ae aa c4 89 15 02 1a 3c 1c 82
       1.4161748e-13 -3.093574e-13 1.0986328e-37 -1.1478318e-37
000030 52 4a 1e 02 a7 cd 12 82 aa 83 14 02 3b 28 1b 82
       1.1629336e-37 -1.0785405e-37 1.0911108e-37 -1.1399147e-37
000040 4a 1a 20 2a 67 de ae aa 22 29 13 82 6d 72 1b 02
       1.4219976e-13 -3.1062932e-13 -1.0811659e-37 1.142044e-37
000050 42 61 1d 02 82 82 16 02 cb bb 13 82 28 08 1c 02
       1.156245e-37 1.1057713e-37 -1.0853748e-37 1.1463411e-37
000060 42 91 16 02 4d 1c 13 02 aa f1 17 02 0c 93 13 02
       1.1061946e-37 1.0807976e-37 1.1163082e-37 1.0842055e-37
000070 d5 1a 1e 02 c3 d0 19 02 f6 6a 19 02 65 be 14 02
       1.1615707e-37 1.1300576e-37 1.1271361e-37 1.0927963e-37
000080 ee 2d 19 82 26 d7 11 02 bd b4 1b 02 9e 49 18 02
       -1.1253846e-37 1.0714662e-37 1.1439471e-37 1.1188323e-37
000090 0c ff a2 29 7b 07 32 aa 54 e4 18 02 9d b6 1d 82
       7.238489e-14 -1.5812171e-13 1.1232723e-37 -1.1586946e-37
0000a0 3c 64 10 02 2a 39 1e 82 54 6b 1f 02 06 78 18 02
       1.0608215e-37 -1.1624412e-37 1.1712277e-37 1.1201641e-37
0000b0 4c ae 11 02 f7 fb 1a 02 f8 89 1a 82 86 e3 12 02
       1.0702938e-37 1.1386443e-37 -1.1353728e-37 1.0791682e-37
0000c0 24 98 19 82 17 fe 11 02 fc 3b 9e 29 fc d3 2c aa
       -1.1284327e-37 1.0725838e-37 7.027015e-14 -1.5350216e-13
0000d0 9a 04 1d 82 bc 45 15 02 72 b8 16 02 57 76 12 02
       -1.1535859e-37 1.0966804e-37 1.1073193e-37 1.0760348e-37
0000e0 64 3c 1a 02 62 44 1e 82 06 3e 15 02 e8 ec 1b 82
       1.1331464e-37 -1.1627632e-37 1.0964591e-37 -1.145559e-37
0000f0 5f 30 16 82 bc 9d 1e 02 fd 99 1e 82 65 ca 1a 02
       -1.1034141e-37 1.1653274e-37 -1.1652199e-37 1.1372218e-37
000100 66 73 1f 02 ff 6e 18 02 c2 fe d8 03 d6 01 6d 84
       1.1714593e-37 1.1199051e-37 1.27538285e-36 -2.786006e-36
000110 6f df 1f 82 7b 44 1c 02 65 db 1c 82 98 17 15 02
       -1.1745597e-37 1.1480723e-37 -1.1524033e-37 1.0953562e-37
000120 d1 8d 18 82 98 e1 12 02 8b 52 13 02 d6 5e 10 02
       -1.1207896e-37 1.0791128e-37 1.0823543e-37 1.0606666e-37
000130 d1 14 16 82 31 cf 1e 02 fe ec 11 02 6e fa 1c 82
       -1.1026234e-37 1.1667468e-37 1.0720931e-37 -1.153294e-37
000140 0b 4c 14 82 3f c6 11 02 b8 9f 11 82 86 cb 19 02
       -1.0895146e-37 1.0709811e-37 -1.0698755e-37 1.1299073e-37
000150 cb 43 1e 82 f1 a1 1a 02 d7 c4 14 82 a5 39 12 02
       -1.1627462e-37 1.1360608e-37 -1.0929813e-37 1.0742929e-37
000160 6b ad 1e 82 fd e3 16 02 fb 20 1d 82 64 5d 15 02
       -1.1657775e-37 1.1085689e-37 -1.1544003e-37 1.0973593e-37
000170 a1 49 1a 02 92 c9 11 82 6e 87 13 02 a8 3c 1f 02
       1.1335264e-37 -1.0710765e-37 1.0838721e-37 1.1698883e-37
000180 f2 c3 1b 02 09 f1 14 02 75 18 19 02 f1 86 15 02
       1.1443835e-37 1.0942496e-37 1.1247684e-37 1.0985517e-37
000190 e3 ba 1e 02 16 51 1a 02 66 41 1f 02 0d 10 1c 02
       1.1661641e-37 1.1337404e-37 1.1700244e-37 1.1465676e-37
0001a0 9c 01 10 82 04 16 18 02 fd a3 1f 2a 30 5d ae aa
       -1.0579911e-37 1.1173515e-37 1.4178932e-13 -3.097327e-13
0001b0 e2 0a 19 82 c2 7a 11 02 f5 9e 11 82 38 cd 19 02
       -1.1243788e-37 1.0688147e-37 -1.0698536e-37 1.129956e-37
0001c0 03 fa 12 82 cd 7a 10 02 fc 6d a3 29 a6 80 32 aa
       -1.0798136e-37 1.0614691e-37 7.2577334e-14 -1.585421e-13
0001d0 60 3f b5 03 71 f6 45 84 9b b2 19 82 40 17 12 02
       1.0652774e-36 -2.3270399e-36 -1.1291922e-37 1.0733058e-37
0001e0 de 5d 1d 02 6c e6 1b 82 bf fb 1b 02 1a da 18 02
       1.1561477e-37 -1.1453729e-37 1.1459849e-37 1.1229788e-37
0001f0 76 52 a1 29 5c 33 30 aa 12 73 13 02 fb eb 1f 02
       7.164141e-14 -1.5649759e-13 1.0832878e-37 1.1749198e-37
000200 bd e3 94 03 f1 9e 22 84 6a 53 17 02 ad ac 10 82
       8.750944e-37 -1.911599e-36 1.1117667e-37 -1.0629005e-37
000210 e2 ce 1d 82 8b 00 16 02 02 be 13 02 c8 1e 1d 02
       -1.1593911e-37 1.1020415e-37 1.0854384e-37 1.1543372e-37
000220 fb ce 13 02 5e 6d 1a 82 60 a6 42 04 e8 99 d4 84
       1.0859255e-37 -1.134552e-37 2.2880986e-36 -4.99823e-36
000230 de 05 1b 02 a5 82 16 82 61 d6 13 82 0e 26 1c 02
       1.1389285e-37 -1.1057753e-37 -1.0861378e-37 1.1471991e-37
000240 f5 c6 11 02 2b d7 1a 02 f0 85 11 02 40 0a 18 82
       1.0710015e-37 1.1375883e-37 1.0691356e-37 -1.1170138e-37
000250 3c e0 1c 02 6a 8d 14 82 56 61 44 04 b4 7d d6 84
       1.1525422e-37 -1.0913907e-37 2.3084384e-36 -5.04266e-36
000260 05 d8 1d 82 10 10 1b 02 ad 4f 10 03 bc 9e 9d 83
       -1.1596533e-37 1.1392211e-37 4.240926e-37 -9.264074e-37
000270 c7 68 17 02 66 96 12 02 68 b5 1f 82 7e cf 1c 02
       1.1123798e-37 1.0769548e-37 -1.1733536e-37 1.1520617e-37
000280 db a8 10 82 d0 e1 19 02 12 52 1d 82 52 a0 1a 02
       -1.0627908e-37 1.130547e-37 -1.1558091e-37 1.1360143e-37
000290 b4 47 1c 02 1b c7 17 82 d0 09 9e 29 30 9d 2c aa
       1.1481648e-37 -1.1150868e-37 7.018312e-14 -1.5331204e-13
0002a0 36 17 1c 82 d2 5d 14 02 24 e2 1b 02 47 04 15 02
       -1.1467731e-37 1.0900248e-37 1.1452501e-37 1.0948019e-37
0002b0 4c e7 1b 02 0e c3 18 02 27 11 1c 82 70 62 19 02
       1.145398e-37 1.1223174e-37 -1.1465992e-37 1.1268915e-37
0002c0 ed cc 18 02 89 a4 1f 82 a2 ab 1a 02 d0 1f 16 02
       1.1226007e-37 -1.1728694e-37 1.1363389e-37 1.1029389e-37
0002d0 d1 a4 14 82 2b 2e 1d 02 34 2e 1c 02 15 68 15 02
       -1.0920623e-37 1.1547788e-37 1.147433e-37 1.0976661e-37
0002e0 ca a2 1d 02 0f 88 1f 82 84 36 1e 82 03 64 16 02
       1.1581256e-37 -1.1720522e-37 -1.1623652e-37 1.1048961e-37
0002f0 01 1f 13 02 e8 48 1e 02 f5 a4 16 82 70 6a 13 02
       1.0808752e-37 1.162893e-37 -1.10676e-37 1.08304e-37
000300 ea 71 18 29 3a 81 a6 a9 37 0f 11 02 8a 00 1c 02
       3.3849585e-14 -7.394298e-14 1.0657284e-37 1.1461225e-37
000310 db 18 16 82 77 7b 13 02 a0 53 1a 82 5e b5 12 02
       -1.1027393e-37 1.0835287e-37 -1.1338132e-37 1.0778436e-37
000320 82 a0 12 82 e4 de 1a 02 66 ab 18 02 74 bc 14 02
       -1.0772449e-37 1.13781e-37 1.1216385e-37 1.0927406e-37
000330 00 93 2a 29 5a 4e ba a9 e2 e1 1e 02 06 94 18 02
       3.7875085e-14 -8.273651e-14 1.1672832e-37 1.1209677e-37
000340 11 3a 10 02 19 a4 1b 02 b1 f0 17 2a 17 f4 a5 aa
       1.0596113e-37 1.1434695e-37 1.3495001e-13 -2.947926e-13
000350 07 c4 16 02 46 2d 10 02 3a 4b 12 82 88 80 1a 02
       1.1076517e-37 1.0592442e-37 -1.0747975e-37 1.135102e-37
000360 4e 5e 11 02 91 05 13 82 88 cd 1c 82 61 0a 15 02
       1.0679982e-37 -1.0801452e-37 -1.1520054e-37 1.094977e-37
000370 2c 07 1a 02 a0 4b 13 02 a4 2c 12 02 c9 28 1f 02
       1.1316191e-37 1.0821558e-37 1.0739197e-37 1.169318e-37
000380 74 a3 9f 29 9e 5c 2e aa ed 06 1d 02 4e cc 18 02
       7.089373e-14 -1.5486438e-13 1.1536526e-37 1.1225829e-37
000390 bf 2b 14 02 bc 6a 1d 02 a0 d5 20 2a 04 ab af aa
       1.0885877e-37 1.156517e-37 1.4284971e-13 -3.120491e-13
0003a0 93 4a 16 02 99 72 11 02 75 94 10 82 54 ba 18 02
       1.1041661e-37 1.0685805e-37 -1.0622054e-37 1.122067e-37
0003b0 1d 84 12 82 ae 36 1f 02 d2 b8 1a 02 47 76 11 82
       -1.0764301e-37 1.1697167e-37 1.1367174e-37 -1.0686861e-37
0003c0 45 c1 17 82 8c 4a 10 02 8b eb 1a 02 1c 2a 14 02
       -1.1149194e-37 1.0600843e-37 1.1381731e-37 1.0885408e-37
0003d0 01 e1 16 82 62 5f 1f 02 43 4f 18 82 f2 c9 10 02
       -1.1084832e-37 1.1708849e-37 -1.1189943e-37 1.0637405e-37
0003e0 32 0a 17 02 3d c2 10 02 64 a8 16 02 01 43 15 82
       1.1096654e-37 1.0635193e-37 1.1068585e-37 -1.096602e-37
0003f0 08 2b 1c 02 78 b7 1a 82 6b 69 15 02 49 77 1b 82
       1.1473419e-37 -1.1366786e-37 1.0977045e-37 -1.1421835e-37

exp_avg_sq f4 [10000, 2]
000000 00 00 00 00 00 00 00 00 00 00 00 00 00 00 00 00
       0.0 0.0 0.0 0.0
000010 00 00 00 00 00 00 00 00 00 00 00 00 00 00 00 00
       0.0 0.0 0.0 0.0
000020 30 4b b9 14 db 0a dd 15 51 08 f7 11 e5 54 13 13
       1.8709882e-26 8.9278316e-26 3.8974854e-28 1.8595865e-27
000030 00 00 00 00 00 00 00 00 ce 1c 06 13 db f3 1f 14
       0.0 0.0 1.692738e-27 8.0755406e-27
000040 d6 47 2c 14 c2 84 4d 15 00 00 00 00 00 00 00 00
       8.697948e-27 4.1504148e-26 0.0 0.0
000050 00 00 00 00 00 00 00 00 00 00 00 00 00 00 00 00
       0.0 0.0 0.0 0.0
000060 00 00 00 00 00 00 00 00 00 00 00 00 00 00 00 00
       0.0 0.0 0.0 0.0
000070 00 00 00 00 00 00 00 00 00 00 00 00 00 00 00 00
       0.0 0.0 0.0 0.0
000080 00 00 00 00 00 00 00 00 00 00 00 00 00 00 00 00
       0.0 0.0 0.0 0.0
000090 47 40 e6 12 b7 55 09 14 00 00 00 00 00 00 00 00
       1.4530886e-27 6.933637e-27 0.0 0.0
0000a0 00 00 00 00 00 00 00 00 00 00 00 00 00 00 00 00
       0.0 0.0 0.0 0.0
0000b0 00 00 00 00 00 00 00 00 00 00 00 00 00 00 00 00
       0.0 0.0 0.0 0.0
0000c0 00 00 00 00 00 00 00 00 09 16 ba 13 d3 fc dd 14
       0.0 0.0 4.697473e-27 2.2415019e-26
0000d0 00 00 00 00 00 00 00 00 00 00 00 00 00 00 00 00
       0.0 0.0 0.0 0.0
0000e0 00 00 00 00 00 00 00 00 00 71 3f 11 23 59 64 12
       0.0 0.0 1.5102064e-28 7.2053984e-28
0000f0 00 00 00 00 00 00 00 00 00 00 00 00 00 00 00 00
       0.0 0.0 0.0 0.0
000100 00 00 00 00 00 00 00 00 23 44 14 13 e2 da 30 14
       0.0 0.0 1.871382e-27 8.928896e-27
000110 00 00 00 00 00 00 00 00 00 00 00 00 00 00 00 00
       0.0 0.0 0.0 0.0
000120 00 00 00 00 00 00 00 00 00 00 00 00 00 00 00 00
       0.0 0.0 0.0 0.0
000130 00 00 00 00 00 00 00 00 00 00 00 00 00 00 00 00
       0.0 0.0 0.0 0.0
000140 00 00 00 00 00 00 00 00 00 00 00 00 00 00 00 00
       0.0 0.0 0.0 0.0
000150 00 00 00 00 00 00 00 00 00 00 00 00 00 00 00 00
       0.0 0.0 0.0 0.0
000160 00 00 00 00 00 00 00 00 00 00 00 00 00 00 00 00
       0.0 0.0 0.0 0.0
000170 00 00 00 00 00 00 00 00 00 00 00 00 00 00 00 00
       0.0 0.0 0.0 0.0
000180 00 00 00 00 00 00 00 00 00 00 00 00 00 00 00 00
       0.0 0.0 0.0 0.0
000190 00 00 00 00 00 00 00 00 00 00 00 00 00 00 00 00
       0.0 0.0 0.0 0.0
0001a0 00 00 00 00 00 00 00 00 ad ee 29 14 db b7 4a 15
       0.0 0.0 8.57939e-27 4.093861e-26
0001b0 00 00 00 00 00 00 00 00 00 00 00 00 00 00 00 00
       0.0 0.0 0.0 0.0
0001c0 00 00 00 00 00 00 00 00 64 c2 de 12 e6 dd 04 14
       0.0 0.0 1.4058091e-27 6.708059e-27
0001d0 f3 7a 9a 13 f8 44 b8 14 00 00 00 00 00 00 00 00
       3.8996303e-27 1.8606455e-26 0.0 0.0
0001e0 00 00 00 00 00 00 00 00 00 00 00 00 00 00 00 00
       0.0 0.0 0.0 0.0
0001f0 57 b8 9c 12 d1 f5 ba 13 00 00 00 00 00 00 00 00
       9.890427e-28 4.7195395e-27 0.0 0.0
000200 f8 33 e4 12 87 19 08 14 00 00 00 00 00 00 00 00
       1.4401634e-27 6.87128e-27 0.0 0.0
000210 00 00 00 00 00 00 00 00 00 00 00 00 00 00 00 00
       0.0 0.0 0.0 0.0
000220 ba 69 a0 12 19 53 bf 13 db 30 31 13 87 5f 53 14
       1.0123483e-27 4.829712e-27 2.2364628e-27 1.0671617e-26
000230 00 00 00 00 00 00 00 00 00 00 00 00 00 00 00 00
       0.0 0.0 0.0 0.0
000240 00 00 00 00 00 00 00 00 81 1c 85 11 77 c2 9e 12
       0.0 0.0 2.1001267e-28 1.0019141e-27
000250 00 00 00 00 00 00 00 00 a6 76 47 14 fa f1 6d 15
       0.0 0.0 1.0070332e-26 4.8052655e-26
000260 00 00 00 00 00 00 00 00 d9 78 e7 11 8c 0c 0a 13
       0.0 0.0 3.6519852e-28 1.7424235e-27
000270 00 00 00 00 00 00 00 00 00 00 00 00 00 00 00 00
       0.0 0.0 0.0 0.0
000280 00 00 00 00 00 00 00 00 00 00 00 00 00 00 00 00
       0.0 0.0 0.0 0.0
000290 00 00 00 00 00 00 00 00 aa c4 ee 12 65 6a 0e 14
       0.0 0.0 1.5068393e-27 7.1901505e-27
0002a0 00 00 00 00 00 00 00 00 00 00 00 00 00 00 00 00
       0.0 0.0 0.0 0.0
0002b0 00 00 00 00 00 00 00 00 00 00 00 00 00 00 00 00
       0.0 0.0 0.0 0.0
0002c0 ac 9b 02 12 08 ca 1b 13 00 00 00 00 00 00 00 00
       4.1212647e-28 1.966336e-27 0.0 0.0
0002d0 00 00 00 00 00 00 00 00 00 00 00 00 00 00 00 00
       0.0 0.0 0.0 0.0
0002e0 00 00 00 00 00 00 00 00 00 00 00 00 00 00 00 00
       0.0 0.0 0.0 0.0
0002f0 00 00 00 00 00 00 00 00 00 00 00 00 00 00 00 00
       0.0 0.0 0.0 0.0
000300 42 1b 25 12 45 f6 44 13 00 00 00 00 00 00 00 00
       5.2098418e-28 2.4860098e-27 0.0 0.0
000310 00 00 00 00 00 00 00 00 00 00 00 00 00 00 00 00
       0.0 0.0 0.0 0.0
000320 00 00 00 00 00 00 00 00 00 00 00 00 00 00 00 00
       0.0 0.0 0.0 0.0
000330 e1 41 b0 12 e1 43 d2 13 00 00 00 00 00 00 00 00
       1.1123402e-27 5.3078387e-27 0.0 0.0
000340 00 00 00 00 00 00 00 00 57 08 2f 14 f9 cc 50 15
       0.0 0.0 8.836887e-27 4.216696e-26
000350 00 00 00 00 00 00 00 00 00 00 00 00 00 00 00 00
       0.0 0.0 0.0 0.0
000360 00 00 00 00 00 00 00 00 00 00 00 00 00 00 00 00
       0.0 0.0 0.0 0.0
000370 00 00 00 00 00 00 00 00 00 00 00 00 00 00 00 00
       0.0 0.0 0.0 0.0
000380 c6 72 c8 13 b0 1e ef 14 00 00 00 00 00 00 00 00
       5.0600273e-27 2.4144937e-26 0.0 0.0
000390 00 00 00 00 00 00 00 00 33 55 ba 14 4c 48 de 15
       0.0 0.0 1.8814806e-26 8.977915e-26
0003a0 00 00 00 00 00 00 00 00 00 00 00 00 00 00 00 00
       0.0 0.0 0.0 0.0
0003b0 00 00 00 00 00 00 00 00 ad bb b6 0f 63 de d9 10
       0.0 0.0 1.8018876e-29 8.593405e-29
0003c0 00 00 00 00 00 00 00 00 00 00 00 00 00 00 00 00
       0.0 0.0 0.0 0.0
0003d0 00 00 00 00 00 00 00 00 00 00 00 00 00 00 00 00
       0.0 0.0 0.0 0.0
0003e0 00 00 00 00 00 00 00 00 00 00 00 00 00 00 00 00
       0.0 0.0 0.0 0.0
0003f0 00 00 00 00 00 00 00 00 00 00 00 00 00 00 00 00
       0.0 0.0 0.0 0.0

exp_avg f4 [10000]
000000 0a 2f 19 02 a1 69 1f 02 2b d0 19 02 d1 cd 15 02
       1.1254164e-37 1.1711789e-37 1.1300406e-37 1.1005858e-37
000010 78 04 d5 2a 83 ca 1a 02 89 19 1b 02 08 b9 19 02
       3.7839501e-13 1.1372251e-37 1.139493e-37 1.1293766e-37
000020 b0 e4 d5 2a 4e 4a 1e 02 59 f0 14 02 e1 e7 1e 02
       3.7995085e-13 1.1629331e-37 1.0942299e-37 1.1674553e-37
000030 8e 01 10 02 a4 9b 10 02 fa a2 16 02 d0 de 11 02
       1.0579895e-37 1.0624116e-37 1.1067032e-37 1.0716862e-37
000040 17 56 14 02 24 15 15 02 54 c2 59 2a d1 da 15 02
       1.0898029e-37 1.0952858e-37 1.9340893e-13 1.1009588e-37
000050 b1 91 11 02 76 de 16 02 96 35 19 02 2a 9c 15 02
       1.0694729e-37 1.1084103e-37 1.1256043e-37 1.0991608e-37
000060 0d b1 14 02 ae 65 53 2a e5 00 18 02 c3 6e 1f 02
       1.0924134e-37 1.8775842e-13 1.1167453e-37 1.1713262e-37
000070 b7 f1 16 02 0a 7c 1a 02 99 65 11 02 8b a3 1a 02
       1.1089628e-37 1.1349731e-37 1.0682075e-37 1.1361068e-37
000080 3c e6 16 02 11 f3 90 04 98 f3 1b 02 ce da 17 02
       1.1086334e-37 3.407746e-36 1.145751e-37 1.1156522e-37
000090 54 a3 10 02 1c 13 1d 02 8c 58 11 02 be cf 1c 02
       1.0626322e-37 1.1540022e-37 1.0678329e-37 1.1520689e-37
0000a0 27 fa 10 02 5e a5 1c 02 f0 5c 1a 02 ea 6d 11 02
       1.0651239e-37 1.1508528e-37 1.1340805e-37 1.0684461e-37
0000b0 c7 9d 19 02 30 1c 18 02 fe 0d 18 02 48 06 1c 02
       1.1285945e-37 1.1175286e-37 1.1171212e-37 1.1462873e-37
0000c0 07 69 13 02 d2 5e 12 02 de 28 17 02 e0 d0 18 02
       1.0829996e-37 1.0753598e-37 1.1105456e-37 1.122714e-37
0000d0 1c e7 1a 02 a4 46 d5 2a 83 27 14 02 2f a2 1c 02
       1.1380458e-37 3.7885417e-13 1.0884662e-37 1.1507614e-37
0000e0 7c a7 1f 02 89 56 5a 2a 02 24 72 04 c9 ca 14 02
       1.1729541e-37 1.9392312e-13 2.8463497e-36 1.0931519e-37
0000f0 32 8d 19 02 e5 ab 15 02 bc 85 57 2a da 8b 1c 02
       1.1281186e-37 1.0996122e-37 1.9142234e-13 1.1501205e-37
000100 7e e9 46 04 e9 c5 1c 02 d0 c4 18 02 ed 5d 1b 02
       2.3382003e-36 1.1517867e-37 1.1223679e-37 1.1414557e-37
000110 28 00 19 02 ec 05 02 05 ea b3 11 02 6a 04 1f 02
       1.124071e-37 6.113658e-36 1.070455e-37 1.1682742e-37
000120 c7 49 19 02 9b a2 16 02 3f 47 1a 02 d4 2d 03 05
       1.1261838e-37 1.1066925e-37 1.133458e-37 6.168008e-36
000130 35 41 1a 02 8f cb c0 03 28 d9 1f 02 e4 09 1c 02
       1.1332847e-37 1.13314805e-36 1.1743796e-37 1.1463908e-37
000140 64 e0 1b 02 52 c9 19 02 77 e8 12 02 a8 22 53 2a
       1.1451998e-37 1.1298441e-37 1.07931e-37 1.8752588e-13
000150 72 1b 17 02 0e 86 13 02 d4 94 15 02 0e 8e 18 02
       1.1101604e-37 1.0838326e-37 1.0989503e-37 1.1207964e-37
000160 fd 2a 1e 02 c7 25 13 02 be eb 1f 02 75 ce 13 02
       1.1620344e-37 1.0810696e-37 1.174913e-37 1.0859105e-37
000170 21 b5 19 02 fb 28 19 02 b2 54 1b 02 ed 00 13 02
       1.1292646e-37 1.1252426e-37 1.1411908e-37 1.080012e-37
000180 ad a9 cb 29 75 20 19 02 fa b2 12 02 cd 65 15 02
       9.044445e-14 1.124998e-37 1.077775e-37 1.0976007e-37
000190 16 b7 1d 02 80 9e 11 02 0d e2 e3 29 7e 83 16 02
       1.1587081e-37 1.0698405e-37 1.01200386e-13 1.1057996e-37
0001a0 86 83 18 02 09 fd ca 2a 3e 88 1e 02 cb 5c 1d 02
       1.1204942e-37 3.6057987e-13 1.1647106e-37 1.1561169e-37
0001b0 63 78 1d 02 f7 cc 17 02 28 c4 11 02 1b d9 1b 02
       1.1569088e-37 1.115255e-37 1.0709212e-37 1.1449908e-37
0001c0 ef 45 55 2a c7 a1 15 02 ae cd 1b 02 f7 de d6 2a
       1.8942463e-13 1.0993219e-37 1.1446629e-37 3.816875e-13
0001d0 38 a4 1e 02 c7 83 1b 02 b6 d4 1e 02 9e 1d 10 02
       1.1655135e-37 1.142542e-37 1.1669052e-37 1.0587949e-37
0001e0 5a e9 12 02 69 9c 12 02 73 0f 12 02 e8 71 13 02
       1.0793355e-37 1.0771273e-37 1.073082e-37 1.0832544e-37
0001f0 3b e2 1e 02 2e 03 13 02 a9 62 18 02 fb d3 12 02
       1.1672932e-37 1.0800767e-37 1.119551e-37 1.0787221e-37
000200 c8 00 17 02 32 0b 1e 02 4e fe 12 02 61 45 16 02
       1.1093952e-37 1.161122e-37 1.0799368e-37 1.104017e-37
000210 aa 69 10 02 90 fd 1d 02 c3 b9 1d 02 87 a2 17 02
       1.0609773e-37 1.1607307e-37 1.1587849e-37 1.1140371e-37
000220 b9 3f 13 02 2c d0 15 02 60 ef 1b 02 f5 90 12 02
       1.0818142e-37 1.1006534e-37 1.1456299e-37 1.0767987e-37
000230 69 8a 1b 02 b9 77 1b 02 89 8e 1b 02 5c d2 d0 2a
       1.1427323e-37 1.142196e-37 1.1428507e-37 3.7094188e-13
000240 2b 76 1a 02 ce e1 12 02 8c a6 1a 02 a5 49 19 02
       1.1348046e-37 1.0791189e-37 1.136193e-37 1.12618e-37
000250 5a 29 2c 04 76 56 1c 02 41 b4 1b 02 57 d8 12 02
       2.023749e-36 1.1485883e-37 1.1439332e-37 1.0788472e-37
000260 c5 17 12 02 79 5e 1c 02 7d 93 1d 02 3c 46 d4 2a
       1.0733207e-37 1.1488182e-37 1.1576865e-37 3.77075e-13
000270 ae d0 55 2b c1 ee 34 04 38 b5 13 02 f5 b9 14 02
       7.59624e-13 2.1268529e-36 1.0851862e-37 1.092669e-37
000280 2e f6 14 02 c3 4b 10 02 00 eb 19 02 9e cb 1f 02
       1.0943973e-37 1.0601192e-37 1.1308106e-37 1.173991e-37
000290 82 85 1b 02 f7 a6 11 02 b8 de 1b 02 0d 42 15 02
       1.1425916e-37 1.0700834e-37 1.1451519e-37 1.0965747e-37
0002a0 ee c9 1f 02 0a 7a 1f 02 2e 7c 10 02 dc 7b 13 02
       1.1739426e-37 1.1716499e-37 1.0615087e-37 1.08354e-37
0002b0 fd 3e 18 02 93 50 19 02 47 41 15 02 68 76 1c 02
       1.1185273e-37 1.1263788e-37 1.0965525e-37 1.1495051e-37
0002c0 04 4f 1f 02 bc ad 11 02 59 9d 14 02 7e 2c 3d 04
       1.1704151e-37 1.0702777e-37 1.0918479e-37 2.2237273e-36
0002d0 05 c0 1b 02 46 e7 13 02 42 15 27 04 44 11 13 02
       1.1442708e-37 1.0866227e-37 1.9640517e-36 1.0804809e-37
0002e0 3d ec 10 02 89 e2 16 02 db a7 1c 02 59 2d 1a 02
       1.0647246e-37 1.1085272e-37 1.1509242e-37 1.1327147e-37
0002f0 1e b6 1c 02 9f 57 1e 02 71 a0 19 02 41 58 d0 2a
       1.1513335e-37 1.1633153e-37 1.1286709e-37 3.700946e-13
000300 e2 84 11 02 a3 c0 17 02 b4 52 15 02 14 d6 1c 02
       1.0691053e-37 1.1149012e-37 1.0970526e-37 1.1522507e-37
000310 fa 1a 18 02 0a cd 1b 02 79 06 10 02 a8 39 17 02
       1.1174938e-37 1.1446445e-37 1.0581307e-37 1.1110274e-37
000320 21 55 14 02 05 0c 1c 02 d0 47 11 02 37 38 1c 02
       1.0897754e-37 1.1464519e-37 1.0673527e-37 1.1477203e-37
000330 00 ca 19 02 1f 02 18 02 ed 31 17 02 69 ad 12 02
       1.1298636e-37 1.1167805e-37 1.1108056e-37 1.0776152e-37
000340 67 45 19 02 83 89 15 02 6b 29 15 02 bc 57 1e 02
       1.1260582e-37 1.0986255e-37 1.0958678e-37 1.1633185e-37
000350 a6 2b 17 02 92 ae 1b 02 ee e4 1e 02 3e f5 11 02
       1.1106254e-37 1.1437701e-37 1.1673706e-37 1.0723299e-37
000360 31 3a 1b 02 52 e4 11 02 bd b4 10 02 64 e8 13 02
       1.1404302e-37 1.0718442e-37 1.0631319e-37 1.0866547e-37
000370 c8 7f 7d 04 82 5a 10 02 86 ee 1c 02 32 34 17 02
       2.9798681e-36 1.0605424e-37 1.1529523e-37 1.1108707e-37
000380 69 bb 11 02 c9 b4 1b 02 3c e4 1b 02 af 07 11 02
       1.0706702e-37 1.1439484e-37 1.1453102e-37 1.0655123e-37
000390 8c 6d 18 02 a4 53 17 02 93 59 10 02 78 31 53 2a
       1.1198635e-37 1.1117732e-37 1.0605156e-37 1.8757728e-13
0003a0 c2 3b 1f 02 a8 7f 14 02 17 50 1e 02 9c 57 1d 02
       1.1698625e-37 1.0909958e-37 1.1630991e-37 1.1559681e-37
0003b0 6d f0 70 04 b5 db d0 2a 8b 5b 1f 02 6a f4 1c 02
       2.8322263e-36 3.7100675e-13 1.1707747e-37 1.1531213e-37
0003c0 d8 d8 16 02 e3 8e ba 04 0e b2 1a 02 c8 87 18 02
       1.1082491e-37 4.385961e-36 1.1365232e-37 1.1206164e-37
0003d0 51 0e 13 02 f0 39 af 05 a4 9b 52 2a 3b cc 19 02
       1.0803963e-37 1.6478204e-35 1.8705746e-13 1.1299276e-37
0003e0 98 73 19 02 43 70 15 02 94 c4 1e 02 c2 7a 11 02
       1.1273839e-37 1.0979009e-37 1.1664422e-37 1.0688147e-37
0003f0 75 dd 14 02 48 65 1e 02 12 ab 16 02 8e 70 1e 02
       1.0936878e-37 1.1637073e-37 1.1069354e-37 1.1640308e-37

exp_avg_sq f4 [10000]
000000 00 00 00 00 00 00 00 00 00 00 00 00 00 00 00 00
       0.0 0.0 0.0 0.0
000010 d0 5a 25 16 00 6d 5c 13 00 00 00 00 72 4e 6f 14
       1.3357249e-25 2.7821645e-27 0.0 1.2081887e-26
000020 95 bd 99 15 00 00 00 00 00 00 00 00 00 00 00 00
       6.2095316e-26 0.0 0.0 0.0
000030 00 00 00 00 00 00 00 00 00 00 00 00 00 00 00 00
       0.0 0.0 0.0 0.0
000040 00 00 00 00 00 00 00 00 99 78 4d 14 00 00 00 00
       0.0 0.0 1.0373639e-26 0.0
000050 00 00 00 00 00 00 00 00 00 00 00 00 00 00 00 00
       0.0 0.0 0.0 0.0
000060 00 00 00 00 d3 0f 26 15 00 00 00 00 00 00 00 00
       0.0 3.3535916e-26 0.0 0.0
000070 00 00 00 00 26 d1 aa 12 00 00 00 00 00 00 00 00
       0.0 1.0780067e-27 0.0 0.0
000080 00 00 00 00 57 4c 84 14 00 00 00 00 00 00 00 00
       0.0 1.3358705e-26 0.0 0.0
000090 00 00 00 00 00 00 00 00 00 00 00 00 00 00 00 00
       0.0 0.0 0.0 0.0
0000a0 00 00 00 00 00 00 00 00 00 00 00 00 00 00 00 00
       0.0 0.0 0.0 0.0
0000b0 00 00 00 00 00 00 00 00 00 00 00 00 00 00 00 00
       0.0 0.0 0.0 0.0
0000c0 00 00 00 00 00 00 00 00 00 00 00 00 00 00 00 00
       0.0 0.0 0.0 0.0
0000d0 00 00 00 00 3a a5 97 15 00 00 00 00 00 00 00 00
       0.0 6.1249096e-26 0.0 0.0
0000e0 00 00 00 00 4d c9 46 14 63 d8 09 15 00 00 00 00
       0.0 1.0036145e-26 2.783763e-26 0.0
0000f0 00 00 00 00 00 00 00 00 d0 db 0b 14 00 00 00 00
       0.0 0.0 7.061057e-27 0.0
000100 4b 9e 4b 14 ff 1e 8a 00 00 00 00 00 00 00 00 00
       1.0280099e-26 1.2684418e-38 0.0 0.0
000110 83 1f 0f 14 e5 1e 9e 14 00 00 00 00 00 00 00 00
       7.2258696e-27 1.5966109e-26 0.0 0.0
000120 00 00 00 00 f5 85 ed 12 00 00 00 00 9b ff b1 15
       0.0 1.4989826e-27 0.0 7.1893005e-26
000130 00 00 00 00 d6 88 4e 13 00 00 00 00 00 00 00 00
       0.0 2.606832e-27 0.0 0.0
000140 00 00 00 00 00 00 00 00 00 00 00 00 7b 12 55 14
       0.0 0.0 0.0 1.07573965e-26
000150 00 00 00 00 00 00 00 00 00 00 00 00 00 00 00 00
       0.0 0.0 0.0 0.0
000160 05 14 69 13 00 00 00 00 00 00 00 00 00 00 00 00
       2.9418605e-27 0.0 0.0 0.0
000170 00 00 00 00 00 00 00 00 00 00 00 00 00 00 00 00
       0.0 0.0 0.0 0.0
000180 f3 56 93 13 00 00 00 00 00 00 00 00 00 00 00 00
       3.7193756e-27 0.0 0.0 0.0
000190 00 00 00 00 00 00 00 00 d4 4a 1d 14 00 00 00 00
       0.0 0.0 7.941232e-27 0.0
0001a0 00 00 00 00 06 32 9c 15 00 00 00 00 00 00 00 00
       0.0 6.308682e-26 0.0 0.0
0001b0 00 00 00 00 00 00 00 00 00 00 00 00 00 00 00 00
       0.0 0.0 0.0 0.0
0001c0 aa e0 32 15 00 00 00 00 00 00 00 00 46 48 26 16
       3.6124042e-26 0.0 0.0 1.3432179e-25
0001d0 00 00 00 00 00 00 00 00 00 00 00 00 79 f8 22 11
       0.0 0.0 0.0 1.2856113e-28
0001e0 00 00 00 00 00 00 00 00 00 00 00 00 00 00 00 00
       0.0 0.0 0.0 0.0
0001f0 00 00 00 00 00 00 00 00 00 00 00 00 00 00 00 00
       0.0 0.0 0.0 0.0
000200 00 00 00 00 00 00 00 00 00 00 00 00 00 00 00 00
       0.0 0.0 0.0 0.0
000210 00 00 00 00 00 00 00 00 00 00 00 00 8c d4 16 14
       0.0 0.0 0.0 7.614982e-27
000220 00 00 00 00 00 00 00 00 c7 72 ac 14 00 00 00 00
       0.0 0.0 1.7412833e-26 0.0
000230 00 00 00 00 00 00 00 00 9b cc 9b 10 5c 86 24 16
       0.0 0.0 6.1451965e-29 1.3290211e-25
000240 00 00 00 00 17 60 b7 00 00 00 00 00 00 00 00 00
       0.0 1.6840366e-38 0.0 0.0
000250 2b 50 01 14 00 00 00 00 00 00 00 00 00 00 00 00
       6.528646e-27 0.0 0.0 0.0
000260 00 00 00 00 00 00 00 00 00 00 00 00 1f e4 92 15
       0.0 0.0 0.0 5.932884e-26
000270 75 bc 2e 16 b2 39 c5 14 00 00 00 00 00 00 00 00
       1.4115075e-25 1.9914673e-26 0.0 0.0
000280 00 00 00 00 00 00 00 00 00 00 00 00 00 00 00 00
       0.0 0.0 0.0 0.0
000290 00 00 00 00 00 00 00 00 00 00 00 00 00 00 00 00
       0.0 0.0 0.0 0.0
0002a0 00 00 00 00 00 00 00 00 00 00 00 00 a9 ce 95 00
       0.0 0.0 0.0 1.3757625e-38
0002b0 00 00 00 00 00 00 00 00 b5 9f b2 14 00 00 00 00
       0.0 0.0 1.80364e-26 0.0
0002c0 00 00 00 00 00 00 00 00 97 78 05 11 f1 df 3a 14
       0.0 0.0 1.052901e-28 9.434765e-27
0002d0 00 00 00 00 5f 65 13 13 c3 76 fb 13 00 00 00 00
       0.0 1.8603988e-27 6.3478416e-27 0.0
0002e0 00 00 00 00 00 00 00 00 00 00 00 00 00 00 00 00
       0.0 0.0 0.0 0.0
0002f0 00 00 00 00 00 00 00 00 00 00 00 00 c7 2a 25 16
       0.0 0.0 0.0 1.3342092e-25
000300 00 00 00 00 00 00 00 00 00 00 00 00 00 00 00 00
       0.0 0.0 0.0 0.0
000310 00 00 00 00 00 00 00 00 00 00 00 00 00 00 00 00
       0.0 0.0 0.0 0.0
000320 00 00 00 00 00 00 00 00 00 00 00 00 00 00 00 00
       0.0 0.0 0.0 0.0
000330 00 00 00 00 00 00 00 00 00 00 00 00 00 00 00 00
       0.0 0.0 0.0 0.0
000340 00 00 00 00 00 00 00 00 00 00 00 00 00 00 00 00
       0.0 0.0 0.0 0.0
000350 00 00 00 00 00 00 00 00 00 00 00 00 00 00 00 00
       0.0 0.0 0.0 0.0
000360 a1 93 c2 01 00 00 00 00 00 00 00 00 00 00 00 00
       7.147618e-38 0.0 0.0 0.0
000370 65 a7 87 14 00 00 00 00 00 00 00 00 00 00 00 00
       1.3697542e-26 0.0 0.0 0.0
000380 00 00 00 00 00 00 00 00 00 00 00 00 00 00 00 00
       0.0 0.0 0.0 0.0
000390 00 00 00 00 00 00 00 00 00 00 00 00 56 23 3f 14
       0.0 0.0 0.0 9.6500045e-27
0003a0 00 00 00 00 00 00 00 00 00 00 00 00 00 00 00 00
       0.0 0.0 0.0 0.0
0003b0 03 7a da 14 47 31 97 15 00 00 00 00 00 00 00 00
       2.20605e-26 6.106616e-26 0.0 0.0
0003c0 c6 93 08 14 10 4c 77 13 00 00 00 00 00 00 00 00
       6.8953885e-27 3.1213285e-27 0.0 0.0
0003d0 00 00 00 00 ee e1 a2 15 82 ac 92 14 00 00 00 00
       0.0 6.5787733e-26 1.4810275e-26 0.0
0003e0 00 00 00 00 00 00 00 00 00 00 00 00 00 00 00 00
       0.0 0.0 0.0 0.0
0003f0 00 00 00 00 00 00 00 00 00 00 00 00 00 00 00 00
       0.0 0.0 0.0 0.0
